new_checkpoints/model_epoch_1.pth (torch, 217416 bytes, 7 tensors)

conv1.bias f4 [64]
00000000: f73c 6ec0 e03b 763f 0f56 61c0 15be 83c0
00000010: ee31 58c0 e409 2b3c 8188 febf 3fb8 21c0
00000020: f3e5 0ec0 68a8 31c0 9806 5b3f 877f 4ec0
00000030: 96e8 9cbe f7cf bac0 7219 4cc0 4acb 70c0
00000040: 0c85 c3be f4ec 0cc0 b61c 63c0 d093 3b3f
00000050: 3659 3ec0 0be9 d2bd cacf 22c0 3207 df3d
00000060: 7305 46c0 6b92 193f 5ce5 79c0 4bd2 3cc0
00000070: 9c6f 98bf 588f 86be 5113 35c0 3965 71c0
00000080: 597b 3e3f 9a56 37c0 80bc 34c0 6132 71bf
00000090: cc5c 3bbf f06e 3dc0 163a 18c0 b334 a23f
000000a0: ff90 44bd 026b 803e 93a1 27c0 b204 42c0
000000b0: 674d a0be 9e4c 8b3e c149 8ebf cbbb 973f
000000c0: 476a 4dc0 7349 13c0 94cc 46c0 e6f4 d8bd
000000d0: 3122 4ec0 2459 24c0 625c 3dc0 d621 0f3f
000000e0: a593 143e 0eb9 863e 53f2 c6bb dc71 5cc0
000000f0: 5ad5 4b3f 3af8 57c0 cba1 63c0 6bc2 48c0
-3.722471 0.9618511 -3.5208776 -4.1169534 -3.3780475 0.01043937 -1.9885408 -2.5268705
-2.232785 -2.7759037 0.85556936 -3.2265337 -0.306462 -5.8378863 -3.189053 -3.7624078
-0.38187444 -2.2019625 -3.5486274 0.7327242 -2.974195 -0.10298356 -2.5439324 0.10890044
-3.0940826 0.5998904 -3.904624 -2.9503353 -1.190906 -0.26281238 -2.829304 -3.7718031
0.74406964 -2.8646607 -2.8240051 -0.942175 -0.7318847 -2.959896 -2.3785453 1.2672333
-0.04798984 0.2508164 -2.6192367 -3.0315366 -0.31309053 0.27206892 -1.1116258 1.1854185
-3.2096117 -2.301358 -3.1062365 -0.10593586 -3.2208369 -2.5679407 -2.9587636 0.55911005
0.14509447 0.2631306 -0.0060713678 -3.4444494 0.79622424 -3.3745255 -3.55675 -3.1368663

conv1.lin.weight f4 [64, 384]
00000000: f766 943f 59cc 06bf c46a 8b3f c6b0 873e
00000010: 58fe 64bf 2672 ea3e c188 a7bb d25b 71bc
00000020: 09cf debf 62cb 7abe b55e 5f3f 915b cbbd
00000030: 0ef1 05c0 abea 4a3f 64b3 84be 8539 3c3e
00000040: f667 793f b271 8ebf ef68 663f 035e fbbd
00000050: 5a47 26bf 20ae 233d ebe2 a3be 56b1 3fbf
00000060: cc92 223f 0210 243e f758 ba3e 7215 603f
00000070: e6c6 8b3f 40a7 993f 86bb 35bf 3e41 03bf
00000080: 528e 67bf 0aa7 08bf c257 b73f 18de 62bf
00000090: 855f 99bf 1542 803e 1da2 18be 1de4 b0be
000000a0: bc67 503f cc07 b0bf add7 12bf 0a8d 47bf
000000b0: 6de4 573f eb7b 80be 4097 8fbe 53dd aa3e
000000c0: c7fb 0340 df55 cd3e 264e ca3d ee3e dcbe
000000d0: da36 153f 03aa 87bf 1fd7 7b3e 54d7 37bf
000000e0: b392 843e 5a4a 743f 3f20 763f f04a ee3e
000000f0: 8258 d53f db0b 8b3f 0e9f e53e 21a4 233f
00000100: 38e8 f5be 9f5c 853c e7a7 63bd 59d1 f23d
00000110: 57b2 133f 72f4 283f c9fc 853f 88ba 3a3e
00000120: f33f b7bb 1f69 53bf d0bb 363e ab20 193f
00000130: 70e7 e73d 0e2a 8ebf f204 4dbf 30b0 44be
00000140: ef70 13bf 6157 61bf 596d 453f ccb9 10bf
00000150: 496f 4abf cb45 edbe 14be 843f 98c6 093e
00000160: d632 40bf 38ca 9c3f c3d6 a73f 659f 12bf
00000170: 9938 8abf 2206 b1bf 7f43 04bf 5910 be3f
00000180: c3d2 93bf cc5a da3e fd7c 07bf bbe8 a1be
00000190: 5857 93bf f142 203f 1476 30bf fa41 a03d
000001a0: f3bd 27be eb1f 803f a5c9 dcbf a685 48bf
000001b0: 495d 87bf e61d 103f 97f6 483f 49a0 a53e
000001c0: 5a06 283f 1879 5abf 2fd0 82bd 0f36 043c
000001d0: c031 9a3f 11b2 d0bf 0589 fdbf 9998 54be
000001e0: 7dba 75be d10b 8dbc 886c b5bf 189e c5be
000001f0: ace7 1fbf 0985 e2be 11f0 c03f e470 933d
00000200: 67c4 ef3f 8f2c 17be 894a a03f ae70 a2be
00000210: a688 87bb f584 25bf 5bdb 833e dae3 f0be
00000220: a05c 453f 7950 78bf 7f2a 3e3d 15a5 a5bf
00000230: e070 123f 4dc3 9b3d cbc4 0ac0 31e7 c63e
00000240: 8b7a f23e e4a5 85bf fcf9 e9bf eef6 c73f
00000250: 8898 0dc0 1df5 ec3f 182b 083e 445f e83e
00000260: 521c 12bf ec11 1bbe deab c5bf f334 973f
00000270: faa7 a6be 4abc 6abf 1a3a 88bf 5267 e73e
00000280: a958 b9be 41de 073f 8097 e1bf 7adc 17bd
00000290: 7665 783f f540 2b3e 890d b8bf 5cae b8bf
000002a0: a689 723f 3f91 fd3d 9698 983b 343d 943f
000002b0: 362d 9b3f fe5a 5c3f 7d55 ac3e 0b2e 80be
000002c0: e502 13bf 6b51 b63f 904a c0be 0a42 f7bd
000002d0: 4a3a 24bf 6912 c83d 676e 9dbf 2302 633e
000002e0: afef 4bbf e98c 30bf 0523 493f d1a6 64bf
000002f0: d73f ad3f 3c00 a4bf d825 1a3f 42a0 d93e
00000300: fc56 543e 53ed 77be e0fb 4cbf 3dd3 313f
00000310: d0a9 15bd 6032 5abf fcbc 5fbf 58c3 4c3f
00000320: 5fdb f73e c348 e83e ef5d 563e 557c b23e
00000330: aee1 dd3d 429e 16bf d08d 53bc acca 473f
00000340: 6436 1f3f 081c f7bd 9714 52bf 41f1 31bf
00000350: cc22 9fbe 79c5 223f baa6 32be e272 11bf
00000360: 1561 c83f 5fd8 f8be 8a2e 133e 6615 a13f
00000370: 4799 033e 23f1 90bf 6639 323f c364 843d
00000380: ce83 a93e fd04 83bf 7948 373d 89de 68bf
00000390: 74b8 96be 8269 d73f 7980 4abf 1bbe 173f
000003a0: 03a6 38bf 03f2 bb3e 2ffc e7be bb20 493f
000003b0: 958a a9be c28a fcbf 2449 bf3d f0c9 a43c
000003c0: db60 3ebe 464c 713f cff1 803e 7f74 2b3f
000003d0: bd0a 82be 97c3 7bbf 1941 48bd df74 ecbd
000003e0: 8afe d1be cf18 6f3f 6d78 503f 36f5 8cbf
000003f0: 5560 9bbf 0ffc 0e3f 10b3 873f 5e13 913e
1.1593922 -0.5265556 1.0891957 0.26502055 -0.894506 0.45790213 -0.005112738 -0.014731364
-1.7406932 -0.24491647 0.87253886 -0.09929574 -2.0928378 0.79264325 -0.25918114 0.18381317
0.97424257 -1.1128447 0.90003866 -0.12273791 -0.64952624 0.03996098 -0.32009062 -0.7487997
0.63505244 0.16021731 0.36396 0.8753272 1.0920074 1.2004166 -0.70989263 -0.51271427
-0.9045154 -0.5337988 1.4323657 -0.8862014 -1.1982275 0.25050417 -0.14905591 -0.34549037
0.81408286 -1.375238 -0.57360345 -0.77949584 0.84332925 -0.25094542 -0.28045082 0.33371982
2.0622423 0.40104577 0.09878187 -0.43016762 0.5828682 -1.0598758 0.24593781 -0.7181294
0.25893173 0.9542595 0.96142954 0.46541548 1.6667635 1.0862993 0.44847912 0.63922316
-0.4802873 0.016279517 -0.055580046 0.11856336 0.57694 0.65997994 1.0467769 0.18235219
-0.00559234 -0.8258228 0.17845082 0.5981547 0.1132344 -1.1106584 -0.8008567 -0.19207835
-0.575942 -0.88023955 0.77119976 -0.56533504 -0.7907606 -0.4634231 1.0370507 0.13454664
-0.7507757 1.2249212 1.3112415 -0.57274467 -1.0798522 -1.3829997 -0.5166549 1.4848739
-1.1548694 0.42647398 -0.5292509 -0.31622872 -1.151103 0.62602144 -0.6893017 0.07825084
-0.16381054 1.000974 -1.7249037 -0.7832893 -1.0575343 0.5629562 0.78501266 0.3234885
0.6563469 -0.85341024 -0.06387364 0.008069529 1.2046432 -1.6304342 -1.980744 -0.20761336
-0.23996921 -0.017217549 -1.4173746 -0.38597178 -0.6246288 -0.44242123 1.5073262 0.071992666
1.8731812 -0.14763092 1.2522746 -0.31726593 -0.004136163 -0.64656 0.25753292 -0.47048837
0.7709446 -0.9699779 0.046427246 -1.2941004 0.57203484 0.0760561 -2.1682613 0.3884826
0.47359118 -1.0441251 -1.8279414 1.5622232 -2.2124348 1.8512303 0.13297689 0.45385182
-0.57074463 -0.15143555 -1.5443075 1.1813034 -0.3255003 -0.91693556 -1.0642731 0.45196015
-0.36200455 0.5307351 -1.7624359 -0.037075497 0.9702982 0.16723998 -1.4379131 -1.442821
0.94741285 0.12381219 0.0046568615 1.1581178 1.2123172 0.86076343 0.33658972 -0.25035128
-0.5742629 1.4243597 -0.37556887 -0.12073143 -0.6415144 0.097691365 -1.2299317 0.22168784
-0.79662603 -0.6896501 0.7856906 -0.8931704 1.3535107 -1.2812572 0.60213995 0.4250508
0.20736307 -0.24211626 -0.8007183 0.6946295 -0.0365389 -0.85233116 -0.8739774 0.7998557
0.48409554 0.45368013 0.2093427 0.34860483 0.108340606 -0.5883523 -0.012912229 0.7804363
0.6219237 -0.120658934 -0.8206267 -0.6950875 -0.31081235 0.6358257 -0.17446414 -0.5681592
1.5654627 -0.48602578 0.14373222 1.2584655 0.1285144 -1.1323589 0.69618833 0.06464531
0.33108371 -1.0235897 0.04474685 -0.9096456 -0.29437602 1.6829073 -0.79102284 0.5927445
-0.72128314 0.36708078 -0.45309588 0.7856557 -0.33113542 -1.9729846 0.09340122 0.020115823
-0.18591635 0.9425701 0.25184485 0.66974634 -0.25398818 -0.9834532 -0.048890207 -0.11545729
-0.4101451 0.9339723 0.81433755 -1.1012332 -1.2138773 0.5585336 1.060152 0.28335088

conv2.bias f4 [32]
00000000: 54c8 00bd 6636 ac3d d510 0240 dacf c6bd
00000010: 7ba6 2ebd 5c98 0d3e 2565 6c3d d33c 84bd
00000020: f33f 813f 522a 0ec0 7f75 18be eae5 29be
00000030: 53a7 62bf 97ca 19c0 9fd4 dfbd d7f3 32bb
00000040: 4b44 b23d 6ec7 c4be 6f10 2abf c4cd be3f
00000050: 3284 193e fab6 76bf 10f4 82be 6d4a 7f3f
00000060: 6888 b33d 851a d0bf fc84 d33d cd49 70bf
00000070: c941 83bd 6b85 b63b 2e7c d93d 3fb9 ee3e
-0.031441048 0.08408813 2.0322773 -0.09707613 -0.042639237 0.13827652 0.057713646 -0.06456914
1.0097641 -2.221333 -0.14888571 -0.16591612 -0.88536566 -2.40299 -0.10929226 -0.0027305984
0.08704432 -0.38433403 -0.66431326 1.4906545 0.14991835 -0.9637295 -0.2557683 0.9972294
0.08766252 -1.6258093 0.10328099 -0.9386261 -0.06409032 0.005570104 0.106193885 0.46625707

conv2.lin.weight f4 [32, 64]
00000000: 8995 ad3e 90cd d7bd 797c 253f c286 903e
00000010: c843 cabf 54a2 9ebd 13d3 693c c914 933e
00000020: 695a 0bbe 4e43 f53f 4fc1 43be 5ba7 2cbf
00000030: 3876 e0bd 64e1 c03e 7ac9 cbbe a072 b13f
00000040: 02dd 993d 92c9 543d c5e7 373f 423f 5cbd
00000050: 7640 4d3f 96da 65bd 420f 6cbf c700 d03d
00000060: d190 2bbf 7ac4 f3bd 58b8 833f b6fb db3f
00000070: 5ac3 2abe a457 1abe 7c88 843f dfdb a0be
00000080: ebbd 143e 52fc 9cbe 1f74 afbc 0924 e13e
00000090: 9604 e5bd 5f85 43bd b14e 003e 14e6 e8bc
000000a0: e5c7 a1bd 9773 a73e 5bf4 013e 22b4 7dbd
000000b0: 6873 f3bd db24 6fbd 9337 b43d 8cd9 f4bb
000000c0: 7056 623f 5955 a33c cd9c a4bf d691 3d3c
000000d0: 8fd3 af3f a3e4 9a3e 35ea 42bf fdea 0e3d
000000e0: be71 673d 41f3 1a3d 68ce 153e 0d29 68bf
000000f0: 5444 253c 03b6 1bbf 76c9 f3be 6bf0 06c0
00000100: 9988 d53e 0f16 2a3e 6624 d5be 981e 853e
00000110: 69d8 b43e bed8 753d 8ed2 5e3e 112c 9d3f
00000120: 3351 72be 7e83 213f 8439 573e 5370 a73e
00000130: 9670 e53d 95c7 b5be 2bd9 c4be 247a 8dbf
00000140: a2b1 e13c 2fdb 163f d36f 0f3f 55c9 ba3d
00000150: 280d db3d 4b12 af3d b52c 793e 035a 43bd
00000160: 5351 c3bc 4972 d13c b795 bcbf 4d45 c8be
00000170: 24bc 823d 7766 413d 045a a3be 1b3e 09bf
00000180: c36f d03b 8877 83bf 564f a7be 3d9c 833e
00000190: ea8f 8bbc 88bf e0bd 9664 7d3e c442 9d3c
000001a0: 4eeb 913d a1b1 59be 3c25 c03e 0dda fd3f
000001b0: 58c8 b2bd a3d1 c73d 3ea9 73ba 1ff2 df3d
000001c0: e1ce 36bf 19c8 663e 524a 013f 5aef acbd
000001d0: e8f7 f03e f4e0 113f bd60 d3bd 5ed3 bc3c
000001e0: 1e3b 5abd 204d 6cbd 9389 093e ebd2 afbe
000001f0: e7cc fdbc b1c6 c0bf cad3 b83e a9d4 c6be
00000200: 07c5 20be a018 10bf e5cd 15bf 3664 043f
00000210: 9324 773f b7b7 f8be 6d4b dc3d 8b8d 98bf
00000220: 7aeb 263f f275 603f 640f c9be 44b9 82bf
00000230: 287f 9fbe 330c 853f c988 cc3e d481 40bf
00000240: 3e4e 85bd f561 e1be cc54 463f e10e da3d
00000250: 4ff8 8abf fc79 e1be 15c0 a1be c3fd 823c
00000260: f941 42bf 6d28 77be 74d8 e7be 361e a1bf
00000270: 84a8 ecbe 1b3e 73bd 45cb cbbf b302 ccbf
00000280: cf85 913d 3d4d 0a3f a99a 6abf 9bfd 51be
00000290: 945f 0bbf 7351 9e3d c678 c23e 400a 13bf
000002a0: d8ac f53e 2966 68bd ed4a 023f 3ccb 20bf
000002b0: 92e3 8f3c d7f7 ef3c 9463 0abe 5557 58be
000002c0: d95f 1abe 0eab aebc 5020 ae3e cf25 b8bf
000002d0: d13a 81be 8ccb e2be b846 a7be 5b0a f9be
000002e0: c67b 893e 69cf 983e d5df 293e 1dbf c3be
000002f0: ff76 e63d 9535 e13d ffff 87bf d3e1 e03e
00000300: 123b 493f 2e9a 4bbe d0c3 c1bf 64a8 1c3f
00000310: c113 823e 8366 5e3c 4fc0 283f 4413 34bf
00000320: 4ad6 2bbe 433c 3abd 0d01 d73d de53 e33d
00000330: 47a7 9cbe 23b4 693f b610 0fbe 7803 383f
00000340: 706c 80be 967a b43e cc88 5dbf e8b8 a83e
00000350: 12d3 dbbf 93a3 54bf f356 36bf 2a8f 0c3f
00000360: d9a8 8b3c e6fe 3abe 721a e73e 8a63 8e3f
00000370: 366c 343f 6119 f7bd f70d 803d 00e8 ffbe
00000380: 2cf5 a7be 6978 523f 8a69 7cbf 405e f3bb
00000390: db13 d93d f932 5dbf 4971 9abf 6630 93bd
000003a0: e2c2 513f 22b8 55bd 68b9 c2be 2e19 833e
000003b0: e4b5 523f a40a cebd f9d7 223f 319b 223f
000003c0: fe3a b73f 7c96 a93e be02 2b3e 46cc e7bc
000003d0: 2200 133f c91a ee3d d83b 57bf dfeb 1e3e
000003e0: 4748 3ebf e027 25bf 5f5a 8ebd 9ae3 233f
000003f0: 0454 0fbf 03a9 3e3e 8fe5 cf3d 31d2 93bf
0.3390315 -0.10537255 0.64643055 0.28227812 -1.5801935 -0.077458054 0.014271515 0.28726795
-0.13608707 1.9161165 -0.1911671 -0.67442864 -0.109600484 0.3767196 -0.39802152 1.3863106
0.07512857 0.051950045 0.7183803 -0.053771265 0.80176485 -0.056116663 -0.9221078 0.10156398
-0.6701785 -0.11902709 1.0290632 1.7186191 -0.16676083 -0.15072495 1.0354152 -0.31417748
0.14525573 -0.30661255 -0.021417676 0.43972805 -0.11182515 -0.047734614 0.12530018 -0.028430022
-0.07899455 0.32705376 0.1269087 -0.061939366 -0.11887246 -0.058384757 0.087996624 -0.0074722227
0.88413143 0.019938158 -1.2860352 0.0115704145 1.3736438 0.3025256 -0.7613862 0.03489207
0.056504957 0.03782964 0.14629519 -0.9068764 0.0100870915 -0.608246 -0.4761464 -2.108424
0.41705778 0.16609977 -0.41629332 0.25999904 0.35321358 0.060021155 0.21760008 1.2279073
-0.23663788 0.63091266 0.21018034 0.32702884 0.11203115 -0.35503832 -0.38446936 -1.1052899
0.027550522 0.589282 0.56030005 0.09120432 0.10695869 0.08548411 0.2433346 -0.047693264
-0.02384249 0.02556719 -1.4733189 -0.39115372 0.06383541 0.04721686 -0.31904614 -0.5361039
0.0063609793 -1.0270853 -0.32677716 0.25705138 -0.017036397 -0.10974032 0.24745402 0.019196875
0.07124959 -0.21259166 0.37528408 1.9832169 -0.08729619 0.09756782 -0.00092949334 0.10934853
-0.7140942 0.22537269 0.5050403 -0.0844409 0.47064137 0.56983876 -0.10321186 0.023050006
-0.053279035 -0.05769074 0.13431387 -0.34340605 -0.030981494 -1.5060636 0.36099082 -0.38834122
-0.1570016 -0.56287575 -0.58517295 0.5171541 0.9654018 -0.48577663 0.10756574 -1.1918195
0.6520306 0.8767997 -0.39269555 -1.0212789 -0.311517 1.0394348 0.3994811 -0.751981
-0.06509064 -0.44020048 0.7747314 0.10647369 -1.0857028 -0.4403838 -0.3159186 0.015990144
-0.75881916 -0.24136515 -0.45282328 -1.2587345 -0.46222317 -0.0593854 -1.5921408 -1.5938324
0.071056 0.54024106 -0.9164224 -0.20506899 -0.54442716 0.07730379 0.37982768 -0.57437515
0.47983432 -0.056738053 0.5089558 -0.6281011 0.017564569 0.029292984 -0.13514549 -0.21127065
-0.15075625 -0.0213218 0.34009027 -1.4386538 -0.25240186 -0.4429592 -0.32671142 -0.48640713
0.26852244 0.2984574 0.16589291 -0.38231745 0.112531655 0.10996548 -1.0624999 0.4392229
0.7860576 -0.19883034 -1.5137882 0.61194444 0.25405696 0.013574245 0.6591844 -0.70341897
-0.16780964 -0.045467626 0.10498247 0.11099981 -0.30596372 0.9129049 -0.13971218 0.7188029
-0.2508273 0.35249776 -0.8653686 0.32953572 -1.7173789 -0.83062094 -0.71226424 0.5490595
0.017048286 -0.18261299 0.45137364 1.1124127 0.70477617 -0.120653875 0.062526636 -0.4998169
-0.3280424 0.8221498 -0.9859854 -0.007427007 0.1059949 -0.86405903 -1.2065822 -0.07186966
0.8193799 -0.052177556 -0.3803208 0.25605148 0.82308793 -0.10060623 0.636108 0.63518053
1.4314878 0.33122623 0.16700265 -0.028295647 0.5742208 0.116262026 -0.8407569 0.15519665
-0.74329036 -0.6451397 -0.06950831 0.6401917 -0.5598757 0.1861916 0.10151207 -1.154852

link_predictor.0.weight f4 [64, 416]
00000000: 35a9 f8be cd9e 483e f949 8a3f 46cc 043f
00000010: 33c6 a8be 1fea edbe d393 04bf 6040 e5bd
00000020: 9d46 de3e dd51 bebf 6d7c 26be d71d ad3e
00000030: f7bf 7a3e 4c20 bdbf a047 2cbf 3832 c93d
00000040: a3d8 913e 5c34 4abf faf0 28bf 6265 253f
00000050: 9baf 80be 0892 7cbf 1b28 0cbe 4eba a6be
00000060: 5a51 27be d402 dabe 4b7a 413f 7e11 85bc
00000070: 38a3 12be 514a 963e 9a33 b43e dcd7 873e
00000080: 45d6 ff3f 449c c3bf b1d5 2b3e 2229 61bd
00000090: a8d3 40bf e834 9fbf f99d abbf bc06 d2bf
000000a0: 238d 67c0 29a6 21c0 e788 25bf ada8 7bc0
000000b0: fbe1 34c0 f5df c43e 521a 4cbe 13c0 e03e
000000c0: c7d6 2940 08de 60c0 e2b4 623e 840f acbe
000000d0: 585b 893f fa18 9d3f 39bf 66c0 fcf5 a83e
000000e0: 27a3 6d40 f534 cb3f 22db 6f40 5045 1340
000000f0: 9b0e d1bd 9510 d73f 3073 aebf 5ea5 c53f
00000100: 2fb2 a7bd 5b13 81c0 cd24 07bf b007 3ebf
00000110: c967 aa3e b9d7 0940 d30d 0e40 e394 8740
00000120: 7f2b 3140 7e60 e73e 56d1 79bf 7bfd 79bf
00000130: c8f9 a0c0 c617 6640 6667 ffbf 43c4 3ac0
00000140: a081 79be 7d31 8a40 5678 953f 6e04 bfbf
00000150: 9fa3 8bbf f1e1 ad3f 58e4 d1be 9a58 233f
00000160: 392b ea3e 3f20 6bc0 4d2a 1440 de76 3abf
00000170: 7c7f 2ec0 3ccf 6ac0 bc3e 15c0 0218 55bf
00000180: 9f76 93bf bdba 09c0 d444 a1be a1fd c73d
00000190: 2b27 6d3f 2906 c9bf 6831 c63e 6c49 1a40
000001a0: 891d a7bf 3e7a 63be d704 41c0 7024 183f
000001b0: a19d 953f cda2 c8c0 b48c bfbe 3fec 3bc0
000001c0: 4fb3 ce40 6991 f7bf 9299 9e3f 6f58 1940
000001d0: 2ae9 793f beff 903f 5efd 58be ffc8 30c0
000001e0: f5a8 4040 d8f2 f5bf f0c3 3c40 42cc 6640
000001f0: 07fe 07c0 4d97 91c0 01f4 d33f 8c01 b23f
00000200: 658c 3f3f 3f3d c7bd 064e d03f 9e08 2940
00000210: ed6b 0240 b9c6 3fc0 7983 2740 b2ee a6bf
00000220: 7f39 66c0 dcd1 89c0 ced1 d3bf 26b8 3740
00000230: b959 fb3f 3a66 ccbe 242c 3fbd f393 3740
00000240: 272c 8b40 f754 643e 234c a53f d953 a1be
00000250: 45c0 053f 8ba5 e0bf 7c26 b3bf 7302 2540
00000260: e18e 18c0 7154 3ac0 cec1 9d3f 27ae 8140
00000270: dfa0 cc3f 331e 99bf 2ea7 53be 7a57 afbc
00000280: 8a80 5f3a 48ec 51bf 95a9 7abe fe7f 933f
00000290: 8cad 1bc0 939e bdbf 2637 0ec0 a25a b03f
000002a0: c207 c53e dced 043f dc9f f33f 4403 21bf
000002b0: dcc0 6dc0 d19a c33f 0825 e43f 084d 63c0
000002c0: d856 1840 4936 223f 4d8a 60c0 3b08 113f
000002d0: 3d92 403f b1b3 ebbf e802 4dbf 23c6 a33f
000002e0: 8d04 f2bf a076 e43e 1640 bb40 745c 2040
000002f0: 1431 26bf 1882 99bf 20a6 053f 34fe 0540
00000300: 7a59 7dbf b8f2 a33f e2fc 2940 6d97 28bf
00000310: 32a0 27c0 4462 a6be 1c51 96be 63e1 3c40
00000320: 4a00 babf 53e1 36bf ab0e e23f b3ea bdbf
00000330: 5fc0 d0bf 5797 90bf 8733 9940 9f7a d23f
00000340: ac9f 1941 aa94 e03f 8b73 1ebe 473e acbe
00000350: 7c27 d83f dcf8 febf 91fd 56c0 046e 7640
00000360: 790b 4c40 fafe 63c0 b409 91bf 1b66 11bf
00000370: 3312 4cc0 bf85 bc3f aec5 1d40 4221 713e
00000380: 8997 2740 53d1 303e 27a1 ce3e 3a3e 24bf
00000390: 8ce1 80bf ae32 7a3f 16c7 80be d877 83bf
000003a0: 78ff 5540 5d47 4c3f 6916 7c3f 19b5 9f3f
000003b0: 283a de3f 767a 1f41 8246 1940 7e91 47c0
000003c0: 1202 14be e1af eb3f ae0a cfc0 072b e4bf
000003d0: d0d6 1340 45c2 e73f b0e2 21c0 7311 8d3f
000003e0: bce3 29c0 0132 c1c0 bb78 15bf db64 8740
000003f0: 01a3 5f3f 5f2d 733f bf54 6cbe 1301 c7bc
-0.48566595 0.19591828 1.0803825 0.51874197 -0.32963714 -0.46467683 -0.5178806 -0.11193919
0.4341325 -1.4868733 -0.16258402 0.33811828 0.24487291 -1.4775481 -0.6729679 0.098240316
0.28485593 -0.78986144 -0.659927 0.6460782 -0.25133976 -0.98660326 -0.13687174 -0.32564014
-0.16339627 -0.42580283 0.7557723 -0.016243692 -0.14320076 0.29353574 0.3519562 0.26531875
1.9987265 -1.5282063 0.16780736 -0.054970868 -0.7532296 -1.2438021 -1.3407584 -1.6408305
-3.6179893 -2.5257666 -0.6466202 -3.9321702 -2.8262928 0.38452116 -0.19931915 0.4389654
2.653734 -3.5135517 0.22139314 -0.33605587 1.0731001 1.2273247 -3.6054213 0.3300017
3.713083 1.5875536 3.7477498 2.3011055 -0.10207864 1.6801935 -1.3628902 1.5441091
-0.08188283 -4.0336127 -0.5279053 -0.7423048 0.33282307 2.1537917 2.2195938 4.2369246
2.7682798 0.45190805 -0.97585046 -0.97652406 -5.030491 3.595201 -1.995343 -2.9182289
-0.24365854 4.318541 1.1677349 -1.4923227 -1.0909308 1.3584577 -0.40994525 0.6380707
0.457361 -3.6738431 2.3150818 -0.72837627 -2.726531 -3.6688986 -2.331954 -0.8323976
-1.1520575 -2.1520226 -0.31497824 0.09765173 0.9263789 -1.5705005 0.3870957 2.4107313
-1.3055888 -0.222146 -3.0159204 0.594306 1.168873 -6.269873 -0.37412035 -2.9362943
6.4593883 -1.9341251 1.2390616 2.3960226 0.97621405 1.1328046 -0.21190402 -2.7622678
3.0103123 -1.9214735 2.949459 3.606217 -2.1248796 -4.5497193 1.6558839 1.3906722
0.748236 -0.09728479 1.6273811 2.641151 2.0378373 -2.996504 2.6173995 -1.3041594
-3.5972593 -4.3068676 -1.6548402 2.8706145 1.9636756 -0.39921743 -0.046672955 2.868405
4.3491397 0.22298037 1.291386 -0.31509283 0.52246505 -1.755052 -1.399612 2.5782745
-2.3837206 -2.911404 1.232477 4.052509 1.5986594 -1.1962341 -0.20669243 -0.021404017
0.0008525929 -0.8200116 -0.24478753 1.1523435 -2.4324675 -1.4814018 -2.222116 1.3777659
0.3848248 0.51925445 1.903316 -0.6289561 -3.7148962 1.5281621 1.7823801 -3.5515766
2.3803005 0.6336408 -3.5084412 0.56653184 0.7522314 -1.8414212 -0.8008256 1.2794842
-1.8907639 0.44621754 5.851573 2.505643 -0.6491864 -1.1992826 0.5220661 2.0936403
-0.98964655 1.2808447 2.6560597 -0.6585606 -2.6191525 -0.32496846 -0.29358757 2.9512565
-1.4531338 -0.7143757 1.7660726 -1.483725 -1.6308707 -1.1296185 4.78754 1.6443671
9.601482 1.7545369 -0.15473764 -0.33641264 1.688705 -1.9919696 -3.3592265 3.8504648
3.1882002 -3.5624375 -1.1331086 -0.56796426 -3.1886108 1.4728316 2.4651904 0.23547843
2.618624 0.17267351 0.40357324 -0.6415745 -1.0068831 0.9773358 -0.2515189 -1.0270948
3.3437176 0.7979639 0.98471695 1.2477142 1.7361498 9.967398 2.3949285 -3.1182551
-0.14453915 1.8413049 -6.4700537 -1.7825631 2.309986 1.8106161 -2.529461 1.102095
-2.6545248 -6.037354 -0.58387345 4.2310615 0.873581 0.94991106 -0.23079203 -0.024292504

link_predictor.0.bias f4 [64]
00000000: 7f4c 23bf c0f4 77c0 ded6 16bd 9203 93c0
00000010: 0612 b8bf 0142 2fc0 837d 14c0 e9a2 01c0
00000020: d03c 78c0 93cc 28c0 a811 0cc0 1a77 8fbf
00000030: dc29 11c0 dfcc 4ec0 584b 003f 7071 4bc0
00000040: 3a62 1bc0 abff fabf 9faf 5ec0 cf44 77bf
00000050: 6797 25c0 d6b1 5cc0 befe dbbe f23a aabf
00000060: a527 1dc0 9355 26c0 db1e e6bf 799b 5ebf
00000070: cbcd f0bf 8155 68c0 cea0 6cbf 38d0 9ec0
00000080: 5b99 67c0 4447 cabf bd74 8bc0 88b9 68c0
00000090: d5c9 45bf eae9 56bf 0711 a1c0 f4ea 53c0
000000a0: 7141 1cc0 686a 8abf 487d 68c0 2143 01c0
000000b0: 0c8c d7bf ba07 a9bf 3d51 c2bf 8c6a a0c0
000000c0: c08c 3dc0 bce8 81c0 e908 9240 180d 49c0
000000d0: bda7 2fc0 adfa 53c0 8604 05c0 dbd3 7ac0
000000e0: 8682 0ac0 4d45 61c0 c767 fcbf 8f67 25c0
000000f0: f29b 30bf 37ec 02c0 9c5a dbc0 27a8 3fc0
-0.637886 -3.8743134 -0.036826007 -4.594186 -1.43805 -2.7384036 -2.3201606 -2.0255682
-3.8787117 -2.6374862 -2.1885777 -1.1208222 -2.26818 -3.2312543 0.50114965 -3.1787987
-2.4278703 -1.9609274 -3.479469 -0.9658937 -2.5873659 -3.4483542 -0.4296779 -1.3299239
-2.4555447 -2.598973 -1.7978166 -0.8695598 -1.8812803 -3.6302187 -0.9243287 -4.9629173
-3.618735 -1.5802999 -4.3580003 -3.636324 -0.77261096 -0.83950675 -5.0333285 -3.3112154
-2.4414942 -1.0813723 -3.6326466 -2.0197222 -1.6839614 -1.3205483 -1.5181042 -5.013006
-2.9617157 -4.05966 4.5635877 -3.1414242 -2.744613 -3.312175 -2.078401 -3.9191806
-2.1642165 -3.5198548 -1.971917 -2.5844457 -0.68987954 -2.0456674 -6.8548107 -2.9946382

link_predictor.2.weight f4 [1, 64]
00000000: 8760 a13d 5e35 313e 9c6c 2fbe 8214 39be
00000010: a794 10be 2e31 fd3d cbbc 1a3e 6b9b a33d
00000020: cc18 103e 9560 34be 48bd 14be 62dd f4bd
00000030: d1b9 bd3d fbc3 ca3d 46b7 24be 0496 37be
00000040: 41bf 693d 84a7 cc3d 0cf3 3dbe 900b 26be
00000050: fbc5 c93d dabd d43d e129 f2bd 396b 33be
00000060: 44a1 dc3d 0332 37be 4e58 e13d a125 d4bd
00000070: d03a 04be e6ee 6a3e 91c0 3ebe e796 103e
00000080: d093 cf3d 7d57 1fbe 5552 e03d d000 d13d
00000090: 0d54 33be 4db3 0dbe 42fb 6a3d b6eb 64be
000000a0: 3cc0 2cbe 67bb 59be 9adc 1ebe fbdc 35be
000000b0: 820d ffbd 1109 25be d48b 263e e1f3 fd3d
000000c0: 722d 32be 7c4c 213e 8fc3 033e 4318 3ebe
000000d0: e741 a83d cac3 003e 190b 14be 2a54 55be
000000e0: 2bea 1abe aef4 9f3d 8813 18be 4813 e63d
000000f0: a80c 26be d583 c83d ea79 153e f87f 373e
0.07879739 0.17305514 -0.17131275 -0.1807423 -0.14119206 0.12362896 0.15111081 0.07988628
0.1407196 -0.17614968 -0.1452533 -0.11956288 0.09263957 0.099006616 -0.16085538 -0.1792832
0.05706716 0.099928886 -0.18549746 -0.16215348 0.09852215 0.10387774 -0.11824394 -0.17521371
0.107729465 -0.17890172 0.11003171 -0.1035874 -0.1291306 0.22942695 -0.18628146 0.14120065
0.10135615 -0.15560718 0.109532036 0.10205233 -0.17512532 -0.13837929 0.057368524 -0.22355542
-0.16870207 -0.21262895 -0.1551384 -0.17760079 -0.12453748 -0.1611674 0.16264278 0.12400032
-0.17400149 0.15751833 0.12867568 -0.18563943 0.08215695 0.12574688 -0.14457358 -0.20832887
-0.1512839 0.07810341 -0.148512 0.11234146 -0.16215765 0.0979077 0.14597288 0.1791991
