new_checkpoints/model_epoch_1.pth (torch, 217416 bytes, 7 tensors)

conv1.bias f4 [64]
0	0x3ec19c93	0.3781477
1	0x3eda88ff	0.42682645
2	0xbf84fa8b	-1.038896
3	0xc06e2ce7	-3.7214906
4	0xc077b14d	-3.8701966
5	0x3ea477e8	0.3212273
6	0xc03dd7f3	-2.9663055
7	0xc02e9caa	-2.728312
8	0xc030ebc3	-2.7643898
9	0xc058534b	-3.3800838
10	0x3da2f9de	0.07957815
11	0xc076d188	-3.8565388
12	0xbe434940	-0.19070911
13	0xc04e4d9a	-3.2234864
14	0xc0545237	-3.317518
15	0xc03f6c12	-2.990971
16	0x3d23d6f8	0.039999932
17	0xc0384e73	-2.8797882
18	0xc079c3f9	-3.9025862
19	0x3f2c142e	0.6721829
20	0xc04996be	-3.1498256
21	0xbe006f29	-0.12542404
22	0xc01755e7	-2.364618
23	0xbcbb7dff	-0.022887228
24	0xc05c3ac5	-3.441087
25	0x3f4383ee	0.76373184
26	0xc04ab041	-3.1670077
27	0xc037c2ad	-2.871257
28	0xbf33e0ef	-0.70265096
29	0x3c6d9e41	0.014503063
30	0xc07c8c06	-3.9460464
31	0xc000a610	-2.0101357
32	0x3e59d8f3	0.21274166
33	0xc066c0cc	-3.6055174
34	0xc0452150	-3.0801582
35	0xc058139d	-3.376197
36	0x3dd3d2d6	0.10342948
37	0xbf928157	-1.1445721
38	0x3e2a1f40	0.16613483
39	0x3fc66001	1.5498048
40	0xbe4acdf9	-0.19805135
41	0x3ec84995	0.3911864
42	0xc080c84e	-4.0244513
43	0xc078d9d1	-3.8882945
44	0x3d80dcbe	0.06292103
45	0xbea635a6	-0.32462806
46	0xc025d9e0	-2.591423
47	0x3efb34d2	0.49063736
48	0xc073db19	-3.8102477
49	0xc0b7f4c6	-5.7486296
50	0xc0665253	-3.5987747
51	0xbdb81a15	-0.0898935
52	0xc003ddc9	-2.0604117
53	0xc037b589	-2.870455
54	0xc017b8ff	-2.3706663
55	0x3f14a595	0.5806516
56	0x3eaff8d9	0.34369543
57	0x3ee0262e	0.4377913
58	0x3e69b189	0.2282163
59	0xc05a98ec	-3.4155836
60	0x3ec2fd6d	0.38083974
61	0xc08166fa	-4.0438204
62	0xc02a17f7	-2.6577127
63	0xc06c65f7	-3.6937234

conv1.lin.weight f4 [64, 384]
0	0x3fc3b1d3	1.5288643
1	0x3cf282d6	0.029603403
2	0x3f4c5f86	0.7983326
3	0xbc8738fa	-0.01650666
4	0x3f229a7c	0.63516974
5	0x3f5add04	0.85493493
6	0x3ee490f2	0.44641834
7	0xbe8310da	-0.25598794
8	0x3fad9f29	1.3564197
9	0xbeea05c7	-0.45707533
10	0xbe215539	-0.15755166
11	0x3fb309aa	1.3987324
12	0x3f33ba89	0.70206505
13	0x3f4c56c0	0.7981987
14	0xbf270326	-0.6523918
15	0xbfa3758a	-1.2770245
16	0xbf017a3e	-0.5057715
17	0x3dea9e51	0.11455978
18	0xbeae3021	-0.34021094
19	0x3cd871cc	0.02642145
20	0xbfd1dbd9	-1.6395217
21	0xbf5fbb83	-0.87395495
22	0xbf398c9e	-0.7248019
23	0xbf830e7d	-1.0238796
24	0xbfa80935	-1.312781
25	0xbe53d093	-0.20685034
26	0x3f09bf63	0.5380766
27	0x3f8cdb96	1.1004512
28	0xbf7b7d3b	-0.9823796
29	0xbee524bf	-0.44754598
30	0x3f714dff	0.9425964
31	0xbf048daa	-0.5177866
32	0xbd237e74	-0.039915517
33	0x3f63c461	0.88971525
34	0x3f803e6c	1.001905
35	0xbfc80c22	-1.5628703
36	0x3fc4cfcf	1.5375918
37	0xbf72191a	-0.9456955
38	0xbec4f941	-0.38471416
39	0xbe397a08	-0.18112957
40	0x3fe44f33	1.783667
41	0x3e0216d3	0.12704019
42	0x3f9a7131	1.2065793
43	0x3e9db5eb	0.30802855
44	0xbef9a781	-0.48760608
45	0x3e0e7ba2	0.1391435
46	0xbea6ea2a	-0.32600528
47	0x3f48cbca	0.7843596
48	0xbdf6d97f	-0.12053203
49	0xbed1ac7b	-0.40951905
50	0x3fb21f3b	1.3915781
51	0x3f3da737	0.74083275
52	0x3f86bd5e	1.052654
53	0xbf8d22f6	-1.1026294
54	0xbe2fbc3f	-0.17161654
55	0xbf9a4839	-1.2053291
56	0x3ea74595	0.32670274
57	0xbf082db6	-0.5319475
58	0xbe1a3bc9	-0.15061869
59	0x3f3f9677	0.74838966
60	0xbef7d1ab	-0.4840215
61	0x3fc44b9c	1.5335574
62	0x402cd301	2.7003787
63	0x3f2b1247	0.66824764
64	0xbfa1cfc4	-1.264153
65	0x3fec50d9	1.8462173
66	0xbe975104	-0.29553998
67	0xbe57f05f	-0.21087788
68	0xbf206a01	-0.6266175
69	0x3f96fbb5	1.1795565
70	0xbf4044d1	-0.75105006
71	0x3fb04008	1.3769541
72	0xbf59903a	-0.849857
73	0x3df106f2	0.11768903
74	0x3ebde882	0.37091452
75	0xbe040369	-0.12891926
76	0xbf9b3d00	-1.2127991
77	0x3eee9386	0.46596926
78	0xbfe8dd85	-1.8192602
79	0xbfc286ff	-1.5197448
80	0x3f0b24de	0.5435313
81	0x3f1aa3e7	0.60406345
82	0x3f0e2240	0.5552101
83	0xbe4ad937	-0.19809423
84	0x3e800ad7	0.2500827
85	0x3f28c5f2	0.6592704
86	0xbe3566c0	-0.17714977
87	0x3f9a9fcd	1.2080017
88	0x3effbc3f	0.49948308
89	0xbd12e69e	-0.035864465
90	0xbf4f9804	-0.8109133
91	0x3ea09172	0.31360966
92	0x3d8e07ed	0.069351055
93	0x3f06f4ee	0.52717483
94	0x3f74813e	0.9550971
95	0x3f642b1b	0.89128274
96	0xbfb00ecf	-1.3754519
97	0xbebc5383	-0.36782464
98	0x3fac8b1e	1.3479955
99	0xbed76965	-0.42072597
100	0x3efe159b	0.4962586
101	0x3fb0e186	1.3818824
102	0xbe62e15d	-0.22156282
103	0xbf72355d	-0.94612676
104	0x3ec4e258	0.38453937
105	0x3f684bbf	0.9074058
106	0x3f15f639	0.5857883
107	0x3f799ad9	0.97501904
108	0x3f9de0e7	1.233426
109	0x3e3bf87e	0.18356511
110	0xbea0bcfc	-0.31394184
111	0xbec4db65	-0.38448635
112	0x3f71dba4	0.9447577
113	0x3bd38df1	0.0064561297
114	0x3e1248de	0.14285609
115	0x3e0c103e	0.13678071
116	0xbf438ecb	-0.7638976
117	0x3df4effb	0.11959835
118	0xbf13eebf	-0.5778617
119	0x3e053b24	0.13010842
120	0xbd49102c	-0.04908769
121	0x3f7e496a	0.9933077
122	0x3e66be3b	0.22533505
123	0x3f124e6f	0.5715093
124	0xbf266e3e	-0.65011966
125	0x3e448543	0.1919146
126	0x3f3eccf9	0.74531513
127	0x3d9370e4	0.071992666
128	0x3f4b2c28	0.7936425
129	0xbeaf8c13	-0.34286556
130	0x3f66f78e	0.9022149
131	0xbef76bf8	-0.4832456
132	0xbe977947	-0.29584715
133	0xbe6850e8	-0.22687113
134	0xbe8e1ba4	-0.27755463
135	0x3fd10133	1.6328491
136	0x3f39cb25	0.725756
137	0x3ee98b45	0.45614067
138	0xbed0aa39	-0.4075487
139	0xbf4b4401	-0.7940064
140	0xbfb27961	-1.3943292
141	0xbf0cfa40	-0.5506935
142	0x3f4088d2	0.7520877
143	0x3e9918f8	0.29901862
144	0xbf70268a	-0.93808806
145	0xbfb2060d	-1.3908097
146	0xbea686d0	-0.3252473
147	0x3f44ed22	0.76924336
148	0xbf6a1ba5	-0.9144843
149	0x3f20c524	0.6280081
150	0x3e145a42	0.14487556
151	0x3f4d7a03	0.802643
152	0x3f5d052f	0.86336035
153	0xbf1f5c19	-0.62249905
154	0x3f63cbe5	0.88982993
155	0x3ecdb69f	0.4017839
156	0x3e6f9e5f	0.23400258
157	0xbeebe2e8	-0.46071553
158	0x3fb2e59c	1.3976321
159	0x4022fd98	2.5467281
160	0x3fe5af05	1.7944037
161	0x3eb28963	0.34870443
162	0xbf69992b	-0.9124934
163	0xbeb60f39	-0.3555849
164	0xbfbbf7c4	-1.4684987
165	0xbec77191	-0.38953832
166	0xc0049bc8	-2.0720081
167	0x3fa21270	1.2661877
168	0xbf8d1bea	-1.1024144
169	0xbe3fcea2	-0.18731168
170	0xbf2eac40	-0.6823158
171	0xbf299f86	-0.6625904
172	0xbf6f6f3c	-0.93529105
173	0xbf1489dd	-0.5802286
174	0x3ec3fd51	0.38279203
175	0xbf50d088	-0.81568193
176	0x3f016329	0.5054193
177	0x3b2c1ff8	0.0026264172
178	0xbeb1a7b2	-0.34698254
179	0xbfd88593	-1.6915764
180	0x3f30e033	0.690921
181	0xbef31591	-0.4747739
182	0xbf24dc0d	-0.6439827
183	0x3ff77228	1.9331713
184	0x3f2dd852	0.67908204
185	0xbe36cad1	-0.17850806
186	0xbee20a47	-0.44148466
187	0xbe81f145	-0.25379387
188	0xbea7ef3a	-0.32799703
189	0xbe47f00b	-0.19525163
190	0xbf3d2d2e	-0.73897064
191	0x3e69e3ae	0.22840759
192	0x3f34137c	0.7034223
193	0x3f8bfb82	1.0936129
194	0x3f6672fe	0.90019214
195	0x3f459975	0.7718728
196	0x3cec0576	0.028811198
197	0x3d83a288	0.06427485
198	0x3f21da97	0.63224167
199	0x3f152c9f	0.5827121
200	0x3f8b0c14	1.0863061
201	0x3f02c2c4	0.5107844
202	0xbfbd7f78	-1.4804525
203	0xbfc2986b	-1.5202764
204	0xbd852d59	-0.0650279
205	0x3fc09999	1.5046874
206	0xbeb67d65	-0.35642543
207	0xbf9d27d1	-1.2277776
208	0xbeb19870	-0.34686613
209	0xbf5a6738	-0.8531375
210	0x3f2300b2	0.63672936
211	0xbf2096c6	-0.6273006
212	0x3e300378	0.17188823
213	0x3fc22b34	1.5169435
214	0x3f2625c1	0.6490136
215	0xbf19030e	-0.59770286
216	0x3e6e0f82	0.23248103
217	0xbd30e31e	-0.043185346
218	0xbf87f504	-1.0621648
219	0x3f5548f1	0.83314425
220	0xbc06330a	-0.00819088
221	0x3ea84813	0.32867488
222	0xbeeeb7b3	-0.46624526
223	0x3d8464c3	0.06464531
224	0xbda91a7d	-0.08257005
225	0x3c394805	0.011308675
226	0x3f1306fa	0.5743252
227	0x3e94fd97	0.29099724
228	0xbf37d6a1	-0.7181187
229	0x3fa9cd4e	1.3265779
230	0x3f016983	0.50551623
231	0x3efc0b37	0.49227306
232	0x3f1ce328	0.6128411
233	0x3df9598c	0.12175283
234	0xbe87b721	-0.26506904
235	0x3f8b109f	1.0864447
236	0xbf2f1625	-0.68393165
237	0x3f03faa3	0.51554316
238	0xbfc2d6d7	-1.5221814
239	0xbf845c07	-1.0340585
240	0x3e8b23f0	0.27175856
241	0xbf173560	-0.5906582
242	0xbf90a750	-1.130106
243	0xbeee90f6	-0.4659497
244	0x3f4fcca6	0.81171644
245	0xbee02602	-0.43778998
246	0xbf2c9250	-0.67410755
247	0x3d5e5960	0.054284453
248	0xbfe45676	-1.7838886
249	0xbf0a1dea	-0.53951895
250	0x3fbcc83e	1.4748609
251	0xbe272faf	-0.16326784
252	0x3ee2170d	0.4415821
253	0x3e41f1b3	0.18939857
254	0xbeee5e7f	-0.4655647
255	0x3f8260c6	1.0185783

conv2.bias f4 [32]
0	0xb9958c88	-0.000285242
1	0xbd36aa40	-0.044595957
2	0x4008de53	2.1385696
3	0x3e7cb4ce	0.24678347
4	0x3d8c9d24	0.0686591
5	0x3d9e9599	0.07743377
6	0x3e4d3bb1	0.20042302
7	0x3ded5684	0.11588767
8	0x3f834a7c	1.0257106
9	0xc00ee034	-2.2324343
10	0xbcbaadb8	-0.022787914
11	0x3f94e6c5	1.1632925
12	0xbe6385e8	-0.2221905
13	0xc02755d5	-2.6146138
14	0x3ebe3604	0.37150586
15	0x3f399e4f	0.72507185
16	0x3d039e76	0.032133542
17	0x3dc361b5	0.095401205
18	0xbf04c27d	-0.51859266
19	0xbc23383b	-0.009962137
20	0xbdde1eba	-0.108457044
21	0xbf8d3941	-1.1033098
22	0x3d8ea6c0	0.06965399
23	0x3fa9ba11	1.3259908
24	0x3ca56139	0.020187961
25	0xbff41d3f	-1.9071425
26	0xbec6fc7c	-0.38864505
27	0xbf51919f	-0.81862825
28	0x3f30ad24	0.6901419
29	0x3ecad390	0.39614534
30	0xbd581be8	-0.05276099
31	0x3e3a2b32	0.1818054

conv2.lin.weight f4 [32, 64]
0	0xbc1ec9de	-0.009691684
1	0x3dad0460	0.084481
2	0xbe20df82	-0.15710261
3	0x3e7162dc	0.23572868
4	0x3eb38755	0.35064188
5	0xbdb758d4	-0.089524895
6	0x3e0f70ce	0.14007875
7	0xbf1e5228	-0.6184411
8	0xbf00a04f	-0.5024461
9	0x3ee97e87	0.45604345
10	0x3da56131	0.080751784
11	0x3f5ddd29	0.8666559
12	0xbd0f828b	-0.035036605
13	0x3f0d406c	0.55176425
14	0x3e1a4b77	0.1506785
15	0xbf7f61d0	-0.99758625
16	0xbdd9aae8	-0.10628301
17	0xbf29324c	-0.6609237
18	0xbfa1e169	-1.2646915
19	0xbd95e64c	-0.07319316
20	0xbf96e7d1	-1.1789495
21	0x3e141864	0.1446243
22	0xbdb04079	-0.08606047
23	0x3d78c995	0.06073912
24	0xbfbfeb57	-1.4993695
25	0x3d1f3453	0.03886826
26	0xbf97cddc	-1.1859698
27	0x3eb0ab21	0.3450556
28	0x3d973239	0.07382626
29	0x3c1c62a7	0.009545005
30	0xbf21f584	-0.6326525
31	0xbe855b98	-0.26046443
32	0x3d6515b2	0.055928893
33	0x3e739e66	0.23790893
34	0x3f1b48ed	0.6065815
35	0x3c56bf21	0.013107092
36	0xbd8fd01b	-0.07022115
37	0x3e7db13d	0.24774642
38	0x3d75da36	0.060022555
39	0xbded2a78	-0.11580366
40	0x3d48ac1a	0.048992254
41	0xbcb369f6	-0.021901112
42	0x3ed53204	0.4163972
43	0x3fbe2e19	1.4857818
44	0xbe103158	-0.14081323
45	0x3d5a6ca2	0.053326257
46	0xbe7f02dd	-0.24903436
47	0x3e75c2b0	0.24000049
48	0xbf3e37dd	-0.7430399
49	0xbe1b4efe	-0.15166852
50	0xbef949f9	-0.4868925
51	0xbbd42958	-0.006474655
52	0x3e4c7cbd	0.19969459
53	0xbf9aac48	-1.2083826
54	0x3dd45ed2	0.10369648
55	0xbcfdbfad	-0.030975187
56	0x3b909d66	0.0044132946
57	0xbd0ec48f	-0.03485542
58	0x3ac8de38	0.0015325015
59	0x3f1cdc4c	0.61273646
60	0x3dc6e983	0.097125076
61	0x3fec3c49	1.8455898
62	0x3f802753	1.0012001
63	0xbfc18551	-1.511881
64	0x3df25c31	0.1183399
65	0xbd1091b4	-0.035295203
66	0xbcca863f	-0.024722217
67	0xbedaf2ea	-0.42763454
68	0x3f5f1536	0.8714174
69	0xbd4a7662	-0.049429305
70	0xbf07af8b	-0.5300223
71	0xbe601807	-0.21884166
72	0xbe37d687	-0.1795293
73	0xbf7da735	-0.9908326
74	0xbd95797b	-0.07298561
75	0x3eb0fa08	0.3456576
76	0x3c7dd5d0	0.015492871
77	0x3e351648	0.17684281
78	0x3f1a7a96	0.603433
79	0x3f96be05	1.1776739
80	0x3ceeff3f	0.029174445
81	0xbede7248	-0.43446565
82	0xbeed90c3	-0.46399507
83	0xbc9d160b	-0.01917555
84	0xbedf7f16	-0.43651646
85	0x3da7e28c	0.08197507
86	0xbf83407f	-1.0254058
87	0x3d52f6f7	0.051505055
88	0x3f3e519c	0.74343276
89	0x3d150d49	0.036389623
90	0x3fc66c97	1.5501889
91	0x3e149401	0.14509584
92	0xbb45573e	-0.0030111815
93	0x3cd3be64	0.025847621
94	0xbda4a73f	-0.08039712
95	0xbe6fabca	-0.23405376
96	0x3d740652	0.05957634
97	0xbeec9f0b	-0.4621509
98	0x3e023b76	0.12717995
99	0x3e6a9f8a	0.22912422
100	0xbc912b8a	-0.017720956
101	0x3d86b606	0.06577687
102	0xbc7abd8f	-0.015303983
103	0xbd5c49b7	-0.053781237
104	0xbce7ba05	-0.028286943
105	0xbd374ef4	-0.04475303
106	0x3f22c781	0.6358567
107	0xbf5928e6	-0.8482803
108	0xbdc26c10	-0.094932675
109	0xbd19e4df	-0.037571784
110	0xbeb66868	-0.3562653
111	0x3e3f18c5	0.18661793
112	0x3fd1ea08	1.6399546
113	0xbddd7dc6	-0.10815005
114	0xbeeb75f5	-0.45988432
115	0x3d289c0b	0.04116444
116	0x3f60e23f	0.87845224
117	0xbf9735aa	-1.1813252
118	0x3f328f74	0.6975014
119	0xbd90d67a	-0.07072158
120	0xbe0206e0	-0.12697935
121	0xbd9d9272	-0.07693948
122	0x3da83909	0.082140036
123	0x3edfd4f5	0.4371716
124	0x3d5c9965	0.053857226
125	0x3f8736ff	1.0563658
126	0x3f2c7183	0.67360705
127	0x3e93d9db	0.28877148
128	0x3e26c7c4	0.16287142
129	0xbef45527	-0.47721216
130	0xbdbb15be	-0.09135006
131	0x3d2d68b7	0.042336192
132	0xbea189da	-0.31550485
133	0xbee8ae2a	-0.45445377
134	0xbf28dbea	-0.6596056
135	0xbe2fc6fb	-0.17165749
136	0x3c704f19	0.014667296
137	0xbee8115c	-0.45325744
138	0xbebdf0ff	-0.37097928
139	0x3b92a55c	0.004475279
140	0xbea737e5	-0.32659832
141	0xbfb3538f	-1.4009875
142	0xbe68d9f0	-0.22739387
143	0xbd127cc9	-0.035763536
144	0x3dc23a8e	0.09483825
145	0xbe1b1ed2	-0.15148476
146	0xbf39a79c	-0.72521377
147	0x3e310560	0.17287207
148	0x3f5b01a5	0.85549384
149	0xbe8d0cc3	-0.275488
150	0x3ea6b82f	0.32562396
151	0xbe9a9ccc	-0.30197752
152	0xbf44d96e	-0.7689427
153	0xbf282214	-0.65677
154	0xbf2a1db2	-0.6645156
155	0xbe258397	-0.16163479
156	0xbed588ab	-0.41705832
157	0xbe5966b1	-0.2123058
158	0x3ef7c10d	0.48389474
159	0xbe555b96	-0.20835719
160	0xbdeb46f7	-0.11488145
161	0x3d7a367a	0.06108711
162	0xbeb185f0	-0.346725
163	0xbfdcd568	-1.7252626
164	0xbef7ae50	-0.48375177
165	0xbe6683dc	-0.22511238
166	0xbe2fa7ce	-0.17153856
167	0xbedf01dc	-0.43556106
168	0x3e58b2c3	0.21161942
169	0xbc70f2ae	-0.014706297
170	0xbef9e5e6	-0.4880821
171	0xbe908cea	-0.2823251
172	0xbd16037d	-0.03662442
173	0x3de45cca	0.111505106
174	0x3e2422e5	0.16028936
175	0xbe013a77	-0.12619959
176	0xbf0bd5a7	-0.5462288
177	0x3f1ff9f0	0.6249075
178	0xbaefc77f	-0.0018293707
179	0xbfb54485	-1.4161536
180	0xbea5567e	-0.3229255
181	0x3e32ad4f	0.17448924
182	0x3edfa534	0.43680727
183	0xbf058143	-0.5215036
184	0x3d3293ee	0.043598108
185	0xbd28f936	-0.04125329
186	0x3ed8d600	0.4235077
187	0x3eb81992	0.3595701
188	0x3e16e1af	0.14734529
189	0x3ba5f973	0.005065137
190	0xbec06311	-0.37575582
191	0x3e875de1	0.2643881
192	0x3c8cdc54	0.017194904
193	0xbe1d7a74	-0.15378743
194	0xbe1e8ca9	-0.15483345
195	0xbe850ac2	-0.2598477
196	0x3f137f03	0.5761568
197	0x3db35f85	0.08758453
198	0xbec3c2d3	-0.38234577
199	0x3df1ef8a	0.118132666
200	0xbeafe791	-0.3435636
201	0xbec86cb9	-0.3914545
202	0x3d1c5103	0.038163196
203	0x3f065385	0.5247119
204	0xbddd9e64	-0.10821226
205	0xbeab90e4	-0.3350898
206	0x3f2d370b	0.67662114
207	0xbe0034b1	-0.125201
208	0x3d8053d2	0.062659875
209	0xbe062aed	-0.13102312
210	0xbf152776	-0.5826334
211	0x3d9bfa96	0.07616155
212	0x3e79b293	0.24384527
213	0x3de7d19d	0.113192774
214	0xbf09aa4f	-0.53775495
215	0xbcbc013f	-0.022949813
216	0x3ef7c5b8	0.48393035
217	0x3cf102ee	0.029420342
218	0xbfe87e20	-1.816349
219	0x3f85e114	1.0459313
220	0xbe186091	-0.14880587
221	0xbd0dcce4	-0.034619227
222	0x3f0dbe49	0.5536848
223	0x3c90324d	0.01760211
224	0xbd11ea2e	-0.03562372
225	0x3f5e97fe	0.8695067
226	0xbf032318	-0.51225424
227	0xbe11d975	-0.1424311
228	0xbd12f0bd	-0.035874117
229	0xbe9b69f3	-0.3035427
230	0x3db90de7	0.09035855
231	0x3ca8e30e	0.02061608
232	0x3d40d05c	0.047073707
233	0xbe1e053d	-0.15431686
234	0x3d981f96	0.074278995
235	0x3e1d6eec	0.15374345
236	0x3d1b2367	0.03787556
237	0x3cb501f5	0.02209566
238	0xbe7f09af	-0.24906038
239	0xbe550115	-0.20801194
240	0xbff5aa3c	-1.9192576
241	0x3eff9002	0.49914557
242	0x3f0e203c	0.55517936
243	0x3d5bc4e4	0.053654566
244	0xbde9798e	-0.11400138
245	0xbfc9c67a	-1.5763695
246	0x3f2bfc0e	0.6718148
247	0xbd90b27c	-0.07065293
248	0xbdf61c59	-0.12017126
249	0x3e3ec774	0.18630773
250	0x3c9ab5ee	0.018885579
251	0x3e87c908	0.26520562
252	0xbe29eebe	-0.16594979
253	0x3eec0960	0.46100903
254	0x3ecc397a	0.398876
255	0x3e9fe0a2	0.3122607

link_predictor.0.weight f4 [64, 416]
0	0x3da99ee1	0.08282257
1	0x3d8c973b	0.068647824
2	0x3fb6bebc	1.4276958
3	0x3ce2f46b	0.027704438
4	0x3d6e3473	0.05815549
5	0xbd94cdb8	-0.072658
6	0xbe8c7a40	-0.2743702
7	0xbde5e555	-0.11225382
8	0x3e1a3662	0.15059808
9	0xbff96e97	-1.9486874
10	0x3d89f047	0.067352824
11	0x3ecd19d8	0.4005878
12	0x3f4e2d73	0.805381
13	0xbfde1f74	-1.7353349
14	0xbd3875f8	-0.04503438
15	0xbed4dce0	-0.41574764
16	0xbc8dfb0f	-0.017331628
17	0xbd90dbf0	-0.070732
18	0xbf3d0c9f	-0.73847383
19	0x3a4f721e	0.0007913428
20	0x3e509a57	0.20371376
21	0xbf93fd08	-1.1561594
22	0xbd1f8e67	-0.038954165
23	0xbb820251	-0.0039675613
24	0xbe0eef8d	-0.13958569
25	0xbec136f2	-0.37737232
26	0xbeb95577	-0.36198017
27	0x3d38b65f	0.045095798
28	0xbe320829	-0.17385925
29	0xbeea6214	-0.45777953
30	0x3e006b9f	0.12541054
31	0xbdcdf295	-0.100560345
32	0xbfd2be74	-1.6464372
33	0xbe10b194	-0.1413024
34	0xbf1ae62a	-0.6050745
35	0x40105050	2.254902
36	0xc07f0c8a	-3.9851403
37	0x3e84b4f8	0.25919318
38	0xc09f9737	-4.987209
39	0xc0020b7d	-2.0319512
40	0xbfb6053a	-1.4220345
41	0x4008a57a	2.1351
42	0xc087b8b9	-4.241299
43	0xbefa6dba	-0.4891184
44	0xbfa6130c	-1.2974563
45	0xbf25fbf6	-0.64837587
46	0xbff5e414	-1.9210229
47	0x3fbc628a	1.4717572
48	0x3fe76445	1.8077475
49	0xbf38e9c6	-0.7223171
50	0xbfef4ae8	-1.8694735
51	0xbdb74208	-0.08948141
52	0x3fd91b08	1.6961374
53	0x4005e6e1	2.0922167
54	0xc01ea437	-2.4787729
55	0x3fe2a322	1.7706034
56	0x40828eeb	4.079946
57	0x40112b54	2.2682695
58	0xbe9b16b5	-0.30290762
59	0x40153b03	2.3317268
60	0xc108b65a	-8.544519
61	0xbfa189c1	-1.2620164
62	0xc005d203	-2.090943
63	0x3fa74a58	1.3069563
64	0xbfb5a3bb	-1.4190592
65	0xc08b86b8	-4.360195
66	0xc0a21305	-5.0648217
67	0x3fb4eddd	1.413509
68	0x3dc02fd7	0.09384125
69	0x3f0cb7ec	0.5496814
70	0x3ffc0830	1.9689999
71	0x404a0a51	3.1568797
72	0x40255813	2.5835006
73	0x3f9e9830	1.2390194
74	0xc01e1aa0	-2.470375
75	0xbf944c53	-1.1585792
76	0xbd8de1cd	-0.06927834
77	0x406e3664	3.7220697
78	0xbf8316c3	-1.0241321
79	0xc092885c	-4.5791454
80	0xc0583a8c	-3.3785734
81	0x400a8869	2.1645758
82	0xbe89235d	-0.26784793
83	0xbf153777	-0.5828776
84	0x3ec819e0	0.3908224
85	0x407d666b	3.959376
86	0xbe54398c	-0.20725077
87	0x4068d9b7	3.6382883
88	0x406f4069	3.7383063
89	0xbff9fc22	-1.953007
90	0xbed09990	-0.4074216
91	0xbff91151	-1.945841
92	0xbfcaac1d	-1.5833775
93	0x3f9d5716	1.2292202
94	0xc09fce24	-4.9939137
95	0xbfc409b8	-1.5315466
96	0x40130860	2.2973862
97	0xbfb75a51	-1.4324437
98	0xbf951d77	-1.1649617
99	0xbfa54e64	-1.2914548
100	0x4036751c	2.8508978
101	0x3fcd92d0	1.6060429
102	0x3f761ca3	0.96137446
103	0x401f8cad	2.4929612
104	0x3e8b5ec6	0.27220744
105	0xc005ad74	-2.0887117
106	0xbee61ad6	-0.4494235
107	0x3fa92a3b	1.3216013
108	0x3fbce96e	1.4758737
109	0xbf8ba87c	-1.0910792
110	0xbd2683c2	-0.040652998
111	0x3f1fa9a7	0.62368244
112	0x40ce83a8	6.4535713
113	0x3e53ffd5	0.20703061
114	0x3fac27f0	1.3449688
115	0x40887238	4.2639427
116	0xbe3178e1	-0.17331268
117	0xbfdaa3ca	-1.7081234
118	0xbf5704a7	-0.83991474
119	0x3f601bdc	0.8754251
120	0x405de07b	3.4668262
121	0xbf97410b	-1.1816725
122	0x40603ecf	3.5038335
123	0x405d321b	3.4561832
124	0xc0596a7c	-3.3971243
125	0xc0b4f240	-5.6545715
126	0x3effe0df	0.4997625
127	0xbd68fb78	-0.056880444
128	0x400b1064	2.1728754
129	0x3ff92154	1.9463296
130	0x4019b96d	2.4019425
131	0x3f902ada	1.1263077
132	0x4051b4dd	3.276664
133	0xc018ca31	-2.3873408
134	0x40a51c3d	5.159697
135	0x3ff7e877	1.9367818
136	0xc06f7a6e	-3.7418475
137	0xbfa175e6	-1.2614105
138	0xbfcb5f12	-1.5888388
139	0x3fe31f4f	1.774393
140	0xbf8a39b5	-1.0798861
141	0xbfa8715c	-1.3159595
142	0xbf41df0e	-0.7573098
143	0xc013b89b	-2.3081424
144	0x40aa02b0	5.312828
145	0x404f7cb4	3.2419863
146	0x3fd985ac	1.6993918
147	0xbc782046	-0.015144413
148	0xc080d978	-4.0265465
149	0xc08139b6	-4.038295
150	0x4050cac1	3.262375
151	0x3fb06870	1.3781872
152	0xc0ecefcb	-7.4042716
153	0x3fc81d75	1.563399
154	0x402316e1	2.5482714
155	0x400977ef	2.1479452
156	0xbfe5d5d7	-1.7955884
157	0x3fa5fa7b	1.2967066
158	0xbf5fa48b	-0.8736045
159	0xbcaf577a	-0.021404017
160	0xc05ca5e5	-3.4476254
161	0xbfa16cae	-1.2611291
162	0xbd536ac0	-0.051615477
163	0x4094f2ce	4.6546392
164	0xbf9183e4	-1.1368375
165	0xc07d40ec	-3.9570875
166	0xbdf0bbf6	-0.11754601
167	0xbf91b23c	-1.1382518
168	0xbf7d91b8	-0.99050474
169	0xbfe884b8	-1.8165503
170	0x3eca264b	0.3948234
171	0x3f290487	0.66022533
172	0xc03cd611	-2.9505656
173	0xbd132efc	-0.03593348
174	0x4034ad8f	2.8230932
175	0xc0992b7f	-4.7865596
176	0xbfa86336	-1.3155277
177	0x3fec8213	1.8477196
178	0xc01da86f	-2.4634054
179	0x4030125a	2.75112
180	0xbf730db6	-0.94942796
181	0xbfb915d5	-1.4459788
182	0xbf37c66e	-0.71787155
183	0xbf0714fa	-0.5276638
184	0xbfe7618e	-1.8076646
185	0x404d93b2	3.2121396
186	0x4098dbd6	4.7768354
187	0x3ec66d8a	0.38755447
188	0xc0922968	-4.5675545
189	0xbfb71de2	-1.4305995
190	0x40137620	2.3040848
191	0x40acefd7	5.4042773
192	0x3eaee1cb	0.3415664
193	0xbfb7d3d4	-1.436152
194	0x3fd973e2	1.698849
195	0x3f877a59	1.0584213
196	0xc028010f	-2.6250646
197	0x4043e837	3.0610483
198	0x3f9618b5	1.172629
199	0x400f95ae	2.2435107
200	0xc082ab78	-4.0834312
201	0xbfd43a9e	-1.6580389
202	0x3f1e3529	0.61799866
203	0x402efd23	2.7342002
204	0xc046e21e	-3.107551
205	0x3f11b2ca	0.56913435
206	0x3f0abf3f	0.5419807
207	0x401e7816	2.4760795
208	0x40e8e7ce	7.2782965
209	0x3f30bb08	0.6903539
210	0xbf9c9856	-1.2233989
211	0xbf9ab35a	-1.2085984
212	0x3fc88a84	1.5667272
213	0xbff63f52	-1.9238074
214	0xc02aec87	-2.6706865
215	0x402dfb1f	2.7184522
216	0x404f7c2c	3.2419538
217	0xc02ac64c	-2.668353
218	0xc028da4e	-2.6383243
219	0x3f80123e	1.0005567
220	0xc033738b	-2.8039272
221	0x3ec531f4	0.38514674
222	0x3f35c2a3	0.7100012
223	0xbffa870e	-1.9572465
224	0x40077d6b	2.11703
225	0xbec8d641	-0.39225963
226	0x3e601820	0.21884203
227	0xbfbe2f81	-1.4858247
228	0xc080e459	-4.0278745
229	0xc0522e64	-3.2840815
230	0xbfc13e03	-1.509705
231	0xc0a92ff5	-5.287104
232	0x3f41b421	0.7566548
233	0xbf7ea058	-0.99463415
234	0x4040a05f	3.0097883
235	0x3f1253e9	0.57159287
236	0x400de48c	2.2170744
237	0x40bbab24	5.864641
238	0xbf91b73d	-1.1384045
239	0xbeaae1d8	-0.3337543
240	0xc04f24f9	-3.2366316
241	0x40482b5b	3.1276462
242	0xc0730217	-3.7970026
243	0xc00f4e5d	-2.239158
244	0x3fcaf54f	1.5856112
245	0xbd7d3317	-0.0618163
246	0xbdfb38a1	-0.122666605
247	0x3eb387d9	0.3506458
248	0xbffcfcd5	-1.9764658
249	0xc0c6766c	-6.201956
250	0xbf647d5e	-0.89253795
251	0x40636df7	3.5535867
252	0x401c85e4	2.445672
253	0x4057a7da	3.3696198
254	0x4044e068	3.0761967
255	0xbcc70113	-0.024292504

link_predictor.0.bias f4 [64]
0	0x3f99260a	1.1964734
1	0xc048c576	-3.137052
2	0xbf0fcce4	-0.56172013
3	0xc092e37d	-4.5902696
4	0xbef10f3c	-0.47081935
5	0xc09247b3	-4.5712523
6	0xc05dbf65	-3.4648068
7	0xc012c45e	-2.2932353
8	0xc0676b6e	-3.615932
9	0xc04d8924	-3.2114954
10	0xc02fa3f5	-2.7443821
11	0xbf20e428	-0.6284814
12	0xbf91fbfc	-1.1405025
13	0xc0473b95	-3.1130116
14	0x3bc87b3e	0.0061182072
15	0xc068b11e	-3.6358104
16	0xc02a6d79	-2.6629317
17	0xc012ded2	-2.2948499
18	0xbfceb9e0	-1.6150475
19	0xc0463cd4	-3.0974627
20	0xc0524756	-3.285604
21	0xc0820e02	-4.06421
22	0xbffd81c4	-1.9805226
23	0xc049e5e1	-3.1546557
24	0xc01b7a0e	-2.4293246
25	0xbec4cf3a	-0.3843935
26	0xbfa1e8dd	-1.2649189
27	0xc01ebe29	-2.4803565
28	0xbff5be4d	-1.91987
29	0xc02fff79	-2.7499678
30	0xbed59ef3	-0.4172283
31	0xc0724794	-3.7856188
32	0xc08e1639	-4.4402127
33	0xc015a4a1	-2.3381732
34	0xc0509eac	-3.2596846
35	0xc0426a27	-3.037729
36	0xbfa1e2a6	-1.2647293
37	0xc0576b6f	-3.3659322
38	0xc0a34288	-5.1018715
39	0xc00a7f16	-2.1640067
40	0xc032de5a	-2.7948213
41	0xc0010b63	-2.01632
42	0x3e5b5c3e	0.21421906
43	0xbfd77d58	-1.6835127
44	0xc0362939	-2.846266
45	0xbf035bd6	-0.51312006
46	0xc03dd99d	-2.966407
47	0xc06d2144	-3.7051554
48	0xc00e5c52	-2.2243848
49	0xc06f4f06	-3.7391982
50	0x40788ae0	3.8834763
51	0xc05c6388	-3.443575
52	0xbf56c842	-0.8389932
53	0xbfe4f60b	-1.7887586
54	0xc03a3bfa	-2.9099107
55	0xc037adc2	-2.8699803
56	0xc0bd2afb	-5.9114966
57	0xc01a4924	-2.4107141
58	0xc01a2030	-2.4082146
59	0xc0851817	-4.1591907
60	0xbec5731a	-0.38564378
61	0xc063ef9d	-3.5614998
62	0xc0c173ba	-6.045377
63	0xc0155b20	-2.3336868

link_predictor.2.weight f4 [1, 64]
0	0x3e11a2af	0.14222215
1	0x3e003ce6	0.12523231
2	0xbe32a5b7	-0.17446028
3	0xbe08ce03	-0.13359837
4	0xbe245c01	-0.16050722
5	0x3e29ce27	0.16582547
6	0x3df0d259	0.11758871
7	0x3d72d533	0.059285354
8	0x3df15ba3	0.117850564
9	0xbe3999e6	-0.18125114
10	0xbe3077be	-0.17233178
11	0xbe14b352	-0.1452153
12	0x3dbfabb9	0.09358925
13	0x3dbefd7d	0.09325693
14	0xbe14fec9	-0.14550318
15	0xbdf87619	-0.121319
16	0x3e0cb0d4	0.1373933
17	0x3dd01c2f	0.101616256
18	0xbe0287af	-0.12747072
19	0xbe1629cb	-0.1466438
20	0x3daa40da	0.08313151
21	0x3e1bbb3b	0.15208142
22	0xbe213fe3	-0.15747027
23	0xbe2d206f	-0.16906904
24	0x3dee690b	0.11641129
25	0xbe66d731	-0.22543027
26	0x3d97d74c	0.074141115
27	0xbe3c3650	-0.18380094
28	0xbe3e54a1	-0.18586971
29	0xbe258aa0	-0.16166162
30	0xbe113873	-0.1418169
31	0x3dfcb333	0.12338867
32	0x3ddb6eb0	0.10714471
33	0xbe38646d	-0.1800706
34	0x3dcc722a	0.099827126
35	0x3da0bbda	0.0784833
36	0xbe10a50d	-0.14125462
37	0xbe212caa	-0.15739694
38	0x3e86e868	0.26349187
39	0xbde78dd0	-0.113063455
40	0xbde17bf7	-0.110099725
41	0xbe396165	-0.1810356
42	0xbe250e81	-0.16118814
43	0xbde6d6ab	-0.112714134
44	0xbe225937	-0.15854345
45	0xbe1e190b	-0.1543924
46	0x3e00244e	0.12513849
47	0x3dd05be6	0.10173778
48	0xbe462215	-0.19348939
49	0x3dcef152	0.10104622
50	0x3e08a940	0.13345814
51	0xbe0e0dd9	-0.1387247
52	0x3e0b2987	0.1359006
53	0x3de144ea	0.109994724
54	0xbe193537	-0.14961706
55	0xbe030a4f	-0.12796901
56	0x3e36159e	0.17781684
57	0x3e01d787	0.12679873
58	0xbe2cf536	-0.16890416
59	0x3e143ff1	0.14477517
60	0xbde360f2	-0.11102475
61	0x3de36e51	0.111050256
62	0x3e287869	0.16452183
63	0x3e09b9d4	0.13449794
