new_checkpoints/model_epoch_2.pth (torch, 217416 bytes, 7 tensors)

conv1.bias f4 [64]
000000 de 04 66 c0 16 db 73 3f ce 96 7a c0 64 8a b9 c0
       -3.594047 0.95256174 -3.9154544 -5.7981434
000010 6e 8a a4 c0 32 fb c0 bd 8b 98 43 c0 c5 06 71 c0
       -5.141898 -0.09422912 -3.0561855 -3.7660382
000020 e5 57 9d c0 f6 90 8c c0 40 5f a1 3f 60 a0 9f c0
       -4.9169793 -4.3926954 1.2607193 -4.988327
000030 eb 2c 98 bf 9a 54 9c 3e 41 7e 86 c0 c8 e2 7a c0
       -1.1888708 0.30533296 -4.202912 -3.9200916
000040 13 67 81 be 37 09 54 c0 5a c3 5b c0 b1 37 22 3f
       -0.25273952 -3.3130624 -3.4337983 0.6336623
000050 a7 b3 13 c0 92 54 e4 bd 06 ed 50 c0 13 09 b4 bd
       -2.30784 -0.11148943 -3.2644668 -0.08790793
000060 50 c9 93 3e 4b b3 14 3e 50 96 7f c0 d8 cd 04 c0
       0.28864527 0.1452152 -3.9935493 -2.0750637
000070 07 78 b3 3e 34 86 d9 bd 39 b7 54 c0 a0 11 7a c0
       0.3505251 -0.106213 -3.323683 -3.9073257
000080 31 0a 11 3f 49 c0 22 c0 0c 6f a1 c0 87 2b 71 c0
       0.56656176 -2.5429862 -5.0448055 -3.7682817
000090 b5 84 78 3e e3 6a 6d c0 a8 71 36 c0 92 88 45 3f
       0.24269374 -3.7096488 -2.850687 0.77161515
0000a0 65 ef ce 3e dd fd 21 c0 70 3d a2 c0 c7 82 50 c0
       0.4041702 -2.5311196 -5.0699997 -3.257982
0000b0 58 a2 96 bd 59 36 f2 3e df ec 72 c0 4c db 83 3f
       -0.07355183 0.4730709 -3.7957075 1.0301299
0000c0 42 b0 87 c0 fe 86 ef c0 99 4b 2d c0 fb 95 44 bb
       -4.240266 -7.4852285 -2.707739 -0.0029996622
0000d0 c3 62 7a c0 7e 52 63 c0 f8 f6 38 c0 66 38 bb 3e
       -3.912278 -3.55191 -2.8900738 0.36566466
0000e0 5c 03 2e 3f 45 e5 a1 be 1a 7b 1b 3f 3f 14 8a c0
       0.67973876 -0.3162023 0.60734713 -4.3149714
0000f0 cb be 15 3f 62 43 88 c0 fa 8a a1 c0 9c 11 57 c0
       0.5849425 -4.2582254 -5.048215 -3.3604498

conv1.lin.weight f4 [64, 384]
000000 8a 43 18 3e b9 a5 f8 be c2 59 26 bc a2 46 27 bf
       0.14869514 -0.48563936 -0.010153236 -0.6534215
000010 3c 66 fb 3f 99 73 96 3f d5 68 d2 bf d4 50 bf bf
       1.9640574 1.1754028 -1.6438242 -1.4946542
000020 e3 4f 86 3f ad 4f b2 3e 23 74 4b 3f f4 d4 99 3f
       1.049313 0.34826413 0.79474086 1.2018113
000030 8c aa ab bf e9 23 42 bf e8 5c b4 bf 7b b8 ad 3f
       -1.3411422 -0.75836045 -1.4090853 1.3571924
000040 e3 d2 c6 bf 5c 58 2d bf 85 3b b1 3f cb 9f 1a 40
       -1.5533108 -0.6771295 1.3846289 2.416003
000050 27 2d fb bd 66 89 d4 3e 84 55 1d bf ef 4d 05 40
       -0.122644715 0.41511077 -0.6145861 2.0828817
000060 e7 3d f3 3e e5 d2 be 3f 86 d2 a4 3f 38 ff f7 3e
       0.47508165 1.490811 1.2876747 0.48436904
000070 7f 8c f4 3e 87 1d 19 3e c6 03 7e bf 40 13 88 bf
       0.4776344 0.1495267 -0.9922451 -1.0630875
000080 16 cc 93 bf 43 8d 14 bf 04 5e 86 3e f7 97 a3 bf
       -1.1546657 -0.5802805 0.26243603 -1.2780751
000090 6d d7 00 be 2f da b1 bf da 32 83 3f 96 6c 9e be
       -0.12582178 -1.3894709 1.0249894 -0.3094222
0000a0 3e 06 60 bf ba 2a 1b bd f0 31 fc 3d 21 1b eb bf
       -0.87509525 -0.037882544 0.12314212 -1.8367654
0000b0 a2 a3 4b bf 92 aa 11 bf 9c 03 5d 3f c4 06 cc bc
       -0.7954656 -0.56900895 0.8633363 -0.02490557
0000c0 bf 54 4d 3f 24 0f 8a 3e c6 5a ae 3e 3b be 1b bf
       0.8020744 0.26964676 0.3405363 -0.60837144
0000d0 4e 01 34 3f e2 c1 22 bf 6a 49 d6 be 48 97 1c bf
       0.7031449 -0.6357709 -0.41852885 -0.61168337
0000e0 3a 1b dc bf 84 b8 68 3e 2b 83 0e bf 00 d2 94 bd
       -1.7195809 0.22726637 -0.55668896 -0.07266617
0000f0 a0 cf ac 3e 75 d2 d7 bd ce a4 c1 3f ab 21 00 40
       0.33752155 -0.10538188 1.5128419 2.002055
000100 ea 21 99 3f 6e d4 5c bf 06 05 87 bf c1 b3 1c 3f
       1.1963475 -0.8626164 -1.0548408 0.6121178
000110 6c 0e 03 bf c6 51 17 bd fa 09 10 40 23 88 30 bf
       -0.5119388 -0.03694322 2.250609 -0.6895773
000120 01 9d a3 3f 05 0c 89 bf 51 b0 7b 3f cd ee 07 3e
       1.2782289 -1.0706793 0.9831591 0.13274689
000130 f9 92 8a bf 9d f8 3f bf 13 20 00 3f c8 69 9a be
       -1.0826102 -0.7498873 0.5004894 -0.3015883
000140 ce 53 32 3f 9e ae 45 3f 04 5c 1f 3f 79 51 e8 3e
       0.69659126 0.7721957 0.6224978 0.4537466
000150 28 eb 26 3d 36 6f f1 be dc 8f bb be 08 44 09 bf
       0.040751606 -0.4715516 -0.36633193 -0.5361943
000160 3a 71 d8 bf df f5 59 3f 71 2f d4 3f 78 4b 09 3f
       -1.6909554 0.85140795 1.6576978 0.5363078
000170 ca 69 43 bf fd ae 00 3e 32 39 c5 3e 09 ae c9 3f
       -0.76333296 0.12566753 0.385202 1.5756236
000180 b0 77 6c bf fa 8d a0 3f 8e 3b 6d 3f a3 52 2e bf
       -0.9237013 1.2543328 0.92669 -0.68094844
000190 41 b2 ae bf f1 d7 2e bf ce 6e 3e bf d3 90 43 3f
       -1.3648149 -0.6829825 -0.74387825 0.7639286
0001a0 b2 7b a2 bd 25 e3 16 c0 75 c1 d8 bf 0b bb 48 bf
       -0.07933749 -2.3576138 -1.6934038 -0.78410405
0001b0 fa 27 2f bf 7c 93 da 3e 12 18 ec 3f ad 3e b0 bf
       -0.68420374 0.42690647 1.8444846 -1.3769127
0001c0 0f ea 9d bf be d0 ab 3f fc 60 de 3e da 50 31 bf
       -1.2337054 1.3423078 0.43433368 -0.69263995
0001d0 c0 92 a3 bf 39 95 94 bc b4 aa 23 c0 93 af 8e bf
       -1.277916 -0.018137561 -2.557294 -1.1147331
0001e0 67 a2 38 bf 1f 0a e6 3f 28 4f 88 be 41 27 19 3f
       -0.72122806 1.7971839 -0.2662289 0.5982552
0001f0 47 68 87 be c4 c7 c1 bf 5a 5e 33 40 e4 70 93 3d
       -0.26446745 -1.5139089 2.8026338 0.071992666
000200 f7 10 c9 3f 73 43 29 c0 c3 f5 47 bc a5 55 4e 3f
       1.5708302 -2.6447418 -0.01220459 0.80599433
000210 0e a0 79 bf 81 ee 85 3e bb c6 5c 3e 4c 33 9a be
       -0.9750985 0.26158527 0.21560185 -0.3011726
000220 0a a5 20 3f 04 3b db 3e bd b9 f7 3e 47 42 b3 bf
       0.6275183 0.42818463 0.48383895 -1.4004601
000230 17 38 4f 3f aa 47 aa bd c0 0f 88 bf cf e5 34 bf
       0.8094496 -0.0831445 -1.0629807 -0.7066316
000240 07 b4 81 bf b6 8a bb bf 28 02 d7 bf 2b e1 0f be
       -1.0133065 -1.4651706 -1.6797533 -0.14050739
000250 e7 5c 0c bf 03 4f 8d 3f 1f 08 41 3f 8c 19 98 3f
       -0.5482926 1.1039737 0.75403017 1.1882796
000260 2c 60 06 c0 19 07 a3 3f 90 8b c0 3f 98 27 84 bf
       -2.0996199 1.2736541 1.5042591 -1.0324583
000270 ab eb f1 be 88 b0 ed 3e d9 f4 60 bd d2 e0 e0 3e
       -0.47250113 0.46423745 -0.054921005 0.43921524
000280 10 ec 5b bf 74 73 08 bf c4 42 9b 3f 55 ea 17 40
       -0.8590708 -0.5330117 1.212975 2.3736775
000290 91 d1 b2 bc cc 4e 32 3f 95 2e 01 c0 63 65 06 3f
       -0.021828445 0.69651484 -2.0184681 0.52498454
0002a0 34 a8 c9 3e c2 4e 37 bf 5c 57 78 3e 74 5f c1 3e
       0.3938614 -0.7160455 0.24252075 0.37768137
0002b0 33 d6 71 3f 13 e6 c5 be f6 41 6b be 97 ca b4 bf
       0.9446747 -0.38652095 -0.22974381 -1.4124326
0002c0 34 0a 46 be 5b 4b 73 bf 72 ce 8d 3e 54 f7 b3 bf
       -0.1933983 -0.9503686 0.27696568 -1.4059854
0002d0 f3 7c 96 3e 7c c3 22 3f 08 fe 3d bf dd 6b 8c 3f
       0.29392204 0.63579535 -0.74215746 1.0970417
0002e0 2b 38 8f be 66 8a b2 bf d8 6d 14 c0 24 f6 c1 bf
       -0.2797254 -1.3948486 -2.3192043 -1.5153241
0002f0 37 ae 0c 40 ef 96 a7 be 75 9d a0 bf 26 0b e9 be
       2.1981332 -0.3273234 -1.2548052 -0.45516318
000300 ea b7 c3 bd ee 24 15 3f 6c ff bd 3d 89 3a 09 bf
       -0.09556563 0.58259475 0.092772335 -0.5360494
000310 bd cc 1d 3f fe 06 33 bf 3e ba df 3e d3 24 8c 3d
       0.6164053 -0.69932544 0.4369678 0.06842961
000320 7b 4e 93 3e a3 02 2e 40 6e 25 8f bf 2e 7f 84 bd
       0.28770813 2.718911 -1.1183298 -0.0646957
000330 f1 1b c3 3e dc 17 77 3f 49 d9 8b 3f 99 aa 4d 3f
       0.38107255 0.9652078 1.0925685 0.80338436
000340 62 31 c9 3f 25 5b 5b 3d 2c 57 f6 3e 29 12 1c 3f
       1.5718195 0.05355372 0.48113382 0.6096521
000350 05 e5 c6 bd df 31 f9 be 73 3c 1e 3d 0d 9a dd bf
       -0.09711651 -0.4867086 0.038631868 -1.7312638
000360 55 e7 80 3f 9d a0 98 3f 4a 18 91 bd 7e 80 e5 3e
       1.0070597 1.1924015 -0.07084711 0.44824594
000370 46 c7 ba 3f 50 10 33 3f 09 90 b1 bf c3 64 84 3d
       1.4592063 0.69946766 -1.3872081 0.06464531
000380 61 3b 50 3f 0d 1b a5 bf d7 1b 40 3f 79 ea ba bf
       0.81340605 -1.289888 0.7504248 -1.4602805
000390 02 44 38 be 58 15 da 3f c1 4f 9a bf 09 50 a4 3e
       -0.17994693 1.7037764 -1.2055589 0.32092312
0003a0 03 0c de 3e b7 df 87 3f b9 40 8b 3f 13 cf 68 3f
       0.4336854 1.0615147 1.0879127 0.9094097
0003b0 1b 50 ce 3f 34 20 20 40 0b 2b 22 40 69 8a a7 3f
       1.6118196 2.5019655 2.5338771 1.3089114
0003c0 a7 c6 63 3f 25 28 ac bd 4a a2 b3 be aa 0c 24 bf
       0.88974994 -0.084060945 -0.35084754 -0.64081824
0003d0 c2 cd b0 be ab 2d b2 bf d4 b0 52 3f 5b e5 ab bf
       -0.3453198 -1.3920187 0.8230107 -1.3429369
0003e0 77 2f bc 3f 83 48 75 3f 41 4f fd 3f 18 5b 9e bf
       1.4701985 0.9581377 1.9789811 -1.237155
0003f0 85 53 b2 3e 14 0e 04 3f cc 4a b8 3f 80 f8 97 3e
       0.34829345 0.5158398 1.4397826 0.29681778

conv2.bias f4 [32]
000000 3f 0b 16 3e 59 a4 de bc 08 46 62 40 ee 60 6b bf
       0.14652728 -0.027177976 3.5355244 -0.9194478
000010 2f b9 b1 bd 71 04 ca 3d 6f 8b 6d 3e 06 85 2a be
       -0.08677899 0.098641284 0.23197721 -0.16652307
000020 ed 1c 89 3f 34 e9 58 c0 f0 bc 4e bd 7b 2d 86 bd
       1.0711952 -3.3892336 -0.050473154 -0.065516435
000030 f1 50 30 be 55 15 4e c0 9b ed 0c 3e c1 a7 51 3d
       -0.17218377 -3.220052 0.13762514 0.051185373
000040 1a 6c 02 3c a7 29 fc 3f 15 41 0d 3f 8f aa 12 3f
       0.007960344 1.9700211 0.5517743 0.572915
000050 19 b1 01 bd 0d 8c 9e bf 65 09 71 bd e5 39 8e 3f
       -0.031663034 -1.238649 -0.05884685 1.1111418
000060 65 60 43 bd 55 8b 91 bf 16 7d 21 bf 1d bf 5d bf
       -0.04769935 -1.1370646 -0.6308149 -0.8661974
000070 54 fe 85 ba 24 11 36 3d 17 bf eb 3d 1c 0f e4 3e
       -0.001022289 0.04444994 0.11511057 0.44542778

conv2.lin.weight f4 [32, 64]
000000 7e 38 9d be 00 b7 84 3d c8 fe 0e be 1b b0 96 3f
       -0.30707163 0.06480217 -0.13964379 1.1772493
000010 ee a1 26 40 20 ec 7f 3e 58 07 cd 3e cb db 30 be
       2.6036334 0.24992418 0.40044665 -0.17271344
000020 a6 50 c0 3e ba 30 22 be ea 96 c6 bc ab df 86 3f
       0.3756153 -0.158389 -0.024241883 1.0537008
000030 73 99 fa bd 37 a0 f8 3d a5 1c c8 3b 26 2f 42 be
       -0.12236299 0.121399336 0.0061069303 -0.18963298
000040 7a 95 33 bc 64 a0 57 3e 86 d4 09 3f 21 da e4 bd
       -0.010960931 0.21057278 0.5383991 -0.11174417
000050 34 3b 8c 3f 83 6c 1e be b9 75 c2 3c 3a 04 f2 bc
       1.0955567 -0.15471081 0.023737775 -0.029543031
000060 7f 9a 28 3d c9 e5 5a bd b0 91 fb bf e3 fd 36 bd
       0.041162964 -0.053441796 -1.9653835 -0.04467572
000070 06 69 3d be 66 b8 be 3c 35 9a 2a 3f bf 2b 39 bd
       -0.18497095 0.023281287 0.6664155 -0.045207735
000080 74 87 4f bc 7c 83 05 40 69 37 48 bf 32 a2 32 be
       -0.012666572 2.0861502 -0.7820955 -0.17444685
000090 6e af cc 3c ff a5 b1 3e b9 97 3d 3f 5d 72 05 3c
       0.024985995 0.34696957 0.74059635 0.008144942
0000a0 bf e4 47 be eb fd 34 3e 8b 8e d3 be d5 44 d7 be
       -0.19520853 0.17674987 -0.4131969 -0.42044702
0000b0 ee 98 1c bc 86 55 de 3d 9c fd 9c be 04 9c 9e 3d
       -0.009557946 0.10856156 -0.3066224 0.07744601
0000c0 fb a5 bb be 7c 5d d2 3d 5f a3 94 be dc bb 29 be
       -0.3665007 0.10271737 -0.29030892 -0.16575569
0000d0 99 d9 e6 3e 8b 1d f3 bd 28 b4 34 3f cf 00 d8 bd
       0.4508789 -0.11870869 0.70587397 -0.10547029
0000e0 1e 82 15 bd ca 6e c9 bd 21 2d 52 bd 73 39 1e bf
       -0.036501043 -0.098355845 -0.05131257 -0.6180641
0000f0 d7 fe bf bd 11 1f b2 bf b1 7d b1 3f 9e d3 22 bf
       -0.09374779 -1.3915731 1.3866483 -0.6360415
000100 e7 b4 7b be 4d 65 1c 3d 61 38 1d be 64 c4 07 3f
       -0.24580728 0.038182545 -0.15353538 0.53034043
000110 b1 59 08 3f d8 84 e1 bc 59 36 5c be fe 03 69 bf
       0.5326186 -0.027529165 -0.21505107 -0.91021717
000120 68 5c 00 c0 8d 8a 92 be 7e bd cb 3d 45 93 ee 3d
       -2.00564 -0.2862133 0.09948252 0.11649183
000130 93 c3 53 3e a3 a9 11 be c6 bb c9 bd 5e fd ff bf
       0.20680074 -0.14224868 -0.09850268 -1.9999197
000140 33 24 8a 3c 06 e4 99 3d 01 58 ac bf ad 5d 35 bd
       0.016862964 0.07514195 -1.3464357 -0.04427879
000150 f3 26 34 bf a5 bd 0b be 0d 32 ed be 00 35 00 bd
       -0.7037193 -0.13646562 -0.46327248 -0.031300545
000160 7a 10 35 bb ac 01 35 3c fb a1 5e 3e 77 99 15 3e
       -0.002762823 0.011047762 0.21741478 0.14609323
000170 21 cd 93 bd e5 84 de 3c 91 6c b7 3f 6a d3 5c 3f
       -0.072168596 0.027162978 1.4330007 0.8626009
000180 31 40 96 bd 54 ca 6d bf a9 77 54 bb 5a 4e dd 3e
       -0.07336462 -0.92886853 -0.0032419956 0.4322384
000190 17 71 6d bd 75 23 54 3e a3 ae 21 be c8 bc 55 bd
       -0.05796918 0.20716651 -0.15789275 -0.05218199
0001a0 18 2e ed bd d1 c9 e3 3e f4 80 4d 3f 2c 49 02 40
       -0.11581057 0.4448991 0.8027489 2.035716
0001b0 53 b3 ab 3b 00 b0 89 bd d1 40 c1 3d d3 ee 18 3e
       0.005239883 -0.067230225 0.09436191 0.14934854
0001c0 a2 83 7a 3e a3 ff 78 3d cd 3f 57 bf 4b ed 6a bd
       0.24464276 0.06079067 -0.8408173 -0.057355206
0001d0 db e5 77 3f f0 59 37 3f a6 52 c1 be 2f f4 4a 3d
       0.96835107 0.7162161 -0.37758368 0.049549278
0001e0 7c 54 79 bd 27 df 19 be 52 57 8e bc d0 18 4a 3f
       -0.060871586 -0.15026532 -0.017375622 0.7894411
0001f0 99 8c a2 bb 5c 38 96 bf e0 52 83 3f ea f3 0d 3f
       -0.004960608 -1.173595 1.0259666 0.5545031
000200 d7 e6 16 3f f7 8c af be 29 4d c5 bc 79 6f 93 bf
       0.58945984 -0.34287235 -0.024084644 -1.1518394
000210 c2 24 5f c0 44 33 eb be 88 60 d1 3c fe 17 68 be
       -3.4866185 -0.4593755 0.025558725 -0.22665402
000220 cf 8d bd be dc 04 ac bf 55 d0 cd be a1 25 04 bf
       -0.37022254 -1.3438983 -0.40198007 -0.5161992
000230 69 5a e3 be 52 77 f5 be 6e 19 5b be 46 1d 5d 3e
       -0.44404915 -0.47942597 -0.2139642 0.21593198
000240 c0 d3 39 3d 8d bc 93 bf 05 91 77 bf 12 d6 d3 3d
       0.045367956 -1.1541916 -0.9670566 0.10343565
000250 8b e5 8b bf 4f c8 1a be fc 93 81 bf 15 47 a8 3c
       -1.0929426 -0.15115474 -1.0123286 0.020541707
000260 e8 82 42 be dc f4 29 bf 37 65 26 bf f9 72 ae 3d
       -0.1899525 -0.6638925 -0.6499819 0.08518023
000270 f2 8e fc be 7d 70 48 be 42 ae c1 3d da 7d e2 be
       -0.4932781 -0.19574161 0.09457065 -0.44236642
000280 cd f6 96 be 75 61 80 bd 95 fd 67 bf 4f b0 2e be
       -0.2948517 -0.062685885 -0.9062131 -0.17059444
000290 64 b3 02 bf ec 13 56 be f6 5b 2a 3f 0b 72 35 bf
       -0.5105498 -0.20906037 0.6654657 -0.7087714
0002a0 f0 fa 89 3e f2 0e 75 be 37 58 33 bf 10 d1 21 bf
       0.26949263 -0.23931482 -0.7005648 -0.6320963
0002b0 c6 bb 30 bd e2 08 a0 ba f9 14 db be 93 59 bb bd
       -0.043147825 -0.0012209679 -0.42789438 -0.09147944
0002c0 be 99 8b 3c 10 dd 22 3f f1 1f 9e bf cd ab ce bf
       0.017041083 0.63618565 -1.2353498 -1.614618
0002d0 8b 98 22 bf f8 7f f6 be 09 0e 7d be 28 2f ae be
       -0.6351401 -0.48144507 -0.24712385 -0.34020352
0002e0 ab 5e a1 be 1e 47 f2 bd 9a 9d a0 3e e2 da d1 3e
       -0.31517538 -0.11829971 0.3137024 0.40987307
0002f0 5e 15 5b bd 5a 81 f5 3e 5c 61 14 c0 9f 72 34 bf
       -0.053487174 0.4795025 -2.3184423 -0.704874
000300 d7 88 dc bc 16 d9 9b 3e 00 be 20 bf 4e 02 b2 3e
       -0.02692072 0.3043906 -0.62789917 0.34767383
000310 db a6 8d 3f 5e 43 6c 3e f4 43 92 3c 42 54 5e bd
       1.1066545 0.23072574 0.017854668 -0.054279573
000320 f7 e3 e8 bf a3 55 95 3f c4 83 a8 3d c0 b8 45 bf
       -1.8194569 1.1666759 0.08228257 -0.7723503
000330 b3 73 e5 bd a4 77 cb be 26 09 89 3f fa 98 0e 3f
       -0.112037085 -0.39739716 1.0705917 0.55702174
000340 9b 4d 43 3e a2 ea a5 3d 98 12 98 3e 89 8f 69 3d
       0.19072573 0.08101393 0.29701686 0.05702165
000350 68 b7 bd 3e 78 23 0e be 06 c1 c3 bc 59 e6 38 3f
       0.3705399 -0.13880718 -0.023895752 0.7222648
000360 f9 cb f3 3d d6 ff 05 3f ea d9 9e 3e d9 65 3c 3f
       0.11904139 0.523435 0.3102563 0.7359291
000370 6a 1d 0b bf 2e 29 35 3e 79 05 44 3f 11 0f 18 bf
       -0.5434176 0.1769149 0.7657085 -0.5939799
000380 23 a5 62 bf f0 ab d8 bd 1a 4f b0 3f 6e 43 93 be
       -0.8853323 -0.105796695 1.377414 -0.28762382
000390 ce e2 4f 3e fc 4c 39 3e d1 cb a5 be e3 aa 7b 3b
       0.20301363 0.18095773 -0.32382062 0.0038401417
0003a0 19 28 9e bf ea 33 e9 3e dd 72 d5 bd 2b 57 8c 3f
       -1.2355987 0.4554742 -0.10422299 1.0964102
0003b0 4e 3e 1f bd db 5b 68 3d 2d 71 53 3f 02 db d3 3e
       -0.038877778 0.056728225 0.8259457 0.41378027
0003c0 c0 27 c9 3f d5 1b 1d c0 18 2d 5b bd 60 54 44 3f
       1.5715256 -2.4548237 -0.0535098 0.76691246
0003d0 b4 4c 94 3e 07 bc de 3d 43 f9 3c bf c1 dd d8 be
       0.2896477 0.10875707 -0.73817843 -0.42356685
0003e0 a3 ba ac be ee 6f cb 3e c2 fb 8d 3e 63 3c 8d 3f
       -0.33736143 0.39733833 0.27731138 1.1034054
0003f0 7c ac f9 3e 08 a4 7a 3f 5e f9 82 bf 76 af ca 3c
       0.48764408 0.9790654 -1.0232351 0.02474187

link_predictor.0.weight f4 [64, 416]
000000 d1 9d 0f be 0d 09 f7 3c 9b 5d 4f 3f f1 65 23 be
       -0.14025046 0.030155683 0.81002206 -0.15956856
000010 8c 12 9a bd 1d 05 a6 bd e6 d9 5a be da bf eb bd
       -0.07523069 -0.08106444 -0.21372184 -0.11511202
000020 34 d9 65 be 17 93 9c bf 87 40 d5 bd 20 cd da bd
       -0.22446138 -1.2232388 -0.10412698 -0.10683656
000030 5d 1c 53 be 92 33 62 bf ea 48 01 3d 23 c1 65 bd
       -0.20616288 -0.8835994 0.031563677 -0.056092393
000040 c2 d6 34 be 41 5c 0f bd 87 cc 75 3f 2b d0 02 3f
       -0.17660049 -0.03500009 0.9601521 0.5109889
000050 aa 69 94 be 49 7a 26 bf e9 52 0d 3e 08 ac 17 be
       -0.28986865 -0.6503034 0.13801159 -0.14811718
000060 57 e5 b6 3d 0e 19 86 3e e4 8a 8b 3d 08 a9 a1 be
       0.08930462 0.2619099 0.06813601 -0.31574273
000070 a4 2f 27 3e 2f 85 db bc 45 67 f5 3d f7 48 51 bd
       0.16326767 -0.026796905 0.11982588 -0.051094975
000080 27 10 ae c0 ae c3 8b bf f2 a2 2a c0 22 3d a8 40
       -5.4394717 -1.0919092 -2.6661954 5.2574625
000090 ca 39 36 c0 70 cd 9b 40 99 7b a8 c0 07 61 a1 bf
       -2.8472772 4.868828 -5.2650876 -1.2607735
0000a0 8e 0b c3 c0 de 85 6d bf 98 0f f9 3f 14 b9 1d be
       -6.0951605 -0.9278239 1.9457884 -0.15402633
0000b0 6c c7 13 41 ef 91 96 be 65 96 90 c0 cf 90 8e c0
       9.236187 -0.29408213 -4.5183587 -4.455177
0000c0 30 59 87 3f 57 c8 3a c0 a5 a4 f9 3f 5f 4b 1a 40
       1.0574093 -2.9184778 1.950337 2.4108503
0000d0 a9 a9 7b be a1 22 3a 3f 99 d0 4a c0 03 db b0 40
       -0.24576439 0.7270909 -3.1689818 5.526735
0000e0 5a 12 0e 41 82 34 95 40 47 9d db 3f 26 04 59 40
       8.87948 4.6626596 1.7157372 3.3908782
0000f0 00 6f 89 c0 f7 c5 d9 c0 70 dd bb c0 eb e3 6d 40
       -4.2948 -6.8054156 -5.870781 3.717036
000100 8c 2e a0 be ae 7a 91 bf e2 76 94 c0 62 a0 91 40
       -0.31285512 -1.1365564 -4.639512 4.550828
000110 c4 43 04 41 2d d3 f1 40 9d 16 98 40 03 43 cb 40
       8.266544 7.5570283 4.7527604 6.35193
000120 de de 13 3f 3f 42 c0 bf 09 eb 1b c1 9c c4 0a 40
       0.57761943 -1.5020217 -9.744882 2.16825
000130 e4 b5 81 c0 c6 64 4c 40 c7 4d e4 40 9c 10 0a c0
       -4.0534534 3.1936507 7.1344943 -2.1572638
000140 56 d5 88 c0 4c 68 69 3f ed 75 7b 40 b4 b0 01 40
       -4.276042 0.9117477 3.9290726 2.02641
000150 9e f4 49 c0 4e 57 aa 40 09 29 76 40 ce a1 f5 3f
       -3.1555552 5.3231573 3.8462546 1.9190004
000160 41 47 6e 3e e5 d9 5f 40 2b 66 14 c0 78 30 59 40
       0.23269369 3.4976742 -2.3187358 3.3935833
000170 cf 9c 8c c0 77 8d a9 be 33 23 cb c0 12 58 f4 3f
       -4.3941417 -0.33115742 -6.348047 1.9089377
000180 88 50 33 3f 8b 23 dd c0 e0 2a bf c0 67 33 48 c0
       0.70044756 -6.9105887 -5.973984 -3.1281374
000190 1a 0b e9 bf 57 2e f6 bf 58 22 3f 40 bc 34 41 c0
       -1.8206513 -1.9232892 2.9864712 -3.0188437
0001a0 a5 be 44 3f 82 5a 5c 3d 1d c6 f3 3e 7d 54 11 c0
       0.768534 0.053797252 0.47612086 -2.2707818
0001b0 7e d3 5a c0 10 c1 a8 bf 5d 45 4e c0 a7 4d 82 3f
       -3.4191585 -1.3183918 -3.2229836 1.0179948
0001c0 e1 9f 64 40 d4 f1 03 bf e4 a8 d7 3e a7 89 83 bf
       3.5722582 -0.51540875 0.4212104 -1.0276383
0001d0 c5 1c 55 bf b8 94 b8 3d 53 f0 67 be c3 c6 fc 40
       -0.83247024 0.09012741 -0.2265027 7.899263
0001e0 25 0e d7 be 86 45 24 c0 85 8f 98 40 29 5c e0 3e
       -0.4200298 -2.5667434 4.7675195 0.43820313
0001f0 ec 72 1b c0 43 66 23 c0 4b 61 bc 40 91 66 80 be
       -2.4288893 -2.5531166 5.8868766 -0.25078252
000200 d9 1b 4a 40 39 6c a4 40 22 aa 17 3f cd c5 e5 3f
       3.1579497 5.138211 0.5924398 1.7950989
000210 9b 64 86 3f d1 1e 2a c0 5d a1 9c c0 57 55 47 3e
       1.0499452 -2.658131 -4.8946977 0.19466148
000220 c0 04 47 40 9b cc 2b c0 b3 34 fc 3f 50 4b 61 c0
       3.109665 -2.6843631 1.9703583 -3.5202217
000230 d9 83 d2 bf e0 fc 56 c0 c3 61 89 be eb d5 b1 c0
       -1.6446487 -3.3591843 -0.268324 -5.557363
000240 09 97 97 40 94 a1 13 40 c5 7c d8 40 8c cf 91 c0
       4.737187 2.306737 6.7652307 -4.5565853
000250 c2 15 a9 bf 33 d9 d1 c0 8c d5 23 40 91 42 7f 3d
       -1.3209765 -6.5577636 2.5599089 0.062319342
000260 98 e9 19 c1 69 e9 65 c0 6e 6d 6b 40 23 bf 9a 40
       -9.61953 -3.5923712 3.678554 4.835832
000270 ef b2 9d 3f 30 6d 96 40 e8 dc 72 40 7a 57 af bc
       1.2320231 4.7008286 3.794733 -0.021404017
000280 95 73 a7 c0 b0 32 80 bf aa 78 5b c0 76 70 76 40
       -5.232859 -1.0015469 -3.4292397 3.850614
000290 23 fc af c0 ff d3 33 40 1e e2 28 c0 2d d5 19 c0
       -5.4995284 2.8098142 -2.638801 -2.4036362
0002a0 88 e2 07 c0 4a 9c 6f bf 2b d1 9c c0 7c a1 63 40
       -2.1232014 -0.93597853 -4.900533 3.5567312
0002b0 ca 2d 8c 40 08 7f f1 bf cb 5e ce be bf c1 44 c0
       4.3805895 -1.8866892 -0.40306696 -3.0743253
0002c0 d1 30 41 40 29 33 bf 3d d4 1f 98 40 7a d7 8a bf
       3.0186045 0.0933593 4.7538853 -1.0847008
0002d0 2c 8b e7 bf 2c e6 b3 3f 5f 76 94 40 c6 e4 3c c0
       -1.8089347 1.4054618 4.6394496 -2.9514632
0002e0 cd 9c e9 3f b1 70 5c 40 32 74 05 40 df 55 db bd
       1.8250977 3.4443781 2.085217 -0.10709738
0002f0 4a a2 20 40 28 45 cd c0 f9 12 1f 40 69 d2 47 40
       2.5099053 -6.414692 2.485533 3.1222174
000300 fd 71 b4 3f 3a 28 85 40 04 07 48 40 d9 12 dd 3f
       1.4097286 4.1611605 3.1254282 1.7271377
000310 ac 9d 1c c1 db 0e f8 be 71 c1 78 40 e9 9f 66 c0
       -9.788494 -0.48448834 3.8868067 -3.6035101
000320 2c c5 a5 c0 30 7b b6 c0 9f 34 8f c0 ab 26 93 3d
       -5.180319 -5.7025375 -4.4751735 0.0718511
000330 43 a7 78 c0 80 50 7d 40 ec 59 4f 40 21 96 64 40
       -3.8852088 3.9580383 3.2398634 3.5716631
000340 55 e4 b8 40 3a bc 17 bf 13 47 df 3f 36 8b b0 3f
       5.7778726 -0.59271586 1.7443565 1.3792484
000350 74 4a 05 40 7a 8a b6 c0 8b 6a b8 c0 fd 7b a8 40
       2.0826693 -5.704404 -5.7630057 5.2651353
000360 a5 9d ce c0 cd 4a 4a c0 48 9d 0a c0 62 31 35 40
       -6.4567437 -3.1608155 -2.1658497 2.831139
000370 13 0e 8c c0 78 31 da 40 68 a1 71 3f 14 7c 43 bf
       -4.376718 6.8185387 0.9438691 -0.76361203
000380 2d c1 cf 40 ae 82 17 c0 9e af fc bf 73 35 7a bf
       6.492331 -2.367351 -1.9741094 -0.9773781
000390 78 5f e7 3e 48 11 c2 3f ed e7 69 be 76 2c 80 c0
       0.45190024 1.5161524 -0.22842379 -4.0054274
0003a0 1f 71 1a c1 12 c9 f6 c0 57 62 47 40 0e e7 09 3d
       -9.652617 -7.7120447 3.1153772 0.033667617
0003b0 ea 3f 6c 40 4d bc 04 3f 5e 7b 7d 40 65 4e 9e 3f
       3.691401 0.51849824 3.9606547 1.2367674
0003c0 a6 b1 49 bf e3 29 0b c0 2a 32 06 c1 1e 8b 28 bf
       -0.78786695 -2.1744316 -8.387247 -0.65837276
0003d0 33 5a 91 c0 1d dc 46 3f 68 60 32 c0 4c 4b 2e 40
       -4.5422606 0.77679616 -2.7871342 2.7233458
0003e0 6d 3b 17 40 76 e4 15 c0 5f a2 a5 3f ed 12 99 40
       2.363002 -2.3420691 1.2940177 4.7835603
0003f0 0f 51 b3 3f f7 1f b5 3f b0 d8 5e c0 13 01 c7 bc
       1.4009112 1.415038 -3.4819756 -0.024292504

link_predictor.0.bias f4 [64]
000000 e8 be 10 c0 91 36 b1 c0 67 a6 ad 3f e9 d8 bf c0
       -2.261652 -5.537911 1.3566407 -5.9952283
000010 67 82 78 3e 32 8a cb c0 e4 60 e2 c0 b3 7a a7 c0
       0.24268495 -6.3606195 -7.0743275 -5.233728
000020 36 17 b2 c0 47 80 87 c0 f5 c9 63 c0 51 2d 23 bf
       -5.5653334 -4.234409 -3.5592015 -0.6374102
000030 8b 7a 47 c0 d6 d5 9a c0 42 f0 fb bf 4d 6c b3 c0
       -3.1168544 -4.838603 -1.9682696 -5.6069703
000040 8e c1 9d c0 3f e9 25 c0 2f 31 97 c0 c8 8d 88 c0
       -4.9298773 -2.5923612 -4.724754 -4.2673073
000050 8a 1f 9c c0 41 62 ba c0 18 49 e5 bf 5c ef 3d c0
       -4.87885 -5.824494 -1.7912931 -2.9677343
000060 32 d8 ad c0 ec 82 31 c0 70 78 88 c0 c8 c0 a2 c0
       -5.432641 -2.7736158 -4.264702 -5.086033
000070 03 7d 38 c0 0a 31 dd c0 af eb 06 c0 5d 46 f1 c0
       -2.88263 -6.912236 -2.108135 -7.5398393
000080 b8 cf e4 c0 f7 24 3d c0 9d 94 9f c0 5b c8 c9 c0
       -7.1503563 -2.9553812 -4.9868913 -6.3057075
000090 84 9b 23 c0 ad bd a1 c0 e8 3d ff c0 52 5d 6e c0
       -2.556367 -5.054404 -7.976307 -3.7244458
0000a0 b2 6c 86 c0 74 7c 9c c0 f4 08 7d bf 6c d1 2f c0
       -4.2007685 -4.890192 -0.98841786 -2.747157
0000b0 66 f7 7c c0 04 04 a7 bf f4 38 7b c0 5c a9 d6 c0
       -3.9526 -1.30481 -3.9253511 -6.7081738
0000c0 d1 4d a7 c0 58 3a c4 c0 30 5b bf 40 71 a6 de c0
       -5.228249 -6.132122 5.9798813 -6.9578176
0000d0 9b b1 58 c0 05 db be c0 c5 ef 24 c0 3a 89 9a c0
       -3.3858402 -5.964236 -2.5771344 -4.8292513
0000e0 cf 78 11 c1 40 d4 94 c0 e2 73 c7 c0 f3 ba ae c0
       -9.091994 -4.6509094 -6.232896 -5.460321
0000f0 89 a8 38 bf c7 79 59 c0 cd b2 19 c1 f0 87 55 c0
       -0.72132164 -3.3980577 -9.606153 -3.336422

link_predictor.2.weight f4 [1, 64]
000000 33 c2 23 3e 10 7f be 3d 55 e8 03 be e4 c4 0c be
       0.1599205 0.09301579 -0.12881596 -0.13746983
000010 c4 79 f1 bd c4 95 51 3e b3 e6 02 3e 5b ef f6 3d
       -0.11790803 0.20467287 0.12783317 0.12057372
000020 92 19 f6 3d 06 7d 97 bd ca d2 08 be e1 e9 1c be
       0.12016596 -0.07396893 -0.1336166 -0.15323593
000030 20 b0 90 3d 24 b2 b3 3d ad df fb bd 12 44 2b be
       0.07064843 0.08774212 -0.12298522 -0.16725186
000040 f5 61 02 3e f4 a8 26 3e 01 bc dd bd 32 69 09 be
       0.1273268 0.16275388 -0.108268745 -0.13419035
000050 46 93 05 3e 09 d0 e2 3d 62 82 c9 bd 7b 88 08 be
       0.13044462 0.11074836 -0.09839322 -0.13333313
000060 58 d8 ca 3d 64 4f e6 bd f1 be 13 3e dd 82 dc bd
       0.099045455 -0.11245611 0.14428307 -0.10767148
000070 1e 3e 01 be fa 3f 1a be 33 29 01 be e1 6a 00 3e
       -0.12621352 -0.15063468 -0.12613373 0.12540771
000080 7e c2 8d 3d 0f 20 03 be 10 45 d0 3d 0f 58 2a 3e
       0.06921862 -0.12805198 0.101694226 0.16635154
000090 1b ed 09 be ed 71 1a be b7 01 51 3e f1 a2 ed bd
       -0.13469355 -0.15082522 0.2041081 -0.11603344
0000a0 e2 ed 0e be 61 81 29 be 02 e4 f7 bd 00 18 1a be
       -0.13957933 -0.1655326 -0.12104036 -0.15048218
0000b0 44 24 0a be 9c f4 e7 bd bb c0 9f 3d b4 0d c9 3d
       -0.13490397 -0.113259524 0.07800432 0.09817067
0000c0 51 4f 33 be ae 83 c9 3d 92 59 12 3e 32 9a 0b be
       -0.17510726 0.09839569 0.14291981 -0.1363304
0000d0 d8 8a b2 3d 23 92 dc 3d 5e 89 37 be 84 bb 21 be
       0.087178886 0.10770061 -0.17923495 -0.15794188
0000e0 64 af 4a bc e6 94 14 3e c6 c5 0e be 73 89 16 3e
       -0.012370918 0.14509925 -0.13942632 0.1470087
0000f0 d7 36 1c be 02 ab ce 3d 04 3b 0f 3e e7 50 f0 3d
       -0.15255295 0.10091211 0.13987356 0.11734181
