new_checkpoints/model_epoch_2.pth (torch, 217416 bytes, 7 tensors)

conv1.bias f4 [64]
0	0xc06e3cf7	-3.722471
1	0x3f94c105	1.1621405
2	0xc0772793	-3.8617904
3	0xc0a8b142	-5.271638
4	0xc08b18e1	-4.346787
5	0x3be0fa86	0.006865802
6	0xbffe8881	-1.9885408
7	0xc021b83f	-2.5268705
8	0xc00ee5f3	-2.232785
9	0xc06a5c6d	-3.6618912
10	0x3f6422f9	0.89115864
11	0xc06e9b41	-3.728226
12	0x3e01ec27	0.12687741
13	0xc0f848a9	-7.7588696
14	0xc095f917	-4.6866565
15	0xc0965e35	-4.699
16	0xbeaf05b0	-0.34184027
17	0xc00cecf4	-2.2019625
18	0xc09ee423	-4.9653487
19	0x3f4dedf6	0.80441225
20	0xc080c2dc	-4.0237865
21	0x3ea1d1e8	0.31605458
22	0xc022cfca	-2.5439324
23	0xbcf0408a	-0.02932765
24	0xc085baa4	-4.1790333
25	0x3f0a2122	0.53956807
26	0xc086d0f9	-4.2130094
27	0xc03cd24b	-2.9503353
28	0xbfbec6b6	-1.4904392
29	0xbeab0cdd	-0.3340825
30	0xc05e6d6b	-3.4754283
31	0xc0716539	-3.7718031
32	0x3f6b8bcf	0.92010206
33	0xc0290fec	-2.6415968
34	0xc0742c42	-3.8152013
35	0xbf81c6a7	-1.0138749
36	0xbe5af664	-0.21383053
37	0xc0870210	-4.219002
38	0xc00bcfdb	-2.1845615
39	0x3f3f10ea	0.74635184
40	0x3ec0bee7	0.37645647
41	0x3ed72f0e	0.42028087
42	0xc02ae267	-2.6700685
43	0xc04204b2	-3.0315366
44	0x3c3c3b6f	0.011488779
45	0x3ee11532	0.43961483
46	0xbf3524b9	-0.7075916
47	0x3fb8ca10	1.4436665
48	0xc05d919d	-3.4620125
49	0xc01625b4	-2.3460512
50	0xc03b3cb5	-2.9255803
51	0xbdc1a844	-0.09455922
52	0xc0683ccb	-3.6287105
53	0xc0245924	-2.5679407
54	0xc03d5c62	-2.9587636
55	0x3f039141	0.51393515
56	0x3ea7b9b5	0.3275887
57	0xbd55d476	-0.05220457
58	0x3dcd84fa	0.10035129
59	0xc06c2e1c	-3.6903143
60	0x3f4999a3	0.78750056
61	0xc057f83a	-3.3745255
62	0xc063a1cb	-3.55675
63	0xc07d59ea	-3.958613

conv1.lin.weight f4 [64, 384]
0	0x3f9466f7	1.1593922
1	0xbf06cc59	-0.5265556
2	0x3f8b6ac4	1.0891957
3	0x3e87b0c6	0.26502055
4	0xbf64fe58	-0.894506
5	0x3eea7226	0.45790213
6	0xbba788c1	-0.005112738
7	0xbc715bd2	-0.014731364
8	0xbfdecf09	-1.7406932
9	0xbe7acb62	-0.24491647
10	0x3f5f5eb5	0.87253886
11	0xbdcb5b91	-0.09929574
12	0xc005f10e	-2.0928378
13	0x3f4aeaab	0.79264325
14	0xbe84b364	-0.25918114
15	0x3e3c3985	0.18381317
16	0x3f7967f6	0.97424257
17	0xbf8e71b2	-1.1128447
18	0x3f6668ef	0.90003866
19	0xbdfb5e03	-0.12273791
20	0xbf26475a	-0.64952624
21	0x3d23ae20	0.03996098
22	0xbea3e2eb	-0.32009062
23	0xbf3fb156	-0.7487997
24	0x3f2292cc	0.63505244
25	0x3e241002	0.16021731
26	0x3eba58f7	0.36396
27	0x3f601572	0.8753272
28	0x3f8bc6e6	1.0920074
29	0x3f99a740	1.2004166
30	0xbf35bb86	-0.70989263
31	0xbf03413e	-0.51271427
32	0xbf678e52	-0.9045154
33	0xbf08a70a	-0.5337988
34	0x3fb757c2	1.4323657
35	0xbf62de18	-0.8862014
36	0xbf995f85	-1.1982275
37	0x3e804215	0.25050417
38	0xbe18a21d	-0.14905591
39	0xbeb0e41d	-0.34549037
40	0x3f5067bc	0.81408286
41	0xbfb007cc	-1.375238
42	0xbf12d7ad	-0.57360345
43	0xbf478d0a	-0.77949584
44	0x3f57e46d	0.84332925
45	0xbe807beb	-0.25094542
46	0xbe8f9740	-0.28045082
47	0x3eaadd53	0.33371982
48	0x4003fbc7	2.0622423
49	0x3ecd55df	0.40104577
50	0x3dca4e26	0.09878187
51	0xbedc3eee	-0.43016762
52	0x3f1536da	0.5828682
53	0xbf87aa03	-1.0598758
54	0x3e7bd71f	0.24593781
55	0xbf37d754	-0.7181294
56	0x3e8492b3	0.25893173
57	0x3f744a5a	0.9542595
58	0x3f76203f	0.96142954
59	0x3eee4af0	0.46541548
60	0x3fd55882	1.6667635
61	0x3f8b0bdb	1.0862993
62	0x3ee59f0e	0.44847912
63	0x3f23a421	0.63922316
64	0xbef5e838	-0.4802873
65	0x3c855c9f	0.016279517
66	0xbd63a7e7	-0.055580046
67	0x3df2d159	0.11856336
68	0x3f13b257	0.57694
69	0x3f28f472	0.65997994
70	0x3f85fcc9	1.0467769
71	0x3e3aba88	0.18235219
72	0xbbb73ff3	-0.00559234
73	0xbf53691f	-0.8258228
74	0x3e36bbd0	0.17845082
75	0x3f1920ab	0.5981547
76	0x3de7e770	0.1132344
77	0xbf8e2a0e	-1.1106584
78	0xbf4d04f2	-0.8008567
79	0xbe44b030	-0.19207835
80	0xbf1370ef	-0.575942
81	0xbf615761	-0.88023955
82	0x3f456d59	0.77119976
83	0xbf10b9cc	-0.56533504
84	0xbf4a6f49	-0.7907606
85	0xbeed45cb	-0.4634231
86	0x3f84be14	1.0370507
87	0x3e09c698	0.13454664
88	0xbf4032d6	-0.7507757
89	0x3f9cca38	1.2249212
90	0x3fa7d6c3	1.3112415
91	0xbf129f65	-0.57274467
92	0xbf8a3899	-1.0798522
93	0xbfb10622	-1.3829997
94	0xbf04437f	-0.5166549
95	0x3fbe1059	1.4848739
96	0xbf93d2c3	-1.1548694
97	0x3eda5acc	0.42647398
98	0xbf077cfd	-0.5292509
99	0xbea1e8bb	-0.31622872
100	0xbf935758	-1.151103
101	0x3f2042f1	0.62602144
102	0xbf307614	-0.6893017
103	0x3da041fa	0.07825084
104	0xbe27bdf3	-0.16381054
105	0x3f801feb	1.000974
106	0xbfdcc9a5	-1.7249037
107	0xbf4885a6	-0.7832893
108	0xbf875d49	-1.0575343
109	0x3f101de6	0.5629562
110	0x3f48f697	0.78501266
111	0x3ea5a049	0.3234885
112	0x3f28065a	0.6563469
113	0xbf5a7918	-0.85341024
114	0xbd82d02f	-0.06387364
115	0x3c04360f	0.008069529
116	0x3f9a31c0	1.2046432
117	0xbfd0b211	-1.6304342
118	0xbffd8905	-1.980744
119	0xbe549899	-0.20761336
120	0xbe75ba7d	-0.23996921
121	0xbc8d0bd1	-0.017217549
122	0xbfb56c88	-1.4173746
123	0xbec59e18	-0.38597178
124	0xbf1fe7ac	-0.6246288
125	0xbee28509	-0.44242123
126	0x3fc0f011	1.5073262
127	0x3d9370e4	0.071992666
128	0x3fefc467	1.8731812
129	0xbe172c8f	-0.14763092
130	0x3fa04a89	1.2522746
131	0xbea270ae	-0.31726593
132	0xbb8788a6	-0.004136163
133	0xbf2584f5	-0.64656
134	0x3e83db5b	0.25753292
135	0xbef0e3da	-0.47048837
136	0x3f455ca0	0.7709446
137	0xbf785079	-0.9699779
138	0x3d3e2a7f	0.046427246
139	0xbfa5a515	-1.2941004
140	0x3f1270e0	0.57203484
141	0x3d9bc34d	0.0760561
142	0xc00ac4cb	-2.1682613
143	0x3ec6e731	0.3884826
144	0x3ef27a8b	0.47359118
145	0xbf85a5e4	-1.0441251
146	0xbfe9f9fc	-1.8279414
147	0x3fc7f6ee	1.5622232
148	0xc00d9888	-2.2124348
149	0x3fecf51d	1.8512303
150	0x3e082b18	0.13297689
151	0x3ee85f44	0.45385182
152	0xbf121c52	-0.57074463
153	0xbe1b11ec	-0.15143555
154	0xbfc5abde	-1.5443075
155	0x3f9734f3	1.1813034
156	0xbea6a7fa	-0.3255003
157	0xbf6abc4a	-0.91693556
158	0xbf883a1a	-1.0642731
159	0x3ee76752	0.45196015
160	0xbeb958a9	-0.36200455
161	0x3f07de41	0.5307351
162	0xbfe19780	-1.7624359
163	0xbd17dc7a	-0.037075497
164	0x3f786576	0.9702982
165	0x3e2b40f5	0.16723998
166	0xbfb80d89	-1.4379131
167	0xbfb8ae5c	-1.442821
168	0x3f7289a6	0.94741285
169	0x3dfd913f	0.12381219
170	0x3b989896	0.0046568615
171	0x3f943d34	1.1581178
172	0x3f9b2d36	1.2123172
173	0x3f5c5afe	0.86076343
174	0x3eac557d	0.33658972
175	0xbe802e0b	-0.25035128
176	0xbf1302e5	-0.5742629
177	0x3fb6516b	1.4243597
178	0xbec04a90	-0.37556887
179	0xbdf7420a	-0.12073143
180	0xbf243a4a	-0.6415144
181	0x3dc81269	0.097691365
182	0xbf9d6e67	-1.2299317
183	0x3e630223	0.22168784
184	0xbf4befaf	-0.79662603
185	0xbf308ce9	-0.6896501
186	0x3f492305	0.7856906
187	0xbf64a6d1	-0.8931704
188	0x3fad3fd7	1.3535107
189	0xbfa4003c	-1.2812572
190	0x3f1a25d8	0.60213995
191	0x3ed9a042	0.4250508
192	0x3e5456fc	0.20736307
193	0xbe77ed53	-0.24211626
194	0xbf4cfbe0	-0.8007183
195	0x3f31d33d	0.6946295
196	0xbd15a9d0	-0.0365389
197	0xbf5a3260	-0.85233116
198	0xbf5fbcfc	-0.8739774
199	0x3f4cc358	0.7998557
200	0x3ef7db5f	0.48409554
201	0x3ee848c3	0.45368013
202	0x3e565def	0.2093427
203	0x3eb27c55	0.34860483
204	0x3ddde1ae	0.108340606
205	0xbf169e42	-0.5883523
206	0xbc538dd0	-0.012912229
207	0x3f47caac	0.7804363
208	0x3f1f3664	0.6219237
209	0xbdf71c08	-0.120658934
210	0xbf521497	-0.8206267
211	0xbf31f141	-0.6950875
212	0xbe9f22cc	-0.31081235
213	0x3f22c579	0.6358257
214	0xbe32a6ba	-0.17446414
215	0xbf1172e2	-0.5681592
216	0x3fc86115	1.5654627
217	0xbef8d85f	-0.48602578
218	0x3e132e8a	0.14373222
219	0x3fa11566	1.2584655
220	0x3e039947	0.1285144
221	0xbf90f123	-1.1323589
222	0x3f323966	0.69618833
223	0x3d8464c3	0.06464531
224	0x3ea983ce	0.33108371
225	0xbf8304fd	-1.0235897
226	0x3d374879	0.04474685
227	0xbf68de89	-0.9096456
228	0xbe96b874	-0.29437602
229	0x3fd76982	1.6829073
230	0xbf4a8079	-0.79102284
231	0x3f17be1b	0.5927445
232	0xbf38a603	-0.72128314
233	0x3ebbf203	0.36708078
234	0xbee7fc2f	-0.45309588
235	0x3f4920bb	0.7856557
236	0xbea98a95	-0.33113542
237	0xbffc8ac2	-1.9729846
238	0x3dbf4924	0.09340122
239	0x3ca4c9f0	0.020115823
240	0xbe3e60db	-0.18591635
241	0x3f714c46	0.9425701
242	0x3e80f1cf	0.25184485
243	0x3f2b747f	0.66974634
244	0xbe820abd	-0.25398818
245	0xbf7bc397	-0.9834532
246	0xbd484119	-0.048890207
247	0xbdec74df	-0.11545729
248	0xbed1fe8a	-0.4101451
249	0x3f6f18cf	0.9339723
250	0x3f50786d	0.81433755
251	0xbf8cf536	-1.1012332
252	0xbf9b6055	-1.2138773
253	0x3f0efc0f	0.5585336
254	0x3f87b310	1.060152
255	0x3e91135e	0.28335088

conv2.bias f4 [32]
0	0x3d7fbc28	0.0624353
1	0xbcdc1c9c	-0.02686911
2	0x405285c3	3.2894142
3	0x3be5a3af	0.007008038
4	0x3e1fe170	0.15613341
5	0xbde84242	-0.11340763
6	0x3d522128	0.05130115
7	0xbdd958be	-0.10612629
8	0x3f89e3b4	1.0772614
9	0xc051cb6f	-3.2780416
10	0x3e1a1b7a	0.15049544
11	0xbe56692a	-0.20938554
12	0xbff90b4e	-1.9456575
13	0xc0517973	-3.2730377
14	0xbe4cc889	-0.19998373
15	0xbd385742	-0.04500509
16	0x3dec506a	0.11538775
17	0xbf22971b	-0.6351182
18	0xbd5ef50b	-0.05443291
19	0x3fae72b8	1.3628759
20	0xbe3ea181	-0.18616296
21	0xbfa94b1e	-1.3226049
22	0xbe1e4103	-0.15454488
23	0x3f5d044b	0.86334676
24	0x3e53a4c8	0.20668328
25	0xbfb6f24d	-1.4292694
26	0xbd806031	-0.06268347
27	0xbf7a56f1	-0.9778891
28	0xbdcb3dbe	-0.09923886
29	0xbd003a4c	-0.031305596
30	0xbf324121	-0.6963063
31	0x3f022ad3	0.50846595

conv2.lin.weight f4 [32, 64]
0	0x3ead9589	0.3390315
1	0xbc550f7c	-0.01300418
2	0x3fa10f46	1.2582786
3	0xbeb2275a	-0.34795648
4	0xbf95ab30	-1.1692867
5	0xbcf577a2	-0.029964272
6	0x3c69d313	0.014271515
7	0x3e9314c9	0.28726795
8	0xbe0b5a69	-0.13608707
9	0x402b0cfa	2.672667
10	0x3d497e4e	0.04919272
11	0xbf13db1a	-0.577562
12	0xbe52065b	-0.20510237
13	0x3ecd46fe	0.40093225
14	0xbb755598	-0.003743505
15	0xbbe07b22	-0.006850616
16	0x3d2fd9df	0.042932387
17	0x3d54c992	0.051950045
18	0x3f0199df	0.50625414
19	0xbd3bf220	-0.045885205
20	0xbee887e6	-0.45416182
21	0xbb9b4333	-0.0047382354
22	0xbf6c0f42	-0.9221078
23	0xbd3f3e18	-0.046690077
24	0xbd91e4f8	-0.071237504
25	0xbcb10ad9	-0.021611618
26	0x3f662529	0.8990045
27	0x3fdbfbb6	1.7186191
28	0xbd3be1a2	-0.045869477
29	0xbd541f27	-0.05178752
30	0x3f8b922b	1.0903982
31	0xbea0dbdf	-0.31417748
32	0x3deb4507	0.11487775
33	0xbed0d743	-0.40789232
34	0xbe3a8154	-0.18213397
35	0xbe9bcae1	-0.30428222
36	0xbd186bcf	-0.03721219
37	0xbd8a295e	-0.067461714
38	0xbf73af9d	-0.9518984
39	0x3d13ba9d	0.03606664
40	0xbd92e1a5	-0.071719445
41	0x3e807897	0.25092003
42	0x3e02d937	0.12778173
43	0xbd7db422	-0.061939366
44	0x3d377371	0.044787828
45	0x3b5465f2	0.0032409397
46	0xbab8f69c	-0.0014111581
47	0xbd80d0e9	-0.062898465
48	0x3fca6732	1.5812743
49	0xbe747259	-0.23871745
50	0xbfc8e426	-1.5694625
51	0xbdfa0187	-0.122073226
52	0x3fc0a755	1.5051066
53	0x3e9ae4a3	0.3025256
54	0xbf42ea35	-0.7613862
55	0xbc62155a	-0.013799036
56	0xbd8df35a	-0.06931181
57	0xbe112495	-0.14174111
58	0x3e2822a9	0.16419472
59	0xbf6c613c	-0.9233587
60	0x3d425c20	0.04745114
61	0xbf1bb603	-0.608246
62	0xbef3c976	-0.4761464
63	0xbf05a5dc	-0.52206206
64	0x3ed58899	0.41705778
65	0x3bd82a74	0.0065968577
66	0xbf1e22fe	-0.61772144
67	0xbeecb8f4	-0.46234858
68	0xbf7ece14	-0.995332
69	0xbe286890	-0.16446137
70	0x3e5ed28e	0.21760008
71	0x3f9d2c11	1.2279073
72	0xbe725133	-0.23663788
73	0x3e97b72e	0.29631943
74	0xbc40b414	-0.011761684
75	0xbf424703	-0.75889605
76	0x3e502124	0.20325142
77	0x3bcec9c0	0.0063106716
78	0xbf4fd3b0	-0.81182384
79	0x3d567348	0.052356035
80	0x3d34d4ce	0.04414826
81	0x3f16db2f	0.589282
82	0x3ff7908a	1.9340985
83	0xbdb4b53f	-0.088236324
84	0xbea3f35c	-0.32021606
85	0x3dcd8078	0.10034269
86	0x3e792cb5	0.2433346
87	0xba7422d0	-0.0009313049
88	0x3d492a0d	0.04911237
89	0xbe029c4c	-0.12754935
90	0xbfc3caec	-1.5296302
91	0xbec8454d	-0.39115372
92	0xbd7af0e9	-0.061264906
93	0x3c8d7327	0.017266823
94	0x3e88f555	0.26749673
95	0xbf093e1b	-0.5361039
96	0xbb8f11ba	-0.004366127
97	0xbff8e277	-1.9444112
98	0x3e98c59c	0.29838264
99	0xbda27d4f	-0.07934057
100	0xbd93c3ff	-0.07215118
101	0x3de335b7	0.1109423
102	0x400758de	2.114799
103	0xbd4c8bdd	-0.04993807
104	0x3c969e11	0.018385919
105	0xbd6232cc	-0.055224225
106	0x3ebfdf5f	0.37475106
107	0x3ffdda0d	1.9832169
108	0x3b6d5b86	0.0036217882
109	0x3c918695	0.017764369
110	0x3d66c949	0.056344304
111	0x3dd5b8ba	0.104356244
112	0xbf875df0	-1.0575542
113	0x3d2434b5	0.040089328
114	0x3d88fd10	0.06688893
115	0xbdcc6a2a	-0.09981187
116	0x3e0f1e59	0.1397642
117	0x3f11e0f4	0.56983876
118	0xbdd360bd	-0.10321186
119	0x3dbc78a2	0.092026964
120	0x3c981f90	0.018569738
121	0xbd3b6e21	-0.045759324
122	0xbc717c7b	-0.014739151
123	0xbeac9738	-0.3370912
124	0xbd90553e	-0.07047509
125	0xbfc0c6b1	-1.5060636
126	0x3eb8d3ca	0.36099082
127	0xbf8c9785	-1.098374
128	0xbe20c507	-0.1570016
129	0xbf0cd299	-0.55008847
130	0xbef67475	-0.48135725
131	0x3dbfa203	0.09357073
132	0x3fad0ee6	1.3520172
133	0xbf01b5c6	-0.5066799
134	0x3ddc4b6d	0.10756574
135	0xbf988d8b	-1.1918195
136	0x3f26eb7a	0.6520306
137	0x3fabb668	1.3415041
138	0xbed64d4c	-0.41855848
139	0xbf864ca1	-1.0492135
140	0xbe4456ed	-0.19173785
141	0x3f545a33	0.82950133
142	0xbf3a4017	-0.72754043
143	0xbf0257b1	-0.50915056
144	0x3bedb215	0.007253895
145	0xbee161f5	-0.44020048
146	0x3e410240	0.18848515
147	0x3cc9908a	0.024605054
148	0xbf26f398	-0.65215445
149	0xbece0b0e	-0.4024281
150	0xbea1c015	-0.3159186
151	0x3cc902a6	0.024537396
152	0x3e4c87ee	0.19973728
153	0xbf05a8ff	-0.5221099
154	0xbe2ddf5a	-0.16979733
155	0xbfa11e36	-1.2587345
156	0xbf08a9a3	-0.53383845
157	0xbe8ab5ba	-0.2709177
158	0xbf824b1d	-1.0179173
159	0xbfcc02b3	-1.5938324
160	0xbc8c40d8	-0.017120764
161	0x3f05cc73	0.5226509
162	0xbfbe7411	-1.4879171
163	0xbe7907a1	-0.24319316
164	0xbf17ce79	-0.5929943
165	0xbe904cca	-0.28183585
166	0x3dc0d0e2	0.09414841
167	0xbf0340e5	-0.51270896
168	0x3ebca1c1	0.36842158
169	0xbe5256be	-0.20540902
170	0x3f06f350	0.52715015
171	0xbf20cb3c	-0.6281011
172	0xbd983770	-0.07432449
173	0xbe5c6c3d	-0.21525665
174	0xbe051fc6	-0.13000402
175	0xbe2967d3	-0.16543512
176	0xbe578631	-0.21047284
177	0xbe4dc75a	-0.20095578
178	0x3f17e7e6	0.59338224
179	0xbfd2aa8b	-1.6458296
180	0xbf7aa577	-0.9790873
181	0xbee2cb8c	-0.4429592
182	0xbea746b8	-0.32671142
183	0xbefa9fa2	-0.48949915
184	0x3e300080	0.1718769
185	0x3e788a02	0.24271396
186	0x3e958eff	0.2921066
187	0xbe92d254	-0.28676093
188	0xbc1544cc	-0.009110641
189	0x3de13595	0.10996548
190	0xbf87ffff	-1.0624999
191	0x3effc6b6	0.49956292
192	0x3f493b12	0.7860576
193	0xbe87ee91	-0.265492
194	0xbfb1769d	-1.3864323
195	0x3e508083	0.20361523
196	0x3eb60d90	0.35557222
197	0x3d4a8a39	0.049448226
198	0x3f28c04f	0.6591844
199	0xbf341344	-0.70341897
200	0xbe2bd64a	-0.16780964
201	0x3f1c48fc	0.61048865
202	0x3baf149b	0.0053430325
203	0xbf08ad60	-0.5338955
204	0xbe97fc6d	-0.29684773
205	0x3f1a2e95	0.6022733
206	0xbef6f79b	-0.48235783
207	0x3e22fb5f	0.15916203
208	0xbe7a8a44	-0.24466807
209	0x3eb47a96	0.35249776
210	0x3e0207ee	0.12698337
211	0x3eadbedc	0.33934677
212	0xbfa965c2	-1.3234179
213	0xbf7cfb10	-0.9882059
214	0xbf3656f3	-0.71226424
215	0x3edf4060	0.43603802
216	0xbfaa4f09	-1.330537
217	0xbed60017	-0.41796944
218	0x3f32d1b7	0.6985125
219	0x3f8e638a	1.1124127
220	0x3f42b091	0.7605067
221	0x3d8ae19f	0.06781315
222	0x3ec28f2b	0.37999853
223	0xbeffe800	-0.4998169
224	0xbdd1d012	-0.102447644
225	0x3f31511f	0.69264406
226	0xbf7bfd8e	-0.9843377
227	0x3e5aa5b4	0.21352273
228	0x3d53ab4a	0.051677026
229	0xbf9a8ff7	-1.2075185
230	0xbfaf987c	-1.371841
231	0xbce582d9	-0.028016495
232	0x3f56b86f	0.83875173
233	0x3c316ff1	0.010829912
234	0xbec056f9	-0.37566355
235	0x3e83192e	0.25605148
236	0x3f4fc9df	0.81167406
237	0xbc0479bf	-0.008085667
238	0x3f2fa970	0.68617916
239	0x3f12efd0	0.57397175
240	0x3f23a7dd	0.63928014
241	0x3eb340fc	0.35010517
242	0x3e305014	0.17218047
243	0x3dfcae83	0.12337973
244	0x3f469b77	0.7758097
245	0x3dee1ac9	0.116262026
246	0xbf573bd8	-0.8407569
247	0x3e0abe06	0.1354905
248	0xbf2f990b	-0.685929
249	0xbf20197e	-0.625389
250	0xbe7f7af3	-0.24949245
251	0x3f384701	0.71983343
252	0xbf3b53c8	-0.73174715
253	0x3e3ea903	0.1861916
254	0x3dcfe58f	0.10151207
255	0xbf8a985f	-1.082775

link_predictor.0.weight f4 [64, 416]
0	0xbea73bc5	-0.32662788
1	0x3e084a18	0.13309515
2	0x3f8ee95d	1.1164967
3	0x3e8db674	0.27678263
4	0xbd8b8000	-0.068115234
5	0x3dc67d3f	0.096918575
6	0xbe862353	-0.26198825
7	0xbe28daa6	-0.16489658
8	0x3c1642ec	0.009171229
9	0xbfa6ab4d	-1.3021027
10	0xbd5a3f2f	-0.053282913
11	0xbe0d3774	-0.13790685
12	0x3d4179c0	0.04723525
13	0xbf8692f8	-1.0513601
14	0xbed205b8	-0.41019988
15	0xbea39f3c	-0.31957424
16	0xbe6523bf	-0.22376917
17	0xbf2d96d9	-0.678083
18	0xbef6bffd	-0.4819335
19	0x3eb6c00b	0.35693392
20	0x3dff4370	0.124640346
21	0xbf62101d	-0.88305837
22	0x3e944b38	0.28963637
23	0xbd7aadc0	-0.061200857
24	0xbd5afe3d	-0.053465117
25	0xbec0d488	-0.37662148
26	0x3f45c9d5	0.77261096
27	0xbe8401cb	-0.25782618
28	0x3d4edc58	0.050503105
29	0xbde5ecf9	-0.112268396
30	0x3e335ae4	0.17515141
31	0x3ed4909b	0.41516575
32	0x402fde67	2.7479494
33	0xbe9ee22a	-0.31031924
34	0x40460b87	3.0944536
35	0xbed0ae92	-0.40758187
36	0xc070b156	-3.7608237
37	0xc040ec1c	-3.014411
38	0xc023e220	-2.5606766
39	0xc003c794	-2.0590563
40	0xc03a35f4	-2.909543
41	0xc0b5b04e	-5.6777716
42	0x3e0df8c8	0.13864434
43	0xc0932ca7	-4.5992007
44	0xc0385d99	-2.8807127
45	0x4000f00e	2.0146518
46	0x3fb953c1	1.4478685
47	0x40061c35	2.0954716
48	0x4075f5d9	3.8431304
49	0xc0808be9	-4.017079
50	0xc00e2be8	-2.2214298
51	0xbfee28a3	-1.8606151
52	0x3fe4a34b	1.7862333
53	0x3f64940b	0.89288396
54	0xc06baf32	-3.682568
55	0x400c7af1	2.1950037
56	0x40a63013	5.1933684
57	0x3fa813ce	1.3131044
58	0x4061f7b6	3.530744
59	0x4036f12f	2.8584707
60	0xc004abb4	-2.07298
61	0xbf6cb75e	-0.92467296
62	0xc04c3075	-3.1904576
63	0x400055bf	2.0052335
64	0xbfef188e	-1.8679368
65	0xc0920441	-4.5630193
66	0xbf3e7bdd	-0.7440775
67	0xbf0e31f9	-0.55545
68	0xbf700518	-0.9375777
69	0x409ae5cd	4.840552
70	0x400e558b	2.2239711
71	0x410ae2e2	8.680391
72	0x409ed13d	4.963042
73	0xbe169853	-0.14706545
74	0x4014b10f	2.3233068
75	0xbe1cf6e8	-0.15328562
76	0xc0f8c48b	-7.773992
77	0x40afbdc6	5.4919157
78	0xc005ee3e	-2.0926661
79	0xc0c98dce	-6.29856
80	0x3e2ab5bb	0.16670887
81	0x40c4191d	6.1280656
82	0x4066f0e6	3.6084533
83	0x3ff08c52	1.8792822
84	0xbf6063e1	-0.87652403
85	0x40271ea1	2.6112444
86	0x401efd04	2.4841928
87	0xbe656d00	-0.22404861
88	0x401c2b66	2.4401488
89	0xc097209e	-4.7227316
90	0x40265785	2.5990918
91	0xbf8e4227	-1.1113938
92	0xbfe000c8	-1.7500238
93	0xc04f40a2	-3.2383199
94	0xc02a5164	-2.6612177
95	0xc0499ab0	-3.1500664
96	0xc08e0b28	-4.438862
97	0xbed72b45	-0.420252
98	0xbf10bcfb	-0.5653836
99	0x3f4be747	0.79649776
100	0xbfc0e699	-1.5070373
101	0x3f3b4d3d	0.7316473
102	0x400d70b2	2.2100034
103	0x408e40f0	4.445427
104	0xbffc54cb	-1.9713377
105	0x4008369b	2.1283329
106	0xc0725c86	-3.7868972
107	0x3fdb668c	1.714067
108	0xbed93d14	-0.4242941
109	0xc0e426f7	-7.1297565
110	0x3f77fc66	0.96869504
111	0xc03204d6	-2.7815452
112	0x41580d05	13.503179
113	0x3f422fdf	0.75854295
114	0x3f85cc61	1.0452996
115	0x40550d22	3.3289266
116	0x3ff9ebbd	1.9525067
117	0x3f8094fb	1.0045465
118	0x3f79bdb9	0.9755512
119	0xc082ab21	-4.0833898
120	0x4090edff	4.5290523
121	0xc01148c3	-2.270066
122	0x40acca68	5.399708
123	0x40adf30d	5.4359193
124	0xc043bba0	-3.0583267
125	0xc09cff6c	-4.9061794
126	0x3f658aa4	0.89664674
127	0x3fb71a8d	1.4304978
128	0xc03e6b21	-2.9752886
129	0xbcf441d4	-0.029816546
130	0x3d9c931c	0.076452464
131	0x40a9d858	5.307659
132	0x40d51bb8	6.6596336
133	0xc04ccb3e	-3.199905
134	0x4017eb79	2.373747
135	0xbe7c2e10	-0.24626946
136	0xc01a5f8f	-2.4120824
137	0xc0125b77	-2.2868326
138	0xc0269174	-2.6026278
139	0x40325774	2.7865877
140	0x402a747f	2.6633604
141	0x3f695369	0.911429
142	0xc089bc89	-4.3042645
143	0x40b20d01	5.5640874
144	0x409988a9	4.797932
145	0x40576d26	3.366037
146	0xbeb33b91	-0.35006383
147	0xbf2d4bcd	-0.6769379
148	0x3f0bbb01	0.5458222
149	0xc0004820	-2.0044022
150	0xc068c5a3	-3.6370628
151	0x40324e2a	2.7860208
152	0xc066fb3b	-3.609084
153	0xc0a449a4	-5.1339893
154	0x3f440041	0.7656289
155	0x404abb7b	3.167693
156	0x40749f5d	3.8222268
157	0xbfc520d8	-1.5400648
158	0x3ecd50ae	0.40100616
159	0xbcaf577a	-0.021404017
160	0xc06c66ef	-3.6937826
161	0xc001829f	-2.0235975
162	0xc00ab06d	-2.1670182
163	0x404673e8	3.1008244
164	0xc01282ca	-2.2892327
165	0xc0816a10	-4.044197
166	0xbfb3f78f	-1.4059924
167	0x4025686f	2.5844991
168	0xbd9baedc	-0.07601711
169	0x3eea2fc6	0.45739573
170	0x401ada07	2.4195573
171	0xc053e19a	-3.3106446
172	0xc04b9537	-3.1809824
173	0x3fb50b44	1.4144063
174	0xbe1e01d1	-0.1543038
175	0xc005bfdb	-2.089835
176	0x4099d3d3	4.8071074
177	0xbf450dc0	-0.76974106
178	0xc0c3aef7	-6.115108
179	0xc0029cba	-2.0408158
180	0xbe4ca55d	-0.19984956
181	0xc025b7af	-2.5893362
182	0xbd439f3f	-0.04775929
183	0x4018bb5e	2.386436
184	0xbf831f59	-1.0243942
185	0xbe176a79	-0.1478671
186	0x411cd011	9.800797
187	0x402be1d7	2.6856592
188	0xbed5f33e	-0.41787142
189	0xc087fc4f	-4.2495494
190	0x3fe24be1	1.7679406
191	0x3fc7cca7	1.560933
192	0x3ff75b0e	1.9324663
193	0x3f133a1e	0.57510555
194	0x4062d8cf	3.544483
195	0xbfdaed3b	-1.7103647
196	0xc04486fb	-3.0707386
197	0xc0278c1b	-2.6179264
198	0xbfb9567c	-1.4479518
199	0x40a82a31	5.2551503
200	0xbf841946	-1.0320213
201	0xbfe8129d	-1.813068
202	0x3f91b296	1.1382625
203	0xbfaf95c2	-1.3717577
204	0xc0885ce8	-4.261341
205	0x3e60e22d	0.21961279
206	0x40e0f3a0	7.0297394
207	0x3f00b4de	0.5027598
208	0x4149d3df	12.614226
209	0x40026a19	2.0377257
210	0xbfa31cc5	-1.2743155
211	0x3e781480	0.2422657
212	0x40129bce	2.2907596
213	0xc01c4900	-2.4419556
214	0xc08704e6	-4.219348
215	0x403ca6bf	2.9476774
216	0x3fc34748	1.5256128
217	0xc0c96d9f	-6.2946315
218	0xc05e2abd	-3.4713585
219	0x3e33a2eb	0.17542617
220	0xc0221cc0	-2.5330048
221	0x4013f57b	2.311858
222	0x3facade7	1.3490571
223	0x3ff6a127	1.926793
224	0x4078ab76	3.8854651
225	0x3f79b696	0.9754423
226	0xbda2746a	-0.079323605
227	0xbfc34a48	-1.5257044
228	0xc00d9fb2	-2.212872
229	0xbf4162d6	-0.75541437
230	0x401725f2	2.361691
231	0xbdd73603	-0.10508349
232	0x3fb12765	1.3840147
233	0x4023ec94	2.5613146
234	0xbf388cbd	-0.7208975
235	0x404ea77d	3.2289727
236	0x404fb640	3.2454987
237	0x41170258	9.438072
238	0x407a859a	3.9144044
239	0xc0a23064	-5.068407
240	0x3fc8e21e	1.5694005
241	0x4019a832	2.4008908
242	0xc0fecb12	-7.962289
243	0xc003a291	-2.0567973
244	0x4022b9cd	2.5425904
245	0x3fcec525	1.6153914
246	0xc044ec7e	-3.0769343
247	0x3e89637a	0.26833707
248	0xc0232534	-2.5491457
249	0xc108a151	-8.539384
250	0x3edd44c5	0.4321653
251	0x40891af0	4.2845383
252	0x4020e2c2	2.5138402
253	0xbffdf904	-1.9841619
254	0xbf518f00	-0.81858826
255	0xbcc70113	-0.024292504

link_predictor.0.bias f4 [64]
0	0xc023f2f2	-2.5617032
1	0xc0bff5f4	-5.9987736
2	0xbf24020c	-0.64065623
3	0xc0f4d714	-7.6512547
4	0xc0577946	-3.366777
5	0xc0adb8ae	-5.428794
6	0xc095a51f	-4.6764064
7	0xc07aef2b	-3.9208477
8	0xc0b4afd0	-5.6464615
9	0xc0a31ff0	-5.0976486
10	0xc0407e68	-3.0077152
11	0xc01bd6f1	-2.434994
12	0xc0600d34	-3.5008059
13	0xc0ac866e	-5.39141
14	0x3ed8c72c	0.42339456
15	0xc0ab037b	-5.344175
16	0xc07e88e9	-3.9771063
17	0xc0718e42	-3.7743077
18	0xc0de6b10	-6.950569
19	0xbf9b8ea0	-1.2152901
20	0xc096718b	-4.70136
21	0xc0b6b394	-5.709421
22	0xbff0debd	-1.8817974
23	0xc01922c2	-2.3927464
24	0xc0a8263b	-5.254667
25	0xc091c108	-4.5548134
26	0xc0459234	-3.0870485
27	0xc003c32d	-2.0587876
28	0xc05a4388	-3.4103718
29	0xc0e8a156	-7.2696943
30	0xbff39653	-1.903025
31	0xc0f9f801	-7.811524
32	0xc0b0bdf6	-5.5231886
33	0xc0418711	-3.0238688
34	0xc0d41072	-6.6270075
35	0xc0b5b331	-5.678124
36	0xbfe7012e	-1.8047235
37	0xbfdc302b	-1.72022
38	0xc1095970	-8.584335
39	0xc0a5de24	-5.183367
40	0xc085e4fc	-4.184202
41	0xbfef3893	-1.868914
42	0xc0baf4d0	-5.8423843
43	0xc05e119d	-3.469825
44	0xc02d4fc6	-2.707994
45	0xc0406fb5	-3.006818
46	0xc05066bc	-3.2562704
47	0xc0f61ab7	-7.690761
48	0xc0aa6333	-5.3246093
49	0xc0d2ea52	-6.5911036
50	0x40c579d7	6.171123
51	0xc0a36df3	-5.1071715
52	0xc0978c47	-4.7358737
53	0xc0a5ea88	-5.1848793
54	0xc06ad1e9	-3.669062
55	0xc0cf2966	-6.4738035
56	0xc018ff0c	-2.3905668
57	0xc09e338f	-4.943794
58	0xc08a23c9	-4.3168683
59	0xc087e942	-4.247224
60	0xbfb22558	-1.3917646
61	0xc074312f	-3.815502
62	0xc11f930a	-9.973398
63	0xc099fe0a	-4.8122606

link_predictor.2.weight f4 [1, 64]
0	0x3e182406	0.14857492
1	0x3e0d855b	0.13820402
2	0xbe08881f	-0.13333176
3	0xbe0b0271	-0.1357515
4	0xbe0c93e7	-0.13728295
5	0x3e15aeb0	0.14617419
6	0x3dee3246	0.11630683
7	0x3ddc0374	0.10742846
8	0x3de373f9	0.111061044
9	0xbe14ee33	-0.14543991
10	0xbe09a228	-0.13440764
11	0xbe13f2e4	-0.14448124
12	0x3dc4e174	0.09613314
13	0x3d8222c9	0.06354291
14	0xbe12a40d	-0.14320393
15	0xbe073956	-0.13205466
16	0x3e14e34e	0.14539835
17	0x3d9657e6	0.07340984
18	0xbe14639c	-0.14491123
19	0xbdf8147f	-0.12113284
20	0x3dddfb63	0.10838964
21	0x3e07356a	0.1320397
22	0xbe1172db	-0.1420397
23	0xbe214548	-0.15749085
24	0x3d7425a8	0.059606224
25	0xbdecd9ec	-0.11565003
26	0x3df9a51b	0.121896945
27	0xbddffbd9	-0.10936708
28	0xbdec0e28	-0.115261376
29	0x3e4d1b85	0.20030029
30	0xbe04d810	-0.12973046
31	0x3e07c285	0.13257797
32	0x3e04d1a3	0.12970595
33	0xbe157ad9	-0.14597644
34	0x3db21183	0.08694746
35	0x3ddd4a11	0.10805143
36	0xbe1008ac	-0.14065808
37	0xbe1243de	-0.14283702
38	0x3eda73aa	0.4266637
39	0xbe081ba0	-0.13291788
40	0xbdf7a035	-0.12091104
41	0xbe264a18	-0.16239202
42	0xbe0e1dd4	-0.13878566
43	0xbe0976bc	-0.134242
44	0xbde797ab	-0.11308225
45	0xbe0172c0	-0.1264143
46	0x3df21a7f	0.1182146
47	0x3df72a2e	0.12068592
48	0xbe04aa6c	-0.12955636
49	0x3dd6f5c2	0.10496093
50	0x3e1965ec	0.14980286
51	0xbe055281	-0.13019754
52	0x3e138b2e	0.14408562
53	0x3dbca903	0.09211924
54	0xbe120bb4	-0.14262277
55	0xbe0848e8	-0.13309062
56	0xbe09d96f	-0.1346185
57	0x3d97b980	0.07408428
58	0xbe0f2bf9	-0.13981618
59	0x3e00fba9	0.12596
60	0xbe14e77d	-0.14541431
61	0x3deb0400	0.11475372
62	0x3dfcc91c	0.12343046
63	0x3e02be2a	0.12767854
