new_checkpoints/model_epoch_4.pth (torch, 217416 bytes, 7 tensors)

conv1.bias f4 [64]
000000 de 04 66 c0 08 c1 5b 3f 49 08 c8 c0 b1 81 ee c0
       -3.594047 0.8584142 -6.2510114 -7.4533315
000010 24 c2 df c0 7a 6f d7 be 8b 98 43 c0 c5 06 71 c0
       -6.992449 -0.42077237 -3.0561855 -3.7660382
000020 4f e3 e8 c0 f6 90 8c c0 4d 57 ae 3f bf f1 d6 c0
       -7.2777476 -4.3926954 1.3620392 -6.71701
000030 23 34 cc bf 45 a5 36 3f 4b a1 b6 c0 ee af b4 c0
       -1.5953411 0.7134593 -5.707189 -5.646476
000040 e2 71 ad be c3 fa 8f c0 5a c3 5b c0 1a 9f 29 3f
       -0.33875948 -4.4993606 -3.4337983 0.66258395
000050 a7 b3 13 c0 2b da 8d 3e 06 ed 50 c0 be 9c b3 be
       -2.30784 0.2770551 -3.2644668 -0.35080522
000060 b3 26 bf 3e c1 ba ef 3d 50 96 7f c0 d8 cd 04 c0
       0.37334213 0.11705542 -3.9935493 -2.0750637
000070 25 b4 d4 3e e8 55 db bd 39 b7 54 c0 a0 11 7a c0
       0.4154369 -0.10709745 -3.323683 -3.9073257
000080 b5 4f 40 3f 37 8e 54 c0 92 20 cd c0 87 2b 71 c0
       0.75121623 -3.32118 -6.410226 -3.7682817
000090 25 02 f9 3d ff 27 9c c0 a8 71 36 c0 1a f5 17 3f
       0.12158612 -4.8798823 -2.850687 0.5935837
0000a0 e0 29 b4 3e 43 12 87 c0 20 eb ec c0 c7 82 50 c0
       0.35188198 -4.220979 -7.403702 -3.257982
0000b0 7b 96 f4 3d 46 ab 5d 3f 90 22 e7 c0 17 e0 b7 3f
       0.11942764 0.8658947 -7.222969 1.4365262
0000c0 ee f0 9c c0 df 4d 14 c1 99 4b 2d c0 63 28 29 be
       -4.9044104 -9.2690115 -2.707739 -0.16519313
0000d0 4b 8e 76 c0 47 3c 62 c0 f8 f6 38 c0 4c 86 c9 3e
       -3.8524349 -3.534929 -2.8900738 0.39360273
0000e0 6e 04 2a 3f a5 79 f2 be be c1 49 3f d5 17 92 c0
       0.6641301 -0.47358432 0.7881125 -4.565409
0000f0 5a 17 2c 3f 39 e2 92 c0 9b 6d c4 c0 9c 11 57 c0
       0.6722313 -4.590115 -6.1383796 -3.3604498

conv1.lin.weight f4 [64, 384]
000000 8a 43 18 3e b9 a5 f8 be c2 59 26 bc a2 46 27 bf
       0.14869514 -0.48563936 -0.010153236 -0.6534215
000010 3c 66 fb 3f 99 73 96 3f d5 68 d2 bf d4 50 bf bf
       1.9640574 1.1754028 -1.6438242 -1.4946542
000020 e3 4f 86 3f ad 4f b2 3e 23 74 4b 3f f4 d4 99 3f
       1.049313 0.34826413 0.79474086 1.2018113
000030 8c aa ab bf e9 23 42 bf e8 5c b4 bf 7b b8 ad 3f
       -1.3411422 -0.75836045 -1.4090853 1.3571924
000040 e3 d2 c6 bf 5c 58 2d bf 85 3b b1 3f cb 9f 1a 40
       -1.5533108 -0.6771295 1.3846289 2.416003
000050 27 2d fb bd 66 89 d4 3e 84 55 1d bf ef 4d 05 40
       -0.122644715 0.41511077 -0.6145861 2.0828817
000060 e7 3d f3 3e e5 d2 be 3f 86 d2 a4 3f 38 ff f7 3e
       0.47508165 1.490811 1.2876747 0.48436904
000070 7f 8c f4 3e 87 1d 19 3e c6 03 7e bf 40 13 88 bf
       0.4776344 0.1495267 -0.9922451 -1.0630875
000080 16 cc 93 bf 43 8d 14 bf 04 5e 86 3e f7 97 a3 bf
       -1.1546657 -0.5802805 0.26243603 -1.2780751
000090 6d d7 00 be 2f da b1 bf da 32 83 3f 96 6c 9e be
       -0.12582178 -1.3894709 1.0249894 -0.3094222
0000a0 3e 06 60 bf ba 2a 1b bd f0 31 fc 3d 21 1b eb bf
       -0.87509525 -0.037882544 0.12314212 -1.8367654
0000b0 a2 a3 4b bf 92 aa 11 bf 9c 03 5d 3f c4 06 cc bc
       -0.7954656 -0.56900895 0.8633363 -0.02490557
0000c0 bf 54 4d 3f 24 0f 8a 3e c6 5a ae 3e 3b be 1b bf
       0.8020744 0.26964676 0.3405363 -0.60837144
0000d0 4e 01 34 3f e2 c1 22 bf 6a 49 d6 be 48 97 1c bf
       0.7031449 -0.6357709 -0.41852885 -0.61168337
0000e0 3a 1b dc bf 84 b8 68 3e 2b 83 0e bf 00 d2 94 bd
       -1.7195809 0.22726637 -0.55668896 -0.07266617
0000f0 a0 cf ac 3e 75 d2 d7 bd ce a4 c1 3f ab 21 00 40
       0.33752155 -0.10538188 1.5128419 2.002055
000100 ea 21 99 3f 6e d4 5c bf 06 05 87 bf c1 b3 1c 3f
       1.1963475 -0.8626164 -1.0548408 0.6121178
000110 6c 0e 03 bf c6 51 17 bd fa 09 10 40 23 88 30 bf
       -0.5119388 -0.03694322 2.250609 -0.6895773
000120 01 9d a3 3f 05 0c 89 bf 51 b0 7b 3f cd ee 07 3e
       1.2782289 -1.0706793 0.9831591 0.13274689
000130 f9 92 8a bf 9d f8 3f bf 13 20 00 3f c8 69 9a be
       -1.0826102 -0.7498873 0.5004894 -0.3015883
000140 ce 53 32 3f 9e ae 45 3f 04 5c 1f 3f 79 51 e8 3e
       0.69659126 0.7721957 0.6224978 0.4537466
000150 28 eb 26 3d 36 6f f1 be dc 8f bb be 08 44 09 bf
       0.040751606 -0.4715516 -0.36633193 -0.5361943
000160 3a 71 d8 bf df f5 59 3f 71 2f d4 3f 78 4b 09 3f
       -1.6909554 0.85140795 1.6576978 0.5363078
000170 ca 69 43 bf fd ae 00 3e 32 39 c5 3e 09 ae c9 3f
       -0.76333296 0.12566753 0.385202 1.5756236
000180 b0 77 6c bf fa 8d a0 3f 8e 3b 6d 3f a3 52 2e bf
       -0.9237013 1.2543328 0.92669 -0.68094844
000190 41 b2 ae bf f1 d7 2e bf ce 6e 3e bf d3 90 43 3f
       -1.3648149 -0.6829825 -0.74387825 0.7639286
0001a0 b2 7b a2 bd 25 e3 16 c0 75 c1 d8 bf 0b bb 48 bf
       -0.07933749 -2.3576138 -1.6934038 -0.78410405
0001b0 fa 27 2f bf 7c 93 da 3e 12 18 ec 3f ad 3e b0 bf
       -0.68420374 0.42690647 1.8444846 -1.3769127
0001c0 0f ea 9d bf be d0 ab 3f fc 60 de 3e da 50 31 bf
       -1.2337054 1.3423078 0.43433368 -0.69263995
0001d0 c0 92 a3 bf 39 95 94 bc b4 aa 23 c0 93 af 8e bf
       -1.277916 -0.018137561 -2.557294 -1.1147331
0001e0 67 a2 38 bf 1f 0a e6 3f 28 4f 88 be 41 27 19 3f
       -0.72122806 1.7971839 -0.2662289 0.5982552
0001f0 47 68 87 be c4 c7 c1 bf 5a 5e 33 40 e4 70 93 3d
       -0.26446745 -1.5139089 2.8026338 0.071992666
000200 f7 10 c9 3f 73 43 29 c0 c3 f5 47 bc a5 55 4e 3f
       1.5708302 -2.6447418 -0.01220459 0.80599433
000210 0e a0 79 bf 81 ee 85 3e bb c6 5c 3e 4c 33 9a be
       -0.9750985 0.26158527 0.21560185 -0.3011726
000220 0a a5 20 3f 04 3b db 3e bd b9 f7 3e 47 42 b3 bf
       0.6275183 0.42818463 0.48383895 -1.4004601
000230 17 38 4f 3f aa 47 aa bd c0 0f 88 bf cf e5 34 bf
       0.8094496 -0.0831445 -1.0629807 -0.7066316
000240 07 b4 81 bf b6 8a bb bf 28 02 d7 bf 2b e1 0f be
       -1.0133065 -1.4651706 -1.6797533 -0.14050739
000250 e7 5c 0c bf 03 4f 8d 3f 1f 08 41 3f 8c 19 98 3f
       -0.5482926 1.1039737 0.75403017 1.1882796
000260 2c 60 06 c0 19 07 a3 3f 90 8b c0 3f 98 27 84 bf
       -2.0996199 1.2736541 1.5042591 -1.0324583
000270 ab eb f1 be 88 b0 ed 3e d9 f4 60 bd d2 e0 e0 3e
       -0.47250113 0.46423745 -0.054921005 0.43921524
000280 10 ec 5b bf 74 73 08 bf c4 42 9b 3f 55 ea 17 40
       -0.8590708 -0.5330117 1.212975 2.3736775
000290 91 d1 b2 bc cc 4e 32 3f 95 2e 01 c0 63 65 06 3f
       -0.021828445 0.69651484 -2.0184681 0.52498454
0002a0 34 a8 c9 3e c2 4e 37 bf 5c 57 78 3e 74 5f c1 3e
       0.3938614 -0.7160455 0.24252075 0.37768137
0002b0 33 d6 71 3f 13 e6 c5 be f6 41 6b be 97 ca b4 bf
       0.9446747 -0.38652095 -0.22974381 -1.4124326
0002c0 34 0a 46 be 5b 4b 73 bf 72 ce 8d 3e 54 f7 b3 bf
       -0.1933983 -0.9503686 0.27696568 -1.4059854
0002d0 f3 7c 96 3e 7c c3 22 3f 08 fe 3d bf dd 6b 8c 3f
       0.29392204 0.63579535 -0.74215746 1.0970417
0002e0 2b 38 8f be 66 8a b2 bf d8 6d 14 c0 24 f6 c1 bf
       -0.2797254 -1.3948486 -2.3192043 -1.5153241
0002f0 37 ae 0c 40 ef 96 a7 be 75 9d a0 bf 26 0b e9 be
       2.1981332 -0.3273234 -1.2548052 -0.45516318
000300 ea b7 c3 bd ee 24 15 3f 6c ff bd 3d 89 3a 09 bf
       -0.09556563 0.58259475 0.092772335 -0.5360494
000310 bd cc 1d 3f fe 06 33 bf 3e ba df 3e d3 24 8c 3d
       0.6164053 -0.69932544 0.4369678 0.06842961
000320 7b 4e 93 3e a3 02 2e 40 6e 25 8f bf 2e 7f 84 bd
       0.28770813 2.718911 -1.1183298 -0.0646957
000330 f1 1b c3 3e dc 17 77 3f 49 d9 8b 3f 99 aa 4d 3f
       0.38107255 0.9652078 1.0925685 0.80338436
000340 62 31 c9 3f 25 5b 5b 3d 2c 57 f6 3e 29 12 1c 3f
       1.5718195 0.05355372 0.48113382 0.6096521
000350 05 e5 c6 bd df 31 f9 be 73 3c 1e 3d 0d 9a dd bf
       -0.09711651 -0.4867086 0.038631868 -1.7312638
000360 55 e7 80 3f 9d a0 98 3f 4a 18 91 bd 7e 80 e5 3e
       1.0070597 1.1924015 -0.07084711 0.44824594
000370 46 c7 ba 3f 50 10 33 3f 09 90 b1 bf c3 64 84 3d
       1.4592063 0.69946766 -1.3872081 0.06464531
000380 61 3b 50 3f 0d 1b a5 bf d7 1b 40 3f 79 ea ba bf
       0.81340605 -1.289888 0.7504248 -1.4602805
000390 02 44 38 be 58 15 da 3f c1 4f 9a bf 09 50 a4 3e
       -0.17994693 1.7037764 -1.2055589 0.32092312
0003a0 03 0c de 3e b7 df 87 3f b9 40 8b 3f 13 cf 68 3f
       0.4336854 1.0615147 1.0879127 0.9094097
0003b0 1b 50 ce 3f 34 20 20 40 0b 2b 22 40 69 8a a7 3f
       1.6118196 2.5019655 2.5338771 1.3089114
0003c0 a7 c6 63 3f 25 28 ac bd 4a a2 b3 be aa 0c 24 bf
       0.88974994 -0.084060945 -0.35084754 -0.64081824
0003d0 c2 cd b0 be ab 2d b2 bf d4 b0 52 3f 5b e5 ab bf
       -0.3453198 -1.3920187 0.8230107 -1.3429369
0003e0 77 2f bc 3f 83 48 75 3f 41 4f fd 3f 18 5b 9e bf
       1.4701985 0.9581377 1.9789811 -1.237155
0003f0 85 53 b2 3e 14 0e 04 3f cc 4a b8 3f 80 f8 97 3e
       0.34829345 0.5158398 1.4397826 0.29681778

conv2.bias f4 [32]
000000 e3 dd 28 bd af e2 72 bc 65 9e a6 40 19 ca af bf
       -0.041227233 -0.014824553 5.2068353 -1.373355
000010 07 1e 8c bd 79 b1 68 3d 4f 10 b4 3e 22 d9 99 3d
       -0.06841665 0.056809876 0.35168692 0.07512118
000020 fd 07 75 3f 37 10 9b c0 a2 da 76 3d 07 a7 1e be
       0.95715314 -4.8457294 0.0602671 -0.15493403
000030 72 a8 63 bd 20 87 80 c0 c8 c6 f5 bd 7f 84 43 be
       -0.055580564 -4.0164948 -0.12000805 -0.19093512
000040 7b 64 35 3d e1 cb 18 40 b3 58 13 3f e4 cc 67 3e
       0.04428528 2.3874438 0.5755722 0.22636753
000050 20 b9 49 3e 9f e6 c2 bf 0e a2 3e bd 23 43 90 3f
       0.19699526 -1.522663 -0.046541266 1.1270489
000060 71 c7 0d be 8b 38 04 bd 08 91 52 bf 11 82 e9 be
       -0.13845612 -0.032280486 -0.8225255 -0.45607045
000070 28 b5 00 3d 71 cc de bc d2 25 33 3d cb 88 6a 3f
       0.031422764 -0.027197095 0.04373724 0.9161498

conv2.lin.weight f4 [32, 64]
000000 7e 38 9d be 3c 7d 0e 3c 50 d8 64 3f 33 ed c5 bd
       -0.30707163 0.00869685 0.89392567 -0.09664383
000010 d9 ec b1 3f 76 ec 14 be 58 07 cd 3e cb db 30 be
       1.3900405 -0.14543328 0.40044665 -0.17271344
000020 84 4f dd 3e ba 30 22 be 9c 3b 41 bd 76 9d e4 3f
       0.43224728 -0.158389 -0.04717599 1.7860553
000030 1f 23 5e bd 5b 67 cd bd 6c 62 c2 bd ec 9b f0 be
       -0.054232713 -0.10029479 -0.09491429 -0.4699396
000040 1b 8b 13 3d f2 73 95 3d 86 d4 09 3f da 3a 30 3d
       0.036021333 0.072975054 0.5383991 0.043024875
000050 34 3b 8c 3f 5d 76 00 3e b9 75 c2 3c 2e 06 0b be
       1.0955567 0.12545152 0.023737775 -0.13576576
000060 51 59 90 bc 78 22 90 3d b0 91 fb bf e3 fd 36 bd
       -0.017620714 0.070378244 -1.9653835 -0.04467572
000070 18 f9 07 ba 1b fd 98 3d 35 9a 2a 3f bf 2b 39 bd
       -0.0005186959 0.07470151 0.6664155 -0.045207735
000080 99 60 c5 bd 3a f7 a3 3f 95 00 a7 3e 32 a2 32 be
       -0.09637565 1.2809823 0.32617632 -0.17444685
000090 2b f8 01 3d 89 84 68 3d b9 97 3d 3f 02 c2 0f 3d
       0.031730812 0.05676702 0.74059635 0.03509713
0000a0 ad 4d e0 3d 4e aa 0e be 28 24 c3 3e d5 44 d7 be
       0.109523155 -0.13932154 0.38113523 -0.42044702
0000b0 f0 40 30 3e f4 48 cd 3c 11 09 ba 3f d7 ab 64 3d
       0.17212272 0.0250592 1.4534017 0.05582794
0000c0 e0 8e 21 3c 35 f0 1b be 5f a3 94 be 13 78 88 3d
       0.009860724 -0.1522835 -0.29030892 0.06663527
0000d0 5b db e4 3e 60 49 c9 be 28 b4 34 3f 69 60 88 bc
       0.44698605 -0.39313793 0.70587397 -0.016647534
0000e0 9a e2 3c 3e 31 c4 2f 3d cf 57 06 3d dc a8 1d bf
       0.18445817 0.042911712 0.032798585 -0.61585784
0000f0 34 79 31 3d 75 75 ab bf ef bc 46 40 9e d3 22 bf
       0.04332848 -1.339522 3.1052816 -0.6360415
000100 e7 b4 7b be ba 3e 54 bd 1b 98 72 bd 94 95 20 3f
       -0.24580728 -0.051817633 -0.05922709 0.6272824
000110 5f f1 fc bf 09 bb d2 3d 59 36 5c be fe 03 69 bf
       -1.9761161 0.102895804 -0.21505107 -0.91021717
000120 38 e8 b6 bf 8d 8a 92 be bf 67 cd bc ad 5c 23 3f
       -1.4289618 -0.2862133 -0.025073884 0.63813287
000130 fe e0 a9 3d 59 c1 52 3d 4e 19 07 bd 70 9d 40 c0
       0.08294867 0.051453922 -0.032983117 -3.0096092
000140 ee 99 ba bd cc 40 40 be 01 58 ac bf 96 88 9e 3d
       -0.09111391 -0.18774718 -1.3464357 0.077408955
000150 f3 26 34 bf 39 88 f6 3d 0d 32 ed be 20 f5 7d 3c
       -0.7037193 0.12037701 -0.46327248 0.015500337
000160 0f da 51 be b8 2b c5 bb fb a1 5e 3e 77 99 15 3e
       -0.20493339 -0.0060171746 0.21741478 0.14609323
000170 89 98 0d bd 25 cf be 3c 91 6c b7 3f 6a d3 5c 3f
       -0.034569297 0.023292134 1.4330007 0.8626009
000180 70 f2 42 3b 7d 55 d5 bf f1 f9 12 3f 5a 4e dd 3e
       0.0029746555 -1.6666714 0.5741263 0.4322384
000190 77 95 50 bc 4d cd ac 3d a3 ae 21 be 71 7a ce 3d
       -0.012730948 0.084375955 -0.15789275 0.100819476
0001a0 95 26 5d bc 4c aa 33 bd 25 c5 de bc 2c 49 02 40
       -0.013497968 -0.04386358 -0.027193615 2.035716
0001b0 fb 1e 96 3d f5 02 f5 bc a3 82 02 bf eb fd 47 3c
       0.07330128 -0.029908637 -0.50980586 0.012206535
0001c0 82 01 e4 be 08 28 07 be cd 3f 57 bf aa 58 de bd
       -0.445324 -0.13198864 -0.8408173 -0.10856755
0001d0 d8 f0 77 3f 2d f6 89 3f a6 52 c1 be c9 e6 19 3e
       0.96851873 1.0778252 -0.37758368 0.15029444
0001e0 8e 7d 12 3e 73 59 82 bd 3e a8 ca bd 30 e3 49 3f
       0.14305708 -0.06364717 -0.09895371 0.78862286
0001f0 92 d0 28 be 3a fb b3 bf ae 6f 75 bd ea f3 0d 3f
       -0.16485813 -1.4061043 -0.05992096 0.5545031
000200 d7 e6 16 3f 3e be b6 be 11 d2 00 bf 48 f5 95 bf
       0.58945984 -0.35692018 -0.50320536 -1.1715479
000210 32 dc 6d c0 a6 b6 d8 be 88 60 d1 3c fe 17 68 be
       -3.7165647 -0.4232685 0.025558725 -0.22665402
000220 d7 f0 b7 bc dc 04 ac bf 48 6f ea be 72 6c c7 bd
       -0.022453709 -1.3438983 -0.45788026 -0.09737481
000230 36 ea 15 bf 22 66 f5 be 33 34 f2 bd b8 05 47 3c
       -0.585605 -0.47929484 -0.118263625 0.01214736
000240 1f d9 05 be 41 c8 c0 bf 05 91 77 bf a2 c8 a4 bd
       -0.13071106 -1.5061113 -0.9670566 -0.0804608
000250 8b e5 8b bf be 9a 95 be fc 93 81 bf 2a 5b 56 bc
       -1.0929426 -0.2921962 -1.0123286 -0.013083259
000260 72 c5 81 be e0 33 53 bf 37 65 26 bf f9 72 ae 3d
       -0.2534595 -0.8250103 -0.6499819 0.08518023
000270 e4 b6 0d bf 6a ee 84 be 42 ae c1 3d da 7d e2 be
       -0.55357194 -0.25963145 0.09457065 -0.44236642
000280 14 46 c1 be a9 be 5b be 24 aa b6 bf 4f b0 2e be
       -0.37748778 -0.2145945 -1.4270673 -0.17059444
000290 35 aa ef be 37 f4 90 be f6 5b 2a 3f 63 bb 3c bf
       -0.46809545 -0.2831132 0.6654657 -0.7372343
0002a0 46 6b 9c 3e f1 39 b8 be e8 2a 2d bf 10 d1 21 bf
       0.30550593 -0.35981706 -0.67643595 -0.6320963
0002b0 62 b2 08 bd 6e b0 3e be 5f 55 f2 be ed 52 51 be
       -0.033373244 -0.1862199 -0.47330758 -0.2044179
0002c0 2b c8 b4 be b7 cd 3c 3f f1 1f 9e bf 60 c0 da bf
       -0.35308966 0.73751396 -1.2353498 -1.7089958
0002d0 9d 24 1b bf c4 76 8e 3e 09 0e 7d be fb 17 ae be
       -0.6060274 0.27824986 -0.24712385 -0.3400267
0002e0 f5 17 13 bf df 0b d6 be 9c 26 92 3e 22 73 df 3e
       -0.5745843 -0.41805932 0.28545082 0.43642527
0002f0 8a 0b 28 be 9c cf 60 3f f0 a5 c5 bd 9f 72 34 bf
       -0.16410652 0.87816787 -0.09650791 -0.704874
000300 d7 88 dc bc bf e6 b4 3e 67 21 8f 3f af 09 07 bf
       -0.02692072 0.35332295 1.1182069 -0.5274915
000310 a4 3d af 3f 9a 4b 28 3e f4 43 92 3c 42 54 5e bd
       1.3690686 0.1643509 0.017854668 -0.054279573
000320 6b 8c cb bf a3 55 95 3f e7 e7 79 3d 28 8e 7b be
       -1.5902227 1.1666759 0.061012175 -0.24565947
000330 c5 94 95 bd d5 0e c1 be 82 cf 7a 3f 05 6d e5 bf
       -0.07303766 -0.37706628 0.9797288 -1.7923895
000340 a6 fa 0e 3d 98 b3 5e 3f 98 12 98 3e 05 08 41 3e
       0.034907006 0.8699279 0.29701686 0.18850715
000350 68 b7 bd 3e 8e c1 c4 3c 06 c1 c3 bc 51 d9 55 3f
       0.3705399 0.024018075 -0.023895752 0.83534724
000360 0f 72 a2 3d cd 1a 7e 3e ea d9 9e 3e d9 65 3c 3f
       0.07931911 0.24814911 0.3102563 0.7359291
000370 4a 31 fe be 8c 63 9b 3e 79 05 44 3f 11 0f 18 bf
       -0.4964698 0.30349386 0.7657085 -0.5939799
000380 5b 12 85 bf 4c da c4 3b 19 45 ac 3f 6e 43 93 be
       -1.0396227 0.0060074683 1.3458587 -0.28762382
000390 b3 28 35 3d 17 f8 2f 3f d1 cb a5 be a5 fe b3 3e
       0.044228267 0.6873793 -0.32382062 0.35155216
0003a0 e4 f4 97 bf cd 93 c2 3e a9 68 7b bf 2b 57 8c 3f
       -1.187161 0.38003388 -0.98206574 1.0964102
0003b0 5b 36 2a bd a1 0e 2a 3e 44 59 4a bf 00 30 0c 3f
       -0.041555744 0.16607143 -0.7904246 0.5476074
0003c0 a0 91 0a 40 59 d9 ef bf 18 2d 5b bd af dc 41 3f
       2.1651382 -1.8738204 -0.0535098 0.7572736
0003d0 94 49 a2 3e 78 31 72 3e 43 f9 3c bf 5f 45 07 bf
       0.3169676 0.23651683 -0.73817843 -0.52840227
0003e0 99 23 e1 be d7 f8 33 3f bd f3 fb 3d 02 e9 8c 3f
       -0.4397247 0.70301574 0.12302349 1.1008608
0003f0 fe 65 0f 3f 30 52 0b 3f 81 ae dd bf 76 af ca 3c
       0.56015 0.54422283 -1.7318879 0.02474187

link_predictor.0.weight f4 [64, 416]
000000 54 49 5f 3d 75 4d c5 3d 33 8f 6d 3f a6 cc 94 bd
       0.05451329 0.096339144 0.9279663 -0.07265596
000010 82 02 3a be 98 de 93 3e a4 28 94 be df 7c a3 bc
       -0.18165019 0.28880763 -0.28937256 -0.019957004
000020 f4 df 8e bc 0b 27 9e bf b8 59 73 bd 79 c2 83 3d
       -0.017440774 -1.2355665 -0.059411734 0.06433577
000030 b5 9f b7 bd 44 2b 5a bf ad d5 66 bd d6 3d 73 3c
       -0.089660086 -0.8522227 -0.05635612 0.014846286
000040 74 bf a8 bd 6d 93 bb be b0 a6 85 3f 34 4b 6b bc
       -0.08239642 -0.36635914 1.0441494 -0.014361192
000050 ca dd 53 3d 86 14 b5 be 0a 40 61 bd bd 4b b1 be
       0.051725186 -0.3536722 -0.054992713 -0.34628096
000060 44 17 e8 3d 67 9b 9c 3e 15 f4 94 3e 4c 13 b8 bd
       0.113325626 0.30587313 0.2909247 -0.089880556
000070 41 49 84 be 3c 13 29 be ee d6 7e 3e a6 61 1e 3d
       -0.25837138 -0.16511244 0.24886677 0.038667344
000080 7d c0 1e c1 3c 43 8d bf 66 cd 85 c0 b0 01 c3 40
       -9.921994 -1.1036143 -4.181323 6.093956
000090 44 f6 8c c0 5d c0 d7 40 12 9d fe c0 94 b0 25 3f
       -4.4050617 6.742232 -7.9566736 0.6472256
0000a0 60 13 1d c1 87 ab 94 c0 28 6b 11 40 b9 56 9a be
       -9.81723 -4.6459384 2.2721653 -0.3014429
0000b0 7c a3 21 41 af c1 07 40 92 a3 fc c0 dc 73 ac c0
       10.102413 2.1211965 -7.894967 -5.389143
0000c0 17 32 1f 40 79 b8 82 c0 cc 16 21 40 5b c8 de 3f
       2.4874322 -4.0850186 2.5170164 1.7404894
0000d0 a9 10 2f 40 f1 6e 93 3f 76 18 88 c0 bc 06 ee 40
       2.7353919 1.1518232 -4.252986 7.438322
0000e0 df c1 50 41 46 a4 27 41 76 7e 30 3e 65 0b 94 40
       13.047332 10.477606 0.17235741 4.626391
0000f0 4d 8a fa c0 55 5d 48 c1 21 a1 08 c1 e9 fa 08 40
       -7.8293824 -12.522786 -8.539338 2.1403143
000100 0d a1 f8 3f fb 8d b2 bf ba 3a 11 c0 fb 5a 93 40
       1.9424149 -1.3949579 -2.2692094 4.604856
000110 78 55 0c 41 ed 64 f4 40 7b b2 d1 40 5b be fd 40
       8.770866 7.63732 6.553037 7.9294868
000120 76 84 dc 3f 1d db 44 c0 c2 06 59 c1 a6 b3 58 40
       1.7227924 -3.0758736 -13.56415 3.3859649
000130 e2 6f d9 c0 f2 b4 d4 40 cc 75 4d 41 cb d9 47 c0
       -6.7949076 6.647088 12.841259 -3.122668
000140 eb 48 9c c0 d7 60 bb 3d 7f ed b4 40 4d 8d 47 40
       -4.883901 0.0914933 5.653991 3.1179993
000150 18 ac d7 bf b8 ac 19 41 7e d5 c3 40 b2 c8 13 40
       -1.6849394 9.604668 6.119811 2.3091245
000160 3c c4 65 3f f6 a2 8c 40 7f 71 52 c0 3c 7f be 40
       0.89752555 4.3948927 -3.2881773 5.9530315
000170 e5 1f 19 c0 4f 85 57 bf e8 b1 4d c1 8c aa 69 40
       -2.3925717 -0.8418779 -12.855934 3.6510344
000180 ba a0 48 bf 12 d7 ed c0 1f e7 15 c1 a1 32 c0 c0
       -0.7837025 -7.4325037 -9.368926 -6.0061803
000190 c6 97 07 c0 14 f2 b3 3f a1 50 b5 3f 74 a6 e4 bf
       -2.1186385 1.4058251 1.4165231 -1.7863297
0001a0 e3 4a b1 40 3a 00 45 40 01 8b 6f 3f c3 82 2a c0
       5.5403914 3.0781388 0.9357148 -2.664231
0001b0 b2 f6 8d c0 a0 5c 23 c0 01 9c 84 c0 63 88 de 3f
       -4.436364 -2.5525284 -4.1440434 1.7385372
0001c0 f1 80 43 40 cd fd bc be 75 03 f6 be b8 0d 84 c0
       3.054745 -0.36912385 -0.48049513 -4.1266747
0001d0 ca 48 6e 3e 40 61 30 40 f0 3b 35 40 f9 db 59 41
       0.23269954 2.7559357 2.8317833 13.616204
0001e0 f4 8b 3d 3f 15 4e 9a c0 8c 98 ad 40 29 d7 67 40
       0.74041677 -4.8220315 5.4248714 3.6225073
0001f0 03 d7 60 c0 4c 35 76 c0 ed d9 8f 40 4f 0b 1e bf
       -3.5131233 -3.847003 4.4953523 -0.61736006
000200 2a 10 15 40 e1 80 fb 3f 97 6f 94 3f 93 6a 55 3f
       2.3291116 1.9648706 1.1596555 0.83365744
000210 b7 ba 78 40 f1 0b 02 c0 e3 e3 9e c0 b0 87 31 3f
       3.8863962 -2.0319788 -4.965318 0.6934767
000220 75 4f dd 40 85 45 33 c0 e8 13 b9 3f c3 68 65 c0
       6.9159493 -2.8011181 1.44592 -3.5845191
000230 ca 91 9b c0 85 de 5f c0 3b 72 23 bf c5 63 28 c1
       -4.8615465 -3.4979565 -0.63846177 -10.524358
000240 f7 85 cf 40 0d 2e 93 3f 29 95 2c 41 ba 47 b6 c0
       6.485103 1.1498429 10.786416 -5.6962557
000250 b2 19 a3 c0 1a 0e 07 c1 5a dc c9 3e 28 1a cb 3f
       -5.0968866 -8.440943 0.39425927 1.5867357
000260 d2 7d 30 c1 6b 3e bb c0 bf 92 66 3f 70 7f c8 40
       -11.030718 -5.8513694 0.90067667 6.2655563
000270 fd 65 3d 3f b7 67 db 40 f2 6e 99 40 7a 57 af bc
       0.73983747 6.8564105 4.794793 -0.021404017
000280 a7 58 17 c1 82 f4 98 bf 8d 01 8e c0 44 c9 ca 40
       -9.459144 -1.1949618 -4.4376893 6.3370686
000290 d3 58 08 c1 3b df b5 3f 35 d0 9b c0 77 f3 8e c0
       -8.521686 1.420875 -4.869166 -4.46722
0002a0 ca 65 43 c0 c0 cf cb be cf 7f d0 c0 d5 9c b0 40
       -3.0530877 -0.39806938 -6.5156016 5.5191445
0002b0 69 db a8 40 7d 0e 33 c0 3b ee b1 be bf 75 11 c0
       5.2767835 -2.7977593 -0.34752068 -2.2728117
0002c0 41 bb 35 40 01 fe 6c 3e 7d fb c9 40 e1 3e 61 c0
       2.839554 0.2314377 6.3119493 -3.5194628
0002d0 22 94 0d c0 8a 8c 8e 40 2e ff 4f 40 b4 ac 8e c0
       -2.2121663 4.4546556 3.24995 -4.458582
0002e0 0b ca 7b 40 3d eb 98 40 60 eb 2d 40 e7 0e a8 3f
       3.9342067 4.7787156 2.7174911 1.3129548
0002f0 75 3a 67 40 bc 01 00 c1 95 b7 19 c0 b6 34 be 40
       3.612943 -8.000423 -2.40183 5.9439344
000300 a6 82 07 40 d1 3d ef 40 a1 24 be 40 2d 29 1c 40
       2.1173491 7.476296 5.9419713 2.4400132
000310 a5 01 67 c1 8b 31 e5 3f 61 35 f7 40 53 87 bb c0
       -14.4379015 1.7905744 7.725266 -5.860269
000320 19 85 a8 c0 73 9c 1d c1 6b 63 e7 c0 67 c2 da 3f
       -5.2662473 -9.850696 -7.230886 1.7090577
000330 f5 52 42 c0 5f b6 33 40 48 18 27 40 8c ff 0c 41
       -3.0363133 2.808006 2.610857 8.812389
000340 cb c0 17 41 9c a0 0c c0 93 ca c5 3e de c4 13 c0
       9.484569 -2.1973028 0.38631114 -2.3088908
000350 ba a4 92 40 a1 44 0f c1 41 52 f7 c0 3f cc 14 41
       4.582608 -8.954255 -7.7287908 9.299865
000360 d3 c8 04 c1 3e 51 5c c0 5e 61 36 c0 1d c3 95 40
       -8.299029 -3.4424586 -2.8496928 4.6800675
000370 b4 df b5 c0 d8 63 df 40 59 69 81 40 7d 64 1b c0
       -5.6835575 6.980938 4.04411 -2.4280083
000380 54 ae d9 40 68 58 02 c0 cf ff 88 3f 5b 2d ac bf
       6.8025303 -2.036646 1.0703067 -1.3451341
000390 8b b5 32 c0 93 29 04 40 06 96 cb bf 91 43 b9 c0
       -2.7923305 2.0650375 -1.5905159 -5.789498
0003a0 f6 ef 66 c1 32 d4 18 c1 8d e2 84 40 18 71 d5 3f
       -14.433584 -9.5518055 4.152655 1.6675138
0003b0 f2 a2 92 40 83 85 b3 3f b9 93 8d 40 7c 24 86 40
       4.582391 1.402512 4.4242826 4.1919537
0003c0 d3 5e 3e 3e 3b 07 56 c0 2e 3f 03 c1 ef 73 44 bf
       0.1859086 -3.3441913 -8.202925 -0.767394
0003d0 a3 6c 01 c1 e0 d3 be 3d 4f 5d a8 c0 5b 04 94 40
       -8.089023 0.09317756 -5.26139 4.6255317
0003e0 fc 00 46 40 21 4d 27 c0 09 d5 0c 3f 58 d6 7a 40
       3.09381 -2.6140826 0.55012566 3.9193325
0003f0 07 8e c8 bf 4e 68 c4 3f f6 78 a3 c0 13 01 c7 bc
       -1.5668343 1.5344331 -5.1085157 -0.024292504

link_predictor.0.bias f4 [64]
000000 55 97 bd c0 a3 67 09 c1 c5 f2 2a 3f 1e b3 0f c1
       -5.924723 -8.587802 0.66776687 -8.98123
000010 cb f1 97 3e 8f 67 25 c1 5b a3 29 c1 ee fe 08 c1
       0.2967666 -10.337783 -10.602382 -8.562239
000020 3f 0f 12 c1 66 43 e5 c0 ea 5c bd c0 d4 21 10 c0
       -9.128722 -7.1644773 -5.917592 -2.2520647
000030 9a e9 94 c0 1b e8 ef c0 97 ac 52 c0 95 41 0e c1
       -4.653516 -7.497083 -3.291784 -8.891011
000040 6f 7e cf c0 2a ad 01 c1 3d eb fe c0 cc 69 c9 c0
       -6.484184 -8.104776 -7.9662156 -6.2941647
000050 b6 ad d2 c0 2c 3c 0d c1 fc c6 69 c0 4a 24 b0 c0
       -6.583705 -8.82719 -3.65277 -5.50443
000060 91 e0 14 c1 ae 5b 72 c0 90 2b de c0 95 c7 fb c0
       -9.304826 -3.7868457 -6.9428177 -7.868113
000070 0e f3 9f c0 8e 9e f1 c0 1f 27 a9 c0 d2 5d 21 c1
       -4.99842 -7.550605 -5.2860255 -10.085405
000080 82 d6 28 c1 3a 67 ae c0 b9 e3 e8 c0 3a 16 1d c1
       -10.55237 -5.450101 -7.277798 -9.817926
000090 26 d6 97 c0 3a ce f4 c0 fb 80 66 c1 c6 33 c0 c0
       -4.744891 -7.650174 -14.406489 -6.00632
0000a0 4b ad cc c0 6b 10 0c c1 59 9e 1c c0 22 68 92 c0
       -6.396154 -8.754008 -2.4471648 -4.5752115
0000b0 94 5b bd c0 c0 5b 23 c0 83 0f cc c0 28 8b 19 c1
       -5.917429 -2.552475 -6.3768935 -9.596474
0000c0 ea 2f f9 c0 23 58 11 c1 70 7e b4 40 4c e4 2f c1
       -7.787099 -9.084018 5.6404343 -10.993237
0000d0 8c d1 92 c0 fd a0 0b c1 6d 77 8e c0 5e e9 05 c1
       -4.5880795 -8.726804 -4.4520783 -8.369474
0000e0 48 02 49 c1 02 01 d3 c0 05 79 1d c1 f7 77 fb c0
       -12.563057 -6.593873 -9.842046 -7.858394
0000f0 fd af f1 bf e1 15 be c0 ac e3 48 c1 eb 22 c5 c0
       -1.8881832 -5.940171 -12.555584 -6.1605124

link_predictor.2.weight f4 [1, 64]
000000 de bb e8 3d 5d ec ca 3d ee c7 1e be dd 6b e5 bd
       0.11363958 0.09908364 -0.15505955 -0.11202214
000010 2e d0 ea bd 31 74 bb 3d 1e e3 bc 3d 70 d0 88 3d
       -0.114654884 0.09153021 0.09223007 0.06680381
000020 c5 dc a2 3d b0 6f 0a be b2 8a fc bd 0a ab d1 bd
       0.07952265 -0.13519168 -0.123311415 -0.10237701
000030 4d 3f d4 3d d8 7c d7 3d b7 75 fe bd 51 aa 0d be
       0.10363636 0.10521859 -0.12424796 -0.13834502
000040 f7 88 81 3d 6a 12 2e 3e 88 a1 d0 bd 29 13 f4 bd
       0.06324952 0.16999212 -0.1018706 -0.11917717
000050 64 08 e3 3d 27 7b b8 3d 26 94 da bd e8 09 8f bd
       0.11085585 0.090078644 -0.10672788 -0.06984311
000060 de 60 de 3d 69 46 e6 bd 32 de d4 3d c2 8b ca bd
       0.1085832 -0.112438984 0.10393943 -0.09889938
000070 b7 5d 99 bd 0c ac 22 be 58 0a 12 be f4 a2 07 3e
       -0.07488578 -0.15885943 -0.14261758 0.13245755
000080 5d 0f ed 3d 59 b9 13 be de d2 1e 3e ae 02 dd 3d
       0.11575196 -0.14426173 0.15510127 0.10791527
000090 82 2d 1e be 3e 4b 00 be 8b 11 9a 3d 29 ea 25 be
       -0.15447047 -0.12528703 0.07522877 -0.16202606
0000a0 c1 7b 07 be 5f 10 0d be 83 3d ec bd 42 5c de bd
       -0.13230802 -0.13775776 -0.1153517 -0.108574405
0000b0 b6 cb da bd 95 30 d2 bd 58 20 f3 3d 57 9a 1a 3d
       -0.10683386 -0.102631725 0.118714035 0.037744846
0000c0 08 5a f2 bd b0 11 ae 3d 1a 1a b3 3d fb dd ea bd
       -0.11833578 0.084994674 0.08745213 -0.11468121
0000d0 4b ad e6 3d 2c e8 b1 3d f0 a5 06 be 06 c4 da bd
       0.11263522 0.086868614 -0.13149238 -0.1068192
0000e0 df 44 0d be a6 07 b8 3d 96 17 af bd cb eb c4 3d
       -0.13795803 0.08985834 -0.085494205 0.096152864
0000f0 c4 de ba bd d5 d5 e0 3d 1f 9f 0a 3e f4 68 02 3e
       -0.091245204 0.10978285 0.13537262 0.12735349
