new_checkpoints/model_epoch_3.pth (torch, 217416 bytes, 7 tensors)

conv1.bias f4 [64]
000000 de 04 66 c0 08 e5 4b 3f c4 0e a6 c0 02 ec d2 c0
       -3.594047 0.7964635 -5.1893024 -6.5913095
000010 2d f9 c1 c0 24 a7 ac be 8b 98 43 c0 c5 06 71 c0
       -6.061667 -0.33721268 -3.0561855 -3.7660382
000020 3c 50 b9 c0 f6 90 8c c0 85 39 ab 3f 6d 89 ce c0
       -5.791044 -4.3926954 1.3376929 -6.4542756
000030 50 bf a4 bf 4d 43 bf 3e 37 61 a0 c0 1a f5 8a c0
       -1.2870884 0.37356034 -5.011867 -4.3424196
000040 ef 7c 7b be e3 98 81 c0 5a c3 5b c0 ac f5 18 3f
       -0.24559377 -4.049913 -3.4337983 0.59749866
000050 a7 b3 13 c0 85 62 00 3e 06 ed 50 c0 a1 2e 60 be
       -2.30784 0.12537582 -3.2644668 -0.21892788
000060 99 e8 94 3e 7b fa 39 3e 50 96 7f c0 d8 cd 04 c0
       0.29083708 0.18161957 -3.9935493 -2.0750637
000070 58 7a 66 3e c4 28 8a bd 39 b7 54 c0 a0 11 7a c0
       0.22507608 -0.06746057 -3.323683 -3.9073257
000080 d2 02 2a 3f c0 37 4c c0 b6 41 b9 c0 87 2b 71 c0
       0.66410553 -3.1909027 -5.7892714 -3.7682817
000090 0a ce 12 3e 97 46 93 c0 a8 71 36 c0 99 f5 2f 3f
       0.1433641 -4.602367 -2.850687 0.6873413
0000a0 84 bc c2 3e 19 3b 58 c0 34 a6 de c0 c7 82 50 c0
       0.3803445 -3.378607 -6.9577885 -3.257982
0000b0 b1 a2 29 3e fa 1e 08 3f c7 a1 a7 c0 0f 63 a9 3f
       0.16565968 0.53172266 -5.238498 1.3233355
0000c0 e1 2b 99 c0 05 0f 0a c1 99 4b 2d c0 30 61 9f bc
       -4.7866063 -8.628667 -2.707739 -0.019455522
0000d0 4b 8e 76 c0 ec d3 5a c0 f8 f6 38 c0 16 f5 c8 3e
       -3.8524349 -3.4191847 -2.8900738 0.39249486
0000e0 2e 16 42 3f e2 c7 c7 be b3 79 17 3f 3f 14 8a c0
       0.75815094 -0.39019686 0.59170073 -4.3149714
0000f0 2b 3c 15 3f 39 e2 92 c0 4b cb a6 c0 9c 11 57 c0
       0.58294934 -4.590115 -5.212316 -3.3604498

conv1.lin.weight f4 [64, 384]
000000 8a 43 18 3e b9 a5 f8 be c2 59 26 bc a2 46 27 bf
       0.14869514 -0.48563936 -0.010153236 -0.6534215
000010 3c 66 fb 3f 99 73 96 3f d5 68 d2 bf d4 50 bf bf
       1.9640574 1.1754028 -1.6438242 -1.4946542
000020 e3 4f 86 3f ad 4f b2 3e 23 74 4b 3f f4 d4 99 3f
       1.049313 0.34826413 0.79474086 1.2018113
000030 8c aa ab bf e9 23 42 bf e8 5c b4 bf 7b b8 ad 3f
       -1.3411422 -0.75836045 -1.4090853 1.3571924
000040 e3 d2 c6 bf 5c 58 2d bf 85 3b b1 3f cb 9f 1a 40
       -1.5533108 -0.6771295 1.3846289 2.416003
000050 27 2d fb bd 66 89 d4 3e 84 55 1d bf ef 4d 05 40
       -0.122644715 0.41511077 -0.6145861 2.0828817
000060 e7 3d f3 3e e5 d2 be 3f 86 d2 a4 3f 38 ff f7 3e
       0.47508165 1.490811 1.2876747 0.48436904
000070 7f 8c f4 3e 87 1d 19 3e c6 03 7e bf 40 13 88 bf
       0.4776344 0.1495267 -0.9922451 -1.0630875
000080 16 cc 93 bf 43 8d 14 bf 04 5e 86 3e f7 97 a3 bf
       -1.1546657 -0.5802805 0.26243603 -1.2780751
000090 6d d7 00 be 2f da b1 bf da 32 83 3f 96 6c 9e be
       -0.12582178 -1.3894709 1.0249894 -0.3094222
0000a0 3e 06 60 bf ba 2a 1b bd f0 31 fc 3d 21 1b eb bf
       -0.87509525 -0.037882544 0.12314212 -1.8367654
0000b0 a2 a3 4b bf 92 aa 11 bf 9c 03 5d 3f c4 06 cc bc
       -0.7954656 -0.56900895 0.8633363 -0.02490557
0000c0 bf 54 4d 3f 24 0f 8a 3e c6 5a ae 3e 3b be 1b bf
       0.8020744 0.26964676 0.3405363 -0.60837144
0000d0 4e 01 34 3f e2 c1 22 bf 6a 49 d6 be 48 97 1c bf
       0.7031449 -0.6357709 -0.41852885 -0.61168337
0000e0 3a 1b dc bf 84 b8 68 3e 2b 83 0e bf 00 d2 94 bd
       -1.7195809 0.22726637 -0.55668896 -0.07266617
0000f0 a0 cf ac 3e 75 d2 d7 bd ce a4 c1 3f ab 21 00 40
       0.33752155 -0.10538188 1.5128419 2.002055
000100 ea 21 99 3f 6e d4 5c bf 06 05 87 bf c1 b3 1c 3f
       1.1963475 -0.8626164 -1.0548408 0.6121178
000110 6c 0e 03 bf c6 51 17 bd fa 09 10 40 23 88 30 bf
       -0.5119388 -0.03694322 2.250609 -0.6895773
000120 01 9d a3 3f 05 0c 89 bf 51 b0 7b 3f cd ee 07 3e
       1.2782289 -1.0706793 0.9831591 0.13274689
000130 f9 92 8a bf 9d f8 3f bf 13 20 00 3f c8 69 9a be
       -1.0826102 -0.7498873 0.5004894 -0.3015883
000140 ce 53 32 3f 9e ae 45 3f 04 5c 1f 3f 79 51 e8 3e
       0.69659126 0.7721957 0.6224978 0.4537466
000150 28 eb 26 3d 36 6f f1 be dc 8f bb be 08 44 09 bf
       0.040751606 -0.4715516 -0.36633193 -0.5361943
000160 3a 71 d8 bf df f5 59 3f 71 2f d4 3f 78 4b 09 3f
       -1.6909554 0.85140795 1.6576978 0.5363078
000170 ca 69 43 bf fd ae 00 3e 32 39 c5 3e 09 ae c9 3f
       -0.76333296 0.12566753 0.385202 1.5756236
000180 b0 77 6c bf fa 8d a0 3f 8e 3b 6d 3f a3 52 2e bf
       -0.9237013 1.2543328 0.92669 -0.68094844
000190 41 b2 ae bf f1 d7 2e bf ce 6e 3e bf d3 90 43 3f
       -1.3648149 -0.6829825 -0.74387825 0.7639286
0001a0 b2 7b a2 bd 25 e3 16 c0 75 c1 d8 bf 0b bb 48 bf
       -0.07933749 -2.3576138 -1.6934038 -0.78410405
0001b0 fa 27 2f bf 7c 93 da 3e 12 18 ec 3f ad 3e b0 bf
       -0.68420374 0.42690647 1.8444846 -1.3769127
0001c0 0f ea 9d bf be d0 ab 3f fc 60 de 3e da 50 31 bf
       -1.2337054 1.3423078 0.43433368 -0.69263995
0001d0 c0 92 a3 bf 39 95 94 bc b4 aa 23 c0 93 af 8e bf
       -1.277916 -0.018137561 -2.557294 -1.1147331
0001e0 67 a2 38 bf 1f 0a e6 3f 28 4f 88 be 41 27 19 3f
       -0.72122806 1.7971839 -0.2662289 0.5982552
0001f0 47 68 87 be c4 c7 c1 bf 5a 5e 33 40 e4 70 93 3d
       -0.26446745 -1.5139089 2.8026338 0.071992666
000200 f7 10 c9 3f 73 43 29 c0 c3 f5 47 bc a5 55 4e 3f
       1.5708302 -2.6447418 -0.01220459 0.80599433
000210 0e a0 79 bf 81 ee 85 3e bb c6 5c 3e 4c 33 9a be
       -0.9750985 0.26158527 0.21560185 -0.3011726
000220 0a a5 20 3f 04 3b db 3e bd b9 f7 3e 47 42 b3 bf
       0.6275183 0.42818463 0.48383895 -1.4004601
000230 17 38 4f 3f aa 47 aa bd c0 0f 88 bf cf e5 34 bf
       0.8094496 -0.0831445 -1.0629807 -0.7066316
000240 07 b4 81 bf b6 8a bb bf 28 02 d7 bf 2b e1 0f be
       -1.0133065 -1.4651706 -1.6797533 -0.14050739
000250 e7 5c 0c bf 03 4f 8d 3f 1f 08 41 3f 8c 19 98 3f
       -0.5482926 1.1039737 0.75403017 1.1882796
000260 2c 60 06 c0 19 07 a3 3f 90 8b c0 3f 98 27 84 bf
       -2.0996199 1.2736541 1.5042591 -1.0324583
000270 ab eb f1 be 88 b0 ed 3e d9 f4 60 bd d2 e0 e0 3e
       -0.47250113 0.46423745 -0.054921005 0.43921524
000280 10 ec 5b bf 74 73 08 bf c4 42 9b 3f 55 ea 17 40
       -0.8590708 -0.5330117 1.212975 2.3736775
000290 91 d1 b2 bc cc 4e 32 3f 95 2e 01 c0 63 65 06 3f
       -0.021828445 0.69651484 -2.0184681 0.52498454
0002a0 34 a8 c9 3e c2 4e 37 bf 5c 57 78 3e 74 5f c1 3e
       0.3938614 -0.7160455 0.24252075 0.37768137
0002b0 33 d6 71 3f 13 e6 c5 be f6 41 6b be 97 ca b4 bf
       0.9446747 -0.38652095 -0.22974381 -1.4124326
0002c0 34 0a 46 be 5b 4b 73 bf 72 ce 8d 3e 54 f7 b3 bf
       -0.1933983 -0.9503686 0.27696568 -1.4059854
0002d0 f3 7c 96 3e 7c c3 22 3f 08 fe 3d bf dd 6b 8c 3f
       0.29392204 0.63579535 -0.74215746 1.0970417
0002e0 2b 38 8f be 66 8a b2 bf d8 6d 14 c0 24 f6 c1 bf
       -0.2797254 -1.3948486 -2.3192043 -1.5153241
0002f0 37 ae 0c 40 ef 96 a7 be 75 9d a0 bf 26 0b e9 be
       2.1981332 -0.3273234 -1.2548052 -0.45516318
000300 ea b7 c3 bd ee 24 15 3f 6c ff bd 3d 89 3a 09 bf
       -0.09556563 0.58259475 0.092772335 -0.5360494
000310 bd cc 1d 3f fe 06 33 bf 3e ba df 3e d3 24 8c 3d
       0.6164053 -0.69932544 0.4369678 0.06842961
000320 7b 4e 93 3e a3 02 2e 40 6e 25 8f bf 2e 7f 84 bd
       0.28770813 2.718911 -1.1183298 -0.0646957
000330 f1 1b c3 3e dc 17 77 3f 49 d9 8b 3f 99 aa 4d 3f
       0.38107255 0.9652078 1.0925685 0.80338436
000340 62 31 c9 3f 25 5b 5b 3d 2c 57 f6 3e 29 12 1c 3f
       1.5718195 0.05355372 0.48113382 0.6096521
000350 05 e5 c6 bd df 31 f9 be 73 3c 1e 3d 0d 9a dd bf
       -0.09711651 -0.4867086 0.038631868 -1.7312638
000360 55 e7 80 3f 9d a0 98 3f 4a 18 91 bd 7e 80 e5 3e
       1.0070597 1.1924015 -0.07084711 0.44824594
000370 46 c7 ba 3f 50 10 33 3f 09 90 b1 bf c3 64 84 3d
       1.4592063 0.69946766 -1.3872081 0.06464531
000380 61 3b 50 3f 0d 1b a5 bf d7 1b 40 3f 79 ea ba bf
       0.81340605 -1.289888 0.7504248 -1.4602805
000390 02 44 38 be 58 15 da 3f c1 4f 9a bf 09 50 a4 3e
       -0.17994693 1.7037764 -1.2055589 0.32092312
0003a0 03 0c de 3e b7 df 87 3f b9 40 8b 3f 13 cf 68 3f
       0.4336854 1.0615147 1.0879127 0.9094097
0003b0 1b 50 ce 3f 34 20 20 40 0b 2b 22 40 69 8a a7 3f
       1.6118196 2.5019655 2.5338771 1.3089114
0003c0 a7 c6 63 3f 25 28 ac bd 4a a2 b3 be aa 0c 24 bf
       0.88974994 -0.084060945 -0.35084754 -0.64081824
0003d0 c2 cd b0 be ab 2d b2 bf d4 b0 52 3f 5b e5 ab bf
       -0.3453198 -1.3920187 0.8230107 -1.3429369
0003e0 77 2f bc 3f 83 48 75 3f 41 4f fd 3f 18 5b 9e bf
       1.4701985 0.9581377 1.9789811 -1.237155
0003f0 85 53 b2 3e 14 0e 04 3f cc 4a b8 3f 80 f8 97 3e
       0.34829345 0.5158398 1.4397826 0.29681778

conv2.bias f4 [32]
000000 7e 4f dc bd ec 68 45 bd 45 92 8b 40 6a dc a0 bf
       -0.107573494 -0.048195764 4.361605 -1.2567265
000010 51 ea 24 3e b4 5a c4 bd 77 dd 8f 3e 0c a7 c5 bc
       0.1610501 -0.09587613 0.28098652 -0.024127506
000020 26 69 87 3f 5d a4 84 c0 fe ed a5 3d 43 95 62 3d
       1.0578964 -4.145064 0.08102034 0.05531813
000030 0a 71 0e bd d1 d9 6c c0 a3 17 a2 3d 88 9a 16 bd
       -0.03477577 -3.7007945 0.079146646 -0.036768466
000040 d4 bb 18 be 8e f3 03 40 21 03 c9 3e de 0a d6 3e
       -0.149154 2.0617404 0.392602 0.41805166
000050 09 72 09 be 5c b2 b5 bf 1e 96 27 3c f9 2e 8d 3f
       -0.13422407 -1.4195056 0.010228662 1.102996
000060 a6 89 4c 3d 24 b7 b7 be 4a af 5d bf 06 b0 2f bf
       0.04993596 -0.35881913 -0.86595595 -0.68627965
000070 48 8f 0d bd b6 bf 80 3e a6 1a 04 be 38 f7 44 3f
       -0.03456047 0.25146264 -0.1290079 0.76939726

conv2.lin.weight f4 [32, 64]
000000 7e 38 9d be 81 69 17 bd f3 39 66 bf 93 35 97 3f
       -0.30707163 -0.03696585 -0.89932173 1.1813225
000010 eb eb 01 3f 20 ec 59 3e 58 07 cd 3e cb db 30 be
       0.5075061 0.21281481 0.40044665 -0.17271344
000020 ae 0c f9 3e ba 30 22 be cb 81 39 bd ef 6c e0 3f
       0.48642486 -0.158389 -0.045289796 1.7533244
000030 a9 7d 5d 3e fd 14 3e bd 6e 1d ab be 3a 84 19 3f
       0.21629967 -0.046406735 -0.3342089 0.59967387
000040 ec 89 b7 bc 2d fb bd 3e 86 d4 09 3f 80 c6 63 3d
       -0.022404633 0.37105694 0.5383991 0.055609226
000050 34 3b 8c 3f a3 6a 88 3d b9 75 c2 3c 18 80 a9 bd
       1.0955567 0.06660964 0.023737775 -0.08276385
000060 53 7d 24 be df 33 3d 3e b0 91 fb bf e3 fd 36 bd
       -0.16063432 0.18476819 -1.9653835 -0.04467572
000070 97 08 10 be 51 40 47 3d 35 9a 2a 3f bf 2b 39 bd
       -0.14065777 0.04864532 0.6664155 -0.045207735
000080 c4 f9 84 3c e9 36 86 3f c1 51 45 bf 32 a2 32 be
       0.016232379 1.0485507 -0.7707787 -0.17444685
000090 12 78 40 3d 5a dc fb 3c b9 97 3d 3f bd 8c 3c bd
       0.046989508 0.03074472 0.74059635 -0.046032656
0000a0 2b 06 b2 bd 6e f2 a7 3e ec fb b9 3f d5 44 d7 be
       -0.08692583 0.32802147 1.4530005 -0.42044702
0000b0 ef b6 79 bc 6e a1 80 3e 4d 57 47 bf e9 3c 62 3d
       -0.015241369 0.2512316 -0.77867585 0.05523387
0000c0 03 d8 ba 3d 80 11 34 be 5f a3 94 be 96 6f 37 bd
       0.09123232 -0.175848 -0.29030892 -0.04478415
0000d0 5b db e4 3e ad bb 10 bf 28 b4 34 3f ad 18 f5 3d
       0.44698605 -0.5653637 0.70587397 0.11967597
0000e0 14 1f 44 bc 24 c0 cb 3d d4 4a 1f 3d 73 39 1e bf
       -0.0119703 0.09948757 0.03888972 -0.6180641
0000f0 48 26 88 bd 75 75 ab bf 0d a9 47 40 9e d3 22 bf
       -0.066479266 -1.339522 3.119693 -0.6360415
000100 e7 b4 7b be e0 53 a3 3d 78 1c aa be d2 3b a9 3f
       -0.24580728 0.07974982 -0.33224845 1.3221381
000110 1e 17 12 c0 a2 45 a2 bd 59 36 5c be fe 03 69 bf
       -2.282661 -0.07923438 -0.21505107 -0.91021717
000120 4a c1 2a bf 8d 8a 92 be c0 09 f9 b9 67 75 18 3f
       -0.66701186 -0.2862133 -0.00047500245 0.5955414
000130 6e 2e 6f 3e 68 88 1e 3e 6d 34 ab 3e 4f d5 3e c0
       0.23357555 0.15481722 0.33438435 -2.9817693
000140 37 f4 17 3d a9 12 37 3f 01 58 ac bf d5 32 ee 3d
       0.037098136 0.7151285 -1.3464357 0.11630789
000150 f3 26 34 bf 86 30 bc bb 0d 32 ed be 1a ae 98 bd
       -0.7037193 -0.005743089 -0.46327248 -0.07455082
000160 e9 26 2f be ec 22 2f 3d fb a1 5e 3e 77 99 15 3e
       -0.17104687 0.042757913 0.21741478 0.14609323
000170 75 c2 b8 3d a1 fa a4 3d 91 6c b7 3f 6a d3 5c 3f
       0.09021465 0.08055616 1.4330007 0.8626009
000180 6c 4f fc bd ab ce 30 bf ab b6 cf 3f 5a 4e dd 3e
       -0.12319836 -0.6906535 1.6227621 0.4322384
000190 b8 3c cf 3a ad 42 64 be a3 ae 21 be 84 4b ed 3b
       0.0015810942 -0.2229106 -0.15789275 0.007241668
0001a0 66 c5 1b 3e 3b f6 91 3e df ba 31 3f 2c 49 02 40
       0.1521202 0.2850817 0.6942577 2.035716
0001b0 ad 65 05 3c 51 80 6f 3d 8c bb ee 3d f7 02 03 3d
       0.008141917 0.05847198 0.116568655 0.03198525
0001c0 4b 90 53 be d4 19 3c be cd 3f 57 bf 16 55 9c bd
       -0.20660512 -0.18369228 -0.8408173 -0.07633416
0001d0 d8 f0 77 3f fe 8c 2e 3f a6 52 c1 be 05 7b c8 3d
       0.96851873 0.68183887 -0.37758368 0.09789089
0001e0 e3 ed a1 bd ff 4f 9c 3d 1a c9 1d bc d0 18 4a 3f
       -0.079067014 0.076324455 -0.009630466 0.7894411
0001f0 54 1a a1 bd 3a fb b3 bf d6 6f 00 40 ea f3 0d 3f
       -0.0786635 -1.4061043 2.006826 0.5545031
000200 d7 e6 16 3f 9b e2 c8 be 11 69 32 3e 3e c7 06 c0
       0.58945984 -0.39235386 0.17422892 -2.1059108
000210 ca 4d 5d c0 31 c4 d4 be 88 60 d1 3c fe 17 68 be
       -3.4578729 -0.41555932 0.025558725 -0.22665402
000220 b0 77 d5 be dc 04 ac bf 4a 7c 22 bf ab c5 9b be
       -0.41692877 -1.3438983 -0.634709 -0.30424246
000230 7c 01 fb be df 04 00 bf eb 8a 33 be ce 9b 2a be
       -0.4902457 -0.5000743 -0.17533462 -0.16660997
000240 e1 83 ff 3c 92 38 95 bf 05 91 77 bf 63 99 1e 3d
       0.031190814 -1.1657889 -0.9670566 0.0387205
000250 8b e5 8b bf e3 a3 15 be fc 93 81 bf bf 15 ab 3c
       -1.0929426 -0.14613299 -1.0123286 0.020884393
000260 9c 4e 7a be 47 2d 37 bf 37 65 26 bf f9 72 ae 3d
       -0.2444405 -0.7155346 -0.6499819 0.08518023
000270 db a8 fd be c6 97 82 be 42 ae c1 3d da 7d e2 be
       -0.4954289 -0.2550642 0.09457065 -0.44236642
000280 4f 2d a6 be fe 1f 78 3f 1b 8a 09 bf 4f b0 2e be
       -0.32456443 0.96923816 -0.5372636 -0.17059444
000290 85 08 df be 2c d9 04 be f6 5b 2a 3f 93 5a 32 bf
       -0.43561187 -0.1297347 0.6654657 -0.69669455
0002a0 78 8e cc 3e 7e c2 87 be d5 b4 1c 3f 10 d1 21 bf
       0.39952445 -0.26515573 0.6121343 -0.6320963
0002b0 f9 5d a1 bc 55 05 38 bd 2a c0 26 bf df 77 08 be
       -0.01969813 -0.04492696 -0.6513697 -0.13326977
0002c0 56 27 23 bf 10 ef 42 3f f1 1f 9e bf 28 e2 cd bf
       -0.63731897 0.7614603 -1.2353498 -1.6084642
0002d0 9d 24 1b bf 78 82 c3 3e 09 0e 7d be 55 36 9c be
       -0.6060274 0.38185477 -0.24712385 -0.30510202
0002e0 d4 2f d8 be b0 8a 8a be ce 92 80 3e e2 da d1 3e
       -0.4222399 -0.27058935 0.25112003 0.40987307
0002f0 b1 4e c8 bd 9c cf 60 3f 8a 46 de bc 9f 72 34 bf
       -0.09780634 0.87816787 -0.027133245 -0.704874
000300 d7 88 dc bc 1d 06 dc 3e cf 99 2c 3e e4 e3 a9 3d
       -0.02692072 0.42973414 0.16855548 0.0829542
000310 86 8f 92 3f 73 ea 70 3e f4 43 92 3c 42 54 5e bd
       1.145005 0.23526935 0.017854668 -0.054279573
000320 d6 aa f3 bf a3 55 95 3f 5b c1 97 3d 76 4f c5 be
       -1.903651 1.1666759 0.074099265 -0.38537186
000330 fc 26 cf be ca ed 19 bf f3 ae 23 3f 28 8d 35 bf
       -0.4045943 -0.6012846 0.63938826 -0.7091851
000340 fd 76 73 3d 8f c1 2a 3f 98 12 98 3e da a7 4a 3e
       0.059439648 0.66701597 0.29701686 0.19790593
000350 68 b7 bd 3e c9 a9 06 3e 06 c1 c3 bc 84 05 36 3f
       0.3705399 0.13150705 -0.023895752 0.71102166
000360 f9 12 4d 3d b9 c1 87 3e ea d9 9e 3e d9 65 3c 3f
       0.05006692 0.26514986 0.3102563 0.7359291
000370 50 08 1d bf 55 b6 71 3e 79 05 44 3f 11 0f 18 bf
       -0.6134081 0.2360471 0.7657085 -0.5939799
000380 ca a5 71 bf 9b 31 c7 be 02 ca ec bd 6e 43 93 be
       -0.943936 -0.38905033 -0.115619674 -0.28762382
000390 07 e8 c1 3d bc 43 3c 3f d1 cb a5 be 39 c6 7a 3e
       0.09468084 0.73540854 -0.32382062 0.24489678
0003a0 72 07 b1 bf f0 37 13 3f c2 f6 a3 bf 2b 57 8c 3f
       -1.3830397 0.5750723 -1.280968 1.0964102
0003b0 72 1a 2c bc dc f3 59 3e 06 c9 2b 3f 0a d3 0e 3f
       -0.010504352 0.21284431 0.6710361 0.5579077
0003c0 ac fe 06 40 e1 18 e3 bf 18 2d 5b bd a6 f3 4c 3f
       2.109294 -1.7741967 -0.0535098 0.8005928
0003d0 94 49 a2 3e 02 e0 02 bf 43 f9 3c bf 26 7d 25 bf
       0.3169676 -0.5112306 -0.73817843 -0.64644086
0003e0 89 62 e4 be f4 13 18 3f 35 7a ee 3d 63 3c 8d 3f
       -0.44606426 0.59405446 0.11644403 1.1034054
0003f0 ad 6d 0b 3f 30 52 0b 3f bc df da bf 76 af ca 3c
       0.54464227 0.54422283 -1.7099528 0.02474187

link_predictor.0.weight f4 [64, 416]
000000 22 5e c5 3e c8 7e 17 3d b4 a2 87 3f 8c b0 fb bd
       0.3854838 0.036986142 1.0596528 -0.12289533
000010 2b bb 45 bd 02 0e 45 3e 16 44 9c be 1f be 89 bd
       -0.0482742 0.19243625 -0.30520695 -0.06725716
000020 b3 b5 cf bd 53 bb a1 bf 9f e1 59 3e 46 1d 11 3e
       -0.10142078 -1.2635292 0.21277474 0.14171323
000030 34 1c 0b be d0 0a 4d bf 6b 59 32 be 99 65 87 bd
       -0.13584977 -0.80094624 -0.17416923 -0.06611175
000040 69 0a a4 3d ba 1b 06 bf f0 4d 36 3f 95 fa 95 3d
       0.08009798 -0.5238606 0.71212673 0.07323185
000050 9f 02 07 be f8 81 0a bf c1 52 22 be c7 26 08 bf
       -0.13184594 -0.54104567 -0.1585188 -0.5318417
000060 10 59 1c 3d e1 26 f3 3e 81 ef d7 3d 82 62 3a bd
       0.038170874 0.474906 0.105437286 -0.0455041
000070 9d c6 6f 3e b5 db a6 3d 9a 0c c0 be ae 7e ae 3d
       0.23415609 0.081473745 -0.37509614 0.08520256
000080 4c bd ee c0 57 59 80 bf 20 93 7d c0 f7 9c ad 40
       -7.4606075 -1.0027264 -3.9621048 5.4254107
000090 95 1b 9a c0 a4 27 be 40 fb 62 d9 c0 b2 89 a7 bf
       -4.815867 5.942339 -6.7933326 -1.3088896
0000a0 4e d3 f7 c0 08 ab 2f c0 66 99 00 40 ac 0e 5a 3d
       -7.744544 -2.744814 2.0093627 0.05323665
0000b0 04 bb 12 41 4a 6f f9 3d 97 d7 e1 c0 0a d0 b5 c0
       9.170658 0.1217943 -7.057567 -5.6816454
0000c0 1c 72 cc 3f 3c 14 91 c0 35 88 1c 40 4d 52 94 3f
       1.5972323 -4.53372 2.4458134 1.1587616
0000d0 a0 e5 b2 3f 70 68 c1 3d 32 75 87 c0 3d da c6 40
       1.3976326 0.09443748 -4.233056 6.2141404
0000e0 90 cb 37 41 c8 47 f9 40 10 99 84 3f f4 28 89 40
       11.487198 7.7900124 1.0359211 4.286249
0000f0 17 0d fc c0 72 8d 19 c1 e2 bf 04 c1 49 3f 5f 40
       -7.876598 -9.597033 -8.296846 3.4882376
000100 22 f5 05 40 56 77 2f bf c0 57 50 c0 5e 01 94 40
       2.0930867 -0.6854147 -3.2553558 4.625167
000110 db ac 12 41 78 47 06 41 46 fc be 40 f6 c8 d7 40
       9.167201 8.392448 5.968295 6.7432814
000120 7b 65 8e 3e a7 5d cf bf a6 a3 48 c1 7f 27 6a 40
       0.27811798 -1.6200455 -12.539953 3.6586607
000130 0e 20 b8 c0 e4 ca a7 40 91 46 31 41 2e 45 42 c0
       -5.753913 5.243517 11.079728 -3.0354724
000140 98 72 a2 c0 5c 4d 8c 3c 6e 7b 9f 40 53 da 4b 40
       -5.0764885 0.017126732 4.983817 3.1852005
000150 a1 b8 28 c0 18 af ec 40 e4 9e 98 40 11 50 40 40
       -2.6362689 7.3963737 4.769396 3.0048869
000160 42 e5 60 3f 21 15 84 40 4c 79 58 c0 e6 5f b5 40
       0.8784982 4.127579 -3.3824034 5.6679564
000170 39 04 8e c0 1f 26 96 bf 1a cc 1f c1 9a 99 e7 3f
       -4.4380155 -1.1730384 -9.9873295 1.809375
000180 a7 a7 57 bd 44 da e2 c0 b7 a7 03 c1 e1 7c 85 c0
       -0.05265012 -7.0891438 -8.228446 -4.171494
000190 3f 03 79 c0 6d ae ee be 48 e3 22 40 68 62 35 c0
       -3.8908231 -0.4661745 2.5451221 -2.8341312
0001a0 c7 7f 6f 40 d5 d5 c8 3f cc 56 d4 3e df e9 01 c0
       3.742174 1.5690256 0.4147247 -2.0298994
0001b0 e3 0a 1e c0 44 54 61 c0 6d 56 58 c0 93 93 c1 3f
       -2.4694145 -3.5207682 -3.380275 1.5123161
0001c0 16 cb 06 40 a0 e2 59 bd 4e aa dc 3e c8 84 36 c0
       2.1061454 -0.053194642 0.43098682 -2.8518543
0001d0 48 72 e7 be 72 8f ed 3f 96 7a 91 3f a5 34 2d 41
       -0.45204377 1.8559401 1.1365535 10.825353
0001e0 e4 0c 62 3f de fa 31 c0 b2 5e 8d 40 48 69 e2 3f
       0.8830092 -2.7809367 4.4178095 1.7688379
0001f0 cf d7 38 c0 43 87 29 c0 69 9b 9e 40 78 64 0d 3f
       -2.888172 -2.6488807 4.956471 0.5523143
000200 cf c5 35 40 03 76 8f 40 f2 d4 c8 3f a5 77 a1 3f
       2.8401983 4.4831557 1.5689986 1.2614638
000210 78 8e 37 40 ed ff 48 c0 93 7c 7a c0 39 c8 49 bd
       2.8680706 -3.1406205 -3.9138534 -0.049263213
000220 a3 f6 aa 40 b0 6f 85 c0 f5 46 50 40 45 d8 72 c0
       5.342607 -4.1698837 3.2543309 -3.79445
000230 ab 6b 4e c0 6e d8 71 c0 7f dc be bf c2 c5 05 c1
       -3.2253215 -3.7788348 -1.491104 -8.360781
000240 58 30 b7 40 0c 0d 68 3f e5 c5 13 41 f7 65 bb c0
       5.7246513 0.9064491 9.235814 -5.856197
000250 00 ae 3c c0 df 05 e5 c0 3b 82 be 3f c9 26 79 bf
       -2.94812 -7.1569667 1.4883493 -0.97324806
000260 b5 4f 25 c1 d5 a4 a0 c0 03 14 12 40 70 8c b2 40
       -10.33196 -5.020121 2.2824714 5.5796432
000270 ef dc 8a 3f 6c ce cd 40 58 02 9d 40 7a 57 af bc
       1.0848674 6.431448 4.906536 -0.021404017
000280 ff 9a 00 c1 1f 4f b8 bf 2e d0 4f c0 25 c1 8c 40
       -8.037841 -1.4399146 -3.2470813 4.398577
000290 11 e4 f5 c0 e8 72 25 40 2f e5 7b c0 81 14 72 c0
       -7.68409 2.5851383 -3.9358633 -3.7825015
0002a0 2b fd f9 bf 05 61 bc 3e 7f 45 be c0 3a 42 b7 40
       -1.9530386 0.3679277 -5.9459834 5.7268343
0002b0 b9 0c 6b 40 eb c6 fa bf 99 54 cb be fe 35 42 c0
       3.6726515 -1.9591955 -0.3971298 -3.0345454
0002c0 10 88 21 40 9b 67 bd bf ac 99 b1 40 b3 7b 20 c0
       2.5239296 -1.4797243 5.550009 -2.50755
0002d0 b1 d5 00 c0 96 0f 1e 40 bc 33 59 40 78 9d 60 c0
       -2.0130427 2.4697013 3.3937826 -3.5096111
0002e0 3e a1 36 40 0c 7e 19 40 c4 05 3e 40 4c d9 ed bd
       2.8535914 2.3983183 2.969102 -0.11613712
0002f0 f3 c8 7d 40 a6 80 de c0 16 2e 41 bf 84 df bc 40
       3.96539 -6.953204 -0.75460947 5.9022846
000300 3b 87 10 40 1f 43 d3 40 fb 8e 88 40 bd 23 41 40
       2.2582538 6.6019435 4.2674537 3.0178063
000310 99 f7 47 c1 f1 7e 61 3f 50 b4 9f 40 88 ba 6e c0
       -12.497949 0.8808432 4.990761 -3.730135
000320 c5 aa 84 c0 24 79 d8 c0 01 a7 d7 c0 01 1c dd 3f
       -4.145846 -6.7647877 -6.739136 1.7274171
000330 34 21 61 c0 c8 5d 8a 40 40 2d 0d 40 0b ed e4 40
       -3.5176516 4.323948 2.2058868 7.153936
000340 42 60 04 41 96 cd 90 bf c5 e1 98 3f 8b 83 d1 3e
       8.2735 -1.131274 1.1943899 0.40920672
000350 8f f4 54 40 ee 16 f1 c0 7b e9 c8 c0 78 45 fa 40
       3.3274267 -7.534049 -6.278501 7.82098
000360 46 d4 f8 c0 c5 b5 44 c0 9b e5 f1 bf 23 1f 74 40
       -7.7759123 -3.0735943 -1.8898195 3.8144004
000370 6a 1d ad c0 b3 b5 ce 40 a7 46 50 40 2a ee 2b be
       -5.4098406 6.45968 3.2543123 -0.16790071
000380 5d 55 9d 40 2b be c3 bf 51 f0 9b bf a6 0c 80 bf
       4.9166703 -1.529241 -1.2182714 -1.000386
000390 e8 05 85 bf ac a1 09 40 fe 8e 93 bf 39 ea 96 c0
       -1.0392427 2.1504927 -1.1528013 -4.7160916
0003a0 71 bb 52 c1 45 6c 10 c1 7b 44 78 40 5a c5 0f 3f
       -13.170762 -9.026433 3.8791797 0.5616051
0003b0 48 f1 8a 40 26 78 d8 3f 3e 39 56 40 82 c4 f3 3f
       4.3419533 1.6911666 3.3472438 1.9044344
0003c0 14 60 0a bf 2d dc bb bf c1 f4 11 c1 fe 75 a9 be
       -0.54052854 -1.4676567 -9.122254 -0.33097833
0003d0 24 00 b6 c0 f1 c1 e3 3e 1b a7 7d c0 b1 b6 95 40
       -5.687517 0.44483903 -3.9633243 4.678551
0003e0 be c8 05 40 ae 6d 36 c0 7c 86 b7 3f c5 cc b4 40
       2.0903773 -2.8504443 1.4337916 5.6499963
0003f0 8d 1b 7f 3f 6b 77 40 40 f1 fe a5 c0 13 01 c7 bc
       0.99651414 3.0072887 -5.187371 -0.024292504

link_predictor.0.bias f4 [64]
000000 7b 5a 7f c0 69 c3 e8 c0 e1 e0 8a 3f 61 9f f7 c0
       -3.9898975 -7.273854 1.0849878 -7.7382054
000010 a9 9a 04 3f c5 d0 04 c1 9e 75 0e c1 ea 0f e4 c0
       0.5179849 -8.300969 -8.903715 -7.1269426
000020 3a 32 ed c0 d8 36 b9 c0 9d 9f 96 c0 6d 32 c8 bf
       -7.412381 -5.787945 -4.706984 -1.5640389
000030 e6 56 83 c0 58 65 c6 c0 93 30 33 c0 48 a9 ef c0
       -4.1043577 -6.199871 -2.7998397 -7.489414
000040 44 17 b0 c0 3a 3a b5 c0 13 89 d1 c0 40 96 b3 c0
       -5.50284 -5.6633577 -6.5479827 -5.612091
000050 56 11 bd c0 25 a7 ec c0 50 5f 33 c0 e5 90 86 c0
       -5.908366 -7.3954034 -2.8026924 -4.2051873
000060 b3 d6 f6 c0 6a bb 72 c0 d2 cf ac c0 1c d0 d2 c0
       -7.7137084 -3.7926888 -5.4003687 -6.587904
000070 36 2d 80 c0 75 2b ec c0 ab d4 6b c0 10 8d 10 c1
       -4.005519 -7.380305 -3.6848552 -9.034439
000080 f9 9f 13 c1 43 49 8a c0 97 36 c6 c0 56 e3 00 c1
       -9.226556 -4.321443 -6.194164 -8.055502
000090 dc 57 78 c0 ee 88 d2 c0 85 6c 41 c1 27 e4 a0 c0
       -3.8803625 -6.579215 -12.088994 -5.0278506
0000a0 fa 36 b2 c0 19 70 db c0 e4 a9 d7 bf 5c cb 6e c0
       -5.569211 -6.857434 -1.6848722 -3.731162
0000b0 93 04 a6 c0 3b 09 d8 bf 13 ea aa c0 bb b5 04 c1
       -5.1880584 -1.6877817 -5.3410735 -8.294368
0000c0 20 b9 d3 c0 11 4d fe c0 c0 88 bc 40 02 aa 0f c1
       -6.6163483 -7.9469075 5.891693 -8.979006
0000d0 b1 96 80 c0 19 01 f2 c0 4b e4 56 c0 4b 9d d2 c0
       -4.018395 -7.562634 -3.357684 -6.581701
0000e0 83 29 26 c1 77 65 b3 c0 e0 4c 00 c1 3d 45 da c0
       -10.385135 -5.606136 -8.018768 -6.820952
0000f0 c6 9f a8 bf 7d 1c 99 c0 ea d6 38 c1 ee 95 9c c0
       -1.3173759 -4.7847276 -11.552469 -4.893302

link_predictor.2.weight f4 [1, 64]
000000 9e ef 13 3e e2 00 11 3e e0 81 14 be ee 91 0b be
       0.14446875 0.14160493 -0.14502668 -0.13629887
000010 5c b5 b2 bd 98 ec 30 3e 8a c4 bd 3d d5 e1 0b 3e
       -0.08725998 0.17277753 0.092660025 0.13660367
000020 3b 64 e0 3d d9 95 f1 bd ea 75 0c be b2 45 e8 bd
       0.109566174 -0.11796159 -0.13716856 -0.11341418
000030 c6 a8 f7 3d c5 9d 92 3d 05 ef bd bd 70 0e 19 be
       0.12092738 0.071589984 -0.09274105 -0.14946914
000040 5b 8d e7 3d fa 39 2b 3e 6f 0f be bd 99 52 1a be
       0.11306258 0.16721335 -0.092802875 -0.15070571
000050 fa ca b2 3d a0 e3 1d 3e 1d 3b 11 be 0f 51 ba bd
       0.08730121 0.15418863 -0.14182706 -0.09097492
000060 2d fa 9d 3d de f3 f1 bd a9 3a 04 3e 27 85 f1 bd
       0.07713733 -0.11814092 0.12913002 -0.11792975
000070 7a e1 b2 bd fa 87 96 be 33 df be bd 37 f6 c0 3d
       -0.087344125 -0.29400617 -0.093199156 0.09421962
000080 7d f6 d4 3d aa 95 0b be 30 0b cf 3d 11 9d ed 3d
       0.103985764 -0.13631311 0.10109556 0.11602224
000090 ab b9 ed bd b9 a6 07 be a1 3c 8e be ab 8b 0d be
       -0.11607679 -0.13247193 -0.2778063 -0.1382281
0000a0 3f 27 0c be c9 16 26 be 84 07 cf bd ae e0 0c be
       -0.13686846 -0.1621963 -0.10108855 -0.13757583
0000b0 e6 94 ef bd 76 09 e2 bd f5 ea aa 3d bb 72 9d 3d
       -0.11698322 -0.11036961 0.08345596 0.07687899
0000c0 95 c5 17 be 6e e7 b3 3d aa b7 cb 3d 54 b2 f7 bd
       -0.14821465 0.08784376 0.099471405 -0.1209456
0000d0 5e 6d 92 3d 91 bf 74 3d 40 17 cd bd 45 6b e2 bd
       0.071497664 0.059753004 -0.100142 -0.11055616
0000e0 11 f3 ea bd ed 0f 8c 3d eb df f9 bd 09 b4 c6 3d
       -0.114721425 0.06838975 -0.12200912 0.09702308
0000f0 e0 3f 17 be 07 6e fe 3d 86 ec aa 3d 19 ca f4 3d
       -0.1477046 0.1242333 0.083458945 0.119526096
