new_checkpoints/model_epoch_6.pth (torch, 217416 bytes, 7 tensors)

conv1.bias f4 [64]
00000000: de04 66c0 7295 8a3f 9ae0 e2c0 b472 f0c0
00000010: cce5 e9c0 fd3d 75be 8b98 43c0 c506 71c0
00000020: 4fe3 e8c0 f690 8cc0 b748 b83f bff1 d6c0
00000030: 1d6f 12c0 6ba0 903f 1f9b e4c0 7bb3 e4c0
00000040: 0db9 0ebe 07b2 9bc0 5ac3 5bc0 f60d 553f
00000050: a7b3 13c0 f370 d93e 06ed 50c0 7416 2abf
00000060: 9e35 b13e 9a3c 5c3d 5096 7fc0 d8cd 04c0
00000070: 4369 0a3f 920d c33d 39b7 54c0 a011 7ac0
00000080: 9585 463f d245 86c0 2634 f0c0 872b 71c0
00000090: 38d6 713e fef0 c0c0 a871 36c0 4701 1c3f
000000a0: 3f4d 553e b4d0 9ac0 6471 0bc1 c782 50c0
000000b0: bd2b fe3d a109 563f 08f4 f7c0 54e6 bd3f
000000c0: c357 bcc0 b9f8 22c1 994b 2dc0 daa6 c4bc
000000d0: 1d21 84c0 121d abc0 f8f6 38c0 ab57 ab3e
000000e0: bab8 1d3f ad4f 04bf d767 793f d517 92c0
000000f0: a526 183f e31a 9dc0 8773 f7c0 9c11 57c0
-3.594047 1.0826857 -7.089917 -7.514002 -7.3093014 -0.23949428 -3.0561855 -3.7660382
-7.2777476 -4.3926954 1.4397191 -6.71701 -2.2880318 1.1298956 -7.1439357 -7.146909
-0.13937779 -4.865482 -3.4337983 0.8322443 -2.30784 0.42468986 -3.2644668 -0.6644051
0.3461122 0.05376873 -3.9935493 -2.0750637 0.54066867 0.09524073 -3.323683 -3.9073257
0.7754758 -4.196023 -7.506366 -3.7682817 0.23616874 -6.029418 -2.850687 0.6093945
0.20830248 -4.8379765 -8.715183 -3.257982 0.12410686 0.8360844 -7.748539 1.4835916
-5.885713 -10.185723 -2.707739 -0.024005342 -4.129042 -5.3472986 -2.8900738 0.33465323
0.61609995 -0.51684076 0.9742407 -4.565409 0.59433967 -4.909532 -7.7328525 -3.3604498

conv1.lin.weight f4 [64, 384]
00000000: 8a43 183e b9a5 f8be c259 26bc a246 27bf
00000010: 3c66 fb3f 9973 963f d568 d2bf d450 bfbf
00000020: e34f 863f ad4f b23e 2374 4b3f f4d4 993f
00000030: 8caa abbf e923 42bf e85c b4bf 7bb8 ad3f
00000040: e3d2 c6bf 5c58 2dbf 853b b13f cb9f 1a40
00000050: 272d fbbd 6689 d43e 8455 1dbf ef4d 0540
00000060: e73d f33e e5d2 be3f 86d2 a43f 38ff f73e
00000070: 7f8c f43e 871d 193e c603 7ebf 4013 88bf
00000080: 16cc 93bf 438d 14bf 045e 863e f797 a3bf
00000090: 6dd7 00be 2fda b1bf da32 833f 966c 9ebe
000000a0: 3e06 60bf ba2a 1bbd f031 fc3d 211b ebbf
000000b0: a2a3 4bbf 92aa 11bf 9c03 5d3f c406 ccbc
000000c0: bf54 4d3f 240f 8a3e c65a ae3e 3bbe 1bbf
000000d0: 4e01 343f e2c1 22bf 6a49 d6be 4897 1cbf
000000e0: 3a1b dcbf 84b8 683e 2b83 0ebf 00d2 94bd
000000f0: a0cf ac3e 75d2 d7bd cea4 c13f ab21 0040
00000100: ea21 993f 6ed4 5cbf 0605 87bf c1b3 1c3f
00000110: 6c0e 03bf c651 17bd fa09 1040 2388 30bf
00000120: 019d a33f 050c 89bf 51b0 7b3f cdee 073e
00000130: f992 8abf 9df8 3fbf 1320 003f c869 9abe
00000140: ce53 323f 9eae 453f 045c 1f3f 7951 e83e
00000150: 28eb 263d 366f f1be dc8f bbbe 0844 09bf
00000160: 3a71 d8bf dff5 593f 712f d43f 784b 093f
00000170: ca69 43bf fdae 003e 3239 c53e 09ae c93f
00000180: b077 6cbf fa8d a03f 8e3b 6d3f a352 2ebf
00000190: 41b2 aebf f1d7 2ebf ce6e 3ebf d390 433f
000001a0: b27b a2bd 25e3 16c0 75c1 d8bf 0bbb 48bf
000001b0: fa27 2fbf 7c93 da3e 1218 ec3f ad3e b0bf
000001c0: 0fea 9dbf bed0 ab3f fc60 de3e da50 31bf
000001d0: c092 a3bf 3995 94bc b4aa 23c0 93af 8ebf
000001e0: 67a2 38bf 1f0a e63f 284f 88be 4127 193f
000001f0: 4768 87be c4c7 c1bf 5a5e 3340 e470 933d
00000200: f710 c93f 7343 29c0 c3f5 47bc a555 4e3f
00000210: 0ea0 79bf 81ee 853e bbc6 5c3e 4c33 9abe
00000220: 0aa5 203f 043b db3e bdb9 f73e 4742 b3bf
00000230: 1738 4f3f aa47 aabd c00f 88bf cfe5 34bf
00000240: 07b4 81bf b68a bbbf 2802 d7bf 2be1 0fbe
00000250: e75c 0cbf 034f 8d3f 1f08 413f 8c19 983f
00000260: 2c60 06c0 1907 a33f 908b c03f 9827 84bf
00000270: abeb f1be 88b0 ed3e d9f4 60bd d2e0 e03e
00000280: 10ec 5bbf 7473 08bf c442 9b3f 55ea 1740
00000290: 91d1 b2bc cc4e 323f 952e 01c0 6365 063f
000002a0: 34a8 c93e c24e 37bf 5c57 783e 745f c13e
000002b0: 33d6 713f 13e6 c5be f641 6bbe 97ca b4bf
000002c0: 340a 46be 5b4b 73bf 72ce 8d3e 54f7 b3bf
000002d0: f37c 963e 7cc3 223f 08fe 3dbf dd6b 8c3f
000002e0: 2b38 8fbe 668a b2bf d86d 14c0 24f6 c1bf
000002f0: 37ae 0c40 ef96 a7be 759d a0bf 260b e9be
00000300: eab7 c3bd ee24 153f 6cff bd3d 893a 09bf
00000310: bdcc 1d3f fe06 33bf 3eba df3e d324 8c3d
00000320: 7b4e 933e a302 2e40 6e25 8fbf 2e7f 84bd
00000330: f11b c33e dc17 773f 49d9 8b3f 99aa 4d3f
00000340: 6231 c93f 255b 5b3d 2c57 f63e 2912 1c3f
00000350: 05e5 c6bd df31 f9be 733c 1e3d 0d9a ddbf
00000360: 55e7 803f 9da0 983f 4a18 91bd 7e80 e53e
00000370: 46c7 ba3f 5010 333f 0990 b1bf c364 843d
00000380: 613b 503f 0d1b a5bf d71b 403f 79ea babf
00000390: 0244 38be 5815 da3f c14f 9abf 0950 a43e
000003a0: 030c de3e b7df 873f b940 8b3f 13cf 683f
000003b0: 1b50 ce3f 3420 2040 0b2b 2240 698a a73f
000003c0: a7c6 633f 2528 acbd 4aa2 b3be aa0c 24bf
000003d0: c2cd b0be ab2d b2bf d4b0 523f 5be5 abbf
000003e0: 772f bc3f 8348 753f 414f fd3f 185b 9ebf
000003f0: 8553 b23e 140e 043f cc4a b83f 80f8 973e
0.14869514 -0.48563936 -0.010153236 -0.6534215 1.9640574 1.1754028 -1.6438242 -1.4946542
1.049313 0.34826413 0.79474086 1.2018113 -1.3411422 -0.75836045 -1.4090853 1.3571924
-1.5533108 -0.6771295 1.3846289 2.416003 -0.122644715 0.41511077 -0.6145861 2.0828817
0.47508165 1.490811 1.2876747 0.48436904 0.4776344 0.1495267 -0.9922451 -1.0630875
-1.1546657 -0.5802805 0.26243603 -1.2780751 -0.12582178 -1.3894709 1.0249894 -0.3094222
-0.87509525 -0.037882544 0.12314212 -1.8367654 -0.7954656 -0.56900895 0.8633363 -0.02490557
0.8020744 0.26964676 0.3405363 -0.60837144 0.7031449 -0.6357709 -0.41852885 -0.61168337
-1.7195809 0.22726637 -0.55668896 -0.07266617 0.33752155 -0.10538188 1.5128419 2.002055
1.1963475 -0.8626164 -1.0548408 0.6121178 -0.5119388 -0.03694322 2.250609 -0.6895773
1.2782289 -1.0706793 0.9831591 0.13274689 -1.0826102 -0.7498873 0.5004894 -0.3015883
0.69659126 0.7721957 0.6224978 0.4537466 0.040751606 -0.4715516 -0.36633193 -0.5361943
-1.6909554 0.85140795 1.6576978 0.5363078 -0.76333296 0.12566753 0.385202 1.5756236
-0.9237013 1.2543328 0.92669 -0.68094844 -1.3648149 -0.6829825 -0.74387825 0.7639286
-0.07933749 -2.3576138 -1.6934038 -0.78410405 -0.68420374 0.42690647 1.8444846 -1.3769127
-1.2337054 1.3423078 0.43433368 -0.69263995 -1.277916 -0.018137561 -2.557294 -1.1147331
-0.72122806 1.7971839 -0.2662289 0.5982552 -0.26446745 -1.5139089 2.8026338 0.071992666
1.5708302 -2.6447418 -0.01220459 0.80599433 -0.9750985 0.26158527 0.21560185 -0.3011726
0.6275183 0.42818463 0.48383895 -1.4004601 0.8094496 -0.0831445 -1.0629807 -0.7066316
-1.0133065 -1.4651706 -1.6797533 -0.14050739 -0.5482926 1.1039737 0.75403017 1.1882796
-2.0996199 1.2736541 1.5042591 -1.0324583 -0.47250113 0.46423745 -0.054921005 0.43921524
-0.8590708 -0.5330117 1.212975 2.3736775 -0.021828445 0.69651484 -2.0184681 0.52498454
0.3938614 -0.7160455 0.24252075 0.37768137 0.9446747 -0.38652095 -0.22974381 -1.4124326
-0.1933983 -0.9503686 0.27696568 -1.4059854 0.29392204 0.63579535 -0.74215746 1.0970417
-0.2797254 -1.3948486 -2.3192043 -1.5153241 2.1981332 -0.3273234 -1.2548052 -0.45516318
-0.09556563 0.58259475 0.092772335 -0.5360494 0.6164053 -0.69932544 0.4369678 0.06842961
0.28770813 2.718911 -1.1183298 -0.0646957 0.38107255 0.9652078 1.0925685 0.80338436
1.5718195 0.05355372 0.48113382 0.6096521 -0.09711651 -0.4867086 0.038631868 -1.7312638
1.0070597 1.1924015 -0.07084711 0.44824594 1.4592063 0.69946766 -1.3872081 0.06464531
0.81340605 -1.289888 0.7504248 -1.4602805 -0.17994693 1.7037764 -1.2055589 0.32092312
0.4336854 1.0615147 1.0879127 0.9094097 1.6118196 2.5019655 2.5338771 1.3089114
0.88974994 -0.084060945 -0.35084754 -0.64081824 -0.3453198 -1.3920187 0.8230107 -1.3429369
1.4701985 0.9581377 1.9789811 -1.237155 0.34829345 0.5158398 1.4397826 0.29681778

conv2.bias f4 [32]
00000000: 3d64 82bd 5091 0cbd 3fa7 d040 ab8f a3bf
00000010: 329f b0bd e93d 713c 2ae7 663e 5aff 503d
00000020: ce02 0c3f c188 b8c0 3be4 763d 7489 30be
00000030: 345c 0ebe c874 91c0 ec69 4dbd 19fd 78bd
00000040: 2068 19bd c80a 2840 a026 223f b2a3 943c
00000050: 1004 1f3e a66d cebf a4ab 193e bc77 873f
00000060: 92fa b93d 8c56 d13e 478c 60bf 7e95 1abc
00000070: bd63 a43d c793 963d 2494 b43d f9c9 903f
-0.06366775 -0.03431827 6.520416 -1.2778219 -0.08624114 0.014724233 0.2254912 0.051024772
0.5469178 -5.7666936 0.06027625 -0.17239934 -0.1390236 -4.5455055 -0.050149843 -0.060788248
-0.037452817 2.625658 0.6334019 0.018144462 0.15528893 -1.6127212 0.15006882 1.0583415
0.090809956 0.40886343 -0.87714046 -0.009435056 0.08026836 0.07352405 0.08817318 1.1311637

conv2.lin.weight f4 [32, 64]
00000000: 7e38 9dbe 36ef 8dbc 4d39 47bf a4ac d13f
00000010: 0df7 b13f d98a 7e3d 5807 cd3e cbdb 30be
00000020: 844f dd3e ba30 22be ef92 c9bb 769d e43f
00000030: 2f89 c2bd 1c58 923c 03df 413e 2750 d53e
00000040: 9967 073e c7ea 853e 86d4 093f 7052 833c
00000050: 343b 8c3f 610a ad3d b975 c23c e7a5 253e
00000060: 6483 febc 88ae 9a3d b091 fbbf e3fd 36bd
00000070: 60e2 103c c181 4cbe 359a 2a3f bf2b 39bd
00000080: 37df 033e 289a 803f b2d9 023f 32a2 32be
00000090: 97b2 f5bc 7628 c93d b997 3d3f f2a4 2fbc
000000a0: 7906 633c 1be4 1f3c 09eb 853e d544 d7be
000000b0: 9273 2cbe 3f5b a23d cd92 823f 92f6 443c
000000c0: 3caa 9dbe b7c7 e3bc 5fa3 94be 35df 3ebd
000000d0: 2b94 053f dfe9 28bf 28b4 343f 9e92 00bd
000000e0: 0178 b43d 081a 7abd 7436 1abd dca8 1dbf
000000f0: 81fa d03c 7791 a0bf 7f45 ee3f 9ed3 22bf
00000100: e7b4 7bbe 983d f33c be2a dc3d e4f6 823f
00000110: 8451 fdbf 8032 4bbe 5936 5cbe fe03 69bf
00000120: 38e8 b6bf 8d8a 92be 0413 c1bd ad5c 233f
00000130: f128 843d c7cb 9cbc 8e3a 013f c352 58c0
00000140: a5aa 3b3d d5a9 c73d 0158 acbf 9c86 413d
00000150: f326 34bf 12ea 1f3d 0d32 edbe ce86 bb3d
00000160: 871d 81bd 838a 813e fba1 5e3e 7799 153e
00000170: 3c98 f33d da1d 753d 916c b73f 6ad3 5c3f
00000180: fd0d 813d a0cb 4dbf 65e2 22bf 5a4e dd3e
00000190: 4bac 0b3d 17c6 153e a3ae 21be 7f3c 863b
000001a0: ae8d d5bd c871 12bf 5deb 3e3e 2c49 0240
000001b0: 5815 5ebb 936a ae3c 43ff 84bf 6ea2 0dbd
000001c0: 2430 163f f215 713d cd3f 57bf 1191 583c
000001d0: 3dea a53f 35e6 6a40 a652 c1be a888 323d
000001e0: c921 7dbb 9b76 9ebd 7d58 533d 30e3 493f
000001f0: 267a fdbc baf4 d0bf b8ee cf3f eaf3 0d3f
00000200: d7e6 163f ace3 bbbe 0d62 f9bc 6414 03c0
00000210: 4844 6ac0 3e60 c9be 8860 d13c fe17 68be
00000220: d7f0 b7bc dc04 acbf de27 e2be 726c c7bd
00000230: c494 38bf 1a66 07bf 892a 3f3c b8ad 173f
00000240: 9dd1 47be c7cc dbbf 0591 77bf 620c 4ebe
00000250: 8be5 8bbf 2bbd 5abe fc93 81bf cc05 e83b
00000260: a1b6 43be ed3d 76bf 3765 26bf f972 ae3d
00000270: 3a17 efbe 039f bdbe 42ae c13d da7d e2be
00000280: 62a1 d3be 6638 2cbf 76d1 e6bf 4fb0 2ebe
00000290: bf09 0abf 7962 9cbe f65b 2a3f 9510 27bf
000002a0: 2450 a93e e4d9 29bf 018d 393f 10d1 21bf
000002b0: 531f cbbd c4c6 8cbe 466d 70bf 3865 15be
000002c0: 5f66 91be 7ec5 563f f11f 9ebf 8df9 dabf
000002d0: d2ba 7bbf 2cdc c73f 090e 7dbe 5f47 b1be
000002e0: 9789 12bf a0fb 04bf 782a 553e 2273 df3e
000002f0: 5b6c 58be d455 df3f 140e bf3e 9f72 34bf
00000300: d788 dcbc f2c8 083f 397f 2cbf b2f9 cfbe
00000310: 840b a83f b62d b9ba f443 923c 4254 5ebd
00000320: 6b8c cbbf a355 953f c9fa c43d 288e 7bbe
00000330: ea6f a83d 7d4c e5be 634e a23f 4b64 57be
00000340: 3672 953d d55d a73f 9812 983e 1631 113e
00000350: 68b7 bd3e dcdd e63e 06c1 c3bc 240e 5f3f
00000360: 0900 1d3e 09df 1b3e ead9 9e3e d965 3c3f
00000370: fafb 2fbf b747 84bd 7905 443f 110f 18bf
00000380: 62f6 8cbf e0be 6abd 4901 1a3f 6e43 93be
00000390: 2b88 593d 5a99 553f d1cb a5be c005 f43e
000003a0: 21d6 a3bf 1e48 f13e b773 d3bf 2b57 8c3f
000003b0: 5f15 5b3c 585d 073e eccf 0ec0 48b1 b53e
000003c0: c708 de3f d906 c5bf 182d 5bbd e626 203f
000003d0: c7b4 503e c54f 31bf 43f9 3cbf 41cb 22bf
000003e0: e393 c6bd 29b0 363f 16bb 873e 02e9 8c3f
000003f0: d903 243f 5e6f 5fbc ab58 f5bf 76af ca3c
-0.30707163 -0.017325979 -0.7782181 1.6380811 1.3903519 0.062144134 0.40044665 -0.17271344
0.43224728 -0.158389 -0.006151549 1.7860553 -0.09498822 0.01786428 0.18932728 0.41662714
0.13223113 0.26155683 0.5383991 0.01603052 1.0955567 0.08449245 0.023737775 0.16176568
-0.031068511 0.075528204 -1.9653835 -0.04467572 0.0088430345 -0.19971372 0.6664155 -0.045207735
0.12878118 1.0047045 0.51113427 -0.17444685 -0.029992385 0.098221704 0.74059635 -0.010720478
0.013856524 0.009758974 0.2615588 -0.42044702 -0.16840962 0.0792756 1.020105 0.012021678
-0.3079394 -0.027805192 -0.29030892 -0.046599586 0.5217921 -0.6598186 0.70587397 -0.031389825
0.088119514 -0.06105998 -0.037649587 -0.61585784 0.025510075 -1.2544392 1.8614959 -0.6360415
-0.24580728 0.029692456 0.1075034 1.0231595 -1.9790502 -0.19843483 -0.21505107 -0.91021717
-1.4289618 -0.2862133 -0.09427455 0.63813287 0.064531215 -0.019140137 0.5047997 -3.3800514
0.045817036 0.0974919 -1.3464357 0.047247514 -0.7037193 0.039041586 -0.46327248 0.09156571
-0.0630446 0.2530099 0.21741478 0.14609323 0.11894271 0.05984292 1.4330007 0.8626009
0.06301496 -0.8038883 -0.636267 0.4322384 0.03409986 0.14626347 -0.15789275 0.004096567
-0.10427414 -0.57204866 0.18644471 2.035716 -0.0033887234 0.021291053 -1.03904 -0.034578733
0.58667207 0.05885882 -0.8408173 0.01321818 1.2962109 3.6703007 -0.37758368 0.043587357
-0.0038624874 -0.07737466 0.05159806 0.78862286 -0.030942034 -1.6324685 1.6244726 0.5545031
0.58945984 -0.36697137 -0.030442262 -2.0481195 -3.6604176 -0.3933124 0.025558725 -0.22665402
-0.022453709 -1.3438983 -0.4417104 -0.09737481 -0.72102 -0.5289017 0.011667856 0.5924945
-0.19513555 -1.7171868 -0.9670566 -0.20121911 -1.0929426 -0.21361224 -1.0123286 0.007080769
-0.19112636 -0.9618824 -0.6499819 0.08518023 -0.46697408 -0.3703538 0.09457065 -0.44236642
-0.41334063 -0.6727356 -1.8032672 -0.17059444 -0.5392112 -0.3054388 0.6654657 -0.6525968
0.33068955 -0.663481 0.7248078 -0.6320963 -0.09918084 -0.27495396 -0.9391674 -0.14589393
-0.28398415 0.838951 -1.2353498 -1.7107407 -0.9833194 1.5614066 -0.24712385 -0.34624764
-0.57241195 -0.5194645 0.20816982 0.43642527 -0.21135084 1.7448068 0.37315428 -0.704874
-0.02692072 0.5343162 -0.67381626 -0.4062019 1.3128514 -0.0014128003 0.017854668 -0.054279573
-1.5902227 1.1666759 0.09618146 -0.24565947 0.08224471 -0.44784918 1.2680172 -0.21034352
0.07297175 1.307551 0.29701686 0.14178881 0.3705399 0.4509114 -0.023895752 0.8713095
0.15332045 0.152218 0.3102563 0.7359291 -0.6874386 -0.06458991 0.7657085 -0.5939799
-1.101269 -0.05731094 0.6015821 -0.28762382 0.053108376 0.8343712 -0.32382062 0.47660637
-1.2799722 0.47125334 -1.6519688 1.0964102 0.0133717945 0.13219202 -2.2314405 0.35486817
1.7346429 -1.5392715 -0.0535098 0.62559354 0.20381461 -0.69262344 -0.73817843 -0.6359139
-0.09696176 0.7136255 0.26509923 1.1008608 0.6406837 -0.013637392 -1.9167684 0.02474187

link_predictor.0.weight f4 [64, 416]
00000000: 98f6 e2bd 8672 ee3d 4a20 123f 2ffd 54be
00000010: 5072 ac3c f195 1bbd 5176 9cbe c4ad 9bbe
00000020: aae2 d7bd 4276 78bf 2d3b 2dbe 4ff2 893d
00000030: 9527 be3c a5c9 17bf 4f01 c8bc 02fe 3f3e
00000040: c3d5 21be 6a60 37be 54b2 583f e1b2 fc3d
00000050: b966 763e a9bd ccbe 5e1a bb3c d7b2 ccbc
00000060: bb5e bfbc 5db1 833e 9427 003e 4cb7 e3bd
00000070: 9a60 05be 59f8 ad3d e94d 483d e0a0 2fbd
00000080: e29a 51c1 c500 8fbf 665c dfc0 7393 9740
00000090: 814a c4c0 30e8 0741 c640 4ac1 2be3 5340
000000a0: 199e 57c1 2c23 82c0 818d 6540 0610 87c0
000000b0: 38a6 4c41 b5a2 5440 e5ba 02c1 6b67 30c0
000000c0: cc86 4540 5259 cac0 7793 de40 4f85 1540
000000d0: 2ffe 7840 6838 313e e896 82c0 cf86 ac40
000000e0: 5eb6 6741 6749 4c41 c481 bcba 3e6c 8b40
000000f0: 6d86 1ac1 8933 7fc1 e7ef 58c1 bcb9 433f
00000100: f283 8640 c7b7 d03f e410 6fc0 39d4 c940
00000110: 26db 0241 5c89 e640 0bbb 0841 7194 2c41
00000120: 7d42 4940 0eb7 3fc0 155c 83c1 72b9 e53f
00000130: ee8b 01c1 a313 1e41 8e19 8341 fc0c 29bc
00000140: 8dae c4c0 0039 de3f 6d6b 9940 288b 6d40
00000150: d988 54c0 6b66 5941 dca1 0441 204a 5e40
00000160: d853 2b40 6265 8e40 6cf3 9cc0 d25a d840
00000170: 2c92 0440 fe4b 203f 27e6 9dc1 0256 c83f
00000180: 9d74 65bf ddf7 04c1 e520 0fc1 8527 eec0
00000190: 000f 46bf aba2 8140 b2e2 65be a416 0dc0
000001a0: 3f3e 0941 636f 2140 be9a 963e 32e8 8cc0
000001b0: f6c5 b6c0 668c 1fc0 5127 92c0 a848 b63f
000001c0: 9c14 2f40 f0cf 423f cd0e 35c0 0416 c6c0
000001d0: 5ebd 43bf c921 d840 3e0d 9840 c707 4341
000001e0: 988b 94bc 8ab6 c5c0 1b43 c840 ee7c 9b40
000001f0: c8a9 f8bf 8fd2 88c0 a116 b640 1417 5bbf
00000200: 7893 5c40 f9f2 b03f 3236 1fbf 40d0 b73e
00000210: 2b1d 4740 4947 5cc0 0a28 73c0 ac60 693f
00000220: a262 1141 4985 afbf 212b b83f 0d5d 21c0
00000230: 67e2 c4c0 16fd 7cc0 9de4 63bf bef3 54c1
00000240: 88e0 b640 1e3d 8cbe 99eb 3241 02e6 d6c0
00000250: e680 dec0 90f9 14c1 76c5 c93e fe51 053e
00000260: 7443 4ec1 af4d 1ac1 dfe0 643f 2ea3 b040
00000270: 6136 0640 35e1 bf40 00f0 a240 7a57 afbc
00000280: 545e 2ac1 294d 03c0 d684 92c0 90af 1641
00000290: c442 ffc0 9dbb 46bf 0a50 bec0 b603 a0c0
000002a0: c036 ccc0 8178 1ebf b41c d1c0 0ed4 fa40
000002b0: 20a5 9740 16e3 29c0 842a 37c0 d4c5 83c0
000002c0: 95c1 0e40 1bf6 1640 32bb a640 ecd5 39c0
000002d0: a0f3 86bf a256 ad40 aba1 3240 add7 bac0
000002e0: b47a a040 c185 a540 4405 2540 40fb 2040
000002f0: 84cb 8340 ab8a 2cc1 1a85 a6c0 65ca 0b41
00000300: 9810 1a40 f4e1 0741 bfa2 0041 d27a 18be
00000310: 9c7c 84c1 e300 2940 a5ac 1e41 4984 03c1
00000320: d0b1 b7c0 3ae4 56c1 51c1 bbc0 1c19 7340
00000330: 158d 81c0 056b 5abe 61d8 4340 bba5 4941
00000340: 37ce 2d41 b961 a7bf 21df 913f e498 86c0
00000350: 2d4c dd40 6e4c 23c1 5459 26c1 bd10 0441
00000360: 4b78 01c1 268e 58c0 bdd1 78c0 d649 fa40
00000370: df2c dcc0 f6d9 c240 aad5 a640 b12a 13c0
00000380: 648a 0a41 a6ef 2bc0 6787 6b40 cff9 c5bf
00000390: c108 a7c0 e890 283f 1887 1bc0 35c7 d3c0
000003a0: f103 84c1 d043 20c1 4189 5b40 8458 ad40
000003b0: 6b8f 5340 5d41 8f3f 0f4c a140 a0dc 5c40
000003c0: cd36 7dbd ceed 48c0 23b8 e6c0 1e58 55c0
000003d0: b281 30c1 8e91 8cbf b3e8 00c1 88e3 6c40
000003e0: e2c2 7440 1951 77c0 f8a0 47c0 c053 ca40
000003f0: 8732 39c0 87de 8b40 78d2 8ac0 1301 c7bc
-0.1108219 0.11642937 0.5708052 -0.20799707 0.021050602 -0.037984792 -0.30559018 -0.3040601
-0.105412796 -0.9705545 -0.16917105 0.0673567 0.023212234 -0.5929206 -0.024414686 0.1874924
-0.158042 -0.17907873 0.8464711 0.12338806 0.24062623 -0.3998845 0.022839721 -0.024987621
-0.0233606 0.25721255 0.12515098 -0.111189455 -0.13025132 0.08494634 0.048902426 -0.04287803
-13.100313 -1.117211 -6.980029 4.736749 -6.1340947 8.494186 -12.640814 3.3107402
-13.476098 -4.0667934 3.5867617 -4.220706 12.790581 3.3224308 -8.170629 -2.7563121
3.0863523 -6.3234034 6.955501 2.3362615 3.8905141 0.17306674 -4.080921 5.391456
14.482023 12.7679205 -0.0014381935 4.356963 -9.657819 -15.950082 -13.55857 0.76455283
4.2036066 1.6306084 -3.735406 6.307156 8.178503 7.2042675 8.545665 10.786241
3.1446831 -2.9955478 -16.419962 1.7947218 -8.0966625 9.879794 16.387478 -0.010318037
-6.1463075 1.7361145 4.7943635 3.7116184 -3.3208525 13.587504 8.289516 3.4732742
2.6769924 4.449876 -4.9047146 6.7610865 2.0714216 0.62615955 -19.73738 1.5651248
-0.8963106 -8.3105135 -8.945531 -7.442324 -0.7736664 4.051107 -0.22449759 -2.2045069
8.577697 2.5224235 0.29414934 -4.403344 -5.711665 -2.4929442 -4.5672994 1.4240923
2.735633 0.7609854 -2.8290284 -6.1901875 -0.76460826 6.754124 4.7516165 12.189399
-0.01813297 -6.1785326 6.2581916 4.859 -1.9426813 -4.275703 5.6902623 -0.8558209
3.4465008 1.3824149 -0.6219207 0.3590107 3.1111553 -3.441851 -3.7993188 0.91163135
9.08658 -1.371255 1.4388162 -2.5213044 -6.152637 -3.9529471 -0.8902071 -13.309507
5.7149086 -0.2739038 11.182519 -6.715577 -6.9532347 -9.310928 0.39408463 0.13019559
-12.891468 -9.643966 0.89405626 5.5199194 2.097069 5.996241 5.091797 -0.021404017
-10.648029 -2.0515845 -4.5787153 9.417862 -7.9769 -0.77630025 -5.9472704 -5.000453
-6.3816833 -0.61902624 -6.534754 7.8383856 4.738907 -2.6544852 -2.86197 -4.117899
2.2305653 2.358771 5.210351 -2.9036818 -1.0543098 5.4168253 2.7911174 -5.8388276
5.0149784 5.1725774 2.5784464 2.515335 4.118593 -10.7838545 -5.2037477 8.736913
2.4072628 8.492664 8.039733 -0.14890602 -16.560844 2.6406791 9.91715 -8.219796
-5.7404556 -13.430719 -5.867348 3.7984076 -4.048472 -0.21329887 3.0600817 12.602962
10.862845 -1.3076698 1.1396219 -4.2061634 6.915549 -10.20616 -10.396809 8.2540865
-8.091868 -3.383676 -3.8878014 7.821513 -6.8804774 6.0891066 5.213582 -2.2994807
8.658787 -2.686502 3.6801393 -1.546686 -5.2198186 0.6584611 -2.4301205 -6.6180673
-16.501925 -10.016556 3.4302523 5.417055 3.3056285 1.1191822 5.0405345 3.450966
-0.06181984 -3.1395144 -7.2099776 -3.3335032 -11.031664 -1.098192 -8.056811 3.7013874
3.8243947 -3.8643248 -3.1191998 6.3227234 -2.893709 4.370914 -4.338192 -0.024292504

link_predictor.0.bias f4 [64]
00000000: bbdb 14c1 bc6f 31c1 ea70 38be e3f2 31c1
00000010: b1f8 9b3e cd48 5bc1 5fc8 4dc1 aa4c 30c1
00000020: ac6c 34c1 dd15 14c1 0698 fcc0 931d 89c0
00000030: 0ce3 c9c0 3c38 0fc1 e295 7bc0 763c 30c1
00000040: aefc 01c1 58a4 48c1 1673 21c1 d75d ecc0
00000050: 7ee3 06c1 9d29 2ac1 4396 97c0 3058 e1c0
00000060: 0888 3dc1 adf0 8bc0 bcaa 13c1 f29c 16c1
00000070: f918 e0c0 454c 14c1 a393 f8c0 5c51 3ec1
00000080: 9e8b 4bc1 0b68 cfc0 e14c 18c1 3cb3 50c1
00000090: f2c3 c7c0 9b82 0cc1 8149 1fc1 37cd e0c0
000000a0: 7694 14c1 ab3c 3dc1 9295 60c0 7b0a cbc0
000000b0: a61a ecc0 a35c 7fc0 f2d3 0dc1 ad07 2ac1
000000c0: 81a6 17c1 0dfb 34c1 d81d 8940 e6a4 53c1
000000d0: e172 bac0 bb41 2dc1 a59f b5c0 6bd2 30c1
000000e0: 884d 84c1 6ce7 ffc0 f6f1 48c1 8c96 19c1
000000f0: f525 2ec0 12d6 f4c0 796b 6ac1 9eb0 00c1
-9.303645 -11.089779 -0.18011823 -11.1217985 0.30463174 -13.705274 -12.861419 -11.018717
-11.276531 -9.255338 -7.8935575 -4.28486 -6.3089657 -8.951229 -3.9310231 -11.014761
-8.124189 -12.540123 -10.090597 -7.386455 -8.43054 -10.6351595 -4.7370925 -7.042015
-11.845711 -4.3731294 -9.229183 -9.413317 -7.0030484 -9.2686205 -7.768022 -11.894863
-12.721586 -6.4814506 -9.518769 -13.043758 -6.242669 -8.781886 -9.955445 -7.0250506
-9.286245 -11.8273115 -3.509129 -6.3450294 -7.378253 -3.990029 -8.864244 -10.626874
-9.47815 -11.311292 4.284893 -13.227758 -5.8265233 -10.8285475 -5.675738 -11.051372
-16.537857 -7.9969997 -12.5590725 -9.599255 -2.7210667 -7.6511316 -14.651238 -8.043119

link_predictor.2.weight f4 [1, 64]
00000000: 2a42 293e a456 ea3d 59b0 0dbe 5e3c efbd
00000010: 0bd0 9ebd 7c6b 843d ebc3 f53d 8b6d bd3d
00000020: 8238 933d ce80 d3bd aef1 ddbd baba e7bd
00000030: 218b a23d 0dff aa3d e7d3 eebd 6493 e3bd
00000040: cefd c03d 1525 2a3e abab dabd 0553 14be
00000050: 6b08 b33d 6a5d da3d 8e2c bcbd 56d6 d9bd
00000060: 309f d33d 1d81 02be 6fb5 1c3e ac13 efbd
00000070: f507 b8bd b1f8 62be cea8 17be 74bf af3d
00000080: aefb ab3d 442c dcbd 066d 943d 44b9 0f3e
00000090: d5de f0bd 1c8c 0abe 2911 96bd d5da ecbd
000000a0: b086 fbbd 8510 d3bd e777 c9bd 5302 07be
000000b0: 8315 a4bd 09ef 00be 17f1 0f3e 10df 5f3d
000000c0: 3ef3 dcbd 8e1a a43d e463 c53d 0786 ccbd
000000d0: 6431 943d c0c8 9c3d e766 cdbd e020 17be
000000e0: a9ce 48be d2c6 b73d 0be9 b9bd 86ee 823d
000000f0: 7207 17be 34a7 cc3d e915 ce3d ce20 ad3d
0.16529146 0.11442307 -0.13836803 -0.11681436 -0.07754525 0.064658135 0.12000259 0.09249409
0.071885124 -0.10327302 -0.10837112 -0.11314912 0.07936693 0.08349428 -0.11661511 -0.11112097
0.094234094 0.16615708 -0.10677274 -0.14484794 0.0874184 0.106623486 -0.09188186 -0.106365845
0.10333097 -0.12744565 0.15303586 -0.11673674 -0.08985893 -0.2216518 -0.14810488 0.08581439
0.083976135 -0.107506305 0.07247357 0.14035517 -0.11761252 -0.1353001 -0.07327492 -0.115651764
-0.12281549 -0.10305885 -0.09837323 -0.1318448 -0.080119155 -0.12591185 0.14056812 0.05465609
-0.10788582 0.080128774 0.09638193 -0.09986501 0.07235983 0.076554775 -0.10029393 -0.14758635
-0.19610085 0.08973469 -0.090776525 0.06393151 -0.14748934 0.09992829 0.10062773 0.084535226
