new_checkpoints/model_epoch_7.pth (torch, 217416 bytes, 7 tensors)

conv1.bias f4 [64]
-3.594047 1.0724583 -7.494913 -7.754949 -7.3093014 -0.18431655 -3.0561855 -3.7660382
-7.2777476 -4.3926954 1.3570365 -6.71701 -2.4880788 1.0374696 -7.9224067 -6.692425
-0.34558997 -5.4572196 -3.4337983 0.857936 -2.30784 0.45513275 -3.2644668 -0.7513131
0.50176823 0.18669091 -3.9935493 -2.0750637 0.6477357 0.015299646 -3.323683 -3.9073257
0.6567809 -4.224176 -7.441618 -3.7682817 0.26048505 -6.438846 -2.850687 0.43545488
0.19131337 -5.180684 -9.5748 -3.257982 0.2736406 0.73998773 -7.866612 1.6074364
-6.207046 -10.487689 -2.707739 0.058822736 -5.1000543 -6.180565 -2.8900738 0.4485093
0.7330911 -0.3850661 0.9745567 -4.565409 0.59018755 -4.409265 -7.5053697 -3.3604498
00000000: de04 66c0 5046 893f 54d6 efc0 8b28 f8c0
00000010: cce5 e9c0 7abd 3cbe 8b98 43c0 c506 71c0
00000020: 4fe3 e8c0 f690 8cc0 5fb3 ad3f bff1 d6c0
00000030: af3c 1fc0 cecb 843f 5b84 fdc0 5828 d6c0
00000040: 2bf1 b0be 8ba1 aec0 5ac3 5bc0 b2a1 5b3f
00000050: a7b3 13c0 2907 e93e 06ed 50c0 0e56 40bf
00000060: e273 003f e72b 3f3e 5096 7fc0 d8cd 04c0
00000070: 02d2 253f 5eab 7a3c 39b7 54c0 a011 7ac0
00000080: cb22 283f 732c 87c0 bc21 eec0 872b 71c0
00000090: 4c5e 853e 070b cec0 a871 36c0 f1f3 de3e
000000a0: a7e7 433e 2ac8 a5c0 6132 19c1 c782 50c0
000000b0: 9f1a 8c3e d66f 3d3f 49bb fbc0 7ac0 cd3f
000000c0: 1fa0 c6c0 93cd 27c1 994b 2dc0 1cf0 703d
000000d0: a533 a3c0 30c7 c5c0 f8f6 38c0 03a3 e53e
000000e0: dcab 3b3f 6227 c5be 8c7c 793f d517 92c0
000000f0: 8816 173f b318 8dc0 fd2b f0c0 9c11 57c0

conv1.lin.weight f4 [64, 384]
0.14869514 -0.48563936 -0.010153236 -0.6534215 1.9640574 1.1754028 -1.6438242 -1.4946542
1.049313 0.34826413 0.79474086 1.2018113 -1.3411422 -0.75836045 -1.4090853 1.3571924
-1.5533108 -0.6771295 1.3846289 2.416003 -0.122644715 0.41511077 -0.6145861 2.0828817
0.47508165 1.490811 1.2876747 0.48436904 0.4776344 0.1495267 -0.9922451 -1.0630875
-1.1546657 -0.5802805 0.26243603 -1.2780751 -0.12582178 -1.3894709 1.0249894 -0.3094222
-0.87509525 -0.037882544 0.12314212 -1.8367654 -0.7954656 -0.56900895 0.8633363 -0.02490557
0.8020744 0.26964676 0.3405363 -0.60837144 0.7031449 -0.6357709 -0.41852885 -0.61168337
-1.7195809 0.22726637 -0.55668896 -0.07266617 0.33752155 -0.10538188 1.5128419 2.002055
1.1963475 -0.8626164 -1.0548408 0.6121178 -0.5119388 -0.03694322 2.250609 -0.6895773
1.2782289 -1.0706793 0.9831591 0.13274689 -1.0826102 -0.7498873 0.5004894 -0.3015883
0.69659126 0.7721957 0.6224978 0.4537466 0.040751606 -0.4715516 -0.36633193 -0.5361943
-1.6909554 0.85140795 1.6576978 0.5363078 -0.76333296 0.12566753 0.385202 1.5756236
-0.9237013 1.2543328 0.92669 -0.68094844 -1.3648149 -0.6829825 -0.74387825 0.7639286
-0.07933749 -2.3576138 -1.6934038 -0.78410405 -0.68420374 0.42690647 1.8444846 -1.3769127
-1.2337054 1.3423078 0.43433368 -0.69263995 -1.277916 -0.018137561 -2.557294 -1.1147331
-0.72122806 1.7971839 -0.2662289 0.5982552 -0.26446745 -1.5139089 2.8026338 0.071992666
1.5708302 -2.6447418 -0.01220459 0.80599433 -0.9750985 0.26158527 0.21560185 -0.3011726
0.6275183 0.42818463 0.48383895 -1.4004601 0.8094496 -0.0831445 -1.0629807 -0.7066316
-1.0133065 -1.4651706 -1.6797533 -0.14050739 -0.5482926 1.1039737 0.75403017 1.1882796
-2.0996199 1.2736541 1.5042591 -1.0324583 -0.47250113 0.46423745 -0.054921005 0.43921524
-0.8590708 -0.5330117 1.212975 2.3736775 -0.021828445 0.69651484 -2.0184681 0.52498454
0.3938614 -0.7160455 0.24252075 0.37768137 0.9446747 -0.38652095 -0.22974381 -1.4124326
-0.1933983 -0.9503686 0.27696568 -1.4059854 0.29392204 0.63579535 -0.74215746 1.0970417
-0.2797254 -1.3948486 -2.3192043 -1.5153241 2.1981332 -0.3273234 -1.2548052 -0.45516318
-0.09556563 0.58259475 0.092772335 -0.5360494 0.6164053 -0.69932544 0.4369678 0.06842961
0.28770813 2.718911 -1.1183298 -0.0646957 0.38107255 0.9652078 1.0925685 0.80338436
1.5718195 0.05355372 0.48113382 0.6096521 -0.09711651 -0.4867086 0.038631868 -1.7312638
1.0070597 1.1924015 -0.07084711 0.44824594 1.4592063 0.69946766 -1.3872081 0.06464531
0.81340605 -1.289888 0.7504248 -1.4602805 -0.17994693 1.7037764 -1.2055589 0.32092312
0.4336854 1.0615147 1.0879127 0.9094097 1.6118196 2.5019655 2.5338771 1.3089114
0.88974994 -0.084060945 -0.35084754 -0.64081824 -0.3453198 -1.3920187 0.8230107 -1.3429369
1.4701985 0.9581377 1.9789811 -1.237155 0.34829345 0.5158398 1.4397826 0.29681778
00000000: 8a43 183e b9a5 f8be c259 26bc a246 27bf
00000010: 3c66 fb3f 9973 963f d568 d2bf d450 bfbf
00000020: e34f 863f ad4f b23e 2374 4b3f f4d4 993f
00000030: 8caa abbf e923 42bf e85c b4bf 7bb8 ad3f
00000040: e3d2 c6bf 5c58 2dbf 853b b13f cb9f 1a40
00000050: 272d fbbd 6689 d43e 8455 1dbf ef4d 0540
00000060: e73d f33e e5d2 be3f 86d2 a43f 38ff f73e
00000070: 7f8c f43e 871d 193e c603 7ebf 4013 88bf
00000080: 16cc 93bf 438d 14bf 045e 863e f797 a3bf
00000090: 6dd7 00be 2fda b1bf da32 833f 966c 9ebe
000000a0: 3e06 60bf ba2a 1bbd f031 fc3d 211b ebbf
000000b0: a2a3 4bbf 92aa 11bf 9c03 5d3f c406 ccbc
000000c0: bf54 4d3f 240f 8a3e c65a ae3e 3bbe 1bbf
000000d0: 4e01 343f e2c1 22bf 6a49 d6be 4897 1cbf
000000e0: 3a1b dcbf 84b8 683e 2b83 0ebf 00d2 94bd
000000f0: a0cf ac3e 75d2 d7bd cea4 c13f ab21 0040
00000100: ea21 993f 6ed4 5cbf 0605 87bf c1b3 1c3f
00000110: 6c0e 03bf c651 17bd fa09 1040 2388 30bf
00000120: 019d a33f 050c 89bf 51b0 7b3f cdee 073e
00000130: f992 8abf 9df8 3fbf 1320 003f c869 9abe
00000140: ce53 323f 9eae 453f 045c 1f3f 7951 e83e
00000150: 28eb 263d 366f f1be dc8f bbbe 0844 09bf
00000160: 3a71 d8bf dff5 593f 712f d43f 784b 093f
00000170: ca69 43bf fdae 003e 3239 c53e 09ae c93f
00000180: b077 6cbf fa8d a03f 8e3b 6d3f a352 2ebf
00000190: 41b2 aebf f1d7 2ebf ce6e 3ebf d390 433f
000001a0: b27b a2bd 25e3 16c0 75c1 d8bf 0bbb 48bf
000001b0: fa27 2fbf 7c93 da3e 1218 ec3f ad3e b0bf
000001c0: 0fea 9dbf bed0 ab3f fc60 de3e da50 31bf
000001d0: c092 a3bf 3995 94bc b4aa 23c0 93af 8ebf
000001e0: 67a2 38bf 1f0a e63f 284f 88be 4127 193f
000001f0: 4768 87be c4c7 c1bf 5a5e 3340 e470 933d
00000200: f710 c93f 7343 29c0 c3f5 47bc a555 4e3f
00000210: 0ea0 79bf 81ee 853e bbc6 5c3e 4c33 9abe
00000220: 0aa5 203f 043b db3e bdb9 f73e 4742 b3bf
00000230: 1738 4f3f aa47 aabd c00f 88bf cfe5 34bf
00000240: 07b4 81bf b68a bbbf 2802 d7bf 2be1 0fbe
00000250: e75c 0cbf 034f 8d3f 1f08 413f 8c19 983f
00000260: 2c60 06c0 1907 a33f 908b c03f 9827 84bf
00000270: abeb f1be 88b0 ed3e d9f4 60bd d2e0 e03e
00000280: 10ec 5bbf 7473 08bf c442 9b3f 55ea 1740
00000290: 91d1 b2bc cc4e 323f 952e 01c0 6365 063f
000002a0: 34a8 c93e c24e 37bf 5c57 783e 745f c13e
000002b0: 33d6 713f 13e6 c5be f641 6bbe 97ca b4bf
000002c0: 340a 46be 5b4b 73bf 72ce 8d3e 54f7 b3bf
000002d0: f37c 963e 7cc3 223f 08fe 3dbf dd6b 8c3f
000002e0: 2b38 8fbe 668a b2bf d86d 14c0 24f6 c1bf
000002f0: 37ae 0c40 ef96 a7be 759d a0bf 260b e9be
00000300: eab7 c3bd ee24 153f 6cff bd3d 893a 09bf
00000310: bdcc 1d3f fe06 33bf 3eba df3e d324 8c3d
00000320: 7b4e 933e a302 2e40 6e25 8fbf 2e7f 84bd
00000330: f11b c33e dc17 773f 49d9 8b3f 99aa 4d3f
00000340: 6231 c93f 255b 5b3d 2c57 f63e 2912 1c3f
00000350: 05e5 c6bd df31 f9be 733c 1e3d 0d9a ddbf
00000360: 55e7 803f 9da0 983f 4a18 91bd 7e80 e53e
00000370: 46c7 ba3f 5010 333f 0990 b1bf c364 843d
00000380: 613b 503f 0d1b a5bf d71b 403f 79ea babf
00000390: 0244 38be 5815 da3f c14f 9abf 0950 a43e
000003a0: 030c de3e b7df 873f b940 8b3f 13cf 683f
000003b0: 1b50 ce3f 3420 2040 0b2b 2240 698a a73f
000003c0: a7c6 633f 2528 acbd 4aa2 b3be aa0c 24bf
000003d0: c2cd b0be ab2d b2bf d4b0 523f 5be5 abbf
000003e0: 772f bc3f 8348 753f 414f fd3f 185b 9ebf
000003f0: 8553 b23e 140e 043f cc4a b83f 80f8 973e

conv2.bias f4 [32]
0.09602617 -0.056193568 7.03037 -1.2121305 -0.04129655 0.055077225 0.34654003 0.009627711
0.3226962 -6.3215504 0.023887908 -0.0759618 -0.3236344 -4.783722 -0.03458705 0.030068198
0.0040407004 2.6812541 0.7782922 -0.24033399 -0.007495822 -1.6486917 0.110463485 0.96107745
0.02434488 0.5919431 -0.71177095 0.179104 0.18760471 0.1364112 0.0435087 1.0667876
00000000: 5ea9 c43d 3a2b 66bd cbf8 e040 1827 9bbf
00000010: 9226 29bd a898 613d b26d b13e 8cbd 1d3c
00000020: 7038 a53e 244a cac0 93b0 c33c dc91 9bbd
00000030: 68b3 a5be 4014 99c0 27ab 0dbd 9551 f63c
00000040: da67 843b ab99 2b40 283e 473f 1d1a 76be
00000050: 839f f5bb 5408 d3bf ae3a e23d 2c09 763f
00000060: ea6e c73c 9589 173f 9f36 36bf 0a67 373e
00000070: 731b 403e 61af 0b3e 2e36 323d 7f8c 883f

conv2.lin.weight f4 [32, 64]
-0.30707163 -0.073385336 0.92098886 1.576368 1.3903519 -0.105784886 0.40044665 -0.17271344
0.43224728 -0.158389 0.03641042 1.7860553 -0.07678405 0.016291976 0.62995416 0.4663134
0.026821049 -0.3659288 0.5383991 -0.06014669 1.0955567 -0.00395914 0.023737775 -0.06487777
0.2025724 0.057231054 -1.9653835 -0.04467572 -0.14083791 -0.034993783 0.6664155 -0.045207735
0.07497586 1.0047507 2.3733153 -0.17444685 -0.09134197 -0.24982648 0.74059635 0.008015243
-0.030033395 0.12091744 1.6362444 -0.42044702 -0.06462712 -0.07728729 1.6372474 -0.10951115
1.0411502 0.20568982 -0.29030892 0.058505286 1.8165282 -1.7992352 0.70587397 -0.15328984
0.047630157 0.012588372 0.038765214 -0.61585784 0.051386997 -1.68743 0.6700548 -0.6360415
-0.24580728 -0.014450479 -0.085429005 2.0906494 -1.9790502 -0.0143183945 -0.21505107 -0.91021717
-1.4289618 -0.2862133 0.041971684 0.63813287 0.17217149 0.037027463 0.35973436 -3.0450838
-0.09772234 0.0941745 -1.3464357 0.05416909 -0.7037193 -0.12850589 -0.46327248 0.061256193
-0.10118897 0.028921416 0.21741478 0.14609323 0.122737 0.03894555 1.4330007 0.8626009
-0.03245877 -0.80093426 -1.4115933 0.4322384 0.17719592 0.12827346 -0.15789275 -0.05688267
0.1693825 0.11987142 0.6339328 2.035716 0.08947265 0.03934762 -1.605968 0.13635959
-0.7978903 0.17201078 -0.8408173 -0.044607405 -1.0293869 2.8763068 -0.37758368 0.08162901
-0.053792614 -0.09227222 -0.1011433 0.78862286 -0.12201699 -0.37087336 0.27121824 0.5545031
0.58945984 -0.41352347 -0.5085917 -1.8159466 -3.6604176 -0.34648442 0.025558725 -0.22665402
-0.022453709 -1.3438983 -0.44273403 -0.09737481 -0.48851058 -0.37501854 -0.055217925 2.129049
-0.2406875 -1.766858 -0.9670566 -0.24651133 -1.0929426 -0.19546379 -1.0123286 -0.031163655
-0.16220239 -0.8571614 -0.6499819 0.08518023 -0.5235975 -0.49460968 0.09457065 -0.44236642
-0.5331743 -0.6396471 -2.8145163 -0.17059444 -0.5071877 -0.361541 0.6654657 -0.6344323
0.39580125 -0.82145715 0.7204583 -0.6320963 -0.12339514 -0.3820337 -1.2043779 -0.1407569
-0.059068616 0.6469541 -1.2353498 -1.7042737 0.58361316 0.4408599 -0.24712385 -0.34284446
-0.7194959 -0.45876768 0.23047613 0.43642527 -0.15504377 1.4243038 -0.2585229 -0.704874
-0.02692072 0.4459449 0.66983277 -1.1596236 1.3128514 0.07743302 0.017854668 -0.054279573
-1.5902227 1.1666759 -0.08189558 -0.24565947 0.54375017 -0.520115 1.3542873 -1.7912012
0.2425667 0.690209 0.29701686 0.11147762 0.3705399 0.3685175 -0.023895752 0.88398725
0.11839482 0.35093656 0.3102563 0.7359291 -0.66549045 0.018065728 0.7657085 -0.5939799
-1.0840122 -0.058315072 1.4867343 -0.28762382 -0.08170981 1.0094495 -0.32382062 0.48364055
-1.3054674 0.51335746 -1.6567112 1.0964102 0.031861298 0.07481334 -2.2299879 0.34378585
1.9648141 -1.3876553 -0.0535098 0.6986507 -0.27361456 -1.4011639 -0.73817843 -0.55603725
-0.26613313 0.67308396 0.35231522 1.1008608 0.4558436 -1.1328293 -0.76108813 0.02474187
00000000: 7e38 9dbe 0d4b 96bd edc5 6b3f 6dc6 c93f
00000010: 0df7 b13f bfa5 d8bd 5807 cd3e cbdb 30be
00000020: 844f dd3e ba30 22be 1823 153d 769d e43f
00000030: f540 9dbd c076 853c ad44 213f a1c0 ee3e
00000040: d1b7 db3c 055b bbbe 86d4 093f 605c 76bd
00000050: 343b 8c3f acbb 81bb b975 c23c a3de 84bd
00000060: 246f 4f3e 1c6b 6a3d b091 fbbf e3fd 36bd
00000070: d037 10be a455 0fbd 359a 2a3f bf2b 39bd
00000080: f28c 993d ac9b 803f 66e4 1740 32a2 32be
00000090: 8011 bbbd 83d2 7fbe b997 3d3f 5e52 033c
000000a0: 9808 f6bc 90a3 f73d 7570 d13f d544 d7be
000000b0: 395b 84bd cc48 9ebd 5391 d13f 6247 e0bd
000000c0: 6944 853f 5aa0 523e 5fa3 94be 3da3 6f3d
000000d0: ff83 e83f 574d e6bf 28b4 343f 03f8 1cbe
000000e0: d717 433d 763f 4e3c 46c8 1e3d dca8 1dbf
000000f0: 2c7b 523d b5fd d7bf b688 2b3f 9ed3 22bf
00000100: e7b4 7bbe b4c1 6cbc 67f5 aebd 33cd 0540
00000110: 8451 fdbf b397 6abc 5936 5cbe fe03 69bf
00000120: 38e8 b6bf 8d8a 92be 80ea 2b3d ad5c 233f
00000130: b94d 303e 1caa 173d 1a2f b83e a7e2 42c0
00000140: a622 c8bd 8fde c03d 0158 acbf 68e0 5d3d
00000150: f326 34bf 0c97 03be 0d32 edbe c6e7 7a3d
00000160: 2a3c cfbd 9bec ec3c fba1 5e3e 7799 153e
00000170: 895d fb3d 5e85 1f3d 916c b73f 6ad3 5c3f
00000180: 7df3 04bd 070a 4dbf 17af b4bf 5a4e dd3e
00000190: d972 353e 1e5a 033e a3ae 21be cdfd 68bd
000001a0: 9b72 2d3e 267f f53d 6c49 223f 2c49 0240
000001b0: 703d b73d f82a 213d 5c90 cdbf d9a1 0b3e
000001c0: 8a42 4cbf 9823 303e cd3f 57bf 41b6 36bd
000001d0: f3c2 83bf 6915 3840 a652 c1be 1c2d a73d
000001e0: a555 5cbd 38f9 bcbd 3824 cfbd 30e3 493f
000001f0: 0be4 f9bd 1de3 bdbe 1edd 8a3e eaf3 0d3f
00000200: d7e6 163f 59b9 d3be 1133 02bf f070 e8bf
00000210: 4844 6ac0 6866 b1be 8860 d13c fe17 68be
00000220: d7f0 b7bc dc04 acbf 09ae e2be 726c c7bd
00000230: 0f1e fabe 6e02 c0be 312c 62bd 5742 0840
00000240: c976 76be 6728 e2bf 0591 77bf 776d 7cbe
00000250: 8be5 8bbf a927 48be fc93 81bf ec4a ffbc
00000260: 6218 26be ee6e 5bbf 3765 26bf f972 ae3d
00000270: 7c0a 06bf 7b3d fdbe 42ae c13d da7d e2be
00000280: 1c7e 08bf eabf 23bf 0921 34c0 4fb0 2ebe
00000290: 0ed7 01bf e71b b9be f65b 2a3f 286a 22bf
000002a0: 76a6 ca3e 044b 52bf f56f 383f 10d1 21bf
000002b0: 97b6 fcbd ec99 c3be 0e29 9abf 9422 10be
000002c0: eff1 71bd c99e 253f f11f 9ebf a425 dabf
000002d0: ac67 153f 64b8 e13e 090e 7dbe 4f89 afbe
000002e0: e230 38bf 99e3 eabe ef01 6c3e 2273 df3e
000002f0: cbc3 1ebe 964f b63f 1d5d 84be 9f72 34bf
00000300: d788 dcbc e452 e43e 297a 2b3f 8c6e 94bf
00000310: 840b a83f 3495 9e3d f443 923c 4254 5ebd
00000320: 6b8c cbbf a355 953f dfb8 a7bd 288e 7bbe
00000330: 3633 0b3f 4226 05bf 4959 ad3f 1546 e5bf
00000340: 6863 783e 89b1 303f 9812 983e 614e e43d
00000350: 68b7 bd3e 53ae bc3e 06c1 c3bc fd4c 623f
00000360: fc78 f23d f5ad b33e ead9 9e3e d965 3c3f
00000370: 955d 2abf 94fe 933c 7905 443f 110f 18bf
00000380: e9c0 8abf c9db 6ebd 4f4d be3f 6e43 93be
00000390: 7957 a7bd a435 813f d1cb a5be bc9f f73e
000003a0: 8e19 a7bf 656b 033f 1d0f d4bf 2b57 8c3f
000003b0: fe80 023d bd37 993d 1fb8 0ec0 b304 b03e
000003c0: 077f fb3f b09e b1bf 182d 5bbd c6da 323f
000003d0: 3517 8cbe 5759 b3bf 43f9 3cbf 7558 0ebf
000003e0: 9a42 88be 3b4f 2c3f a962 b43e 02e9 8c3f
000003f0: 5564 e93e 8d00 91bf acd6 42bf 76af ca3c

link_predictor.0.weight f4 [64, 416]
-0.20337729 0.11042101 0.6159501 -0.024408491 -0.3645321 -0.1616989 -0.19354942 0.14354418
-0.036080644 -0.90221155 -0.18456702 -0.44418985 -0.04404689 -0.37372229 0.22154362 -0.047663294
-0.20218289 -0.6091466 0.8351286 0.17754781 0.1427578 -0.4673055 0.05546057 -0.2334262
-0.22788695 0.18133108 0.12407014 -0.093320586 0.07241413 0.031088952 -0.12371066 -0.00076132244
-15.251108 -0.6919484 -7.368109 4.109352 -5.7974253 8.839844 -12.272342 4.7844543
-14.832723 -3.9952383 2.0605829 -3.4803543 13.207835 5.3144326 -8.408411 -2.7297428
1.5653834 -6.7842364 6.5563707 4.178386 4.4180636 0.72587496 -3.7286084 5.334925
16.49413 14.799048 1.0686239 3.382103 -8.579348 -17.999365 -11.730203 0.29113844
4.5310907 1.0939548 -2.7823126 6.073699 7.04103 7.6083317 9.46975 10.530888
1.9969915 -3.272786 -17.60168 3.209067 -8.746996 9.664525 16.763374 0.70084596
-6.2485986 -0.1351197 4.465474 3.3783188 -4.6651044 16.428251 8.314637 4.489737
4.8891907 3.9434457 -5.788085 7.473509 4.399123 0.47656658 -22.262196 0.6203382
-0.91326255 -7.3256884 -8.880319 -9.247411 -0.50135916 5.141795 -1.8210458 -2.3727658
8.653405 3.8189447 1.8286186 -5.2851377 -6.1469035 -2.0548937 -5.9323874 2.794531
2.331386 1.661753 -1.8836423 -6.2971244 -0.545149 8.806834 5.3543777 13.006888
2.5530508 -6.952069 5.551688 6.5356574 -1.3277813 -3.888983 5.0169325 -2.0623012
3.7764862 0.34948644 -0.7521631 0.6274498 2.9559658 -3.1550014 -4.254992 1.0488389
8.8167715 0.009892017 -0.66048914 -1.4622408 -7.3149366 -5.2904506 -2.0524518 -14.891102
6.2019014 1.948876 11.695892 -7.888172 -6.987601 -8.717434 -0.2509268 -1.0884467
-13.364465 -10.953677 1.0144112 7.3005753 1.3984836 5.435786 5.4460883 -0.021404017
-12.279634 -2.8411257 -2.440171 8.639581 -9.98667 -1.2489754 -5.685515 -5.0573173
-9.247911 -1.6438875 -5.7583847 8.960815 6.852302 -2.9198759 -3.3629675 -5.0227094
2.6060383 2.7405372 6.5280747 -3.401 -0.8277756 6.4173813 4.117074 -3.8854423
5.9498115 3.050363 1.8544555 4.4823833 5.11795 -12.167063 -5.9582033 9.121133
1.8529745 10.027365 9.683132 -0.45291516 -18.236483 2.9924552 10.640659 -10.12509
-7.079678 -14.409688 -4.9928927 4.7544756 -5.834796 -0.6383496 4.0108438 14.451602
10.712573 -2.0559742 -0.87826705 -2.939016 9.28428 -11.576368 -10.698188 11.016597
-8.474642 -2.989668 -5.268196 6.9921165 -8.089276 5.3864713 5.3875046 -3.1877193
9.719526 -4.897182 5.211196 -1.6638935 -4.0611134 0.6902206 -1.8818573 -7.2906027
-17.635967 -10.020058 4.296806 5.5393243 3.578237 3.0440059 5.135965 5.6029515
0.6621112 -4.417071 -8.912643 -3.4784617 -13.73479 -0.98973167 -8.101147 3.5165849
5.458992 -5.154972 -4.248653 5.7405562 -3.5259385 3.1716092 -3.6578734 -0.024292504
00000000: 2342 50be 6924 e23d e8ae 1d3f 51f4 c7bc
00000010: f4a3 babe 6594 25be d231 46be 3ffd 123e
00000020: 4cc9 13bd 56f7 66bf 23ff 3cbe da6c e3be
00000030: 836a 34bd 8758 bfbe 55dc 623e 963a 43bd
00000040: 0809 4fbe 08f1 1bbf fdca 553f 18cf 353e
00000050: 1a2f 123e ab42 efbe 9f2a 633d 4707 6fbe
00000060: 325b 69be dbae 393e 7c18 fe3d dd1e bfbd
00000070: dc4d 943d 42ae fe3c 045c fdbd 7c93 47ba
00000080: 8a04 74c1 8823 31bf 8dc7 ebc0 d07f 8340
00000090: 8284 b9c0 0070 0d41 835b 44c1 401a 9940
000000a0: d552 6dc1 fcb1 7fc0 97e0 0340 20be 5ec0
000000b0: 4b53 5341 d50f aa40 da88 06c1 1bb4 2ec0
000000c0: 7c5e c83f 7718 d9c0 cacd d140 57b5 8540
000000d0: c760 8d40 f1d2 393f 85a1 6ec0 b5b7 aa40
000000e0: faf3 8341 e7c8 6c41 abc8 883f 6074 5840
000000f0: 0245 09c1 b3fe 8fc1 e9ae 3bc1 1910 953e
00000100: b2fe 9040 b606 8c3f 6911 32c0 be5b c240
00000110: 1e50 e140 7477 f340 1984 1741 847e 2841
00000120: 6b9d ff3f 5375 51c0 3ed0 8cc1 5b61 4d40
00000130: b2f3 0bc1 e5a1 1a41 641b 8641 a46a 333f
00000140: 85f4 c7c0 d25c 0abe 2ae5 8e40 6036 5840
00000150: 8948 95c0 0f6d 8341 c108 0541 edab 8f40
00000160: 4074 9c40 6a61 7c40 fe37 b9c0 fc26 ef40
00000170: 9ec5 8c40 8900 f43e fa18 b2c1 7cce 1e3f
00000180: 93cb 69bf 0a6c eac0 c915 0ec1 65f5 13c1
00000190: 1359 00bf 9689 a440 0718 e9bf 65db 17c0
000001a0: 5974 0a41 9769 7440 2d10 ea3f d91f a9c0
000001b0: 6fb3 c4c0 6183 03c0 1ed6 bdc0 99d9 3240
000001c0: 6e35 1540 53b4 d43f 311b f1bf 0b82 c9c0
000001d0: e38e 0bbf cbe8 0c41 1057 ab40 371c 5041
000001e0: 2f65 2340 5977 dec0 6ea7 b140 1b24 d140
000001f0: bdf4 a9bf 19e5 78c0 b68a a040 befc 03c0
00000200: f3b1 7140 e3ef b23e c38d 40bf 8da0 203f
00000210: 8b2e 3d40 8beb 49c0 e528 88c0 5a40 863f
00000220: 7f11 0d41 2012 223c d115 29bf b52a bbbf
00000230: f613 eac0 5f4b a9c0 5f5b 03c0 f441 6ec1
00000240: fa75 c640 c574 f93f 6022 3b41 e86b fcc0
00000250: 6d9a dfc0 9c7a 0bc1 7a79 80be 3952 8bbf
00000260: d9d4 55c1 4342 2fc1 3ad8 813f 509e e940
00000270: 8301 b33f f5f1 ad40 5b46 ae40 7a57 afbc
00000280: 6279 44c1 01d5 35c0 c32b 1cc0 b93b 0a41
00000290: 66c9 1fc1 6dde 9fbf bdef b5c0 8bd5 a1c0
000002a0: 72f7 13c1 e86a d2bf b044 b8c0 805f 0f41
000002b0: 0f46 db40 3fdf 3ac0 dc3a 57c0 09ba a0c0
000002c0: 55c9 2640 f664 2f40 fde5 d040 fca9 59c0
000002d0: 1ae9 53bf 305b cd40 12bf 8340 16ab 78c0
000002e0: db64 be40 2639 4340 cc5e ed3f af6f 8f40
000002f0: 3fc6 a340 4aac 42c1 9aa9 bec0 29f0 1141
00000300: 452e ed3f 1670 2041 1cee 1a41 7fe4 e7be
00000310: 51e4 91c1 6384 3f40 2440 2a41 5e00 22c1
00000320: b98c e2c0 158e 66c1 c7c5 9fc0 aa24 9840
00000330: a6b6 bac0 e16a 23bf d558 8040 c339 6741
00000340: b366 2b41 1595 03c0 1cd6 60bf d718 3cc0
00000350: 698c 1441 ce38 39c1 c72b 2bc1 fb43 3041
00000360: 2298 07c1 b856 3fc0 1095 a8c0 6bbf df40
00000370: ad6d 01c1 f95d ac40 7066 ac40 9803 4cc0
00000380: 2e83 1b41 b7b5 9cc0 1ec2 a640 76fa d4bf
00000390: a4f4 81c0 4cb2 303f b3e0 f0bf 9e4c e9c0
000003a0: 7616 8dc1 2852 20c1 6f7f 8940 2542 b140
000003b0: d601 6540 fed0 4240 d359 a440 614b b340
000003c0: 1f80 293f a558 8dc0 309a 0ec1 1e9f 5ec0
000003d0: b3c1 5bc1 0e5f 7dbf 4c9e 01c1 ba0f 6140
000003e0: 10b0 ae40 88f5 a4c0 f7f4 87c0 a3b2 b740
000003f0: faa8 61c0 a5fb 4a40 991a 6ac0 1301 c7bc

link_predictor.0.bias f4 [64]
-10.841848 -12.23629 -0.85061854 -11.763988 0.25852543 -15.093711 -14.524759 -11.779187
-12.462966 -9.999449 -8.618215 -5.4384484 -6.7766843 -9.667779 -4.5580664 -11.676935
-8.890276 -14.310609 -11.071596 -8.049187 -9.049231 -11.315337 -5.292051 -7.7256217
-12.804184 -4.3681126 -10.214429 -9.83722 -7.4751763 -10.751147 -8.649316 -12.385825
-13.840923 -6.752567 -10.614721 -14.586425 -6.9550676 -9.119025 -9.073674 -7.5074263
-10.333701 -13.065159 -3.549568 -6.8102365 -7.9913363 -4.4433875 -10.009463 -11.593747
-10.219657 -11.914226 3.5124545 -14.134152 -6.3486347 -11.9297695 -6.1722426 -12.175339
-18.7579 -8.594892 -13.463848 -10.034156 -3.5181224 -8.658266 -15.584757 -8.663966
00000000: 3678 2dc1 d8c7 43c1 23c2 59bf 4b39 3cc1
00000010: 725d 843e d77f 71c1 6a65 68c1 8d77 3cc1
00000020: 4f68 47c1 befd 1fc1 35e4 09c1 c507 aec0
00000030: 99da d8c0 39af 1ac1 aedb 91c0 bad4 3ac1
00000040: 923e 0ec1 41f8 64c1 4225 31c1 78c9 00c1
00000050: a6c9 10c1 9f0b 35c1 7b58 a9c0 4b38 f7c0
00000060: f0dd 4cc1 94c7 8bc0 4d6e 23c1 4165 1dc1
00000070: a534 efc0 b304 2cc1 9963 0ac1 572c 46c1
00000080: 6c74 5dc1 0715 d8c0 e6d5 29c1 ff61 69c1
00000090: ea8f dec0 87e7 11c1 c52d 11c1 d63c f0c0
000000a0: d756 25c1 e40a 51c1 1f2c 63c0 75ed d9c0
000000b0: 07b9 ffc0 3b30 8ec0 c326 20c1 fd7f 39c1
000000c0: b783 23c1 aba0 3ec1 0ecc 6040 7d25 62c1
000000d0: 0428 cbc0 56e0 3ec1 0383 c5c0 30ce 42c1
000000e0: 2e10 96c1 ad84 09c1 ec6b 57c1 e78b 20c1
000000f0: eb28 61c0 4288 0ac1 2a5b 79c1 9b9f 0ac1

link_predictor.2.weight f4 [1, 64]
0.12130275 0.10939351 -0.15821935 -0.08924803 -0.11794763 0.13177533 0.026061822 0.048798632
0.09443109 -0.097530216 -0.117192045 -0.118461266 0.066149995 0.08147711 -0.11237007 -0.11025596
0.06558729 0.20959276 -0.12673727 -0.102699146 0.13247548 0.12552892 -0.10616047 -0.12469538
0.021022255 -0.13353395 0.08131996 -0.08860003 -0.13738415 -0.1227392 -0.1234429 0.119625695
0.05252918 -0.12943158 0.101364486 0.09968221 -0.09662292 -0.13168935 -0.13912167 -0.10703239
-0.121995375 -0.11024765 -0.0761973 -0.12239837 -0.07352192 -0.087854356 0.1451161 0.082745835
-0.08729461 0.11108597 0.10963106 -0.11734796 0.0635061 0.11598703 -0.10444826 -0.09713373
-0.13897212 0.10473086 -0.09550634 0.10208989 -0.110008605 0.12693101 0.06977566 0.08762114
00000000: 946d f83d b409 e03d 4104 22be acc7 b6bd
00000010: 878e f1bd 1df0 063e 9a7f d53c 13e1 473d
00000020: 1665 c13d ecbd c7bd 6202 f0bd d29b f2bd
00000030: a679 873d 79dd a63d 4722 e6bd e0cd e1bd
00000040: a152 863d 7c9f 563e 6ac7 01be ee53 d2bd
00000050: a7a7 073e a78a 003e a96a d9bd 4b60 ffbd
00000060: dd36 ac3c 20bd 08be 148b a63d ef73 b5bd
00000070: 6eae 0cbe b15e fbbd a2cf fcbd 51fe f43d
00000080: d628 573d b689 04be 2f98 cf3d 3026 cc3d
00000090: 3de2 c5bd 93d9 06be e975 0ebe cc33 dbbd
000000a0: b6d8 f9bd 85c9 e1bd 540d 9cbd ffab fabd
000000b0: a992 96bd fcec b3bd 5199 143e a676 a93d
000000c0: 84c7 b2bd 0b81 e33d 4086 e03d 2154 f0bd
000000d0: 7c0f 823d 9c8a ed3d f8e8 d5bd 0dee c6bd
000000e0: b54e 0ebe 227d d63d d498 c3bd 8114 d13d
000000f0: 314c e1bd 34fa 013e 8be6 8e3d b672 b33d
