new_checkpoints/model_epoch_5.pth (torch, 217416 bytes, 7 tensors)

conv1.bias f4 [64]
0	0xc06604de	-3.594047
1	0x3f5e941e	0.8694476
2	0xc0d61906	-6.6905546
3	0xc0ee5d8c	-7.4489193
4	0xc0e9e5cc	-7.3093014
5	0xbed8627a	-0.42262632
6	0xc043988b	-3.0561855
7	0xc07106c5	-3.7660382
8	0xc0e8e34f	-7.2777476
9	0xc08c90f6	-4.3926954
10	0x3fb69001	1.4262697
11	0xc0d6f1bf	-6.71701
12	0xc0028f93	-2.040013
13	0x3f8018eb	1.0007604
14	0xc0cf5354	-6.478922
15	0xc0e40bb7	-7.12643
16	0xbe7499ce	-0.23886797
17	0xc0985cf6	-4.761348
18	0xc05bc35a	-3.4337983
19	0x3f5075a2	0.81429493
20	0xc013b3a7	-2.30784
21	0x3e9470f8	0.28992438
22	0xc050ed06	-3.2644668
23	0xbf1b21a4	-0.60598207
24	0x3eae4b63	0.3404189
25	0x3d8093e5	0.06278209
26	0xc07f9650	-3.9935493
27	0xc004cdd8	-2.0750637
28	0x3f01da51	0.5072375
29	0x3c9db71b	0.01925235
30	0xc054b739	-3.323683
31	0xc07a11a0	-3.9073257
32	0x3f2597d1	0.6468478
33	0xc08645d2	-4.196023
34	0xc0e7a8bc	-7.2393475
35	0xc0712b87	-3.7682817
36	0x3e925fd7	0.28588745
37	0xc0aa5b64	-5.323656
38	0xc03671a8	-2.850687
39	0x3f0ceb67	0.55046695
40	0x3e538d8d	0.20659466
41	0xc09b394c	-4.8507442
42	0xc10686f5	-8.4079485
43	0xc05082c7	-3.257982
44	0x3de87ebc	0.11352298
45	0x3f68dc16	0.90960824
46	0xc0f2f322	-7.5921793
47	0x3fbb04c3	1.4610828
48	0xc0a9cece	-5.3064947
49	0xc1198ee3	-9.597384
50	0xc02d4b99	-2.707739
51	0xbd890916	-0.06691186
52	0xc0768e4b	-3.8524349
53	0xc081e8df	-4.0596766
54	0xc038f6f8	-2.8900738
55	0x3ea8c826	0.329652
56	0x3f001573	0.5003273
57	0xbedba520	-0.42899418
58	0x3f63e8ce	0.89027107
59	0xc09217d5	-4.565409
60	0x3f1d8139	0.61525303
61	0xc094ba9c	-4.6477795
62	0xc0d44bf3	-6.634271
63	0xc057119c	-3.3604498

conv1.lin.weight f4 [64, 384]
0	0x3e18438a	0.14869514
1	0xbef8a5b9	-0.48563936
2	0xbc2659c2	-0.010153236
3	0xbf2746a2	-0.6534215
4	0x3ffb663c	1.9640574
5	0x3f967399	1.1754028
6	0xbfd268d5	-1.6438242
7	0xbfbf50d4	-1.4946542
8	0x3f864fe3	1.049313
9	0x3eb24fad	0.34826413
10	0x3f4b7423	0.79474086
11	0x3f99d4f4	1.2018113
12	0xbfabaa8c	-1.3411422
13	0xbf4223e9	-0.75836045
14	0xbfb45ce8	-1.4090853
15	0x3fadb87b	1.3571924
16	0xbfc6d2e3	-1.5533108
17	0xbf2d585c	-0.6771295
18	0x3fb13b85	1.3846289
19	0x401a9fcb	2.416003
20	0xbdfb2d27	-0.122644715
21	0x3ed48966	0.41511077
22	0xbf1d5584	-0.6145861
23	0x40054def	2.0828817
24	0x3ef33de7	0.47508165
25	0x3fbed2e5	1.490811
26	0x3fa4d286	1.2876747
27	0x3ef7ff38	0.48436904
28	0x3ef48c7f	0.4776344
29	0x3e191d87	0.1495267
30	0xbf7e03c6	-0.9922451
31	0xbf881340	-1.0630875
32	0xbf93cc16	-1.1546657
33	0xbf148d43	-0.5802805
34	0x3e865e04	0.26243603
35	0xbfa397f7	-1.2780751
36	0xbe00d76d	-0.12582178
37	0xbfb1da2f	-1.3894709
38	0x3f8332da	1.0249894
39	0xbe9e6c96	-0.3094222
40	0xbf60063e	-0.87509525
41	0xbd1b2aba	-0.037882544
42	0x3dfc31f0	0.12314212
43	0xbfeb1b21	-1.8367654
44	0xbf4ba3a2	-0.7954656
45	0xbf11aa92	-0.56900895
46	0x3f5d039c	0.8633363
47	0xbccc06c4	-0.02490557
48	0x3f4d54bf	0.8020744
49	0x3e8a0f24	0.26964676
50	0x3eae5ac6	0.3405363
51	0xbf1bbe3b	-0.60837144
52	0x3f34014e	0.7031449
53	0xbf22c1e2	-0.6357709
54	0xbed6496a	-0.41852885
55	0xbf1c9748	-0.61168337
56	0xbfdc1b3a	-1.7195809
57	0x3e68b884	0.22726637
58	0xbf0e832b	-0.55668896
59	0xbd94d200	-0.07266617
60	0x3eaccfa0	0.33752155
61	0xbdd7d275	-0.10538188
62	0x3fc1a4ce	1.5128419
63	0x400021ab	2.002055
64	0x3f9921ea	1.1963475
65	0xbf5cd46e	-0.8626164
66	0xbf870506	-1.0548408
67	0x3f1cb3c1	0.6121178
68	0xbf030e6c	-0.5119388
69	0xbd1751c6	-0.03694322
70	0x401009fa	2.250609
71	0xbf308823	-0.6895773
72	0x3fa39d01	1.2782289
73	0xbf890c05	-1.0706793
74	0x3f7bb051	0.9831591
75	0x3e07eecd	0.13274689
76	0xbf8a92f9	-1.0826102
77	0xbf3ff89d	-0.7498873
78	0x3f002013	0.5004894
79	0xbe9a69c8	-0.3015883
80	0x3f3253ce	0.69659126
81	0x3f45ae9e	0.7721957
82	0x3f1f5c04	0.6224978
83	0x3ee85179	0.4537466
84	0x3d26eb28	0.040751606
85	0xbef16f36	-0.4715516
86	0xbebb8fdc	-0.36633193
87	0xbf094408	-0.5361943
88	0xbfd8713a	-1.6909554
89	0x3f59f5df	0.85140795
90	0x3fd42f71	1.6576978
91	0x3f094b78	0.5363078
92	0xbf4369ca	-0.76333296
93	0x3e00aefd	0.12566753
94	0x3ec53932	0.385202
95	0x3fc9ae09	1.5756236
96	0xbf6c77b0	-0.9237013
97	0x3fa08dfa	1.2543328
98	0x3f6d3b8e	0.92669
99	0xbf2e52a3	-0.68094844
100	0xbfaeb241	-1.3648149
101	0xbf2ed7f1	-0.6829825
102	0xbf3e6ece	-0.74387825
103	0x3f4390d3	0.7639286
104	0xbda27bb2	-0.07933749
105	0xc016e325	-2.3576138
106	0xbfd8c175	-1.6934038
107	0xbf48bb0b	-0.78410405
108	0xbf2f27fa	-0.68420374
109	0x3eda937c	0.42690647
110	0x3fec1812	1.8444846
111	0xbfb03ead	-1.3769127
112	0xbf9dea0f	-1.2337054
113	0x3fabd0be	1.3423078
114	0x3ede60fc	0.43433368
115	0xbf3150da	-0.69263995
116	0xbfa392c0	-1.277916
117	0xbc949539	-0.018137561
118	0xc023aab4	-2.557294
119	0xbf8eaf93	-1.1147331
120	0xbf38a267	-0.72122806
121	0x3fe60a1f	1.7971839
122	0xbe884f28	-0.2662289
123	0x3f192741	0.5982552
124	0xbe876847	-0.26446745
125	0xbfc1c7c4	-1.5139089
126	0x40335e5a	2.8026338
127	0x3d9370e4	0.071992666
128	0x3fc910f7	1.5708302
129	0xc0294373	-2.6447418
130	0xbc47f5c3	-0.01220459
131	0x3f4e55a5	0.80599433
132	0xbf79a00e	-0.9750985
133	0x3e85ee81	0.26158527
134	0x3e5cc6bb	0.21560185
135	0xbe9a334c	-0.3011726
136	0x3f20a50a	0.6275183
137	0x3edb3b04	0.42818463
138	0x3ef7b9bd	0.48383895
139	0xbfb34247	-1.4004601
140	0x3f4f3817	0.8094496
141	0xbdaa47aa	-0.0831445
142	0xbf880fc0	-1.0629807
143	0xbf34e5cf	-0.7066316
144	0xbf81b407	-1.0133065
145	0xbfbb8ab6	-1.4651706
146	0xbfd70228	-1.6797533
147	0xbe0fe12b	-0.14050739
148	0xbf0c5ce7	-0.5482926
149	0x3f8d4f03	1.1039737
150	0x3f41081f	0.75403017
151	0x3f98198c	1.1882796
152	0xc006602c	-2.0996199
153	0x3fa30719	1.2736541
154	0x3fc08b90	1.5042591
155	0xbf842798	-1.0324583
156	0xbef1ebab	-0.47250113
157	0x3eedb088	0.46423745
158	0xbd60f4d9	-0.054921005
159	0x3ee0e0d2	0.43921524
160	0xbf5bec10	-0.8590708
161	0xbf087374	-0.5330117
162	0x3f9b42c4	1.212975
163	0x4017ea55	2.3736775
164	0xbcb2d191	-0.021828445
165	0x3f324ecc	0.69651484
166	0xc0012e95	-2.0184681
167	0x3f066563	0.52498454
168	0x3ec9a834	0.3938614
169	0xbf374ec2	-0.7160455
170	0x3e78575c	0.24252075
171	0x3ec15f74	0.37768137
172	0x3f71d633	0.9446747
173	0xbec5e613	-0.38652095
174	0xbe6b41f6	-0.22974381
175	0xbfb4ca97	-1.4124326
176	0xbe460a34	-0.1933983
177	0xbf734b5b	-0.9503686
178	0x3e8dce72	0.27696568
179	0xbfb3f754	-1.4059854
180	0x3e967cf3	0.29392204
181	0x3f22c37c	0.63579535
182	0xbf3dfe08	-0.74215746
183	0x3f8c6bdd	1.0970417
184	0xbe8f382b	-0.2797254
185	0xbfb28a66	-1.3948486
186	0xc0146dd8	-2.3192043
187	0xbfc1f624	-1.5153241
188	0x400cae37	2.1981332
189	0xbea796ef	-0.3273234
190	0xbfa09d75	-1.2548052
191	0xbee90b26	-0.45516318
192	0xbdc3b7ea	-0.09556563
193	0x3f1524ee	0.58259475
194	0x3dbdff6c	0.092772335
195	0xbf093a89	-0.5360494
196	0x3f1dccbd	0.6164053
197	0xbf3306fe	-0.69932544
198	0x3edfba3e	0.4369678
199	0x3d8c24d3	0.06842961
200	0x3e934e7b	0.28770813
201	0x402e02a3	2.718911
202	0xbf8f256e	-1.1183298
203	0xbd847f2e	-0.0646957
204	0x3ec31bf1	0.38107255
205	0x3f7717dc	0.9652078
206	0x3f8bd949	1.0925685
207	0x3f4daa99	0.80338436
208	0x3fc93162	1.5718195
209	0x3d5b5b25	0.05355372
210	0x3ef6572c	0.48113382
211	0x3f1c1229	0.6096521
212	0xbdc6e505	-0.09711651
213	0xbef931df	-0.4867086
214	0x3d1e3c73	0.038631868
215	0xbfdd9a0d	-1.7312638
216	0x3f80e755	1.0070597
217	0x3f98a09d	1.1924015
218	0xbd91184a	-0.07084711
219	0x3ee5807e	0.44824594
220	0x3fbac746	1.4592063
221	0x3f331050	0.69946766
222	0xbfb19009	-1.3872081
223	0x3d8464c3	0.06464531
224	0x3f503b61	0.81340605
225	0xbfa51b0d	-1.289888
226	0x3f401bd7	0.7504248
227	0xbfbaea79	-1.4602805
228	0xbe384402	-0.17994693
229	0x3fda1558	1.7037764
230	0xbf9a4fc1	-1.2055589
231	0x3ea45009	0.32092312
232	0x3ede0c03	0.4336854
233	0x3f87dfb7	1.0615147
234	0x3f8b40b9	1.0879127
235	0x3f68cf13	0.9094097
236	0x3fce501b	1.6118196
237	0x40202034	2.5019655
238	0x40222b0b	2.5338771
239	0x3fa78a69	1.3089114
240	0x3f63c6a7	0.88974994
241	0xbdac2825	-0.084060945
242	0xbeb3a24a	-0.35084754
243	0xbf240caa	-0.64081824
244	0xbeb0cdc2	-0.3453198
245	0xbfb22dab	-1.3920187
246	0x3f52b0d4	0.8230107
247	0xbfabe55b	-1.3429369
248	0x3fbc2f77	1.4701985
249	0x3f754883	0.9581377
250	0x3ffd4f41	1.9789811
251	0xbf9e5b18	-1.237155
252	0x3eb25385	0.34829345
253	0x3f040e14	0.5158398
254	0x3fb84acc	1.4397826
255	0x3e97f880	0.29681778

conv2.bias f4 [32]
0	0x3c84a1d0	0.01619044
1	0x3cadabaa	0.02120002
2	0x40be9c94	5.9566135
3	0xbf9b7951	-1.2146398
4	0x3e1afbe9	0.15135159
5	0x3d448fad	0.047988582
6	0x3e68fde2	0.22753099
7	0x3d2aa0fe	0.04165744
8	0x3f48455b	0.7823083
9	0xc0abe30d	-5.371466
10	0x3d5a8493	0.05334909
11	0x3dad0503	0.084482215
12	0xbd945821	-0.07243372
13	0xc089c039	-4.3047147
14	0xbde25a43	-0.11052372
15	0xb9ea8f88	-0.00044738897
16	0x3dde3f02	0.108518615
17	0x40195980	2.3960876
18	0x3f2e4bcd	0.6808441
19	0x3e1c5dbe	0.15270135
20	0x3c8f919b	0.017525485
21	0xbfc7879f	-1.5588263
22	0x3d41c49f	0.047306653
23	0x3f9046c2	1.1271594
24	0xbd540ed9	-0.051771972
25	0x3ea961f8	0.33082557
26	0xbf55bbff	-0.83489984
27	0xbeac7df4	-0.33689845
28	0xbd5956a5	-0.053061146
29	0x3b3ea9d0	0.0029092915
30	0xbd8c75fe	-0.06858443
31	0x3f63887a	0.8888012

conv2.lin.weight f4 [32, 64]
0	0xbe9d387e	-0.30707163
1	0xbdd40c4c	-0.10353908
2	0x3ea5e662	0.3240233
3	0x3f096dc5	0.5368312
4	0x3fb1f70d	1.3903519
5	0xbd6d1049	-0.05787686
6	0x3ecd0758	0.40044665
7	0xbe30dbcb	-0.17271344
8	0x3edd4f84	0.43224728
9	0xbe2230ba	-0.158389
10	0x3d8b6cd5	0.068078674
11	0x3fe49d76	1.7860553
12	0xbdcabfc0	-0.09899855
13	0xbe60b8e2	-0.21945527
14	0xbe889e36	-0.26683205
15	0xbd98fb77	-0.07469838
16	0x3e0fd67e	0.14046666
17	0xbe2c4f52	-0.16827133
18	0x3f09d486	0.5383991
19	0x3d5e1341	0.05421758
20	0x3f8c3b34	1.0955567
21	0xbd6ac985	-0.05732109
22	0x3cc275b9	0.023737775
23	0xbdad1feb	-0.084533535
24	0xbe41d4e4	-0.18928868
25	0x3cecb6f9	0.028895842
26	0xbffb91b0	-1.9653835
27	0xbd36fde3	-0.04467572
28	0xbc67411e	-0.014114646
29	0xbd6ca449	-0.057773862
30	0x3f2a9a35	0.6664155
31	0xbd392bbf	-0.045207735
32	0xbcc19f74	-0.023635603
33	0x3f809a28	1.0047045
34	0xbe966643	-0.29374894
35	0xbe32a232	-0.17444685
36	0xbde5c4eb	-0.112192
37	0xbdaac049	-0.08337457
38	0x3f3d97b9	0.74059635
39	0x3de85383	0.113440536
40	0x3cf504d3	0.029909527
41	0xbdadfb99	-0.08495254
42	0x3ded4deb	0.11587127
43	0xbed744d5	-0.42044702
44	0x3d8aa0b2	0.067689314
45	0x3aa2b966	0.0012414872
46	0x3f97f74e	1.1872346
47	0x3d7ea8ec	0.062172815
48	0xbe1368a1	-0.14395382
49	0x3d81842d	0.06324039
50	0xbe94a35f	-0.29030892
51	0x3d84430c	0.06458101
52	0x3ee4db5b	0.44698605
53	0xbfa129fe	-1.259094
54	0x3f34b428	0.70587397
55	0xbb8083a1	-0.0039219414
56	0x3d9060da	0.07049723
57	0x3d030cec	0.031994745
58	0x3d203dff	0.039121624
59	0xbf1da8dc	-0.61585784
60	0x3cd7dd3b	0.026350608
61	0xbf7a7d29	-0.9784723
62	0x40738195	3.804784
63	0xbf22d39e	-0.6360415
64	0xbe7bb4e7	-0.24580728
65	0x3c6d25ce	0.014474345
66	0x3f330390	0.6992731
67	0x3e5d0200	0.21582794
68	0xbffd5184	-1.9790502
69	0x3e1d05d7	0.15334259
70	0xbe5c3659	-0.21505107
71	0xbf6903fe	-0.91021717
72	0xbfb6e838	-1.4289618
73	0xbe928a8d	-0.2862133
74	0x3e342d8c	0.175955
75	0x3f235cad	0.63813287
76	0xbdf97725	-0.12180928
77	0xbeaddfbc	-0.33959758
78	0x3e21820d	0.15772267
79	0xc04fdf7f	-3.248016
80	0x3dc9a0b1	0.098451026
81	0xbd83183f	-0.06401109
82	0xbfac5801	-1.3464357
83	0x3d432227	0.047639992
84	0xbf3426f3	-0.7037193
85	0xbd944609	-0.07239921
86	0xbeed320d	-0.46327248
87	0x3ceac04f	0.028656153
88	0xbd934ef0	-0.071927905
89	0xbd49f208	-0.049303085
90	0x3e5ea1fb	0.21741478
91	0x3e159977	0.14609323
92	0xbdf16140	-0.11786127
93	0x3cd1ff22	0.025634352
94	0x3fb76c91	1.4330007
95	0x3f5cd36a	0.8626009
96	0x3d78db1e	0.06075584
97	0xbf4dcba0	-0.8038883
98	0xbb4b019a	-0.0030976296
99	0x3edd4e5a	0.4322384
100	0x3dd520a9	0.1040662
101	0x3e708b4f	0.23490642
102	0xbe21aea3	-0.15789275
103	0x3d8cca06	0.068744704
104	0x3d85763a	0.065166906
105	0xbd6c7ab1	-0.057734195
106	0xbdb9456a	-0.09046443
107	0x4002492c	2.035716
108	0x3e7886db	0.24270193
109	0x3c022247	0.007942743
110	0xbfa0550c	-1.2525954
111	0x3da795a5	0.08182839
112	0xbe37b903	-0.1794167
113	0xbe4c0500	-0.19923782
114	0xbf573fcd	-0.8408173
115	0x3e010e2f	0.12603067
116	0x3f77f0d8	0.96851873
117	0x40313ebf	2.7694547
118	0xbec152a6	-0.37758368
119	0x3d7fc589	0.062444244
120	0x3d6d2587	0.057897117
121	0x3e9ee235	0.31031957
122	0x3e229b16	0.15879473
123	0x3f49e330	0.78862286
124	0xbd1dd3a1	-0.038531903
125	0xbfa464ee	-1.2843301
126	0x3f9910e7	1.1958283
127	0x3f0df3ea	0.5545031
128	0x3f16e6d7	0.58945984
129	0xbea78c4e	-0.3272423
130	0xbe4fa3e8	-0.20277369
131	0xbf948141	-1.1601945
132	0xc06a4448	-3.6604176
133	0xbeb358aa	-0.35028583
134	0x3cd16088	0.025558725
135	0xbe6817fe	-0.22665402
136	0xbcb7f0d7	-0.022453709
137	0xbfac04dc	-1.3438983
138	0xbf08480f	-0.5323495
139	0xbdc76c72	-0.09737481
140	0xbf0393c3	-0.5139734
141	0xbe9bc558	-0.30424
142	0xbde37322	-0.11105944
143	0xbf848f87	-1.0356301
144	0xbe4a13eb	-0.1973416
145	0xbfdad083	-1.7094883
146	0xbf779105	-0.9670566
147	0xbe40a5c9	-0.18813242
148	0xbf8be58b	-1.0929426
149	0xbe8b1b73	-0.2716938
150	0xbf8193fc	-1.0123286
151	0xba816af9	-0.0009873799
152	0xbe5cdacc	-0.2156784
153	0xbf55d6f3	-0.8353111
154	0xbf266537	-0.6499819
155	0x3dae72f9	0.08518023
156	0xbf1153e9	-0.5676866
157	0xbec459fe	-0.3834991
158	0x3dc1ae42	0.09457065
159	0xbee27dda	-0.44236642
160	0xbed9f999	-0.4257324
161	0xbf2c3866	-0.6727356
162	0xc0067c4f	-2.1013372
163	0xbe2eb04f	-0.17059444
164	0xbf0f1bce	-0.559018
165	0xbde8daea	-0.113698795
166	0x3f2a5bf6	0.6654657
167	0xbf321bf9	-0.6957393
168	0x3eb55bb0	0.35421515
169	0xbeb6a5d7	-0.356734
170	0x3f3a0ec5	0.72678787
171	0xbf21d110	-0.6320963
172	0xba988439	-0.0011636085
173	0xbe6e3d6b	-0.23265617
174	0xbf863721	-1.0485574
175	0xbe1ed516	-0.15510973
176	0xbf16511b	-0.5871751
177	0x3f278746	0.65440786
178	0xbf9e1ff1	-1.2353498
179	0xbfd6e4a4	-1.6788526
180	0xbf1b249d	-0.6060274
181	0x3e79e66f	0.2440431
182	0xbe7d0e09	-0.24712385
183	0xbea24a12	-0.31697136
184	0xbf19c603	-0.60067767
185	0xbee53c65	-0.4477264
186	0x3e69ca0b	0.2283098
187	0x3edf7322	0.43642527
188	0xbe10cc98	-0.14140546
189	0x3f9fc77c	1.2482753
190	0xbf00c673	-0.5030281
191	0xbf34729f	-0.704874
192	0xbcdc88d7	-0.02692072
193	0x3eecf6db	0.46282086
194	0xbe6e25ee	-0.23256657
195	0x3dc9b8c5	0.09849695
196	0x3fa80b84	1.3128514
197	0x3d84abe9	0.06478102
198	0x3c9243f4	0.017854668
199	0xbd5e5442	-0.054279573
200	0xbfcb8c6b	-1.5902227
201	0x3f9555a3	1.1666759
202	0x3dde02ca	0.10840376
203	0xbe7b8e28	-0.24565947
204	0xbdcad5f4	-0.099040896
205	0xbf11f66e	-0.57016647
206	0x3fbf11dd	1.4927326
207	0xbf2d1f3f	-0.676258
208	0x3e2bdce3	0.1678348
209	0x3f589103	0.8459627
210	0x3e981298	0.29701686
211	0x3e688e60	0.22710562
212	0x3ebdb768	0.3705399
213	0x3ed19bec	0.4093927
214	0xbcc3c106	-0.023895752
215	0x3f3d5849	0.7396284
216	0x3e165461	0.14680625
217	0x3e8a87d8	0.27056766
218	0x3e9ed9ea	0.3102563
219	0x3f3c65d9	0.7359291
220	0xbf0ca5f2	-0.5494071
221	0x3dee2298	0.11627692
222	0x3f440579	0.7657085
223	0xbf180f11	-0.5939799
224	0xbf925d40	-1.1434708
225	0xbd6abee0	-0.05731094
226	0x3f20aa44	0.62759805
227	0xbe93436e	-0.28762382
228	0x3da2a9ec	0.07942566
229	0x3fb1a054	1.3877053
230	0xbea5cbd1	-0.32382062
231	0x3efa8243	0.48927507
232	0xbf789478	-0.97101545
233	0x3ee9efe5	0.45690838
234	0xc037adc8	-2.8699818
235	0x3f8c572b	1.0964102
236	0x3d7788ea	0.060433306
237	0x3e3528c2	0.17691329
238	0xc0080a3c	-2.1256247
239	0x3ee1d014	0.44104064
240	0x3fcbd422	1.5924113
241	0xbfc5f5af	-1.5465602
242	0xbd5b2d18	-0.0535098
243	0x3f40759f	0.75179476
244	0x3ea24994	0.3169676
245	0xbf3f88a6	-0.74817884
246	0xbf3cf943	-0.73817843
247	0xbf2c3be2	-0.67278874
248	0xbe954ba4	-0.29159272
249	0x3f2bae64	0.67062974
250	0x3df24835	0.11830179
251	0x3f8ce902	1.1008608
252	0x3f0d5811	0.55212504
253	0x3e2f246b	0.17103736
254	0xc01df43f	-2.4680326
255	0x3ccaaf76	0.02474187

link_predictor.0.weight f4 [64, 416]
0	0x3e2e7139	0.17035379
1	0x3e0ae0d3	0.13562326
2	0x3f3c0d8b	0.73458165
3	0xbe798faa	-0.2437121
4	0xbe639cdb	-0.22227804
5	0x3e2b1e17	0.16710697
6	0x3dd109f5	0.10206977
7	0xbce974fb	-0.028498163
8	0xbdae6cfa	-0.085168794
9	0xbf8645cf	-1.0490054
10	0xbd9b3601	-0.0757866
11	0xbdc8bbc9	-0.09801442
12	0xbd07df59	-0.033171985
13	0xbf3b1b41	-0.7308846
14	0xbcb1264a	-0.021624703
15	0xbc9960b0	-0.018722862
16	0x3db1da6c	0.08684239
17	0xbf1da9c1	-0.6158715
18	0x3f6804d5	0.90632373
19	0x3c450ccc	0.012026977
20	0xbe2234e2	-0.15840486
21	0xbf1f18c8	-0.6214719
22	0x3dfe79b6	0.12425558
23	0xbe3f82f0	-0.18702292
24	0x3e04bf5d	0.12963624
25	0x3dcc9bfd	0.0999069
26	0x3d50596c	0.05086653
27	0x3d20bc1a	0.039241888
28	0x3d4e5b58	0.05038008
29	0x3e15ddd1	0.14635397
30	0xbd2ce5a0	-0.042211175
31	0xbe2e325c	-0.17011398
32	0xc13ff83c	-11.998104
33	0xbfeaa664	-1.8332028
34	0xc0b59b84	-5.675234
35	0x40a6b6ae	5.2098
36	0xc0b523fa	-5.6606417
37	0x40f8644f	7.7622447
38	0xc1241d75	-10.257192
39	0x3fbdd62b	1.4830984
40	0xc13b6d33	-11.71416
41	0xc099835d	-4.7972856
42	0x40603ff9	3.5039046
43	0xc0012469	-2.0178473
44	0x41367dbb	11.405696
45	0x40167c25	2.3513272
46	0xc1014d6e	-8.081404
47	0xc0abad02	-5.364869
48	0x40902050	4.5039444
49	0xc0c41720	-6.127823
50	0x4092ebff	4.591308
51	0x3f98187e	1.1882474
52	0x403b99a9	2.9312537
53	0x3fb64d7a	1.4242394
54	0xc05438e4	-3.3159723
55	0x40da890f	6.829231
56	0x41640034	14.25005
57	0x41441d14	12.257099
58	0x3f2facad	0.6862286
59	0x408080af	4.0157084
60	0xc1021a17	-8.13137
61	0xc152ddb2	-13.179125
62	0xc143b59c	-12.231838
63	0x3fea2ad3	1.8294319
64	0x4021ce50	2.5282173
65	0x3f72c672	0.94834054
66	0xc03d15d8	-2.9544582
67	0x40aecd06	5.4625273
68	0x40f36026	7.605487
69	0x40e4ea49	7.1535993
70	0x40f9e07f	7.8086543
71	0x4119a817	9.603538
72	0x40084864	2.1294184
73	0xc07be8ca	-3.9360833
74	0xc16c8f5e	-14.785002
75	0x3ffffd42	1.9999163
76	0xc0d5b39b	-6.6781745
77	0x410cdeca	8.804392
78	0x41674c99	14.456201
79	0xbf77aa54	-0.96744275
80	0xc0b4035b	-5.6254096
81	0x3ef95c71	0.4870334
82	0x40c39995	6.112498
83	0x4079595b	3.8960788
84	0xc03b1e74	-2.9237337
85	0x41485f97	12.523337
86	0x40cc461e	6.383559
87	0x40638e7c	3.5555716
88	0x3fdf41d8	1.7441969
89	0x40a2fe40	5.0935364
90	0xc05d0a29	-3.4537451
91	0x40d97acd	6.7962403
92	0x3cd29ac9	0.025708573
93	0x3ee34985	0.44392028
94	0xc180d8fe	-16.105953
95	0x405e9e30	3.478405
96	0xbd449eb6	-0.04800292
97	0xc10fa3af	-8.977462
98	0xc110ca3f	-9.0493765
99	0xc0e673f2	-7.2016535
100	0xbf529cf6	-0.82270753
101	0x400fb9a8	2.2457066
102	0x3f97e555	1.1866862
103	0xc018b276	-2.3858924
104	0x40f468f2	7.6378107
105	0x4058e53d	3.3889916
106	0x3fc7c6dd	1.5607563
107	0xc01ec940	-2.4810333
108	0xc07e340f	-3.9719274
109	0xc01960da	-2.3965364
110	0xc0a0e46c	-5.0278835
111	0x40159b83	2.3376167
112	0x3fbf9ae6	1.4969146
113	0xbe77fec0	-0.24218273
114	0xbfcb95a8	-1.5905046
115	0xc09f6f88	-4.9823647
116	0xbf5cc53e	-0.8623847
117	0x408a8303	4.3284926
118	0x4042aa0a	3.0416284
119	0x41584356	13.516439
120	0x3e40f4fb	0.18843453
121	0xc0b9ccec	-5.806265
122	0x40a77c71	5.2339406
123	0x408db578	4.428402
124	0xc07305fb	-3.79724
125	0xc0916e0d	-4.544684
126	0x408c78c3	4.3897414
127	0xbfe2c72b	-1.7717031
128	0x405c9d9a	3.4471192
129	0x40084286	2.1290603
130	0x3f68f908	0.9100499
131	0x3eb547e5	0.35406414
132	0x40758aa6	3.8365874
133	0xc01de783	-2.4672554
134	0xc0891661	-4.283982
135	0x3f827525	1.0192
136	0x40f94ae4	7.790392
137	0xc039422d	-2.894664
138	0x3fb90ba9	1.4456683
139	0xc04d167b	-3.204497
140	0xc0b77b83	-5.733827
141	0xc051547f	-3.2707822
142	0xbfe70977	-1.8049763
143	0xc1395449	-11.583077
144	0x40d6e633	6.7156005
145	0x3f3f3db1	0.7470351
146	0x411f098e	9.939833
147	0xc0df5d6d	-6.9801545
148	0xc0aa584d	-5.323279
149	0xc1123ceb	-9.139873
150	0x3f18aeec	0.5964191
151	0x3ec0ae63	0.37633047
152	0xc1585bcc	-13.522411
153	0xc1129468	-9.161232
154	0x3f7ee408	0.995667
155	0x40b6821b	5.703382
156	0x3f4fb369	0.81133133
157	0x40c71690	6.221504
158	0x4094b575	4.6471505
159	0xbcaf577a	-0.021404017
160	0xc123716f	-10.215194
161	0xc01833d2	-2.3781629
162	0xc06a509e	-3.6611705
163	0x40f1ba38	7.553982
164	0xc11ebd56	-9.921225
165	0x3f75e56e	0.96053207
166	0xc0bd9e7a	-5.9255953
167	0xc07eb919	-3.9800475
168	0xc0aa2fcf	-5.318336
169	0x3e407952	0.1879628
170	0xc0d610f8	-6.6895714
171	0x40cec3db	6.461408
172	0x40d1fe2e	6.562278
173	0xc066e7aa	-3.6078897
174	0xc02591ad	-2.5870163
175	0xc02cf922	-2.7027059
176	0x4080347a	4.006406
177	0xbca422a8	-0.020036057
178	0x40cfabcb	6.489721
179	0xc012279a	-2.283667
180	0xbfb430d3	-1.40774
181	0x40a150d0	5.041115
182	0x408d915b	4.4239936
183	0xc08649fe	-4.1965322
184	0x4081a26c	4.051077
185	0x40a3d6a4	5.1199512
186	0x401fbb5e	2.495811
187	0x4002673c	2.037551
188	0x408c4f45	4.3846765
189	0xc1154c5b	-9.331141
190	0xc0662a56	-3.596334
191	0x40f97546	7.7955656
192	0x40060f2f	2.0946767
193	0x40f8126e	7.7522497
194	0x40c7de9f	6.2459254
195	0x3fcf661a	1.6203034
196	0xc185432f	-16.657804
197	0x3ff37b5d	1.9022022
198	0x40f76e90	7.7322464
199	0xc0dcad21	-6.896134
200	0xc0c68ff4	-6.2050724
201	0xc1372804	-11.447269
202	0xc0c6365f	-6.194137
203	0x40231dbc	2.5486898
204	0xc07e1bb4	-3.9704409
205	0x40052da2	2.0809102
206	0x4034e623	2.8265464
207	0x412aa489	10.66517
208	0x412108ea	10.064676
209	0xbf5ca0a8	-0.8618264
210	0x3f46a36f	0.7759313
211	0xc04149e7	-3.0201356
212	0x40ca85b1	6.3288198
213	0xc11f69ff	-9.963378
214	0xc10c3336	-8.762503
215	0x410c12fd	8.754636
216	0xc0f81c43	-7.75345
217	0xc0411833	-3.017102
218	0xc09d2e94	-4.911936
219	0x40bcddef	5.9020915
220	0xc0c95d23	-6.292619
221	0x40fa2a78	7.817684
222	0x407f123d	3.9854882
223	0xc033aef7	-2.807554
224	0x40f40fa0	7.6269073
225	0xc017e719	-2.37348
226	0x3f958f5e	1.1684377
227	0xbf7912fb	-0.97294587
228	0xc06064e1	-3.5061572
229	0x3fc51136	1.5395877
230	0xbfb7ab98	-1.4349241
231	0xc0c5c888	-6.180729
232	0xc17b3e25	-15.702672
233	0xc1191883	-9.568484
234	0x40ad15f5	5.4089303
235	0x4070dcb8	3.7634716
236	0x403c3832	2.94093
237	0x3ecc9473	0.39957008
238	0x40a39513	5.1119475
239	0x402ac659	2.6683562
240	0x3eade3d2	0.33962876
241	0xc06ad81f	-3.669441
242	0xc0ebf68c	-7.373846
243	0xbfeedba4	-1.8660779
244	0xc11bfc31	-9.74907
245	0xbec2eb7e	-0.3807029
246	0xc0c31307	-6.0960727
247	0x406c0524	3.6878138
248	0x4083c16b	4.1173606
249	0xc0818af0	-4.04821
250	0xbfccf13d	-1.601112
251	0x40b13c8e	5.538642
252	0xc00b8c22	-2.180428
253	0x403a7f1c	2.9140081
254	0xc08ba5b1	-4.363976
255	0xbcc70113	-0.024292504

link_predictor.0.bias f4 [64]
0	0xc0fba919	-7.864392
1	0xc11caf4a	-9.792795
2	0x3e9f930c	0.31166875
3	0xc126a3e8	-10.415016
4	0x3ed9a7f9	0.42510965
5	0xc1409a98	-12.037743
6	0xc14156d5	-12.083699
7	0xc11ccb3a	-9.799616
8	0xc12845d3	-10.517047
9	0xc103a796	-8.228415
10	0xc0d8e389	-6.7777753
11	0xc04aa671	-3.1664088
12	0xc0b2ab78	-5.5834312
13	0xc10a7a64	-8.654881
14	0xc0543778	-3.3158855
15	0xc120d30c	-10.051525
16	0xc0f11637	-7.533962
17	0xc1275db3	-10.460376
18	0xc1133792	-9.201067
19	0xc0e7ca79	-7.243466
20	0xc0eed30a	-7.4632616
21	0xc1215bb4	-10.084888
22	0xc081a23c	-4.051054
23	0xc0c84157	-6.257976
24	0xc12c0222	-10.750521
25	0xc08635d5	-4.1940713
26	0xc0ff702a	-7.982442
27	0xc10ac870	-8.673935
28	0xc0c2032e	-6.062888
29	0xc10257be	-8.146421
30	0xc0cb3bb0	-6.351036
31	0xc1327645	-11.153874
32	0xc13f8243	-11.969302
33	0xc0b7806f	-5.734428
34	0xc10e5283	-8.895144
35	0xc13ab293	-11.668597
36	0xc0b1af4e	-5.5526495
37	0xc109a226	-8.602087
38	0xc14780f5	-12.468984
39	0xc0dbaba0	-6.8647003
40	0xc1003daa	-8.015055
41	0xc127154f	-10.442702
42	0xc0361a76	-2.845365
43	0xc0ab4fc5	-5.3534875
44	0xc0dc0a15	-6.8762307
45	0xc045b5a6	-3.089212
46	0xc0f3602a	-7.605489
47	0xc1200401	-10.0009775
48	0xc10cfc87	-8.811652
49	0xc122b017	-10.167991
50	0x40a1327e	5.0374136
51	0xc143873e	-12.220518
52	0xc0ac164a	-5.377721
53	0xc11f263b	-9.946834
54	0xc0a43992	-5.1320276
55	0xc119b591	-9.606828
56	0xc166ce72	-14.425402
57	0xc0f0529d	-7.5100846
58	0xc135d308	-11.364021
59	0xc10c9664	-8.786716
60	0xc01cd800	-2.4506836
61	0xc0e945d4	-7.289774
62	0xc159055e	-13.56381
63	0xc0dcfb74	-6.905695

link_predictor.2.weight f4 [1, 64]
0	0x3e02c83c	0.12771696
1	0x3ddc58af	0.107591026
2	0xbdc562d0	-0.096379876
3	0xbe057770	-0.13033843
4	0xbdf12687	-0.11774927
5	0xbce3f54e	-0.027826931
6	0x3de204fe	0.110361084
7	0x3d8e904b	0.069611154
8	0x3da2fb1e	0.07958053
9	0xbe0afc74	-0.13572866
10	0xbdca60cb	-0.09881743
11	0xbdb30693	-0.08741488
12	0x3dead364	0.11466101
13	0x3da70be8	0.08156568
14	0xbe029dc6	-0.12755498
15	0xbe0e6f34	-0.13909608
16	0x3dc2bf9e	0.09509204
17	0x3e3d2332	0.18470457
18	0xbdfa1473	-0.12210932
19	0xbe0b6918	-0.13614309
20	0x3d51e40b	0.05124287
21	0x3d768e77	0.06019446
22	0xbdf39643	-0.118938945
23	0xbdce907c	-0.10086152
24	0x3dc0a652	0.09406723
25	0xbd968459	-0.07349462
26	0x3dfcc12e	0.123415336
27	0xbe0547fa	-0.13015738
28	0xbddea134	-0.10870591
29	0xbe2449de	-0.16043803
30	0xbe08d168	-0.13361132
31	0x3dda80e1	0.10669113
32	0x3de0b476	0.1097192
33	0xbdc2558f	-0.09488975
34	0x3d6798e8	0.056542307
35	0x3de0c923	0.10975864
36	0xbe122e1a	-0.14275399
37	0xbe04db1d	-0.1297421
38	0xbe3a1da8	-0.18175375
39	0xbdf4a76a	-0.11945994
40	0xbdca20d3	-0.09869542
41	0xbe01314a	-0.12616459
42	0xbd90e46d	-0.07074819
43	0xbde6947d	-0.11258791
44	0xbdb3a056	-0.08770816
45	0xbdddc289	-0.1082812
46	0x3d83c5ce	0.064342126
47	0x3d85988a	0.06523235
48	0xbde84480	-0.1134119
49	0x3dda0276	0.10645001
50	0x3db4e6a9	0.088330574
51	0xbe1aaeca	-0.15105739
52	0x3d8c1933	0.06840744
53	0x3d1500ab	0.03637759
54	0xbddcfb35	-0.107901014
55	0xbe25dcc0	-0.1619749
56	0xbe5df510	-0.21675515
57	0x3d62e371	0.055392686
58	0xbe052968	-0.13004076
59	0x3df773f7	0.120826654
60	0xbe032c05	-0.12809761
61	0x3db7a8e7	0.089677624
62	0x3de53b30	0.1119293
63	0x3da6deed	0.081479885
