checkpoints/linear_model_epoch_10.pth (torch, 199360 bytes, 3 tensors)

mlp.0.weight f4 [64, 768]
00000000: bae9 07bf 2f5a 47be 37ce 0bbf adb2 4abf
00000010: 807c 213f 51d9 13bf 6c75 9b3e f34d 083f
00000020: 959d ae3d 5279 023d 14cf 81bc c930 183e
00000030: 60cd fb3e 2093 a63e 6b77 0bbd 0cbc a0be
00000040: 0f0b a83c ee84 9f3e 3785 0cbf f12e 15bf
00000050: 12f1 2e3f ec46 b53e 466e 9cbd b535 913c
00000060: 5b8e 34bf 8dc1 103f 2cac 3ebd d0f9 1bbf
00000070: 51ea a93c e156 2cbf 1121 983e 7c6a f83e
00000080: 79da fb3e 6221 0b3f 000f 31bf 997e 243f
00000090: 782d 04bd ec8c 163e b639 ccbe 9603 26bf
000000a0: 6cf0 afbe 57fd e9be a3a5 923d 9f3c a33e
000000b0: b79e 1a3f 8568 1fbf d768 45bf ca6c 6dbe
000000c0: 4a46 cfbe 09d2 003f a064 1ebf cc6f 29bf
000000d0: 7bdd 24bf abfe 5d3f 7263 f2bd 6d6e 823d
000000e0: be5f 1ebf bfa1 383f 79ef 2fbf 402a 11bf
000000f0: 3f0f 1e3e 4429 a3be 5634 fabe b670 873e
00000100: 188d fb3e 79df 273e 1cb7 8abd b3e0 373f
00000110: 614e 073f 58bf ecbe 60a4 25bf 8e11 853e
00000120: af2b 11bf 8777 073f c6d2 05bf 3bb5 323f
00000130: 4fa5 86be 106c e53e 58cc 1f3e 2938 37bf
00000140: bd7f 55be c896 433f 0c03 713e dea6 463f
00000150: abe7 043f 173c 3c3f 3002 c93e f035 003f
00000160: 3667 ca3e 529b a63d f2c3 853c 8ee9 eebe
00000170: 2b43 123f 5dc6 8cbe c9e8 f63e 41d8 3a3f
00000180: affa d03e d136 d1be c1ce e8bd d148 2e3f
00000190: 0f33 d9be 4d0a bb3e 19fe 983e b891 23bf
000001a0: 0144 d6bd 0d91 453f d67e 123f a989 c23e
000001b0: 9e0e 6e3e 6d6f fdbe 879c ffbe 3b08 813e
000001c0: 320f c7be 4c64 94be 53ec 923e d75b 8abe
000001d0: ce5b ea3d 45ab ff3e e0f0 ac3e a452 083f
000001e0: d95c 2f3f 6092 6f3e c211 2d3f 7be2 86be
000001f0: 99be 403f be2b 24bf b20b 15bf d7ec cd3a
00000200: f80b 6b3e 0cb5 1c3f e6bd 853c e357 f23e
00000210: fab7 4b3f 78b7 1abf 4ded e63e c085 153f
00000220: 1f24 33bf c7de f13d 0154 23bf 7176 193f
00000230: 2357 f7be a0f1 d73e ea82 f73e 0993 953d
00000240: ecf1 bb3e c089 043f 2caf 6c3e d195 20bf
00000250: 17e1 073f 09c2 fcbe fcd1 f73e 5b9a adbe
00000260: 085f 083f a528 0c3f 4ca0 c13d 4a05 dc3e
00000270: c155 eb3e 1acd a93e a545 4cbe 108a eabe
00000280: 44d2 88be 0274 f63e f53e 1a3f 0766 27bf
00000290: 75b2 0bbc 43c5 1abf a740 123f cc41 d3be
000002a0: 88c2 d6be 0bdd 11bf 9285 9bbe c03c 1bbf
000002b0: 6228 eebe 6a9b e5be cf73 83be 024c 6e3e
000002c0: 4f6b 9d3e f46b 05bf 0115 2f3f e139 453d
000002d0: 4bba f53e f5a6 39be 21ac fb3d 7c00 4e3e
000002e0: 99a4 7a3e 7514 1fbc cff8 083f b7a2 0c3f
000002f0: 0e6b debe 91f2 7d3e bf8b 523d f2c7 2b3f
00000300: d2b6 05bf 7751 8c3e 2767 5fbe 2b6f 05be
00000310: 50bb 1a3f 80df 21be 6f80 a6be 78e5 2b3f
00000320: 7302 96be 58db e63e 05db c93d 2faa 71be
00000330: ee9b 98be 2fb2 2dbf 7190 f5bd d184 073f
00000340: 5402 14bf 1631 99bc 30d0 393f 9deb 93be
00000350: a156 51bf 6bee f3be e62c 6a3e f333 03bf
00000360: da23 1bbf 792d 61be da00 25bf 53b3 3ebd
00000370: 0378 b1be 9597 ac3e 1e3a 293e 142d bebc
00000380: 720a 28be 8bc5 53be 738f b5be 7b34 943e
00000390: 8be1 1fbf 4426 06bf b305 0dbe afb7 8cbe
000003a0: c681 2dbe 8734 49be f5b4 44be 2edb 34bf
000003b0: 4155 a83e 8262 84be 088c 113f fcf9 a63e
000003c0: a853 b43b 2909 0cbf d6c8 c5be ab34 eb3e
000003d0: c7a3 983e 7d27 3b3f 7d38 11bf dc1e 4f3d
000003e0: c268 fa3e e5c2 61be 59af e0be 87f1 a4bd
000003f0: 44f2 b13e a872 013f 746e 42be 4ec4 1ebf
-0.53091013 -0.19467996 -0.54611534 -0.7917889 0.63080597 -0.57753474 0.30363023 0.5324394
0.0852615 0.03185398 -0.015845813 0.1486236 0.49180126 0.32534122 -0.034049433 -0.31393468
0.020513086 0.31156105 -0.5489077 -0.5827475 0.68336594 0.35405672 -0.076382205 0.017725805
-0.7052972 0.56545335 -0.046550915 -0.6092806 0.020741614 -0.67320067 0.29712728 0.4851874
0.4919012 0.54347813 -0.69163513 0.6425567 -0.032269925 0.14702195 -0.3988778 -0.6484922
-0.34363115 -0.45701095 0.07160499 0.31882188 0.6039843 -0.6226886 -0.771131 -0.23186031
-0.40483314 0.5032049 -0.6187229 -0.66186213 -0.6440045 0.8671672 -0.11835374 0.06368718
-0.6186484 0.72121805 -0.6872478 -0.56705093 0.15435503 -0.3186742 -0.48868054 0.2645318
0.49131083 0.16393842 -0.067732066 0.7182724 0.5285397 -0.46239734 -0.6470394 0.25989956
-0.5670728 0.5291676 -0.5227474 0.69807786 -0.26297995 0.44809008 0.15605295 -0.7157007
-0.2084951 0.7640195 0.23536319 0.7759837 0.51916 0.7352919 0.3925948 0.500823
0.3953187 0.08135094 0.016328786 -0.46662563 0.5713374 -0.2749509 0.48224476 0.7298623
0.40816256 -0.40862134 -0.1136756 0.6807986 -0.42421767 0.36531296 0.2988136 -0.63894224
-0.104621895 0.77174455 0.57224786 0.3799565 0.23247764 -0.49499074 -0.49924108 0.25201592
-0.3887878 -0.2898277 0.28695926 -0.27023193 0.114432916 0.49935356 0.33777523 0.532511
0.6850105 0.23395681 0.6760522 -0.26344666 0.7529083 -0.64129245 -0.5822097 0.0015710843
0.22953784 0.61213756 0.016325902 0.47332677 0.795776 -0.604362 0.4510292 0.5840721
-0.6997699 0.118100695 -0.63800055 0.5994635 -0.48308668 0.42176533 0.48342067 0.07303435
0.3670801 0.5177269 0.23113698 -0.627286 0.53077835 -0.49366787 0.48402393 -0.33906826
0.53270006 0.5474952 0.09454402 0.42972785 0.45963863 0.33164293 -0.19948442 -0.45808458
-0.2672292 0.48135382 0.60252315 -0.65390056 -0.008526434 -0.6045725 0.571299 -0.41261137
-0.4194529 -0.5697791 -0.30375344 -0.6063957 -0.46515185 -0.44845134 -0.25674292 0.23271182
0.30745932 -0.5211785 0.68391424 0.0481509 0.47993693 -0.18130095 0.1228869 0.20117372
0.24476852 -0.009709467 0.5350465 0.54935783 -0.4344105 0.24799563 0.051402804 0.6710197
-0.52232087 0.27405903 -0.21816693 -0.13030688 0.60442066 -0.15807915 -0.32519862 0.67147017
-0.29298744 0.4508922 0.09856228 -0.23600076 -0.29806465 -0.6785001 -0.11990441 0.52937037
-0.5781605 -0.018700164 0.72583294 -0.28890696 -0.8177281 -0.47642836 0.2286869 -0.51251143
-0.6060158 -0.21990003 -0.64454424 -0.046557736 -0.34661874 0.33709398 0.16526076 -0.023214854
-0.16410235 -0.20680825 -0.35461006 0.2894629 -0.62453526 -0.5240214 -0.13771705 -0.2748389
-0.16944036 -0.19648944 -0.19209655 -0.7064694 0.32877544 -0.25856405 0.56854296 0.32612598
0.0055031367 -0.5470148 -0.38629788 0.4593862 0.29812452 0.7310713 -0.5672682 0.05056654
0.4890805 -0.22047003 -0.4388378 -0.0805388 0.34755147 0.50565577 -0.18987447 -0.6201829

mlp.0.bias f4 [64]
00000000: 7c9c 4a3f 882d 1e40 6cbd 3b3f 98b0 26bf
00000010: b225 c2be 66cb cc3f e871 d1be 3892 0dbf
00000020: dc7a 093f 5723 02bf cdd0 193e 019b 583f
00000030: b787 e2be dcf8 103f b6e5 3c3f 4236 8d3e
00000040: 8526 10bf 8e6e 4f3f 1140 923e 7859 d5be
00000050: 1b7b 813e 1a04 553f d62c e03e 99d3 223f
00000060: 70b9 493e 4950 06bf e085 0fbf cd3e 893f
00000070: da9d 553f 011d 243f 5e4c 29bf d959 933f
00000080: c317 493f 151a 4d3f 91af 0bbf 9a90 0b3e
00000090: 212c efbe b96c 0f3f 6950 2240 50b3 403d
000000a0: ae4c fa3e f2c3 ae3f b760 293c 642a 84be
000000b0: 84fc 1c3f f947 7e3f 9308 3bbc 4f42 95be
000000c0: 6033 e2bd 2223 91be 754a e2be bb54 dabe
000000d0: aea3 4d3f ce00 b3be ef3c 7cbd c821 08bf
000000e0: 9234 19bd bb8a d13e 1d11 debc d95c 603f
000000f0: d37b 083d 7e0f d1be c2d0 e7be d397 443f
0.79145026 2.471529 0.7333591 -0.6511321 -0.37919384 1.5999572 -0.40907216 -0.5530124
0.53703094 -0.50835174 0.15021057 0.8461152 -0.44244167 0.5662973 0.7378801 0.27580458
-0.56308776 0.8102807 0.28564504 -0.41669822 0.25289235 0.83209383 0.43784207 0.6360412
0.19699645 -0.52466255 -0.5606365 1.072229 0.8344399 0.64106756 -0.6613215 1.1511794
0.7855188 0.80117923 -0.5456477 0.1362938 -0.46713355 0.5602527 2.5361578 0.047046006
0.48886627 1.3653548 0.010338 -0.2581359 0.6132281 0.9932857 -0.0114156185 -0.29152152
-0.11044955 -0.28347117 -0.4419743 -0.4264277 0.8032788 -0.3496155 -0.06158155 -0.53176546
-0.03740365 0.40926155 -0.02710777 0.87641674 0.033321213 -0.40832132 -0.45276457 0.76794165

mlp.2.weight f4 [1, 64]
00000000: 0882 6fbf 8511 24c0 cd6b 83bf 75db 0cbf
00000010: f4ad 19bf 8c07 e63f fb43 adbe 94a7 d0be
00000020: 7fa7 61bf 16c4 02bf 7800 45bf 4b20 79bf
00000030: b646 e9be 8c12 5ebf 4369 6cbf 773d 45bf
00000040: d998 0bbf c87f 77bf 03b9 40bf 01db 16bf
00000050: c6df 3abf c4dd 78bf f7e0 4ebf f269 64bf
00000060: ba97 36bf d745 02bf cc36 0dbf c9f8 94bf
00000070: 8b67 77bf 76ac 68bf e114 e1be bc07 a1bf
00000080: 5872 84bf 5fa3 78bf 93a1 10bf 740e 45bf
00000090: 622d 15bf e2aa d63e 1fa3 20c0 ed38 25bf
000000a0: 4386 8b3e 3817 cabf 753f 2fbf ba73 21bf
000000b0: bcef 61bf 853f a5bf af9f 26bf ecf6 62be
000000c0: 63ce 16bf 0403 10bf 8a2b 01bf c6d0 07bf
000000d0: d28a 76bf 9012 1bbf 54be 4abf 2c72 15bf
000000e0: ff06 2bbf 6f47 43bf b25b 49bf 04ce 79bf
000000f0: eeed 2cbf 6a73 17bf d3c4 47be 45cf 77bf
-0.93557787 -2.5635693 -1.0267273 -0.55022365 -0.60031056 1.7971053 -0.33840927 -0.40752852
-0.88146204 -0.51080453 -0.7695384 -0.973149 -0.4556176 -0.8674705 -0.92348117 -0.7704691
-0.545301 -0.96679354 -0.75282305 -0.58927923 -0.729977 -0.9721339 -0.8081202 -0.8922416
-0.71325266 -0.5088782 -0.5516174 -1.1638423 -0.9664237 -0.90888155 -0.43961242 -1.2580485
-1.0347395 -0.97124285 -0.5649654 -0.7697518 -0.58272374 0.41927248 -2.5099561 -0.64539987
0.2725087 -1.5788336 -0.684562 -0.6306721 -0.8825643 -1.291001 -0.6508741 -0.22164506
-0.5890867 -0.562546 -0.5045706 -0.5305294 -0.96305573 -0.605752 -0.7919667 -0.5837734
-0.6680755 -0.76280874 -0.7865554 -0.9757998 -0.6755055 -0.5916048 -0.19508676 -0.96800643
