checkpoints/model_epoch_5.pth (torch, 217416 bytes, 7 tensors)

conv1.bias f4 [64]
00000000: f6c9 67bc 718d 383f 8664 cf3e 2f2f 1ac0
00000010: f077 70c0 448c acc0 41de 9cc0 c44c 2cbf
00000020: a164 31c0 d7a7 33c0 9ae4 4d3f 0a5a 8cbf
00000030: 1d07 383d 61a8 81c0 0d2c a9c0 b1df 553f
00000040: b84e 123e 32b9 8b3d dcec 5cc0 2f82 2d3f
00000050: 3d9d c5c0 a85f 8bc0 9bed d2c0 5551 4f3e
00000060: 0948 5fc0 05e9 273f be58 9fc0 828f fbbf
00000070: 4390 073f c811 e6c0 261d 69c0 cad8 5bc0
00000080: 8711 1dc1 0602 a7c0 44ad 6bc0 447e 4cc0
00000090: 57a9 d0bf 746f 7b3d 1cfb 78bf 1211 6fc0
000000a0: 01d8 8dc0 7677 78c0 99c3 9ac0 50d1 38c0
000000b0: 04d6 af3e af6b 163f 35e8 e6bf bf37 bac0
000000c0: 0fef ee3f 01f5 ed3e 88cf d4bc 250e 2abd
000000d0: e571 dac0 e20b b9c0 ea13 ea3f 6f4e e53c
000000e0: 75bd e0bf 4705 89be be6b 513f ea0f a2be
000000f0: dd2f 1cbf 4a8c 90c0 b5a1 f1c0 e5d8 3ac0
-0.014147272 0.7209082 0.4050638 -2.4091299 -3.7573204 -5.3921223 -4.9021306 -0.67304635
-2.771767 -2.8071191 0.80426943 -1.0964978 0.04492866 -4.051804 -5.2866273 0.8354445
0.14287841 0.068224326 -3.4519567 0.6777677 -6.175444 -4.355427 -6.5915046 0.2024587
-3.4887717 0.65589935 -4.979583 -1.965317 0.529545 -7.1896706 -3.642404 -3.4351068
-9.816779 -5.218997 -3.6824503 -3.1952066 -1.6301678 0.061385587 -0.9725816 -3.735417
-4.4326177 -3.8822913 -4.8363767 -2.8877754 0.34342968 0.5875806 -1.8039614 -5.819305
1.8666705 0.46475986 -0.025977865 -0.041517396 -6.826403 -5.7827005 1.8287327 0.027991502
-1.7557818 -0.2676184 0.81805027 -0.31652766 -0.61010534 -4.517125 -7.5509896 -2.9194882

conv1.lin.weight f4 [64, 384]
00000000: 5ca4 0240 9cf2 963f 1c26 f73f f942 173f
00000010: 305f 303f 2877 bcbf e72a 0b3f 0f76 3c3f
00000020: 21af 0dc0 9e78 723f 4309 333f 1e1c 47bf
00000030: d8fa 2ac0 df89 ee3f 71bc 3b3f 1b7c 173d
00000040: 9cee f43e 8c6d ea3e c9a7 ab3f 18f7 f9bf
00000050: 6859 89bf 78b5 0fbf 176e 963d ac31 df3f
00000060: d8f8 0640 2e37 e13f b2b0 bb3f 04d8 99bf
00000070: 21c8 c03f 7f38 4d3f d2fa ae3c 6c8a 4140
00000080: b567 46be f9fd 0440 9f58 6f40 4bbc 8c3d
00000090: 1d49 1abe bedf 25bf d679 06be 41c2 943f
000000a0: 1b15 1bc0 fefa 9bbf 2b08 22be bb92 2fc0
000000b0: 15c0 643d 7b87 efbc f8b2 973e 5ec7 3fc0
000000c0: 14af 9bbc a760 a4c0 8bb7 4fbe 5741 8c3f
000000d0: dba4 f93f 21cd 91bf 9b3e c73f cf20 f03d
000000e0: 8893 0d40 de8f 8fbe cc53 9abf 3397 a63f
000000f0: b057 cebf 97b2 f13c 5559 f2be 6a99 a6be
00000100: 3885 6c3f 281d 4fc0 ca8c ba3f 01dc 1340
00000110: 1131 ddbd 2335 0b3e 00db c33f 65f9 153f
00000120: 2964 14be 4e9c 5b3f 8d60 633e a9a4 16bf
00000130: 9286 2740 ecf0 22c0 5352 e33f 45b0 7ebf
00000140: f28e d43f 4626 d23f ef3c 22bf 124d 233f
00000150: 217a bc3f d573 96bf fe74 2d40 8c75 82c0
00000160: 0915 0940 c153 1c40 8ef8 b93e 6903 53bf
00000170: 3607 9abf 8e1d 21bd 6b67 6bbe 270a b8bb
00000180: 5d4a 37bf 07a8 973d 5c2f ba3f 3723 9dbf
00000190: 277f aa3f c1b6 26bf 098e 853e e62f 9ebf
000001a0: 5fd6 9abf 7da2 d63e bb63 693f c41f 5fbf
000001b0: 3825 25c0 949a e6bf b617 bd3f a113 3e3f
000001c0: 4da0 8e3f a167 66bf e615 6a3e 61fb 94be
000001d0: fbae c3bf 7337 d3bf 0080 98be 8955 b83f
000001e0: d7df cc3f f7ad f23f 3783 50bf fe93 91bf
000001f0: 9adb 3940 0151 fcbe d7da 09bf e470 933d
00000200: 330a c2bf 38c9 bd3f 89ae 6f3f c3d6 15c0
00000210: 76be 7bbf 97b4 173f 579e 673f 0a19 273e
00000220: 9472 a33e dd62 d1bf 2cf0 c63d cbe3 483f
00000230: a676 7d3f aaf2 5f3f 63a4 40bf a54b 0940
00000240: 5519 953e 78d0 a73e ba48 03c0 7674 843f
00000250: fde5 12be 54b8 3f3f 324f 623f 5ff2 143f
00000260: b04e 82bf 3602 c5bd 994e b13e 3f95 cd3f
00000270: 88ab debf 2327 23c0 0385 1dbf 8876 52c0
00000280: 84ab d4bf eb68 883e be66 b8be 6112 1b3f
00000290: 7ec1 633f be44 abbf 91a9 223f fe43 b03d
000002a0: 51cb a8be 76ee 1bc0 971c 26bf 535a 633f
000002b0: 6300 233e 1c1e 07bf 6120 113c 6824 713f
000002c0: 258f 4340 8b34 8f3f 7854 83bf c341 af3b
000002d0: 7af8 0740 f69a 803f c45c 4ec0 427e febf
000002e0: 6e4f fa3e 56df 473f c458 a4bf 520b d93f
000002f0: 6bd7 9b3f 512b 5c3f c70b 9d3f 4443 e83e
00000300: 5f81 18c0 c5bd 6f40 66bb f9bf 324d 9dbf
00000310: ceff d8bf c757 943f 3c5a 123f 3ac6 a6bf
00000320: 637c abbe b223 eebe fe1c 09bf abcf 843f
00000330: 6028 5d3e 05a2 37bf 9f4e 233e cc26 f0be
00000340: efca 2240 59e9 a1be d773 0640 5169 9e3f
00000350: 5222 9cbe c7db a83f 4c40 f6be 2dd3 f43f
00000360: 5b66 c7bf 7174 123e 4fea b53f bca2 0340
00000370: 38f3 b6bf 262a d7be 0e96 d93f c364 843d
00000380: 9a28 e3be 68bf a9bf 8b76 98bf ad25 0140
00000390: 0c1b 143f 5157 9bbe 1a40 e03f e794 d0be
000003a0: 2132 9a3f eb03 f23f 1ffb 8fbd 686f 3c40
000003b0: 81b9 1d40 6a99 313f d4d0 48bf ed2a bf3d
000003c0: bd5c 5e3f 3d9c 01bf 35bd 2cbc 79e2 57bf
000003d0: 122e 393f 1fd2 f4bf efae 8a3e 8deb 4e3f
000003e0: 88e0 863d 7921 663d e4c8 b83f a94d a43f
000003f0: f4c9 a83f 0f91 503f e9ab 32c0 3e32 ab3f
2.0412817 1.1792789 1.9308505 0.5908657 0.68895245 -1.4723864 0.5436234 0.73617643
-2.213814 0.947153 0.6993601 -0.7777728 -2.6715603 1.8635825 0.73334414 0.03698359
0.47838295 0.45786703 1.3410579 -1.9528532 -1.073041 -0.56136274 0.07345217 1.7437034
2.1089382 1.7594965 1.4663298 -1.2019048 1.5061074 0.8016433 0.021359835 3.0240736
-0.19375499 2.0780013 3.739784 0.068718515 -0.15066953 -0.6479453 -0.13132414 1.1621782
-2.4231632 -1.2185972 -0.15823428 -2.7433307 0.055847246 -0.029239407 0.2962873 -2.9965434
-0.019004382 -5.1367984 -0.2028486 1.095744 1.9503435 -1.1390725 1.5565981 0.11725008
2.2121296 -0.2803945 -1.2056823 1.3014892 -1.612051 0.029504104 -0.4733378 -0.3253892
0.92390776 -3.2361546 1.4574215 2.310303 -0.10800374 0.13594489 1.5301208 0.5858367
-0.14491333 0.8578538 0.222048 -0.58845 2.6175885 -2.5459547 1.7759498 -0.99487716
1.6606123 1.641793 -0.6337423 0.63789475 1.4724771 -1.1754099 2.7102656 -4.076849
2.141909 2.442612 0.36322445 -0.8242708 -1.2033451 -0.039334826 -0.2298867 -0.0056164446
-0.71597844 0.074050955 1.4545703 -1.2276372 1.3320054 -0.6512261 0.26084927 -1.2358367
-1.2096671 0.41920844 0.911678 -0.87157845 -2.5803967 -1.8015924 1.4772861 0.742487
1.114267 -0.90001875 0.22859916 -0.29098037 -1.5287775 -1.6501297 -0.29785156 1.4401103
1.600581 1.895934 -0.8145022 -1.1373289 2.9040284 -0.4928055 -0.5384955 0.071992666
-1.5159363 1.4827032 0.93625695 -2.341233 -0.98337495 0.59259933 0.9047598 0.16318145
0.31923354 -1.6358296 0.09713778 0.78472584 0.9900917 0.8747965 -0.75250834 2.145242
0.2912089 0.32776237 -2.0513139 1.0348041 -0.14345546 0.7489064 0.8840209 0.5818233
-1.0180264 -0.09619562 0.34630278 1.6061171 -1.7396097 -2.5492637 -0.61531085 -3.2884846
-1.6614842 0.26642546 -0.36015886 0.6057492 0.8896712 -1.3380353 0.6353999 0.086067185
-0.32967618 -2.4364295 -0.64887375 0.888097 0.15918116 -0.5278032 0.008857817 0.94196177
3.0556118 1.118791 -1.0260153 0.0053484156 2.1245408 1.004729 -3.224412 -1.9882281
0.48888725 0.7807516 -1.2839589 1.695658 1.2175115 0.86003596 1.2269219 0.4536382
-2.3828962 3.7459576 -1.9510314 -1.2289183 -1.6953065 1.1589288 0.57168937 -1.3029244
-0.33493337 -0.46511608 -0.53559864 1.0375875 0.21597433 -0.717316 0.1594796 -0.469046
2.543636 -0.31623343 2.1008203 1.237589 -0.30494934 1.3192071 -0.4809593 1.9126946
-1.5578111 0.14302231 1.421213 2.0568075 -1.4292974 -0.42024344 1.6998918 0.06464531
-0.44366914 -1.3261538 -1.1911176 2.0179245 0.5785377 -0.30340055 1.7519562 -0.40738603
1.2046548 1.8907446 -0.070303194 2.9442997 2.4644473 0.69374716 -0.78443646 0.09334359
0.8686026 -0.50629026 -0.010543157 -0.84329945 0.7233592 -1.9126624 0.2708659 0.8082817
0.06585795 0.056184266 1.4436307 1.28362 1.3186631 0.8147134 -2.7917426 1.3374708

conv2.bias f4 [32]
00000000: 202d 8abe 2d8f 6abf b71d af40 e2c2 19be
00000010: b305 ae3d 1e99 7d3e f0a1 0fbe 1064 c9be
00000020: 53b2 c8bd f89a ebbe 81df 09be e63a 653e
00000030: a7ae 133d 759e 9ec0 2d45 cdbd 675b b8c0
00000040: c003 3b40 abc5 d13d 8492 8abf 2abd 81bf
00000050: ff7f 1b3e af0d b7be 5554 94bd d9cb e2bd
00000060: e8d7 31be 9e03 8c3d 9afe 9dbc 2a48 45bf
00000070: ab31 6cbf e902 20be 7182 b03f f783 11bd
-0.26987553 -0.9162472 5.4723773 -0.15015748 0.08497181 0.24765441 -0.14026618 -0.39334154
-0.09799638 -0.4601667 -0.13464166 0.22385749 0.036055233 -4.956843 -0.1002296 -5.7611575
2.922104 0.1024278 -1.0825963 -1.0135853 0.15185545 -0.35752627 -0.072426476 -0.11074037
-0.17367518 0.068366274 -0.019286443 -0.7706324 -0.9226329 -0.1562611 1.3789808 -0.035526242

conv2.lin.weight f4 [32, 64]
00000000: 3bee 86bd b0d8 b0bd 7291 1dbe c16b ea3d
00000010: 7829 ccbd a736 60bf d09c 93be bead 4ebe
00000020: 27f8 9a3e 8311 7e3e 56dd 99bd 5743 003e
00000030: 1dbe 5c3d e425 3ec0 3666 5d3f 8b5e 9fbd
00000040: 8644 b03d 6f78 f5bd 613b cfbe 8878 463d
00000050: 3f08 4a40 bb0e 1dbe f98c af3e f965 5b3d
00000060: fe5f 433f 67e8 42bd 3c72 453e 15c6 1b3f
00000070: 8977 7bbc 5265 3fbf 87d8 1f3f f179 cfbc
00000080: bf61 6fbe ea43 9a3f fd72 dfbe 3529 2dbf
00000090: 08bb b63c 0950 523d 9348 0cbe 80fd b5bb
000000a0: 8829 26be 5768 bb3c 3bf8 0240 565d 75bf
000000b0: 1f7f 1b3e afa9 dd3c 6f56 9bbe 3b1b 4ebf
000000c0: 4dab 3e3e 70de e9bb 3420 46bd ae79 9fbd
000000d0: e107 943f 4456 663f ae99 903c 5871 8cbd
000000e0: 6fa8 93bd d2ea 8e3d e70c e33c 8170 143c
000000f0: b293 ae3d 97a9 f13f cdcd e7bf ad90 c73e
00000100: a351 71be 5aac 983f bb09 9b3d 3732 063f
00000110: 19b0 b43d b996 703f b88e ad3c 3801 ae3e
00000120: f661 46bf 5d11 5c3a d305 b23e 566a e33e
00000130: 12eb 293e c978 53be 507e 2a3f 700f 1ebf
00000140: c04f 873e 734d 39bf bc57 64be b4b2 cbbe
00000150: eac0 153f ef8c f9be 582d a83f 24fd 1abe
00000160: 1606 583f fa49 883e ff9a 273e 98c1 02bf
00000170: 0e44 5dbc 7be8 14bf 3eec 553e 6b83 1ebf
00000180: 3e3d d4be c4dd a73f 00f3 44bf 6c2b 353f
00000190: 9e81 033f be24 293f 2ad6 06be e7f3 5b3f
000001a0: e090 953f ff14 d4be e5af 0f3f 154b 523e
000001b0: daca 043e 0946 c93b 8df4 e63e 7cda 603f
000001c0: 5802 a33d 9da9 5c3d 9824 0bbd ed3e a93e
000001d0: f947 f93c 3ba4 8fbd 4f12 8dbe 2797 b1be
000001e0: 0b5b eebb b82a 7cbf 5d8b 0c3e bdaa 6b3f
000001f0: da22 db3e d835 aebd 50fa af3f e269 df3e
00000200: 914f 5abe c69d c9bd 605d 9abe 0fa4 00bf
00000210: 1cec 873d 0f5e d7bf 8e11 12bf 07e1 febd
00000220: d71f 9bbc 90e7 523f 0c57 17bf 5f13 44be
00000230: 4328 a5bc 8cdf c53e 8f6a 47bf 5814 edbe
00000240: ed38 f43d ee00 f3be 7705 b03f 50e1 e33e
00000250: 90bd a93f c21f bcbf 7fe1 63bf b9ec 17be
00000260: d27c b43f f0cd 58bb 129d 04c0 6e8d d3be
00000270: f978 4fbf 6877 9c3e 70e2 55bf 212a f7be
00000280: 6122 343f 9207 33bd 8dff 3f3f 23a2 72bf
00000290: 4f3f a3bf d3b0 96be 65d1 5ebe f10b 1f3e
000002a0: 70bb 3e3e 58fa 90bf 73a6 1f3f 8f05 24bd
000002b0: 3f67 25bf fc06 13bf 8c3d 7f3e 89b1 843f
000002c0: b7ea 0bbe 6b66 16bf f42a 30be 3b1a c6bf
000002d0: 1ff7 1d3e 8bc4 c2be e060 33be 15d9 9abe
000002e0: 6c10 b6be 2c86 13bf b560 893d 062e a3be
000002f0: f628 673b 4f96 8b3e 001d 32bf 168b ffbe
00000300: 1aab 94bd 55d6 9fbd 9b6c b6bd a8e6 643f
00000310: 44e8 c63f a616 c2bf 2a2e babe 81a6 80bc
00000320: f0d3 503e 4f4c 8d3d 57eb bd3b d78a 073c
00000330: c641 813c df2d 5bbf 784d ddbf 5cf2 afbd
00000340: 48b4 423d 7edf 82bd a404 36bf 8d55 dfbc
00000350: cdcb bebe 14a3 833e 57e3 2fbf 2da6 bbbb
00000360: fc5d f93e 9a40 9bbd 59d1 29be 1ab6 05be
00000370: f293 6ebd a4f4 88be eb91 08bf 603a 62bf
00000380: f857 0dbe 0abf e53e d6a7 783f b499 16bf
00000390: 7a0c a13d b51c 5ebd 21e8 fbbc 746f e1be
000003a0: 40d4 f8be 1e62 41bc 7042 16be 8d41 bcbf
000003b0: 5ce6 843d 92b9 5d3c d8d6 d5be c31d 81bf
000003c0: 013c 483e fc3d 8fbd dad6 bf3c 465c 85bd
000003d0: 284a 96bd adf0 b2bf 3438 21bc 8750 1f3d
000003e0: 28a6 38be 2d4d 0a3c 40df 1ab8 20fd 3d3d
000003f0: a393 963d 6ae0 e83e bf2e 0dbf 62d6 36be
-0.065884076 -0.0863508 -0.15387514 0.11446334 -0.09968847 -0.8758339 -0.28830576 -0.20183465
0.3026745 0.24811368 -0.075129196 0.12525688 0.053892244 -2.9710627 0.86484087 -0.077817045
0.0860682 -0.119858615 -0.4047499 0.04845479 3.1567533 -0.1533765 0.3428724 0.053564046
0.7631835 -0.047584917 0.19281858 0.60849124 -0.015348324 -0.7476398 0.6243977 -0.0253267
-0.23377131 1.2051976 -0.43642417 -0.67641 0.02230598 0.05134586 -0.1369956 -0.005553901
-0.1622678 0.022876902 2.0464008 -0.95845544 0.15185212 0.02705845 -0.3033938 -0.805103
0.18620034 -0.0071371123 -0.048370555 -0.077868804 1.1564904 0.8997538 0.017651405 -0.06857556
-0.072098605 0.06978382 0.027716113 0.009060026 0.085242644 1.887988 -1.810968 0.38977566
-0.23566298 1.1927598 0.07570215 0.5242037 0.088226505 0.93979985 0.021186218 0.33985305
-0.77493227 0.00083949213 0.3477007 0.44417065 0.16593578 -0.20651545 0.6659899 -0.61742306
0.26428032 -0.72383803 -0.22299093 -0.39784777 0.5849749 -0.48740336 1.3138838 -0.15135628
0.84384286 0.2661894 0.1636772 -0.5107665 -0.013504995 -0.5816724 0.208909 -0.6191928
-0.41452974 1.3114552 -0.7693329 0.7076938 0.51369655 0.6607169 -0.13167635 0.8591904
1.1684837 -0.4142227 0.5612777 0.20536454 0.12968007 0.006142382 0.45108452 0.8783338
0.079594314 0.053872693 -0.033970445 0.3305582 0.030429827 -0.07013746 -0.2755303 -0.34685633
-0.0072740368 -0.98502684 0.13725038 0.920574 0.42800027 -0.08506364 1.3748264 0.4363547
-0.21319415 -0.09844546 -0.30149364 -0.50250334 0.06636831 -1.682558 -0.57058036 -0.12445264
-0.01893608 0.82384586 -0.591172 -0.19148014 -0.0201608 0.38647115 -0.7789697 -0.46304584
0.1192492 -0.47461647 1.3751668 0.44507837 1.3260975 -1.4697192 -0.89015955 -0.14836396
1.4100592 -0.0033081733 -2.0720868 -0.4131884 -0.81043965 0.3055985 -0.8354864 -0.4827433
0.7036496 -0.04370839 0.74999315 -0.9477865 -1.2753695 -0.2943178 -0.21759565 0.15531899
0.18626189 -1.1326399 0.62363356 -0.040044364 -0.64610666 -0.5743253 0.24925822 1.036668
-0.13663755 -0.5875003 -0.17203885 -1.5476755 0.154263 -0.38040575 -0.17517424 -0.30243745
-0.35559404 -0.57626605 0.067078985 -0.3187105 0.0035272217 0.27263114 -0.695755 -0.49910802
-0.072591975 -0.078045525 -0.089074336 0.89414454 1.5539632 -1.5163162 -0.36363345 -0.015704395
0.20393348 0.0689932 0.005795877 0.008272848 0.015778434 -0.8561687 -1.7289267 -0.08591148
0.04753521 -0.06390284 -0.7110083 -0.027262473 -0.37264863 0.25710356 -0.6870627 -0.005726597
0.48704517 -0.07580681 -0.16583766 -0.13057747 -0.05824656 -0.26749146 -0.53347653 -0.88370323
-0.13803089 0.44872314 0.971311 -0.5882828 0.07863708 -0.054226596 -0.030750336 -0.44030344
-0.48599434 -0.011803178 -0.14673781 -1.4707505 0.0648925 0.013533013 -0.41765475 -1.0087208
0.1955414 -0.069942445 0.023417879 -0.065117404 -0.07338363 -1.3979698 -0.00984006 0.038895156
-0.18032134 0.008441252 -3.692438e-05 0.046383977 0.07352378 0.45483714 -0.55149454 -0.17855218

link_predictor.0.weight f4 [64, 416]
00000000: 0683 2b3e f0b4 863f fb2a 1ebe 6724 a13d
00000010: a7af 403d ab61 e73d 6bcd 0d3e e99a ac3d
00000020: e3b1 d13c 6c40 0f3e 0b1a 64bf 9b89 a0be
00000030: 7fdf e6be d628 52be 7a92 a4bd 0e5f 0dbf
00000040: 844f da3d b292 eabe 16f7 3cbe 843c 92bd
00000050: 805f 943d 328b e1be 7210 05be f383 033e
00000060: 5c5c 1b3e 48e4 34be a0fb b7ba ce93 4a3e
00000070: d4fd 1bbe 51da 0c3e 1361 a63e a76b f73d
00000080: 3ae0 dfc0 fd67 69bf 1a27 c140 a390 bfc0
00000090: 8cef b340 b640 32c1 3139 0fc0 95ce c5c0
000000a0: 92a3 9a40 46c9 b240 69fd be40 800b a03e
000000b0: 4314 8440 5ff5 c3bf 2234 bf40 8b91 c140
000000c0: 10b1 bcbf e962 82c0 c6f5 9a40 c263 bcbe
000000d0: 9210 0bc1 5644 3640 1cae 803e 78ad a0c0
000000e0: f96d ca3f 218f 433f c34f eebf d10c 08c0
000000f0: 0039 863e 8333 b63f a056 48c1 96b4 03c1
00000100: 901a 5e40 1dc2 8041 0113 44c1 c432 22c1
00000110: 5c3f 8d3f 05b9 bdbf 2c4f a840 60a1 0dc1
00000120: 5a89 313f 6c0b d8be 893a 4040 97ac a3c0
00000130: 9347 e1c0 e98e 5441 58a2 263f b9c6 3b41
00000140: 8137 7e41 4d83 4740 e4a6 9140 46eb bb3f
00000150: 5644 b33f 54da 4a41 2ff3 65c0 0005 1641
00000160: 42ef c3c0 77a6 f640 81ad 523f 9bec a3c0
00000170: 3ef8 a840 5b77 7ec0 7b1d 5240 54b9 c340
00000180: bc4d 0ec1 ee5a 22c0 afee f140 e344 2bc1
00000190: 945c 94c0 c5c2 72c0 aff8 c440 ed9e 8940
000001a0: 182a 0641 3ca8 80c0 fa69 b2c0 7432 41bf
000001b0: 4b4d ce40 186b aa3e 6e9e 06c1 f476 b440
000001c0: 3956 ee40 c93b 9240 960b 8b41 dfa8 6c3e
000001d0: e25b ca40 2743 f040 fa39 2a40 7f71 0d41
000001e0: 51b5 7f40 ee79 f440 252b 2e40 b234 cf40
000001f0: e4f3 553f 84ef 2c3e c029 bd3f e17d a0c0
00000200: cbe5 50c0 a323 93be e56a 8c3f 64f6 e2c0
00000210: 3d59 00c1 6a5e 1fc0 cc91 15bf 8237 ba40
00000220: c5c3 b8be cd14 e5c0 1f16 cc40 72dc 7e40
00000230: 6633 43bf da3e ba40 7021 e83e 2a9d 19be
00000240: e324 563f 92f8 07c1 a339 84c0 413f d0c0
00000250: 8ed7 82c0 9eda a2c0 b550 93bd 4d6d e840
00000260: ed5a ccc0 8ea8 5b40 e433 11c0 f27f 4040
00000270: 8bac 2ec1 d1d9 14c1 b87e c4c0 7a57 afbc
00000280: f6c1 c340 f044 7141 c725 e0bf baa1 4bc1
00000290: 160f 0c41 bb42 27c1 e396 96c0 4cc7 9440
000002a0: 57d4 08c1 4f75 e9bf 45c6 a4c0 8551 3abf
000002b0: f639 92bf c97e 88be 2cb0 a9c0 293f c640
000002c0: e600 1a41 9a62 19c1 9c96 9dc0 710a ad40
000002d0: 8e45 29c1 ebe9 c040 92c2 a7bf 6286 2bc0
000002e0: 55d9 a740 8cae 0ec1 74b8 5f3f 59f3 3241
000002f0: 9ebb 78bf 283c 8d40 94f1 86c0 3ba9 5f41
00000300: 53c4 b840 4d76 ba40 1a5e 4f3e 0446 93c1
00000310: e6e1 60c0 d787 d9c0 557e 8e3f 8880 3241
00000320: 2237 ab40 dc0f 4dc0 98e1 1ec1 0c17 4bbf
00000330: e673 a1c0 a035 0d3e 76d0 e7bf 7f25 9240
00000340: 2d76 a2c0 11c8 80c1 8c64 f640 75c2 8840
00000350: a8b4 0c41 2307 e0c0 4136 26c0 6822 50c1
00000360: 0242 293f 2dd0 0241 3543 91c0 526b 98c0
00000370: fb0e f040 d3b2 b7be 8dd8 d340 4aac 7c40
00000380: 4850 d740 8138 59c1 7d7e 0141 273f 7a3f
00000390: 7d1c 32c1 6546 37bf 183d ca3f 0309 0441
000003a0: c4a9 dec0 505b 9440 17d6 e6c0 2f74 0441
000003b0: 8a26 a23f 05e3 48c0 a53a 08c0 df0b 66c0
000003c0: 59c0 b4bf ac34 3140 419c 07be 327c 8040
000003d0: 0fe2 2bc1 5144 ed40 460e 29c1 826d b540
000003e0: 7caf 1740 9cb4 b0c0 dfaa b13f fca8 e8c0
000003f0: 4746 10c0 4333 0f3f 14ca f1bf 1301 c7bc
0.167492 1.0523968 -0.15446083 0.07868271 0.047042515 0.112979256 0.13847892 0.08427984
0.025597518 0.13989419 -0.8910224 -0.31354985 -0.4509239 -0.2052339 -0.08035751 -0.55223167
0.10659698 -0.45815045 -0.18453631 -0.07140449 0.07244778 -0.4405151 -0.12994555 0.12843303
0.15171951 -0.17665207 -0.0014036782 0.19782946 -0.15233546 0.13755156 0.32495937 0.1208108
-6.9961214 -0.911743 6.036023 -5.986406 5.6229916 -11.140799 -2.2378657 -6.1814675
4.832467 5.5870695 5.968434 0.31258774 4.1274734 -1.5309256 5.975114 6.0490165
-1.4741535 -4.074574 4.8425016 -0.3679486 -8.6915455 2.847921 0.25132835 -5.0211754
1.5814811 0.7639027 -1.8618091 -2.1257823 0.26215363 1.423447 -12.521149 -8.231588
3.4703712 16.094782 -12.25464 -10.137394 1.1034961 -1.4822088 5.2596645 -8.851898
0.69350207 -0.42196214 3.0035727 -5.114818 -7.039987 13.28489 0.65091467 11.736016
15.888551 3.117389 4.5516224 1.4681175 1.400523 12.678303 -3.5929677 9.376221
-6.1229563 7.7078204 0.82295996 -5.1226325 5.280303 -3.9760349 3.2830493 6.116373
-8.893978 -2.5368 7.560386 -10.704318 -4.636301 -3.7931378 6.155357 4.30065
8.385277 -4.0205364 -5.5754366 -0.7546761 6.446935 0.3328483 -8.413679 5.6395206
7.448025 4.569798 17.380657 0.23111294 6.323716 7.5081973 2.6597886 8.840209
3.9954417 7.639884 2.7213833 6.4751825 0.8357527 0.16888243 1.4778366 -5.015366
-3.2640254 -0.28738126 1.0970122 -7.092577 -8.021787 -2.4901376 -0.58425593 5.819276
-0.3608686 -7.158789 6.3777003 3.982205 -0.762503 5.8201723 0.4533801 -0.1500136
0.83650035 -8.498186 -4.1320357 -6.5077214 -4.088813 -5.0891867 -0.07193128 7.2633424
-6.3860993 3.4321628 -2.2687922 3.0078092 -10.917125 -9.303178 -6.1404686 -0.021404017
6.117427 15.07933 -1.7511529 -12.726984 8.753683 -10.453792 -4.705919 4.649328
-8.551841 -1.8238925 -5.149203 -0.7278064 -1.1423938 -0.2665923 -5.3027554 6.19521
9.625219 -9.586573 -4.924635 5.4075246 -10.579481 6.0285544 -1.3106253 -2.680077
5.24528 -8.917614 0.8739083 11.184411 -0.9716128 4.4135933 -4.2169895 13.978816
5.7739654 5.826941 0.2025074 -18.409187 -3.5137877 -6.797832 1.1132303 11.15638
5.35048 -3.204093 -9.930077 -0.7933204 -5.0453978 0.13789988 -1.8110492 4.567077
-5.0769258 -16.097689 7.699774 4.2737374 8.794106 -7.000871 -2.5970614 -13.0084
0.66116345 8.175824 -4.539454 -4.7631006 7.5018287 -0.3587862 6.6201844 3.9480157
6.72855 -13.576295 8.093381 0.9775261 -11.131955 -0.7159179 1.5799894 8.2522
-6.9582233 4.6361465 -7.213634 8.278365 1.2668011 -3.1388562 -2.1285794 -3.5944746
-1.41212 2.7688398 -0.132432 4.0151606 -10.74269 7.4145894 -10.565985 5.6696177
2.3700857 -5.522047 1.3880271 -7.270628 -2.2542894 0.55937594 -1.8889794 -0.024292504

link_predictor.0.bias f4 [64]
00000000: 0cf3 1cc1 8507 c1c0 39f6 ffc0 59e2 e3c0
00000010: c7d6 00c1 953c 19c1 9944 38c1 b162 13c1
00000020: a956 46c1 e2fd 11c1 5589 cec0 baca f53c
00000030: d222 38c1 e696 0fc1 c935 66c0 5d46 a6c0
00000040: 6584 f4c0 c2c9 6ac1 d2f5 52c1 3c9f 59c0
00000050: 0168 18c1 3a66 e2c0 241a 22c1 f2fc 1dc1
00000060: 364e 08c1 f26c 1cc1 4a10 27c1 d57d 2ac1
00000070: 7e22 a2c0 0ebe 00c1 9c87 63c1 f752 42c1
00000080: be2f d8c0 0852 9bc0 226e 03c1 f0eb cdc0
00000090: 89aa a2c0 eebf 39c0 a9b2 30c1 55bb 24c1
000000a0: b84c bac0 fc52 1cc1 cf51 efc0 b942 e1bd
000000b0: d670 29c0 1216 c6c0 0561 0fc1 5270 21c1
000000c0: f404 00c1 558c 2840 e232 04c1 d58d 0ac1
000000d0: 9d59 89c0 0f6c 05c1 c833 33c0 3bd0 2bc1
000000e0: b685 01c1 d3d6 f9bf d451 e3c0 8205 11c1
000000f0: 68df 28c1 3063 30c1 3085 f8c0 6871 25c1
-9.809338 -6.032168 -7.9988065 -7.1213803 -8.052436 -9.577291 -11.516747 -9.211595
-12.396157 -9.124483 -6.454264 0.030003894 -11.508501 -8.97434 -3.5970328 -5.1960893
-7.6411614 -14.674257 -13.185015 -3.400344 -9.525392 -7.074979 -10.131382 -9.874254
-8.519094 -9.776598 -10.441477 -10.655721 -5.0667105 -8.0464 -14.220608 -12.145255
-6.755828 -4.8537636 -8.214388 -6.435051 -5.0833173 -2.9023395 -11.043618 -10.295735
-5.821865 -9.77026 -7.4787364 -0.109990545 -2.647512 -6.190194 -8.961186 -10.089922
-8.001209 2.6335652 -8.262423 -8.659627 -4.292189 -8.3388815 -2.8000355 -10.7383375
-8.095144 -1.9518684 -7.103739 -9.063845 -10.554543 -11.024216 -7.7662582 -10.340187

link_predictor.2.weight f4 [1, 64]
00000000: 2252 ce3d 7fa3 82bd 0303 0abe f4f0 1bbe
00000010: 6713 26be e633 de3d aa1f ee3d e183 ac3d
00000020: 929a 353d e981 04be f23a dcbd 07de 74bd
00000030: 36d6 c93d 099d b43d be0e 01be a363 f3bd
00000040: 8881 b73d a5e6 7dbe 2b5f c0bd aa90 18be
00000050: 887c a73d 87b6 a03d a60f d3bd 840f 0dbe
00000060: 28a1 d2bd ab31 aabd 335a 553d cfa5 edbd
00000070: 2bca 0a3e 5ba0 17be db18 1cbe b680 b93d
00000080: b622 d73d 6f4b c3bd cb9f 9f3d 25b4 17be
00000090: f835 b3bd aec6 cdbd 1b36 953d 4a78 f2bd
000000a0: eb32 a1bd 12c2 e9bd f600 95bd 1f71 f2bd
000000b0: a8fa c8bd 50b3 cfbd 1c62 cd3d 2637 693d
000000c0: 3e5d febd 1e26 893d 2aaf f73d f597 bb3d
000000d0: aa00 f43d 1d7e eb3d b297 823d 904c 26be
000000e0: 18fa d4bd 60a9 bbbd a3e1 efbd 81e2 893d
000000f0: 2ce8 52bd 661c d13d eb04 c33d 32dc ce3d
0.10074259 -0.06378841 -0.13477711 -0.15228635 -0.16218339 0.108497426 0.11627133 0.084235914
0.044336863 -0.12940182 -0.107534304 -0.059782054 0.098553106 0.088190146 -0.1260328 -0.118842386
0.08960253 -0.24795015 -0.09393152 -0.14898935 0.08178049 0.07847314 -0.10305719 -0.1377545
-0.10284644 -0.08310255 0.052087974 -0.11603891 0.13553683 -0.14807265 -0.15243857 0.09057753
0.105046675 -0.09535872 0.0779415 -0.14814813 -0.08750528 -0.10047661 0.072857104 -0.118393496
-0.0787104 -0.11413969 -0.07275574 -0.118379824 -0.09813434 -0.10141623 0.100284785 0.05693736
-0.12420128 0.066967234 0.12093957 0.09159843 0.11914189 0.114986636 0.0637659 -0.16240144
-0.10399264 -0.09163165 -0.11712959 0.06732655 -0.051490948 0.10210495 0.095224224 0.10100593
