checkpoints/model_epoch_14.pth (torch, 217428 bytes, 7 tensors)

conv1.bias f4 [64]
0.16290241 0.7886206 0.9438262 -2.4091299 -3.7573204 -5.3921223 -4.9021306 -0.67304635
-2.771767 -2.8071191 0.297226 -1.3723929 0.31959674 -9.413465 -9.930721 1.2144687
-0.027746178 0.07659173 -9.613239 0.6094132 -10.463424 -4.4542794 -9.006433 0.55215836
-4.497808 0.8740535 -7.2952557 -1.965317 0.6681223 -7.1896706 -3.642404 -3.4351068
-12.305757 -5.218997 -3.6824503 -3.1952066 -2.585254 0.1188001 -1.7229589 -3.735417
-4.4326177 -6.2325277 -9.626468 -2.8877754 0.7816914 0.60665697 -1.8039614 -5.251525
2.2497056 0.5996791 0.042023685 0.1682347 -12.938699 -9.651982 2.3152492 0.24058749
-2.5978086 -0.014929336 0.96139276 -0.15999246 -1.4310122 -10.227355 -7.5509896 -4.9904184
00000000: e4cf 263e 0ae3 493f 989e 713f 2f2f 1ac0
00000010: f077 70c0 448c acc0 41de 9cc0 c44c 2cbf
00000020: a164 31c0 d7a7 33c0 022e 983e 92aa afbf
00000030: 2fa2 a33e 8d9d 16c1 3ce4 1ec1 b673 9b3f
00000040: f44b e3bc 20dc 9c3d d4cf 19c1 8102 1c3f
00000050: 2f6a 27c1 7589 8ec0 591a 10c1 405a 0d3f
00000060: 0bee 8fc0 f8c1 5f3f bc72 e9c0 828f fbbf
00000070: 100a 2b3f c811 e6c0 261d 69c0 cad8 5bc0
00000080: 61e4 44c1 0602 a7c0 44ad 6bc0 447e 4cc0
00000090: cd74 25c0 784d f33d eb89 dcbf 1211 6fc0
000000a0: 01d8 8dc0 de70 c7c0 0306 1ac1 50d1 38c0
000000b0: ed1c 483f df4d 1b3f 35e8 e6bf 7e0c a8c0
000000c0: 2dfb 0f40 9284 193f 0721 2c3d b845 2c3e
000000d0: e904 4fc1 856e 1ac1 0b2d 1440 915c 763e
000000e0: 7f42 26c0 2c9a 74bc d61d 763f 10d5 23be
000000f0: 682b b7bf 3fa3 23c1 b5a1 f1c0 82b1 9fc0

conv1.lin.weight f4 [64, 384]
1.8619387 1.8643585 1.442036 0.1664379 1.0798472 -0.8529401 -0.17445004 -0.6321506
-1.6831552 1.4578223 0.82440245 -1.227409 -2.8354642 2.311553 0.39702538 0.93179625
0.20057145 1.0352466 1.3396121 -2.3480732 -0.12240392 -0.5280253 0.46874982 2.0667424
3.7724495 0.8942866 1.4997725 -0.33408907 2.3012173 1.6670625 0.5498024 3.1809068
-0.8130887 1.6374247 4.8757515 0.82359266 -0.678501 -0.7345096 -0.23349455 1.0202883
-3.5614874 -0.3624024 -0.27371082 -1.6858753 0.14936966 -0.02864121 0.4955858 -4.006434
1.2544123 -5.0637608 0.7987152 1.1614137 1.9289544 -1.48252 3.3580675 0.90867656
2.225935 0.22874098 -1.2889098 1.463365 -1.7536384 0.34142667 -0.30669037 0.0683936
0.1723857 -4.1894875 1.5822937 2.609894 0.053181436 1.2321715 2.5908613 0.64198405
0.8555354 -0.55464125 1.2001863 -0.7595464 2.2999587 -3.0559175 2.4888194 -0.8919026
2.0690172 1.905562 -1.0964192 0.7199644 1.6310426 -0.8258196 2.5186093 -3.6115482
3.2630525 2.0688481 -0.34968743 -0.30957156 -1.3069854 -0.98283774 0.13103141 1.4394389
-1.0076694 0.714147 1.121506 -1.3817894 1.6898831 0.15188451 0.43466398 -1.1972917
-2.5063941 -0.6558726 0.8940001 -1.5292869 -1.700135 -2.7419581 1.6778357 1.3845005
0.7535539 -1.6156882 0.4824062 1.2468491 -1.4375792 -3.060325 0.430916 1.177932
2.1989887 2.2873487 -1.4490741 -1.4819416 3.646442 0.16997512 -0.4932489 0.071992666
-1.9596837 1.2282214 2.4680147 -1.4807601 -0.5128445 0.421929 1.3092655 0.8613511
1.3784738 -1.2227793 0.2522178 0.6282945 1.4573663 1.6306853 -1.2596759 3.1668637
0.95695454 0.7257292 -2.006324 0.96946657 -0.10667253 1.4270526 -0.36460152 0.23052666
-0.56280077 0.16354905 -0.43006 1.0144473 -1.4256017 -4.5099015 -1.2521093 -2.9900987
-0.57208925 0.23070656 -0.6806809 0.38636702 1.986831 -1.4946762 1.1010401 -0.058671787
-0.39394757 -3.5754902 -0.07379491 2.1575046 0.79527694 0.089769274 -0.6212804 0.8130283
2.5733044 1.1675751 -0.0024784657 0.5124844 1.670979 0.04349817 -3.0728378 -1.7572726
1.1482102 0.16252045 -1.5483949 1.9907793 1.5314146 0.68687445 1.8523589 0.5725766
-2.6801882 2.5948057 -0.93904185 -0.9210774 -1.3523561 0.43796048 0.92876565 -0.9999585
-1.6113609 1.259779 -1.0024406 0.5733827 -0.23147666 -0.9761216 1.1102028 1.0286487
2.6617954 -0.14928594 3.6829135 1.4341326 0.060154818 1.7994792 0.22212031 2.5013723
-2.1801696 0.84671116 2.4682696 2.8822892 -1.7336354 -0.91827786 1.7181557 0.06464531
-0.983542 -0.51747817 -1.1973768 2.5044427 0.7508616 -0.14594613 1.7183893 -0.009070886
1.7003711 2.4096355 -0.76202744 2.3932307 2.4326081 1.5077406 -0.39467272 0.46959725
1.3862449 -1.3766366 1.3663373 -1.1187876 0.32903516 -1.3967078 0.059804294 1.3673737
-0.14303473 0.9725582 0.7036293 1.8810208 0.91200846 0.08538249 -2.344991 1.373872
00000000: 0254 ee3f 4da3 ee3f a394 b83f b26e 2a3e
00000010: 6f38 8a3f 485a 5abf 08a3 32be 9fd4 21bf
00000020: a171 d7bf ec99 ba3f 0a0c 533f bd1b 9dbf
00000030: 3f78 35c0 7cf0 1340 e946 cb3e 338a 6e3f
00000040: 9a62 4d3e f682 843f 6978 ab3f d546 16c0
00000050: e8ae fabd ab2c 07bf faff ef3e 8245 0440
00000060: d06f 7140 f7ef 643f 8cf8 bf3f b90d abbe
00000070: 2547 1340 4e62 d53f dabf 0c3f fa93 4b40
00000080: 9526 50bf 2297 d13f 2806 9c40 f8d6 523f
00000090: 3eb2 2dbf d208 3cbf 3219 6fbe cf98 823f
000000a0: 69ef 63c0 cf8c b9be d323 8cbe c3ca d7bf
000000b0: 5cf4 183e f9a0 eabc 6cbd fd3e b534 80c0
000000c0: 9590 a03f 540a a2c0 9978 4c3f 34a9 943f
000000d0: fae7 f63f 37c3 bdbf 94ea 5640 079f 683f
000000e0: b875 0e40 133b 6a3e fffa a4bf 8b4f bb3f
000000f0: 3977 e0bf 7acf ae3e 8506 9dbe f211 8c3d
00000100: e085 303e 4810 86c0 9a88 ca3f 8108 2740
00000110: c7d4 593d ccb7 9d3f acd0 2540 1159 243f
00000120: 5e04 5b3f f8fc 0dbf b49f 993f a271 42bf
00000130: 8632 1340 2794 43c0 d148 1f40 bb53 64bf
00000140: c76a 0440 75e9 f33f 7757 8cbf 964f 383f
00000150: 01c6 d03f ea68 53bf e530 2140 9b23 67c0
00000160: dad5 5040 0268 0440 3b0a b3be 2a80 9ebe
00000170: 4c4b a7bf 419b 7bbf 192d 063e 893f b83f
00000180: 50fb 80bf 56d2 363f 828d 8f3f 7ade b0bf
00000190: 174e d83f 9d87 1b3e 478c de3e db40 99bf
000001a0: c368 20c0 44e7 27bf 31dd 643f acbf c3bf
000001b0: 069e d9bf 3e7c 2fc0 52c3 d63f 5037 b13f
000001c0: e9e8 403f dfce cebf f2fd f63e c098 9f3f
000001d0: 9802 b8bf 5ddc 43c0 06a1 dc3e 7ac6 963f
000001e0: 3bbc 0c40 ec63 1240 437b b9bf 43b0 bdbf
000001f0: 4e5f 6940 f50d 2e3e 1f8b fcbe e470 933d
00000200: ead6 fabf 5c36 9d3f f4f3 1d40 8c89 bdbf
00000210: c749 03bf 1407 d83e 0396 a73f 8181 5c3f
00000220: d471 b03f 0884 9cbf b122 813e e9d7 203f
00000230: fb8a ba3f 4cba d03f 0f3d a1bf e5ad 4a40
00000240: f9fa 743f 64c9 393f 9d67 00c0 f62e 783f
00000250: 2177 dabd a9a9 b63f 0dad babe 2e0f 6c3e
00000260: b613 10bf 6779 273e d330 dcbe 69d9 813f
00000270: 1e7a b6bf 1d51 90c0 1e45 a0bf c75d 3fc0
00000280: 7174 12bf 573e 6c3e 1a41 2ebf e6d1 c53e
00000290: 7a50 fe3f 8d51 bfbf e2ee 8c3f d451 70bd
000002a0: 7fb3 c9be d5d4 64c0 c921 97bd 8e14 0a40
000002b0: 4597 4b3f f4d8 b73d 3b0c 1fbf 9f22 503f
000002c0: 05b1 2440 1a73 953f c16d 22bb 2d32 033f
000002d0: a4e2 d53f 232b 323d 60a9 44c0 4fee e0bf
000002e0: 8df8 923f c36b 263e ce31 c6bf dbd1 fe3f
000002f0: 6505 c43f 01d7 2f3f 191a ed3f 6194 123f
00000300: 3488 2bc0 4c11 2640 0c65 70bf bacb 6bbf
00000310: 011a adbf 5b3c e03e 96c3 6d3f 48fd 7fbf
00000320: 1341 cebf 7040 a13f f94f 80bf 35c9 123f
00000330: 3808 6dbe 1be3 79bf 201b 8e3f c3aa 833f
00000340: db5a 2a40 6ade 18be dbb4 6b40 a891 b73f
00000350: e664 763d 5655 e63f 8273 633e 7c16 2040
00000360: e687 0bc0 10c2 583f 21f8 1d40 6d77 3840
00000370: c4e7 ddbf 4214 6bbf 87ec db3f c364 843d
00000380: 69c9 7bbf 7379 04bf a543 99bf ca48 2040
00000390: 7738 403f e772 15be 2ef4 db3f 0e9e 14bc
000003a0: c3a5 d93f 7837 1a40 3b14 43bf b12a 1940
000003b0: daaf 1b40 a5fd c03f 8b12 cabe 0d6f f03e
000003c0: 7970 b13f a135 b0bf 24e4 ae3f 6f34 8fbf
000003d0: 4c77 a83e 52c7 b2bf 59f5 743d 1a06 af3f
000003e0: b277 12be 93f9 783f 0d21 343f 4ac5 f03f
000003f0: 6379 693f 04dd ae3d 5514 16c0 0adb af3f

conv2.bias f4 [32]
0.12145153 -1.0678691 9.856271 0.12313248 -0.05605653 0.1022852 -0.002059245 -0.68027335
0.09731473 -0.5411152 0.15996048 -0.013578958 0.7266238 -5.9376383 -0.030342406 -8.03303
2.794385 0.016818672 0.22839338 -0.65157175 0.14475153 -0.5094699 0.20911464 0.058931906
-0.036370806 -0.05365351 -0.21734414 -0.17597036 -1.2780608 0.006296261 1.8032949 0.019788854
00000000: 94bb f83d efaf 88bf 49b3 1d41 e22c fc3d
00000010: 889b 65bd e77a d13d 66f4 06bb 6526 2ebf
00000020: f24c c73d 8786 0abf aecc 233e 477a 5ebc
00000030: 0404 3a3f 2201 bec0 a390 f8bc 4a87 00c1
00000040: 34d7 3240 50c7 893c f4df 693e 68cd 26bf
00000050: bf39 143e 9f6c 02bf 2622 563e 9562 713d
00000060: 8ef9 14bd c8c3 5bbd 768f 5ebe 9331 34be
00000070: 7f97 a3bf de50 ce3b 5ed2 e63f 3c1c a23c

conv2.lin.weight f4 [32, 64]
-0.14587423 -0.051567398 0.064231955 0.11446334 -0.09968847 -0.8758339 -0.28830576 -0.20183465
0.3026745 0.24811368 -0.015292766 -0.030050427 0.122695126 -0.034387894 0.9386973 0.0009373608
0.038109288 0.106847055 -0.64039934 -0.0537053 1.5862663 0.22865114 1.2910517 -0.03219961
-0.4665164 -0.0024076947 0.68585503 0.60849124 -0.20823193 -0.7476398 0.6243977 -0.0253267
0.014523581 1.2051976 -0.43642417 -0.67641 0.24790674 -0.060829166 0.118274935 -0.005553901
-0.1622678 -0.67289937 2.4211552 -0.95845544 0.039706275 -0.12335297 -0.3033938 -0.022533758
-0.075389154 0.051593456 -0.019251166 -0.057266023 2.376987 0.04243018 0.04795094 -0.03274341
0.112941705 0.0066304207 -0.03030496 0.16137914 0.07271641 1.4507738 -1.810968 0.29201758
-0.34443942 1.0256784 -0.42391133 0.5242037 0.088226505 0.93979985 0.021186218 0.33985305
-0.77493227 0.00083949213 0.102294855 0.4240832 0.5743617 -0.017129237 -1.6286702 -0.4614672
0.2235276 -0.7998218 -0.09112746 -0.4120453 -0.35154414 -1.6213397 -1.2064283 -0.046943102
-0.91148734 -0.15390843 0.47525635 -0.5107665 0.050010353 -0.5816724 0.208909 -0.6191928
-0.7789807 1.3114552 -0.7693329 0.7076938 0.56792384 0.74863946 -0.23927459 0.8591904
1.1684837 0.10778997 -0.2396448 0.20536454 0.3012371 0.18283053 0.45108452 -0.3871878
-0.31949568 0.073644385 0.079224184 0.3929087 0.6922046 -0.12192908 -0.25692913 -0.2879195
0.10998166 -1.2027649 0.009077697 1.0621138 0.24919109 -1.5400237 1.3748264 0.88867944
-0.34801164 -0.04992137 -0.4951004 -0.50250334 0.06636831 -1.682558 -0.57058036 -0.12445264
-0.01893608 0.82384586 -0.5551796 -0.3029846 0.01058025 -1.005688 0.43991208 -0.5172142
-0.008846492 -0.69299054 -0.29160428 0.057377007 0.8288038 -0.03338595 -0.6866571 -0.24234197
1.3362067 -0.12215766 -2.3584623 -0.4131884 -0.77572864 0.3055985 -0.8354864 -0.4827433
0.97831494 -0.04370839 0.74999315 -0.9477865 -1.3689226 -0.4029973 -0.56670326 0.15531899
0.18626189 -1.3700812 -0.43633556 -0.040044364 -0.68523896 -0.75216496 0.24925822 -0.07803324
-0.12377329 -0.7055271 -0.16698575 -1.6714934 -0.3651544 -0.11929036 -0.31710702 -0.41122496
-0.281293 -0.6198638 -0.21675193 -0.38064164 -0.008800393 -0.9156409 -0.695755 -0.6918748
0.059366643 0.056584317 0.019592391 0.89414454 1.5539632 -1.5163162 -0.36363345 -0.015704395
0.20393348 0.0689932 -0.13726565 -0.026380293 0.07218784 3.232291 2.0787442 -0.0381812
0.17943773 0.16045083 0.17605807 -0.040483467 -1.7224187 -0.18397841 -1.3459985 -0.0841029
2.6996832 -0.019730216 0.40525088 -0.13057747 0.2012628 -0.26749146 -0.53347653 -0.88370323
0.05137972 0.44872314 0.971311 -0.5882828 -0.027800683 -0.059891216 0.1239986 -0.44030344
-0.48599434 0.1613588 -1.362082 -1.4707505 0.12966076 -0.07537105 -0.41765475 -0.7960694
0.027524361 0.06078021 -0.060025364 0.031124696 -2.7337952 -3.468774 0.068159044 -0.08139153
0.1239862 0.070604555 -0.012822557 -0.13890038 0.06343533 1.5166981 -0.55149454 0.0938552
00000000: 0e60 15be 5638 53bd 0b8c 833d c16b ea3d
00000010: 7829 ccbd a736 60bf d09c 93be bead 4ebe
00000020: 27f8 9a3e 8311 7e3e 828e 7abc 502c f6bc
00000030: 9547 fb3d 52da 0cbd 774e 703f 38b9 753a
00000040: 7c18 1c3d a1d2 da3d 36f1 23bf 17fa 5bbd
00000050: c60a cb3f 8623 6a3e 2f41 a53f bde3 03bd
00000060: 3ddb eebe 6aca 1dbb 3294 2f3f 15c6 1b3f
00000070: c03a 55be 5265 3fbf 87d8 1f3f f179 cfbc
00000080: 50f4 6d3c ea43 9a3f fd72 dfbe 3529 2dbf
00000090: 44db 7d3e 0128 79bd 213a f23d 80fd b5bb
000000a0: 8829 26be 2243 2cbf 35f4 1a40 565d 75bf
000000b0: 0ca3 223d 7ba0 fcbd 6f56 9bbe b798 b8bc
000000c0: a165 9abd a953 533d 9fb4 9dbc c78f 6abd
000000d0: 8e20 1840 45cb 2d3d 3468 443d f41d 06bd
000000e0: fb4d e73d 0044 d93b 1c42 f8bc 9340 253e
000000f0: 57ec 943d f5b2 b93f cdcd e7bf 5483 953e
00000100: 5d5a b0be 6e49 833f e80a d9be 3732 063f
00000110: 19b0 b43d b996 703f b88e ad3c 3801 ae3e
00000120: f661 46bf 5d11 5c3a f77f d13d 6f21 d93e
00000130: 5e09 133f 9d52 8cbc 4478 d0bf 6e45 ecbe
00000140: 6be4 643e 1fc1 4cbf 09a1 babd 9af7 d2be
00000150: 98fd b3be 0f88 cfbf 3e6c 9abf 6947 40bd
00000160: 3c57 69bf 2c9a 1dbe cd54 f33e 98c1 02bf
00000170: a8d7 4c3d 7be8 14bf 3eec 553e 6b83 1ebf
00000180: 476b 47bf c4dd a73f 00f3 44bf 6c2b 353f
00000190: 7563 113f d6a6 3f3f 6604 75be e7f3 5b3f
000001a0: e090 953f fdc0 dc3d 7265 75be 154b 523e
000001b0: c03b 9a3e ed37 3b3e 8df4 e63e 7b3d c6be
000001c0: f094 a3be ded2 963d 4a40 a23d 542b c93e
000001d0: 5234 313f f4b5 f9bd 378c 83be 2f6a 93be
000001e0: 113e e13d 33f4 99bf 9fba 143c 58f3 873f
000001f0: f32b 7f3e 7f1f c5bf 50fa af3f 7f80 633f
00000200: 952e b2be 5a7a 4cbd cd7d fdbe 0fa4 00bf
00000210: 1cec 873d 0f5e d7bf 8e11 12bf 07e1 febd
00000220: d71f 9bbc 90e7 523f 4020 0ebf cc20 9bbe
00000230: c958 2d3c 62ba 80bf 283c e13e 2668 04bf
00000240: e0f0 10bc d467 31bf 284d 95be 2704 6b3d
00000250: 7c2c 543f b5bf 08bd c2c8 2fbf 7e28 78be
00000260: d208 ab3f cc2d fabd 0cf1 16c0 6e8d d3be
00000270: 2796 46bf 6877 9c3e 70e2 55bf 212a f7be
00000280: d972 7a3f 9207 33bd 8dff 3f3f 23a2 72bf
00000290: db38 afbf a955 cebe 7713 11bf f10b 1f3e
000002a0: 70bb 3e3e d25e afbf 6067 dfbe 8f05 24bd
000002b0: d26b 2fbf e28d 40bf 8c3d 7f3e e4cf 9fbd
000002c0: da7c fdbd 6d9d 34bf 50fe 2abe 7ff3 d5bf
000002d0: 84f5 babe 814e f4bd da5b a2be 148c d2be
000002e0: a305 90be 65af 1ebf 38f4 5dbe 76e3 c2be
000002f0: 862f 10bc 7167 6abf 001d 32bf b51e 31bf
00000300: 702a 733d f5c4 673d 3980 a03c a8e6 643f
00000310: 44e8 c63f a616 c2bf 2a2e babe 81a6 80bc
00000320: f0d3 503e 4f4c 8d3d 5e8f 0cbe 7c1b d8bc
00000330: 38d7 933d dbdd 4e40 250a 0540 e463 1cbd
00000340: 86be 373e 394d 243e 9148 343e fed1 25bd
00000350: 3778 dcbf d664 3cbe ae49 acbf 243e acbd
00000360: 9cc7 2c40 43a1 a1bc 0b7d cf3e 1ab6 05be
00000370: d617 4e3e a4f4 88be eb91 08bf 603a 62bf
00000380: 8b73 523d 0abf e53e d6a7 783f b499 16bf
00000390: 42be e3bc 7e50 75bd faf2 fd3d 746f e1be
000003a0: 40d4 f8be 3e3b 253e b458 aebf 8d41 bcbf
000003b0: cac5 043e 235c 9abd d8d6 d5be 34cb 4bbf
000003c0: c57a e13c abf4 783d 28dd 75bd 38f9 fe3c
000003d0: 80f6 2ec0 6500 5ec0 f896 8b3d 9ab0 a6bd
000003e0: 7aec fd3d 1f99 903d b415 52bc e73b 0ebe
000003f0: 62ea 813d 2a23 c23f bf2e 0dbf 2837 c03d

link_predictor.0.weight f4 [64, 416]
-0.097853936 0.9778886 -0.0018215043 0.0642273 0.040186834 -0.13408865 -0.080121085 -0.24537548
-0.03676881 -0.16688135 -0.7944252 -0.32277977 -0.006298477 -0.3023739 0.14379916 -0.20016143
-0.060441874 -0.8616733 0.09118686 -0.47715485 -0.052933183 -0.091044635 0.15764074 -0.102299996
-0.030586695 0.11846918 0.06722024 0.31707606 0.21146637 -0.053109284 0.30738404 0.2639734
-2.5968854 -0.18535039 11.2544565 -8.872316 4.6483164 -19.772518 -5.54241 -10.684786
7.729158 7.943329 7.6368084 -3.07328 8.750212 -0.3745715 5.775342 10.504317
0.83382505 -0.73235995 7.5568275 3.711724 -13.649355 5.4368653 1.1140753 -13.561877
-3.3290632 -3.4727914 1.5600065 3.2290285 6.631958 5.2719045 -14.815916 -15.078024
8.486784 16.865759 -19.553522 -15.471537 -1.4407098 -2.900919 1.8505687 -6.94232
1.7506523 4.912316 1.0534003 -4.5179787 -8.708685 23.468212 0.3686083 13.632934
24.475416 4.430226 4.4807158 -2.0859385 9.823091 21.761303 -3.3890839 17.97254
-8.421829 8.191924 -0.7397793 0.11150249 7.580164 -6.238338 3.584573 14.622791
-16.713535 1.5256431 13.733221 -17.189262 -11.655595 -4.428044 3.2798743 10.91328
9.01806 -1.7099506 -5.011985 -6.402955 2.3453782 4.4639745 -15.340515 5.5350466
8.37311 3.9541957 29.606167 -1.7881945 8.751053 20.504723 2.9831448 8.024913
3.280731 3.8954458 5.2953434 8.915046 -2.3760235 -3.9080007 1.9033092 -7.2320647
-9.980718 -0.06776373 5.5323 -14.474503 -9.407257 2.5983322 -4.094246 7.2919283
-1.8577183 -9.22114 11.768705 11.647219 -6.7431917 11.585827 -2.869735 1.4251542
-8.28372 -8.589775 -4.78616 -5.7403426 2.1144364 -3.9925985 -3.3703299 12.436915
-7.785712 6.4297686 -3.123836 12.442686 -12.47786 -23.969534 -10.941567 -0.021404017
15.441668 24.798056 -5.11587 -19.737925 9.41622 -17.54717 -5.0196433 10.0406885
-8.037592 1.298952 -7.0461774 2.3454552 -5.189223 4.2176604 -2.793792 4.041822
13.429412 -17.07645 -4.702652 8.714446 -16.9564 0.76808596 -4.1090455 -8.320064
3.4284043 -14.780331 -1.8664305 15.02837 1.3889647 7.598841 -5.8780317 18.460405
11.305541 9.1350355 3.863702 -23.248857 -4.6799417 -7.6929197 -1.1121805 16.612904
2.6549501 -7.421142 -9.9808235 -0.6806909 -8.8785305 3.374411 -3.249772 7.063855
-5.814886 -16.183361 12.002006 1.9464172 8.0029955 -11.962291 0.4088617 -13.785927
0.59966516 13.073977 -7.3413167 -9.630853 6.1936727 -5.621695 7.1824713 3.842217
13.687543 -18.589565 13.884397 0.9151549 -13.138018 0.40704435 0.66221434 11.56159
-4.630044 8.570828 -19.742752 20.868126 0.7378066 -6.694386 -8.058731 -2.923258
1.5165243 8.535241 -5.9691195 5.7954597 -19.368332 8.622376 -7.620472 3.6762211
1.2983474 -6.9791718 -3.5983846 -9.406066 -4.5973797 -8.979713 -2.6879623 -0.024292504
00000000: a567 c8bd e856 7a3f 8bbf eeba 9a89 833d
00000010: f39a 243d 894e 09be 8616 a4bd b643 7bbe
00000020: e49a 16bd f2e2 2abe 735f 4bbf 6443 a5be
00000030: 7463 cebb c0d0 9abe 1640 133e 1ef7 4cbe
00000040: e691 77bd 9f96 5cbf 2dc0 ba3d a44d f4be
00000050: 77d0 58bd 9c75 babd 936c 213e a982 d1bd
00000060: f390 fabc f89f f23d c4aa 893d cb57 a23e
00000070: a48a 583e 1f89 59bd 7161 9d3e 8627 873e
00000080: 5f33 26c0 7ecc 3dbe 4112 3441 02f5 0dc1
00000090: 02bf 9440 1e2e 9ec1 6c5b b1c0 e2f4 2ac1
000000a0: 4355 f740 c02f fe40 bc60 f440 9fb0 44c0
000000b0: de00 0c41 d6c7 bfbe 9acf b840 af11 2841
000000c0: 8f75 553f f17b 3bbf 88d1 f140 e38c 6d40
000000d0: c263 5ac1 cdfa ad40 059a 8e3f 73fd 58c1
000000e0: 5f0f 55c0 3742 5ec0 4bae c73f 67a8 4e40
000000f0: 0039 d440 71b3 a840 fe0d 6dc1 963f 71c1
00000100: dec9 0741 13ed 8641 9d6d 9cc1 6a8b 77c1
00000110: 2e69 b8bf a8a8 39c0 6fdf ec3f 7c27 dec0
00000120: 6015 e03f b131 9d40 d2d5 863f 4893 90c0
00000130: c656 0bc1 e6be bb41 3aba bc3e 7f20 5a41
00000140: a7cd c341 69c4 8d40 0662 8f40 0480 05c0
00000150: 612b 1d41 2617 ae41 c0e6 58c0 c3c7 8f41
00000160: d0bf 06c1 1f12 0341 2d62 3dbf 6b5b e43d
00000170: b490 f240 77a0 c7c0 a569 6540 f4f6 6941
00000180: 52b5 85c1 4648 c33f 46bb 5b41 9c83 89c1
00000190: 517d 3ac1 89b2 8dc0 76e9 5140 cb9c 2e41
000001a0: f949 1041 a9df dabf 2e62 a0c0 02e5 ccc0
000001b0: ad1a 1640 e1d8 8e40 c072 75c1 1a1f b140
000001c0: 42f8 0541 8b11 7d40 6ed9 ec41 8fe3 e4bf
000001d0: 5004 0c41 ac09 a441 d8eb 3e40 0b66 0041
000001e0: 7ff7 5140 fc4e 7940 7473 a940 07a4 0e41
000001f0: c510 18c0 af1c 7ac0 a39f f33f 136d e7c0
00000200: 05b1 1fc1 b6c7 8abd 9a08 b140 9097 67c1
00000210: 2084 16c1 134b 2640 1004 83c0 7a57 e940
00000220: b7c9 edbf ca89 13c1 9e4c 3c41 025b 3a41
00000230: 3ac8 d7c0 8c5f 3941 bda9 37c0 746b b63f
00000240: 1e8a 04c1 b86f 09c1 3928 99c0 e3b0 b7c0
00000250: ed52 0740 bc86 7fc0 7cb3 57c0 9bfd 4641
00000260: 8d24 f9c0 aac0 cd40 eeec 47c0 3e15 4741
00000270: 51a5 47c1 9bc1 bfc1 a910 2fc1 7a57 afbc
00000280: 1211 7741 6b62 c641 35b5 a3c0 45e7 9dc1
00000290: d6a8 1641 9b60 8cc1 eba0 a0c0 a9a6 2041
000002a0: fa99 00c1 0f44 a63f 497a e1c0 f01b 1640
000002b0: 1d0e a6c0 13f7 8640 7dcd 32c0 9b56 8140
000002c0: dfde 5641 929c 88c1 207c 96c0 5f6e 0b41
000002d0: b5a6 87c1 48a1 443f 4d7d 83c0 fb1e 05c1
000002e0: fa6a 5b40 3c7c 6cc1 32e7 eebf 3474 7041
000002f0: 98c9 b13f b529 f340 d618 bcc0 e9ae 9341
00000300: 7fe3 3441 1b29 1241 e546 7740 a9fd b9c1
00000310: 15c2 95c0 662c f6c0 ee5b 8ebf 3ae7 8441
00000320: b4ea 2940 ff79 edc0 74b1 1fc1 c241 2ebf
00000330: 760e 0ec1 5af6 5740 44fc 4fc0 1a0b e240
00000340: 8c13 bac0 8677 81c1 3708 4041 3324 f93f
00000350: 450c 0041 8b65 3fc1 5256 d13e 2893 5cc1
00000360: a883 193f 032f 5141 11ec eac0 f917 1ac1
00000370: 9132 c640 ede4 b3c0 ced6 e540 e2e6 7540
00000380: 2d00 5b41 6eb7 94c1 7d26 5e41 9747 6a3f
00000390: 5235 52c1 1e68 d03e e186 293f 46fc 3841
000003a0: 5229 94c0 1d22 0941 28f1 9dc1 ecf1 a641
000003b0: e5e0 3c3f 6938 d6c0 90f0 00c1 a916 3bc0
000003c0: 781d c23f 5990 0841 0703 bfc0 6874 b940
000003d0: 58f2 9ac1 41f5 0941 e8da f3c0 3547 6b40
000003e0: 3f30 a63f 6055 dfc0 ef4b 66c0 3f7f 16c1
000003f0: bc1d 93c0 e8ac 0fc1 9307 2cc0 1301 c7bc

link_predictor.0.bias f4 [64]
-16.506128 -7.038552 -14.272653 -11.29923 -12.450432 -17.530788 -19.867455 -15.690473
-20.147907 -14.882047 -9.075173 -0.986395 -19.48482 -15.547658 -6.3554535 -8.596141
-12.790131 -10.852887 -21.668747 -7.3398795 -14.397184 -14.8032465 -14.938415 -16.433546
-14.42032 -15.374907 -20.191502 -15.355263 -12.197484 -17.132141 -22.22872 -19.090305
-12.232817 -9.094516 -15.109248 -16.49048 -9.421029 -6.4180584 -17.045702 -15.662674
-6.7840033 -18.15438 -12.035644 -0.7988365 -4.338132 -9.9468355 -15.095125 -17.56694
-14.613894 -2.8546245 -18.21129 -15.459358 -12.100059 -16.89545 -8.0163145 -16.653044
-10.774423 -6.600374 -11.444934 -16.940075 -19.900074 -18.825808 -11.912281 -15.952831
00000000: 8d0c 84c1 d13b e1c0 c95c 64c1 a5c9 34c1
00000010: f834 47c1 0e3f 8cc1 8cf0 9ec1 2d0c 7bc1
00000020: ea2e a1c1 dd1c 6ec1 e933 11c1 6284 7cbf
00000030: e9e0 9bc1 35c3 78c1 e05f cbc0 cb89 09c1
00000040: 60a4 4cc1 6da5 2dc1 9859 adc1 4be0 eac0
00000050: de5a 66c1 19da 6cc1 bf03 6fc1 e777 83c1
00000060: a1b9 66c1 9eff 75c1 3288 a1c1 28af 75c1
00000070: e528 43c1 a00e 89c1 6bd4 b1c1 f2b8 98c1
00000080: 9eb9 43c1 2383 11c1 7bbf 71c1 81ec 83c1
00000090: 89bc 16c1 bc60 cdc0 995d 88c1 509a 7ac1
000000a0: 8e16 d9c0 2c3c 91c1 ff91 40c1 8d80 4cbf
000000b0: fad1 8ac0 3d26 1fc1 a285 71c1 1889 8cc1
000000c0: 83d2 69c1 2bb2 36c0 b9b0 91c1 8859 77c1
000000d0: d799 41c1 e229 87c1 d342 00c1 6f39 85c1
000000e0: 0964 2cc1 4436 d3c0 731e 37c1 4685 87c1
000000f0: 5a33 9fc1 419b 96c1 b498 3ec1 cc3e 7fc1

link_predictor.2.weight f4 [1, 64]
0.022270331 -0.08559572 -0.09514963 -0.10483883 -0.09492041 0.1059929 0.09275948 0.08885215
0.08914859 -0.07595397 -0.106239125 -0.0938867 0.049653523 0.12186864 -0.086818166 -0.08939036
0.075249724 -0.10953311 -0.100910746 -0.09500058 0.09158927 0.07542596 -0.0925546 -0.10015238
-0.11360767 -0.08197595 0.05776219 -0.09921055 0.09219268 -0.1132533 -0.112792864 0.05112159
0.0371111 -0.11514392 0.047001038 -0.07063928 -0.08932426 -0.07965375 0.072283775 -0.09422358
-0.105176486 -0.09178622 -0.10353362 -0.11860436 -0.038277972 -0.09982695 0.10384534 0.080185995
-0.09918124 0.07234812 0.106532395 0.059515126 0.09851587 0.10171863 0.071515724 -0.10867245
-0.09804787 -0.07656364 -0.115107834 0.0838175 -0.09080699 0.1281842 0.05843855 0.06663011
00000000: 4570 b63c cf4c afbd cfdd c2bd beb5 d6bd
00000010: a265 c2bd ce12 d93d aff8 bd3d 1ef8 b53d
00000020: 8993 b63d c18d 9bbd e693 d9bd ac47 c0bd
00000030: 7e61 4b3d 4496 f93d b9cd b1bd 4b12 b7bd
00000040: 871c 9a3d e552 e0bd 4baa cebd aa8f c2bd
00000050: 2893 bb3d ed78 9a3d 448d bdbd b11c cdbd
00000060: 23ab e8bd 02e3 a7bd 0c98 6c3d e72e cbbd
00000070: 84cf bc3d 59f1 e7bd f2ff e6bd df64 513d
00000080: cf01 183d 93d0 ebbd 2984 403d 54ab 90bd
00000090: a3ef b6bd 8121 a3bd 8409 943d 4bf8 c0bd
000000a0: c566 d7bd 6afa bbbd 6f09 d4bd d8e6 f2bd
000000b0: 5dc9 1cbd 1272 ccbd deac d43d 8e38 a43d
000000c0: 891f cbbd 402b 943d a82d da3d 22c6 733d
000000d0: b0c2 c93d db51 d03d d676 923d a98f debd
000000e0: 52cd c8bd 66cd 9cbd a8bd ebbd 82a8 ab3d
000000f0: 04f9 b9bd b842 033e 435d 6f3d 5e75 883d
