checkpoints/model_epoch_28.pth (torch, 217428 bytes, 7 tensors)

conv1.bias f4 [64]
000000 04 8b 48 3e 70 81 09 3f b7 b3 8d 3f 2f 2f 1a c0
       0.1958428 0.5371313 1.107047 -2.4091299
000010 f0 77 70 c0 44 8c ac c0 41 de 9c c0 c4 4c 2c bf
       -3.7573204 -5.3921223 -4.9021306 -0.67304635
000020 a1 64 31 c0 d7 a7 33 c0 fd 5b dd 3d 52 57 bb bf
       -2.771767 -2.8071191 0.10808561 -1.4636023
000030 07 44 32 3e 83 df 8e c1 67 d9 5f c1 a8 cb b4 3f
       0.17408763 -17.859137 -13.990577 1.4124651
000040 bd 95 c4 3d 65 14 eb 3d 31 39 a2 c1 4b fe 66 3f
       0.09598873 0.11478499 -20.277925 0.9023177
000050 06 03 97 c1 82 8a 29 c1 59 1a 10 c1 fe ef 47 3f
       -18.876476 -10.596315 -9.006433 0.78100574
000060 f1 5f 1c c1 d8 fa 66 3f fd 14 1a c1 82 8f fb bf
       -9.773423 0.9022651 -9.630124 -1.965317
000070 d2 b2 10 3f c8 11 e6 c0 26 1d 69 c0 ca d8 5b c0
       0.5652286 -7.1896706 -3.642404 -3.4351068
000080 83 79 5d c1 06 02 a7 c0 44 ad 6b c0 44 7e 4c c0
       -13.842166 -5.218997 -3.6824503 -3.1952066
000090 47 37 87 c0 70 71 71 3d 63 4f 35 c0 12 11 6f c0
       -4.2254977 0.058946073 -2.8329704 -3.735417
0000a0 01 d8 8d c0 cb c4 03 c1 c3 be ae c1 50 d1 38 c0
       -4.4326177 -8.235545 -21.843145 -2.8877754
0000b0 2b f8 5b 3f 20 88 56 3f 35 e8 e6 bf 59 f5 18 c1
       0.8592555 0.8380146 -1.8039614 -9.559899
0000c0 eb 64 10 40 59 f6 28 3f 7c 3d 25 3e c5 31 c4 3e
       2.2561595 0.66000897 0.16136736 0.3831922
0000d0 45 70 ae c1 85 6e 1a c1 5e 29 21 40 1a eb 8d 3e
       -21.80482 -9.651982 2.5181499 0.2771843
0000e0 01 0f 77 c0 2d e6 6c 3e e7 22 8f 3f 1e 01 ad 3b
       -3.8602908 0.2313468 1.1182526 0.005279674
0000f0 37 00 dd bf d0 2b 77 c1 b5 a1 f1 c0 e7 92 ea c0
       -1.726569 -15.448196 -7.5509896 -7.3304324

conv1.lin.weight f4 [64, 384]
000000 5a 1e 13 40 13 af 27 40 1d dd 0e be 6b 96 13 3f
       2.2987275 2.6200607 -0.13951536 0.57651395
000010 a5 22 a0 3f 24 5a 8a bf 8c 88 2a 3f 05 98 37 be
       1.2510573 -1.0808759 0.66614604 -0.17929085
000020 b1 c5 1f c0 5c ec c9 3f 2f e8 0b 40 4f e0 97 be
       -2.4964411 1.5775256 2.1860464 -0.2966332
000030 4b 48 6f c0 cb 80 1a 40 56 9d 08 3f 32 96 8e 3f
       -3.7387874 2.414111 0.53365076 1.1139586
000040 8b d0 7b bf ea 3f 0d 3f 3d 0b 63 3f ee 03 23 c0
       -0.98365086 0.5517565 0.88689023 -2.5471148
000050 e0 b0 06 bf 34 31 b4 bf 55 2d bc 3e 0f 7c 1c 40
       -0.5261364 -1.4077516 0.36753336 2.445072
000060 1f 16 90 40 fb 92 1a 40 0f 17 8f 3f a5 55 0b bf
       4.5027003 2.415221 1.1178912 -0.5442756
000070 d0 96 ce 3f 04 95 e7 3f 81 3b b0 be 8e a4 0c 40
       1.6139774 1.8092351 -0.34420398 2.1975436
000080 d4 2e c2 bf 10 e0 72 3f e7 4c b6 40 fa 1f e5 3f
       -1.5170541 0.9487314 5.6968875 1.7900383
000090 b1 90 a7 bf cc 16 24 be 2f f7 95 3b 29 a2 7e 3f
       -1.3091031 -0.16024321 0.0045765857 0.99466187
0000a0 cb 44 17 c0 f5 f8 2b bf 55 0f f7 3d a8 ed 2f c0
       -2.3635738 -0.67176753 0.12063471 -2.7488804
0000b0 fe fe be 3f cc ab 2a bf fb a0 c4 bd 60 01 32 c0
       1.4921567 -0.6666839 -0.09601017 -2.781334
0000c0 3a c9 a1 3f 53 19 bb c0 15 e3 64 3f 9a 0b 04 40
       1.2639534 -5.8468413 0.89409 2.063208
0000d0 4a 6f 1f 40 9c 01 d6 bf 4d c7 fb 3f ca 24 74 3f
       2.4911675 -1.6719241 1.9670197 0.95368636
0000e0 99 36 0d 40 c2 b5 eb 3e 84 6d 30 be 59 cb dd 3f
       2.2064574 0.46037108 -0.17229277 1.7327682
0000f0 c7 f6 a0 bf ba c0 72 bc 7e a2 84 bf dd 53 00 bf
       -1.257531 -0.014816457 -1.0362089 -0.50127965
000100 11 e4 58 3f 3c 79 a7 c0 29 57 24 40 55 41 d3 3f
       0.84723 -5.233549 2.5678198 1.6504313
000110 c5 90 e7 3e d3 2a 58 be 92 65 35 40 38 2f 81 3f
       0.45227638 -0.21110086 2.8343244 1.0092535
000120 ec 8f 83 3f 0e 43 c1 bd 16 b1 a1 3f e1 ac ef be
       1.0278296 -0.09436618 1.2632167 -0.46811584
000130 82 89 d7 3f f8 ae 3c c0 cc a8 39 40 9a 98 63 bf
       1.6838839 -2.9481792 2.9009275 -0.88904727
000140 17 cd b0 3f 75 31 08 40 a0 fb 0e bf d9 85 51 3e
       1.3812588 2.1280186 -0.558527 0.20461215
000150 2b ec dc 3f 60 97 0c c0 09 e5 4a 40 c5 c9 90 c0
       1.7259573 -2.1967392 3.1702292 -4.52463
000160 88 fb 24 40 fc 08 8f 3f f8 fa 81 bf d0 c8 4f be
       2.5778522 1.1174617 -1.0154715 -0.20291448
000170 f1 32 8b bf 40 5e 40 bf f9 2a af 3f 22 ce bb bd
       -1.0874921 -0.75143814 1.3684989 -0.09170176
000180 1f d9 9e be 35 df fc be 91 ad c4 3f 44 f5 6a bf
       -0.31025025 -0.49389043 1.5365468 -0.91780496
000190 1f 3c d1 3f 41 10 5f 3f 0e d7 85 3f 40 7a 7d bf
       1.6346473 0.87134176 1.0456254 -0.99014664
0001a0 50 19 93 bf be b0 b9 be 6c fe ed 3e ba d0 72 bf
       -1.14921 -0.36267656 0.4648317 -0.9484974
0001b0 3a 79 06 c0 f7 49 4f c0 e4 c5 c9 3f 24 0b e4 3f
       -2.101149 -3.2388895 1.5763516 1.78159
0001c0 70 42 27 bf 59 45 70 bf e0 2d 2d bf 89 1a 75 3f
       -0.6533575 -0.93855816 -0.67648125 0.95743614
0001d0 e5 29 9e bf ef 38 69 c0 b6 7e 6c 3f a2 8b e6 3f
       -1.2356535 -3.6441 0.92380846 1.8011363
0001e0 0b 83 d2 3f 87 95 4c 40 19 ad 96 bf 55 9d ce bf
       1.6446241 3.1966264 -1.1771575 -1.6141764
0001f0 c5 1b e7 3f 65 31 a3 be 5d 41 a0 bf e4 70 93 3d
       1.805535 -0.31873623 -1.2519947 0.071992666
000200 17 fd 71 bf 85 ae 90 3f 22 56 15 40 0b 0f 72 bf
       -0.9452681 1.1303259 2.3333821 -0.94554204
000210 f4 02 1d bf 50 d2 18 3d 08 3e 72 3f 5f 46 95 3f
       -0.6133263 0.037309945 0.946259 1.16621
000220 df 18 bf 3f d2 67 64 bf f1 97 41 3f 38 b7 f9 3f
       1.4929465 -0.8922092 0.7562247 1.9509039
000230 00 63 26 3f 56 c5 e9 3f 29 87 cf bf 85 52 14 40
       0.6499481 1.8263347 -1.6213123 2.3175366
000240 e1 15 4f bf d2 6d ae 3f bf 75 b0 bf 48 db 08 40
       -0.8089276 1.3627264 -1.3785933 2.1383839
000250 71 d1 5f 3f c8 f4 e5 3f 85 b4 ca 3e c0 86 3e 3f
       0.8742896 1.7965326 0.3959085 0.7442436
000260 f4 3a 52 3d f9 0f 79 3f 5a aa 0b 3e bc 78 32 3f
       0.051325753 0.9729 0.13639203 0.69715476
000270 2f a8 b3 bf 60 6e a1 c0 4c 59 f9 bf 60 0e 33 c0
       -1.40357 -5.0447235 -1.9480376 -2.7977524
000280 7e c7 2d bf a8 2a 90 3f e7 cf da 3e 1d 26 9f 3f
       -0.67882526 1.1263018 0.42736742 1.2433506
000290 c4 b6 12 40 4d 01 92 bf ae 1f cd 3e 4f 9f 06 3f
       2.2924051 -1.1406647 0.40063232 0.52586836
0002a0 20 12 a7 3e e2 a1 55 c0 2c 99 e8 3e c1 27 60 40
       0.32631016 -3.3380055 0.4542936 3.5024264
0002b0 1c d3 48 3f c6 fc 6e be 82 24 c8 3e 7a 7e 72 3f
       0.7844713 -0.23338613 0.39090353 0.9472424
0002c0 c9 c2 68 40 6d 4b 0e 40 87 16 6d bd 67 69 45 3f
       3.6368887 2.2233536 -0.057882812 0.77113956
0002d0 1f 76 ad 3f 4a 51 5b 3e dc 1f 2b c0 aa 0e 8a bf
       1.3551673 0.21417728 -2.6738195 -1.0785725
0002e0 57 5e ff 3e 8d de 7f 3e 78 e6 b9 bf 82 38 12 40
       0.49876663 0.2498724 -1.4523458 2.284699
0002f0 9b 5e 02 40 b5 5d 3a 3f 49 85 22 40 c1 7c 93 3f
       2.0370243 0.72799236 2.539385 1.1522447
000300 47 1e 5b c0 32 e6 59 40 27 24 52 bd 00 79 91 bf
       -3.423723 3.404675 -0.05130401 -1.1365051
000310 c3 39 f4 bf 91 13 e5 3f 4a a5 f7 3f d5 5c f6 bf
       -1.9080127 1.7896596 1.9347317 -1.924708
000320 bc 98 41 bf af b5 03 40 65 95 52 be 6d 1a 2a 3f
       -0.7562368 2.057964 -0.20564802 0.6644657
000330 c8 2d 24 bd 02 ba 68 bf dd d1 8b 3f 00 36 f9 3f
       -0.040082723 -0.90908825 1.092342 1.9469604
000340 1d 7a f5 3f 8c b1 fa be 5f 4e 78 40 ba 7b 98 3f
       1.9177891 -0.48963583 3.8797834 1.1912758
000350 8a 47 85 be dd 5e 30 40 3d d9 09 bf 05 2d 16 40
       -0.26031142 2.75579 -0.53847104 2.3464978
000360 fe e3 d1 bf 5c ec 66 3f f8 bd 5e 40 a2 20 67 40
       -1.6397703 0.90204406 3.4803448 3.6113667
000370 51 38 c2 bf 3a 08 e0 be 33 bd fc 3f c3 64 84 3d
       -1.5173436 -0.43756276 1.9745239 0.06464531
000380 12 af 83 bf 62 21 2e bf 19 54 05 bf 52 9e 23 40
       -1.0287802 -0.6801969 -0.5208145 2.556538
000390 75 f9 b8 3d 9d af 73 3f a5 44 83 3f be ce 12 3d
       0.09031955 0.9518984 1.0255324 0.035841696
0003a0 01 29 d9 3f a9 22 1d 40 f4 84 e2 be 48 66 20 40
       1.6965638 2.4552405 -0.4424206 2.5062428
0003b0 03 54 31 40 2d a9 ba 3f 60 b8 e8 be 5d 68 c6 3e
       2.7707527 1.4582878 -0.45453167 0.38751498
0003c0 28 d0 a8 3f a6 86 b8 bf 60 49 ed 3f 95 3e b6 bf
       1.3188524 -1.4416091 1.8538017 -1.4237849
0003d0 bc e8 2b 3e 0f 9d 5e bf d3 55 d4 3d 49 52 54 3f
       0.16788 -0.869584 0.10367932 0.8293806
0003e0 eb e2 a4 be 73 ab 25 40 63 50 95 3f 8e 56 00 40
       -0.32204375 2.5885894 1.1665157 2.0052829
0003f0 91 c0 01 40 54 72 37 bd 8e 23 87 bf 40 58 ff 3f
       2.0273783 -0.044786766 -1.0557725 1.9948807

conv2.bias f4 [32]
000000 5b 41 ef 3e 4d 1b 47 bf 8f 01 4a 41 7a dd 1f bc
       0.4672955 -0.7777603 12.6253805 -0.009757394
000010 36 42 20 3d c0 ec 90 be a2 ff c9 bc e6 f5 d4 be
       0.039125644 -0.28305626 -0.024658028 -0.41593856
000020 54 d6 86 bd 29 ae 0c be 6e 5b 25 3e 72 12 23 be
       -0.065838486 -0.13738312 0.16148159 -0.15925005
000030 2a 7e bc 3f de 30 ad c0 3d 49 29 3d 31 fd 0b c1
       1.4726002 -5.412215 0.04132961 -8.749314
000040 7c d9 2f 40 ff 5e 57 be de 80 b7 3f 23 dc b7 be
       2.7476492 -0.21032332 1.4336202 -0.35910138
000050 e2 e7 47 be 67 bb cf be 70 f7 a3 bd 32 46 ba bd
       -0.1952205 -0.40572664 -0.08006179 -0.0909542
000060 56 4d 8a 3e 2b 07 4f bd f0 fe 9f bd 18 df c2 bc
       0.27012128 -0.050543945 -0.07812297 -0.02378802
000070 a3 21 7f bf 1a 0d 6b 3b fe 4a d5 3f 5d cc b4 be
       -0.996607 0.0035865963 1.6663511 -0.35312167

conv2.lin.weight f4 [32, 64]
000000 64 1a 98 3d 97 d9 27 3e 8b f0 e5 3c c1 6b ea 3d
       0.074269086 0.16391598 0.028068801 0.11446334
000010 78 29 cc bd a7 36 60 bf d0 9c 93 be be ad 4e be
       -0.09968847 -0.8758339 -0.28830576 -0.20183465
000020 27 f8 9a 3e 83 11 7e 3e 37 f7 ce 3d 17 02 d3 3d
       0.3026745 0.24811368 0.10105746 0.10303133
000030 71 ec a6 bd b8 ef 67 3d f3 49 6d 3f ee 66 7f bd
       -0.08150566 0.056625098 0.9269096 -0.06235402
000040 bd 27 db 3c 70 52 12 be cc 9f 81 bf 41 80 ed 3d
       0.026752347 -0.1428926 -1.0126891 0.11596728
000050 92 4c f1 be cc e1 9e bf 2f 41 a5 3f 3b 0c bd bd
       -0.4712873 -1.2412658 1.2910517 -0.092308484
000060 df fc ed 3f e4 d7 ae 3a b0 2f df bd 15 c6 1b 3f
       1.8592795 0.0013339487 -0.108977675 0.60849124
000070 60 f4 06 3e 52 65 3f bf 87 d8 1f 3f f1 79 cf bc
       0.13179159 -0.7476398 0.6243977 -0.0253267
000080 32 f6 85 3e ea 43 9a 3f fd 72 df be 35 29 2d bf
       0.26164395 1.2051976 -0.43642417 -0.67641
000090 1d 11 06 3f e9 fe 60 bd c6 39 c0 3c 80 fd b5 bb
       0.5236986 -0.0549306 0.023465049 -0.005553901
0000a0 88 29 26 be 50 84 7e 3e be 12 33 bf 56 5d 75 bf
       -0.1622678 0.2485516 -0.69950473 -0.95845544
0000b0 e8 48 5c ba 03 ea ac 3d 6f 56 9b be 2f e7 8a c0
       -0.0008403198 0.08443072 -0.3033938 -4.3407207
0000c0 78 1e 66 3d 17 3b d0 bd ff 82 a5 bc 03 e4 bf 3b
       0.0561814 -0.101675205 -0.020204065 0.0058560385
0000d0 f8 2d b9 bf 45 cb 2d 3d 41 c9 e7 3c 2f 2e 71 bd
       -1.4467154 0.04243018 0.028294208 -0.058881935
0000e0 5d 23 1f be 91 1a 45 3d 5c fb 3b 3c 7e ae 44 bd
       -0.15540834 0.04812104 0.011473503 -0.04801797
0000f0 25 88 08 be 80 36 d1 be cd cd e7 bf 1e 1c 14 3e
       -0.13333185 -0.40861893 -1.810968 0.14463851
000100 79 7f 8c be 0f 84 90 3f 1d 1d ea be 37 32 06 3f
       -0.27441004 1.1290301 -0.45725337 0.5242037
000110 19 b0 b4 3d b9 96 70 3f b8 8e ad 3c 38 01 ae 3e
       0.088226505 0.93979985 0.021186218 0.33985305
000120 f6 61 46 bf 5d 11 5c 3a 72 3a 95 3e 19 96 93 3e
       -0.77493227 0.00083949213 0.29146153 0.28825453
000130 3e 3a 1c 3f 59 0c 07 bd 57 06 f4 bf 68 04 ed be
       0.6102637 -0.03297076 -1.9064435 -0.46292424
000140 e2 c8 97 3d e9 4c 2d bf 3f 47 80 bf f4 b5 c5 be
       0.07411362 -0.6769548 -1.0021743 -0.38615382
000150 71 44 93 3e ea 53 2c bf 3e 6c 9a bf 85 d3 5b bd
       0.28763154 -0.6731554 -1.2064283 -0.053668518
000160 fb 29 d6 bf 63 bf b1 be 97 89 38 3f 98 c1 02 bf
       -1.6731561 -0.3471633 0.72084945 -0.5107665
000170 73 15 65 3e 7b e8 14 bf 3e ec 55 3e 6b 83 1e bf
       0.22371463 -0.5816724 0.208909 -0.6191928
000180 01 e3 6f bf c4 dd a7 3f 00 f3 44 bf 6c 2b 35 3f
       -0.93705755 1.3114552 -0.7693329 0.7076938
000190 eb 60 2f 3f 28 96 1e 3f f8 44 cc be e7 f3 5b 3f
       0.6850726 0.6194787 -0.3989637 0.8591904
0001a0 e0 90 95 3f fa 03 c7 3b 76 7d 5a bf 15 4b 52 3e
       1.1684837 0.006073472 -0.8534769 0.20536454
0001b0 d1 d0 14 3f c2 ff 64 3e 8d f4 e6 3e fd 1c b4 bf
       0.5813113 0.22363189 0.45108452 -1.4071347
0001c0 52 15 8c be 3f bd 82 bd 8e aa c9 3d b9 69 13 3f
       -0.27360016 -0.06383752 0.09846984 0.57583195
0001d0 22 c6 95 3d f4 b5 f9 bd a1 a9 90 be f1 f6 8d be
       0.073131815 -0.12192908 -0.28254417 -0.27727464
0001e0 fe 4a ad 3e 64 f2 92 bf ff a5 2c be df 74 6b 3f
       0.33846277 -1.1480222 -0.16860197 0.91975206
0001f0 cf f4 97 3e f1 2a e1 bf 50 fa af 3f a1 7f b8 3f
       0.29678962 -1.759123 1.3748264 1.4413949
000200 bd 5c 05 bf 46 c7 01 be 9b cb dc be 0f a4 00 bf
       -0.5209463 -0.12673673 -0.4312409 -0.50250334
000210 1c ec 87 3d 0f 5e d7 bf 8e 11 12 bf 07 e1 fe bd
       0.06636831 -1.682558 -0.57058036 -0.12445264
000220 d7 1f 9b bc 90 e7 52 3f 35 0f 16 bf 26 3b c1 be
       -0.01893608 0.82384586 -0.58616954 -0.3774044
000230 9c 2a 23 bd 5c 2e 21 bf 8c da 78 3f b0 6a d7 be
       -0.039835557 -0.62961364 0.97208476 -0.42073584
000240 6f 90 e9 bd 56 79 36 bf cf 79 db 3e c0 2b f0 bd
       -0.11404502 -0.71278894 0.4286637 -0.11727095
000250 c9 cf 43 bf be d3 b6 3f c2 c8 2f bf 33 d9 92 be
       -0.7648893 1.4283369 -0.6866571 -0.28681335
000260 39 bf de 3f 06 9e 60 be 32 23 19 c0 6e 8d d3 be
       1.7402107 -0.21935281 -2.3927732 -0.4131884
000270 d1 40 66 bf 68 77 9c 3e 70 e2 55 bf 21 2a f7 be
       -0.8994265 0.3055985 -0.8354864 -0.4827433
000280 4a c7 83 3f 92 07 33 bd 8d ff 3f 3f 23 a2 72 bf
       1.0295193 -0.04370839 0.74999315 -0.9477865
000290 8c 1d f0 bf a6 12 f1 be be cd 3a bf f1 0b 1f 3e
       -1.8759017 -0.4708454 -0.7297019 0.15531899
0002a0 70 bb 3e 3e 90 56 c1 bf d6 2c 3d 3f 8f 05 24 bd
       0.18626189 -1.5104542 0.7389654 -0.040044364
0002b0 10 a9 32 bf ea b0 71 bf 8c 3d 7f 3e eb 5d 3d 3e
       -0.6978922 -0.94410574 0.24925822 0.18492858
0002c0 7f df 5f be 40 93 2d bf a2 be 38 be 95 cd db bf
       -0.218626 -0.6780281 -0.1804147 -1.7172114
0002d0 bd d4 00 be 81 4e f4 bd 3a 61 9e be d9 f2 d3 be
       -0.12581153 -0.11929036 -0.30933553 -0.41396216
0002e0 eb 7f 88 be 9f bc 1e bf 66 51 9b be 07 81 c5 be
       -0.26660094 -0.6200656 -0.3033554 -0.38575003
0002f0 bc 18 2c be 72 67 0c c0 00 1d 32 bf 1c e0 5f bf
       -0.1680631 -2.1938138 -0.695755 -0.8745134
000300 f3 50 d0 3b dc 9c 4a bc b4 8f ad 3a a8 e6 64 3f
       0.006357306 -0.0123665 0.0013241679 0.89414454
000310 44 e8 c6 3f a6 16 c2 bf 2a 2e ba be 81 a6 80 bc
       1.5539632 -1.5163162 -0.36363345 -0.015704395
000320 f0 d3 50 3e 4f 4c 8d 3d fc 5b 96 3d c5 ba e1 bd
       0.20393348 0.0689932 0.073417634 -0.110219516
000330 39 e3 20 3e 09 dd bf bf ec 58 99 bf d5 55 83 3d
       0.15711679 -1.498933 -1.1980262 0.064128555
000340 31 8f a5 bd 14 ee 45 3d b1 a6 03 40 f3 d7 e7 bc
       -0.08083952 0.048322752 2.057049 -0.028301215
000350 07 b8 e8 bf 10 5e 0b 40 ae 49 ac bf da 43 0c 3d
       -1.8181161 2.1776161 -1.3459985 0.034244396
000360 0c 42 b5 3f 91 93 1a be 8a 98 21 be 1a b6 05 be
       1.4160781 -0.15095355 -0.15780845 -0.13057747
000370 66 83 33 3d a4 f4 88 be eb 91 08 bf 60 3a 62 bf
       0.043826483 -0.26749146 -0.53347653 -0.88370323
000380 7c 54 a5 bd 0a bf e5 3e d6 a7 78 3f b4 99 16 bf
       -0.08072755 0.44872314 0.971311 -0.5882828
000390 f8 8c 90 3e 27 ea 63 bc 72 f7 51 3c 74 6f e1 be
       0.2823255 -0.013910807 0.012815343 -0.44030344
0003a0 40 d4 f8 be ac 1c 96 bd b6 14 1b 3f 8d 41 bc bf
       -0.48599434 -0.073296875 0.6057848 -1.4707505
0003b0 d5 ee 02 3d 48 37 43 3d d8 d6 d5 be 08 cd 5d c0
       0.03196605 0.047660142 -0.41765475 -3.465639
0003c0 57 fb 24 3c 29 97 65 3d 9d 8e ad 3d 37 6c d2 bc
       0.01006969 0.05605236 0.08474467 -0.025686366
0003d0 1e de 29 c0 65 00 5e c0 e5 c7 be bd 91 3b 8f bb
       -2.654182 -3.468774 -0.093154706 -0.0043711145
0003e0 e2 b7 4c be 84 aa 32 bd 51 59 89 3c 87 6f 8c bd
       -0.1999202 -0.043619648 0.016766222 -0.0685721
0003f0 eb b2 18 bb e9 0b 08 c0 bf 2e 0d bf b4 f0 f9 be
       -0.0023300003 -2.125727 -0.55149454 -0.48816454

link_predictor.0.weight f4 [64, 416]
000000 bd 6b 02 3e 26 8d 47 3f bc 11 6f 3d e8 4b bc bd
       0.12736411 0.7794975 0.058366522 -0.091941655
000010 2a 08 84 3d 3d d1 ba bc 77 b6 a5 bd 86 98 85 be
       0.0644687 -0.02280485 -0.08091443 -0.2609293
000020 39 2d a9 bd f6 31 8a be ad fa 25 bf 7d a8 64 bc
       -0.08260579 -0.26991242 -0.64835626 -0.013956186
000030 d2 a8 bd 3e 27 5a 91 be 0e 2f 80 bd b1 e3 8e 3d
       0.37042862 -0.28389093 -0.06258975 0.069770224
000040 59 5b 6b 3c 99 4f 2d bf c3 dc 91 3e 9b d0 05 be
       0.014365041 -0.6769958 0.2848874 -0.13067858
000050 b2 6f df bd fc 69 62 be 1d 2d 93 3c a5 68 bf bd
       -0.10909976 -0.22110742 0.017965848 -0.09346131
000060 81 66 6a 3c c0 d8 c8 bd d0 c7 2e bd a8 ce 43 3f
       0.014306665 -0.09806967 -0.042671025 0.7648721
000070 08 15 b5 3e 94 de 82 3d 0d 86 c1 bd c8 95 0d be
       0.35367608 0.0639011 -0.09449396 -0.13826668
000080 f1 aa de 3e 96 22 1b 3f ad fd 68 41 4e 0e 35 c1
       0.43489793 0.6059965 14.561933 -11.315992
000090 f8 a9 90 40 31 54 d9 c1 e3 28 6f c1 df 8c ef c0
       4.520748 -27.16611 -14.947482 -7.485946
0000a0 cd 7e 33 41 48 6d ba 40 73 22 60 40 0c 4b b3 c0
       11.218457 5.82584 3.5021026 -5.602911
0000b0 c8 d6 0a 41 94 49 02 c0 b6 9f 07 41 fd 88 98 41
       8.677437 -2.0357409 8.476492 19.066889
0000c0 29 4f 01 41 3a 5c 20 bf c4 94 18 41 16 0d 1f 41
       8.081826 -0.62640727 9.53632 9.940695
0000d0 7a ce 76 c1 e7 b5 d9 40 7a be c7 c0 92 2c 8d c1
       -15.425409 6.803455 -6.2420015 -17.646763
0000e0 5d da aa c0 d2 52 3b c0 e5 9f 8d 40 ae c0 3b 40
       -5.3391557 -2.92693 4.4257684 2.9336352
0000f0 44 5c 27 41 e1 24 da 3f 70 55 5f c1 c9 9a 93 c1
       10.460026 1.7042505 -13.958359 -18.450579
000100 24 aa 10 41 d3 73 69 41 01 ce 71 c1 95 24 6b c1
       9.041538 14.590777 -15.112794 -14.696431
000110 ea b8 95 3f 47 10 10 c0 e9 64 72 40 7e 1e 5e c0
       1.1697056 -2.2509935 3.787409 -3.470611
000120 35 06 06 41 9c 6b ae 40 f3 4a 27 c1 29 42 6c c0
       8.376515 5.450636 -10.455798 -3.691538
000130 bb fb 32 c1 c5 4e f0 41 7b 94 80 3f e6 02 90 41
       -11.186458 30.038462 1.0045313 18.001415
000140 5b 48 dc 41 8b 46 f9 bf 38 a2 fc 40 51 b6 aa bf
       27.53533 -1.9474653 7.894802 -1.3336889
000150 6f 31 a9 41 b6 c9 c1 41 ba 8d b2 c0 63 b7 be 41
       21.149137 24.223492 -5.5798006 23.839544
000160 a1 41 3d c1 f3 df 15 41 42 71 c6 c0 95 a4 fa 3f
       -11.828523 9.367175 -6.2013254 1.9581476
000170 86 f9 c7 40 fa fd c5 c0 44 98 23 41 00 21 ca 41
       6.2492094 -6.187253 10.224674 25.266113
000180 df ed ab c1 f4 04 5f 40 9e 87 a9 41 f9 65 b6 c1
       -21.491148 3.4846773 21.19122 -22.799791
000190 5c d8 d0 c1 32 1b 05 c1 42 39 dd 3f 3f 2d 81 41
       -26.105644 -8.3191395 1.7283099 16.147093
0001a0 bf 69 16 41 04 3b 82 40 a7 0b 63 c0 9d 9e f2 c0
       9.400817 4.069704 -3.5475862 -7.581862
0001b0 a2 be a4 c0 1f 0a 0e 41 40 77 c7 c1 a8 ec 1d 41
       -5.1482706 8.877471 -24.933228 9.870277
0001c0 14 a0 95 41 ab 0e 5c be c5 2e 1e 42 3a af 06 40
       18.703163 -0.2148997 39.545673 2.104445
0001d0 83 20 0a 41 e9 da df 41 40 fa 40 40 35 9e 0b 41
       8.632937 27.98189 3.015274 8.726125
0001e0 71 0d 3d 40 64 c7 c1 40 84 67 3f 41 bd 1c fe 40
       2.9539454 6.0555897 11.962772 7.941008
0001f0 57 08 12 c1 ae 26 6d c0 11 3a 55 40 12 3c 1d c1
       -9.127036 -3.7054858 3.331669 -9.827166
000200 fc a1 9f c1 25 01 30 40 16 45 35 41 4b 6f 9a c1
       -19.954094 2.7500699 11.329367 -19.304342
000210 b5 b7 76 c0 f2 96 1c 41 5c 79 a7 c0 79 76 ed 40
       -3.8549626 9.786852 -5.2335644 7.420712
000220 3f 6e bf c0 f2 41 65 c1 cc 27 ff 40 fe 01 54 41
       -5.982208 -14.3286 7.973608 13.250486
000230 69 0a 6d c1 7a 41 1a 41 1d 40 59 c0 41 b4 ab 40
       -14.815042 9.6409855 -3.3945382 5.3657537
000240 c6 bf f8 c0 e7 30 69 c1 81 10 12 c0 ae 54 5d c0
       -7.77341 -14.574439 -2.2822573 -3.4582934
000250 56 58 8b 40 98 63 01 c1 1e 2b 0a c0 e0 1b 97 41
       4.354533 -8.086815 -2.1588817 18.88861
000260 66 47 41 c1 97 44 20 40 ec ac a7 bf a7 a1 35 41
       -12.079931 2.5041864 -1.3099647 11.351966
000270 f0 e6 07 c1 b3 c2 00 c2 d0 0c 54 c1 7a 57 af bc
       -8.493881 -32.190136 -13.253128 -0.021404017
000280 b2 9f 9d 41 ad 68 e4 41 17 72 df c0 6f df 9b c1
       19.702976 28.551111 -6.982677 -19.484098
000290 43 66 36 41 c7 f4 76 c1 1c 78 64 c1 a1 06 e4 40
       11.399966 -15.43476 -14.279324 7.125809
0002a0 2c b8 9d c0 8c 5f 79 40 aa 5a be c0 19 2d 15 40
       -4.928732 3.8964567 -5.9485674 2.3308775
0002b0 dd 86 86 c1 96 87 07 41 a9 e8 5c 3f da 8c 96 3f
       -16.815851 8.470602 0.8629251 1.1761734
0002c0 4b c0 b6 41 a1 c2 b3 c1 37 24 7c c0 03 0d 73 41
       22.843893 -22.470034 -3.9397104 15.190677
0002d0 78 15 97 c1 20 bd 66 c0 96 d9 4f c0 9b d8 06 c1
       -18.885483 -3.6052933 -3.2476554 -8.427882
0002e0 d9 d9 e5 40 80 fc 96 c1 c7 b1 ac 40 59 a5 a6 41
       7.1828427 -18.873291 5.3967013 20.830736
0002f0 7d 04 98 40 71 a4 f9 40 cd 92 86 3c eb dd ae 41
       4.750548 7.8013234 0.016427422 21.858358
000300 42 92 45 41 b8 81 60 41 54 c9 18 41 18 1b bf c1
       12.348207 14.03167 9.549152 -23.88823
000310 24 55 86 c0 00 44 ab c0 8b 71 16 40 77 09 a3 41
       -4.197893 -5.352051 2.35068 20.379622
000320 31 b5 43 40 65 d1 3e c1 89 64 24 c1 fe 34 d7 40
       3.057934 -11.926122 -10.274545 6.725219
000330 f6 21 2d c1 4b 2e f1 40 5a f7 38 c0 73 49 18 41
       -10.820791 7.536901 -2.8900971 9.517932
000340 7d 9f 28 c1 97 14 94 c1 5a a7 27 41 e0 93 94 c0
       -10.538938 -18.510054 10.478357 -4.643051
000350 da bf c7 40 11 21 4b c1 00 4d a0 40 32 56 6e c1
       6.2421694 -12.695573 5.0093994 -14.896044
000360 5f 70 86 3f 56 f6 a9 41 7d 9a 1b c1 79 d6 9b c1
       1.0503043 21.245281 -9.725217 -19.479723
000370 56 fb 4a 41 7a 6c 4f c1 3e 96 06 41 dd e9 80 40
       12.686361 -12.963984 8.41168 4.028548
000380 fd 22 9f 41 29 56 aa c1 e9 f6 96 41 74 7b 9f 40
       19.892084 -21.29207 18.870562 4.98382
000390 fe 51 19 c1 10 8e f9 3f a0 f4 b4 bf 0e a2 49 41
       -9.582518 1.9496479 -1.4137154 12.602064
0003a0 96 39 95 c0 92 9f c5 40 12 47 b7 c1 a4 6a 01 42
       -4.6632795 6.175729 -22.909702 32.35414
0003b0 87 c1 ca 3d 11 cf 2e c1 09 3a 55 c1 5e 62 89 c0
       0.09900194 -10.925553 -13.326669 -4.2932577
0003c0 28 ca 42 40 6c 8f 1d 41 eb eb 45 c1 81 a5 bf 40
       3.0435886 9.847515 -12.370097 5.988953
0003d0 ca cc e7 c1 4d 1b 1b 41 44 a3 a3 c0 78 c5 93 c0
       -28.974995 9.694165 -5.11368 -4.617855
0003e0 1e 90 24 c0 e7 2a c4 c0 8c bb 93 bf fc 4e 6a be
       -2.5712962 -6.130237 -1.154161 -0.22881693
0003f0 d9 29 ab c0 5b 2d 47 c1 aa 70 af 3f 13 01 c7 bc
       -5.3488584 -12.448573 1.3706257 -0.024292504

link_predictor.0.bias f4 [64]
000000 8e 3c 9e c1 43 12 12 c1 14 5e 92 c1 08 9e 53 c1
       -19.779568 -9.129458 -18.295937 -13.226082
000010 25 33 54 c1 33 42 ce c1 34 d1 d9 c1 38 10 a5 c1
       -13.262486 -25.782324 -27.22715 -20.63292
000020 75 81 c4 c1 26 df 7c c1 61 c7 3b c1 e9 f1 be bf
       -24.563211 -15.80448 -11.7361765 -1.4917575
000030 12 e6 d1 c1 c3 26 a7 c1 c6 3a f4 c0 f5 c1 3c c1
       -26.237339 -20.893927 -7.6321745 -11.797353
000040 e3 60 85 c1 ea a4 89 c1 df 23 c4 c1 4e e9 23 c1
       -16.672308 -17.205524 -24.517515 -10.244459
000050 7b 12 90 c1 d4 c4 9f c1 cd 2c 80 c1 f7 5e 8c c1
       -18.009024 -19.971107 -16.021875 -17.54637
000060 24 05 82 c1 0f c3 90 c1 80 91 dd c1 97 ca 91 c1
       -16.25251 -18.095243 -27.696045 -18.22392
000070 b2 c2 8c c1 ba cd db c1 74 8e d4 c1 4d 18 c3 c1
       -17.595066 -27.475452 -26.569557 -24.386866
000080 61 f1 91 c1 f4 6b 32 c1 d6 cf a0 c1 b2 a6 cf c1
       -18.24286 -11.151356 -20.101482 -25.956394
000090 fd fd 43 c1 eb 08 ef c0 20 ff b2 c1 3b 3e aa c1
       -12.249509 -7.4698386 -22.374573 -21.280386
0000a0 98 81 cd c0 88 75 b7 c1 c8 b1 66 c1 cb bf 89 3e
       -6.4220695 -22.932388 -14.418404 0.2690414
0000b0 9a 02 90 c0 1e 3f 52 c1 4c 41 a0 c1 7f 73 bc c1
       -4.5003176 -13.140409 -20.031883 -23.556395
0000c0 5b a7 8a c1 0d 02 af c0 65 94 d5 c1 40 67 b0 c1
       -17.331717 -5.4690003 -26.697458 -22.050415
0000d0 1a dd 76 c1 87 93 d1 c1 42 77 43 c1 95 ef 92 c1
       -15.42898 -26.197035 -12.216616 -18.366983
0000e0 52 8a 4d c1 31 f6 08 c1 78 6d 54 c1 80 95 be c1
       -12.84627 -8.560105 -13.276726 -23.822998
0000f0 13 1d e2 c1 2b 1a cd c1 3c 29 64 c1 b4 06 9f c1
       -28.264196 -25.637777 -14.260067 -19.878273

link_predictor.2.weight f4 [1, 64]
000000 bf eb 74 3d 47 01 b2 bd 6c 65 cc bd 77 17 ce bd
       0.059795137 -0.0869165 -0.09980282 -0.10063069
000010 98 84 d7 bd ab 4d b4 3d 18 f1 0d 3e d8 15 b3 3d
       -0.10523337 0.088038765 0.13861501 0.08744401
000020 04 2c 7f 3d 51 7e db bd 6f 0a d7 bd e9 ba 92 bd
       0.062297836 -0.10717452 -0.10500037 -0.071645565
000030 04 b5 84 3d c7 64 db 3c 4a 1c 75 bd 33 90 b3 bd
       0.064798385 0.026781453 -0.05984143 -0.08767738
000040 48 bf 62 3d aa 22 ea bd 67 8e 64 bd 90 1b a0 bd
       0.0553582 -0.11432393 -0.055799868 -0.07817757
000050 cf c1 6f 3d 2c ef ad 3d 0b 9d d6 bd f4 15 a6 bd
       0.05853444 0.08492884 -0.10479172 -0.08109656
000060 f1 da a8 bd 28 32 ab bd 70 c1 c8 3d 66 fd 8f bd
       -0.08244885 -0.08359176 0.0980252 -0.07030754
000070 be ba a9 3d b9 29 f2 bd 2e 69 87 bd a1 bd d4 3d
       0.08287571 -0.11824364 -0.06611858 0.10387731
000080 1f 7e c9 3d 86 b4 c8 bd 6f ac 81 3d 72 8c f2 bd
       0.09838509 -0.09800057 0.06331717 -0.11843194
000090 ea 06 8c bd d6 a2 ab bd f4 c9 96 3d 75 ca 9c bd
       -0.06837256 -0.08380668 0.07362738 -0.07655803
0000a0 43 17 f0 bd 1d 69 e9 bd 62 92 f6 bd 9a aa aa bd
       -0.11723187 -0.11397002 -0.12039639 -0.08333321
0000b0 9c cb c3 bd 41 d5 d9 bd 83 fd 8c 3d 8b e9 e0 3d
       -0.0956032 -0.10636378 0.06884291 0.10982045
0000c0 8a f2 e5 bd 1d a0 c2 3d 29 29 da 3d 8a 5c 8a 3c
       -0.11227901 0.095031954 0.10652382 0.01688983
0000d0 f2 20 02 3e c1 af cf 3d f0 a9 08 3d 2f 88 e7 bd
       0.1270788 0.10140944 0.03336519 -0.11305272
0000e0 62 7a a4 bd 34 8f c1 bd e1 9f c9 bd f4 e8 cd 3d
       -0.08031155 -0.09451142 -0.098449476 0.10054198
0000f0 56 eb ad bd 96 e0 b0 3d 14 17 a6 3d 4b f1 b9 3d
       -0.084921524 0.08636586 0.081098706 0.09079226
