checkpoints/model_epoch_8.pth (torch, 217416 bytes, 7 tensors)

conv1.bias f4 [64]
00000000: 78dc 02bd 5520 3f3f b9cf 1c3f 2f2f 1ac0
00000010: f077 70c0 448c acc0 41de 9cc0 c44c 2cbf
00000020: a164 31c0 d7a7 33c0 218a 323f 3201 99bf
00000030: 9be8 983d 2650 dcc0 61ab 9fc0 49a8 8b3f
00000040: c26c e23d 7ba0 253d 5102 bac0 6e22 113f
00000050: f16e e5c0 f596 8bc0 591a 10c1 4add 633e
00000060: c594 8fc0 90de 493f 156f bbc0 828f fbbf
00000070: cc76 2a3f c811 e6c0 261d 69c0 cad8 5bc0
00000080: 126b 30c1 0602 a7c0 44ad 6bc0 447e 4cc0
00000090: cc37 00c0 f075 ec3d 5ddf b9bf 1211 6fc0
000000a0: 01d8 8dc0 90a2 a2c0 e1c1 f3c0 50d1 38c0
000000b0: dd89 223f 9147 f43e 35e8 e6bf 4444 b0c0
000000c0: cda0 0440 488b 083f 905e efbc c888 b73a
000000d0: 05e8 04c1 c159 15c1 577f 0240 ed2e 2a3e
000000e0: 2b5d efbf bb67 7abe 6640 593f 378e b1be
000000f0: 6626 8abf 0cb0 fbc0 b5a1 f1c0 6322 6cc0
-0.031948537 0.7465871 0.6125446 -2.4091299 -3.7573204 -5.3921223 -4.9021306 -0.67304635
-2.771767 -2.8071191 0.6974202 -1.195349 0.07466241 -6.8847837 -4.9896703 1.0910732
0.110559 0.04043625 -5.812783 0.5669316 -7.1697927 -4.3621774 -9.006433 0.22252384
-4.4869103 0.7885523 -5.85731 -1.965317 0.6658752 -7.1896706 -3.642404 -3.4351068
-11.02614 -5.218997 -3.6824503 -3.1952066 -2.0034056 0.11545932 -1.452129 -3.735417
-4.4326177 -5.082344 -7.617417 -2.8877754 0.6349161 0.4771085 -1.8039614 -5.508333
2.0723145 0.53337526 -0.029219896 0.0014002556 -8.306645 -9.334413 2.0390222 0.16619463
-1.8700308 -0.24453633 0.8486389 -0.34678814 -1.0792968 -7.86524 -7.5509896 -3.6895988

conv1.lin.weight f4 [64, 384]
00000000: 290c d13f a1d5 db3f becc c53f 3eab a53e
00000010: 5380 ea3e b947 a6bf 99d3 9e3e bbed 023e
00000020: f63c eebf 5753 383f e5e0 2e3f 7fe5 89bf
00000030: 8801 4bc0 71c2 1b40 45a9 183f 5f00 cc3e
00000040: 9b9c 3d3e c360 7c3f c498 b63f 00e0 c9bf
00000050: c42b 68be 9ef9 ccbf 2d34 063f 6474 c03f
00000060: 14c3 2140 3164 a23f 43a8 1340 a6df 79bf
00000070: 7210 7e3f 76b3 983f aa61 c8be bae7 7240
00000080: 44e4 5abf dc31 2240 07f5 8540 3260 c63e
00000090: 95e2 0abf 5635 f8bd c096 f3be dd3e 9d3f
000000a0: c8e4 36c0 c940 01bf 2de9 48bf e66d 0bc0
000000b0: 02f4 023f d3a7 fe3d dd1c 863f 3b0d 3bc0
000000c0: 9fd8 373f 7f96 b5c0 a34f 353f ecaf 893f
000000d0: 7ecf 0840 d03e 8bbf ae4a 4340 e88e 0d3f
000000e0: 426c 0d40 ec3d 123e 4541 aabf f49a 963f
000000f0: 1b44 d5bf 8cf7 d4bd ad48 8abe 3590 04bf
00000100: 7034 493f c902 81c0 dd2f 3f3f 7df6 3c40
00000110: c8e8 223f f1ed 32bd c04d 1d40 8c29 46be
00000120: 0a56 aa3e e449 123c af05 cf3e be11 45bf
00000130: e494 0940 786d 01c0 516f cb3f 891d 59bf
00000140: 58e4 a23f 333b fa3f 73c9 b0bf 588c d93e
00000150: 398a b93f 2a59 3cbf 9688 3c40 3989 89c0
00000160: 85c5 2440 dd1e fb3f 326b 4e3c ce87 0f3d
00000170: 4c41 cfbf e68a 40bf c0ab c53d bf0e 6a3e
00000180: 0601 b0bf 35ef 903e baf8 9b3f fdd0 67bf
00000190: 1739 b53f fb68 b63e 10bd e63e cb41 8bbf
000001a0: b203 05c0 8e02 833f c9ff d33f 78bd e8bf
000001b0: d4cb 47c0 4e32 edbf bd6e c83f 23db 3f3f
000001c0: f5aa d3bd 637f dfbe b22a 383f fb2a 49be
000001d0: 0ac2 5abf d947 2bc0 b14b 82bd c7a7 943f
000001e0: 4c09 ae3f f05e 3b40 aa3f b9bf 3fa1 c5bf
000001f0: 8e6a 3a40 f900 09bf 976b 3ebf e470 933d
00000200: 7fa8 01c0 2736 ac3f 2db6 1c40 ee84 0bc0
00000210: a001 8fbf df91 973e 54f3 383f f473 7f3f
00000220: b80e 333f cdec d7bf 0679 dfbe dac8 713f
00000230: 40c1 573f 40e0 5d3f 2def 24bf 0e45 1840
00000240: f5d3 543e 4e1d 2e3f 0696 0ac0 be31 f83f
00000250: 7000 98bd f044 a93f bfcc e0be 26e0 e73e
00000260: 55e1 4ebe e4bf 833e 9d01 bcbd b28e a23e
00000270: b5c1 a2bf aca4 f8bf bcf4 23bf 5449 2bc0
00000280: e199 02bf 419d 693e b25f 9bbf 94d0 dc3e
00000290: 4ddb 563e aeeb a9bf 1d18 cb3e 125e 893e
000002a0: 5bcc 04bf ed68 3fc0 2991 08bf 45de bb3f
000002b0: 9261 493f 6e45 1f3f eabb a6bd dbc1 da3e
000002c0: b0ff 2540 10d5 693f f3cc c3be accb 28bf
000002d0: 71d8 c03f e118 5c3f e901 53c0 5fc6 dabf
000002e0: 78e8 4b3f 657d 633f 220a a7bf 470d 0640
000002f0: 6990 d73f c470 803f a5d5 f33f ffe1 1e3f
00000300: 7f99 22c0 074e 4b40 f5d7 08c0 cd3d a3bf
00000310: 4751 93bf 6a5c 79be aeef 0c3f fd9f f7bf
00000320: 1698 6dbf ddfa 8c3e 6ef6 39bf 70fe b33e
00000330: ea01 623e fd96 6dbf 243f 39be 1288 1cbe
00000340: 610c 4040 574b 1c3e d76f 4440 b2ef 693f
00000350: cd60 0b3e 1b24 ba3f ed01 d9bd bab4 f13f
00000360: c9e8 e6bf 81a0 e03e cb94 d53f c35d 2540
00000370: fdef c8bf 1840 bebf 10ea fe3f c364 843d
00000380: 79a8 7bbf 4e0e cebf 6236 87bf f35d f73f
00000390: 16e3 803f 9b06 933c f7ab ba3f 6d5e 883e
000003a0: 7bac d13f c101 a83f a917 2dbe 9ca9 5f40
000003b0: a53b 1d40 1f73 983f 4f34 8a3e ce67 103f
000003c0: daad e93f 83fd 7dbf f73d 923f 4293 40bf
000003d0: 8efe d53e 954a 02c0 380b af3e 2370 673f
000003e0: 5db8 433d e2b7 a73e 9e08 413f 4d44 b83f
000003f0: c274 763f aea9 363f f3d0 15c0 4f99 d13f
1.6331836 1.7174569 1.5453107 0.3235721 0.4580103 -1.2990638 0.3102081 0.12786
-1.8612354 0.72002167 0.6831191 -1.0773162 -3.1719685 2.4337428 0.59633285 0.39844033
0.18516771 0.98585147 1.426537 -1.5771484 -0.22672945 -1.6013677 0.52423364 1.503552
2.5275316 1.2686826 2.3071449 -0.97606885 0.99243844 1.1929767 -0.39137012 3.7953935
-0.85504556 2.5342932 4.1861606 0.38745266 -0.54251987 -0.12119548 -0.4757595 1.2284809
-2.8577137 -0.5048948 -0.784808 -2.1785827 0.51153576 0.12434354 1.0477558 -2.9226825
0.7181491 -5.674621 0.7082464 1.0756812 2.1376643 -1.0878544 3.051433 0.5529618
2.2097325 0.14281434 -1.3301169 1.1766038 -1.6661409 -0.10398778 -0.27008572 -0.5178254
0.7859564 -4.03159 0.7468241 2.9525445 0.63636446 -0.04368395 2.4578705 -0.19351786
0.33268768 0.00892875 0.40434024 -0.769802 2.1497126 -2.0223064 1.5893346 -0.8481069
1.2725935 1.9549316 -1.3811477 0.42489886 1.4495307 -0.73573554 2.9458365 -4.298001
2.5745556 1.9618794 0.0125988 0.035041623 -1.6191802 -0.7521194 0.09651899 0.22857188
-1.3750312 0.283075 1.218528 -0.90553266 1.4158047 0.3562697 0.45066118 -1.0879453
-2.0783505 1.0235155 1.6562434 -1.8182821 -3.1218157 -1.8530977 1.5658795 0.7494375
-0.10335342 -0.43651876 0.7194015 -0.19645302 -0.8545233 -2.6762602 -0.06362093 1.1613702
1.3596587 2.9276695 -1.4472554 -1.5439833 2.9127536 -0.5351711 -0.7438292 0.071992666
-2.0259092 1.3454026 2.4486191 -2.1799884 -1.1172371 0.29603478 0.7224629 0.99786305
0.69944334 -1.6869141 -0.4364702 0.944471 0.8427925 0.86670303 -0.64427453 2.3792148
0.2078398 0.68013465 -2.1654067 1.939018 -0.074219584 1.3224163 -0.4390621 0.452882
-0.20203145 0.25732338 -0.09179995 0.31749493 -1.2715365 -1.9425254 -0.6404531 -2.6763506
-0.5101605 0.22813894 -1.2138579 0.43127882 0.20982094 -1.3275049 0.39666834 0.26829582
-0.5187432 -2.9907792 -0.53346497 1.4677206 0.78664505 0.62215316 -0.081413105 0.42726025
2.593731 0.9134073 -0.382423 -0.6593578 1.5066053 0.8597546 -3.2969916 -1.7091788
0.79651594 0.8886321 -1.3049967 2.0945604 1.6840945 1.0034413 1.9049574 0.6206359
-2.5406187 3.1766374 -2.138181 -1.2753235 -1.1509179 -0.2435166 0.5505322 -1.93457
-0.9281019 0.27535143 -0.72641647 0.35155058 0.22071043 -0.92808515 -0.18090492 -0.15286282
3.0007555 0.15263115 3.0693262 0.9138137 0.13611145 1.4542269 -0.105960704 1.8883278
-1.803979 0.43872455 1.6686033 2.5838478 -1.5698239 -1.486331 1.991518 0.06464531
-0.98303944 -1.6098115 -1.0563471 1.9325546 1.0069301 0.017947486 1.458373 0.2663454
1.6380762 1.3125535 -0.16903557 3.4947271 2.4567654 1.1910132 0.26993033 0.56408393
1.825618 -0.99214953 1.142516 -0.752247 0.41795772 -2.0358021 0.34188247 0.9040548
0.047783244 0.3275748 0.75403774 1.4395844 0.9627191 0.7135266 -2.3408782 1.6374911

conv2.bias f4 [32]
00000000: 135d fdbc 91a3 7ebf 72e3 ef40 d68f cc3c
00000010: 1445 09bd 342c 573e bc97 533e f8a7 1abf
00000020: 7a4d c1bc 4e0f 8dbe 2b13 cbbd 84cd 20bc
00000030: de74 6b3e 5f81 b7c0 ef4e 063d d731 e0c0
00000040: 7a42 3040 e133 acbd 5b85 11bf 9618 40bf
00000050: 1383 b13c 62d6 c2be 5a1b 34be e545 7c3d
00000060: 6934 c83d 39ec 73bd 557e 473d 878d a5be
00000070: 36bb 65bf bcd7 49be 876f de3f b478 5c3c
-0.03092817 -0.9946833 7.4965143 0.02497093 -0.033513144 0.21012956 0.20663351 -0.6041255
-0.023596514 -0.2755074 -0.099157654 -0.009814624 0.229938 -5.7345424 0.03279012 -7.006084
2.7540574 -0.084083326 -0.5684411 -0.75037515 0.021668946 -0.38054186 -0.17588559 0.061590094
0.097756214 -0.05955145 0.048704464 -0.3233454 -0.89738786 -0.19711202 1.7377785 0.013456512

conv2.lin.weight f4 [32, 64]
00000000: d5cf 38bd e6b1 ddbd 32b4 9bbc c16b ea3d
00000010: 7829 ccbd a736 60bf d09c 93be bead 4ebe
00000020: 27f8 9a3e 8311 7e3e 133d 9fbc a5dc d73d
00000030: bfdd 733d 6b0d 213f 75ac 243f e44a b7bc
00000040: 81fb b13c afbc 083d de68 88bf f586 d23c
00000050: 328f cf3f e7cc aebd 2f41 a53f a232 9bbd
00000060: ae04 403c 5ae9 d0bc 85ad b1bd 15c6 1b3f
00000070: edf4 473e 5265 3fbf 87d8 1f3f f179 cfbc
00000080: 605d afbd ea43 9a3f fd72 dfbe 3529 2dbf
00000090: a2c2 2ebe 0019 ce3c 986d aebd 80fd b5bb
000000a0: 8829 26be 543a 89be 3b28 0540 565d 75bf
000000b0: 5aa5 2d3d 6332 1ebb 6f56 9bbe 3e6f 23bf
000000c0: daba 54bc 3bd9 77bc e940 87bd b88c f23c
000000d0: 01de 8940 ae0e b73e 9c1b f33d 7ba4 113d
000000e0: 3dc1 c6bd 0053 5ebd c883 ad3d 65b8 27bd
000000f0: af48 ab3c 0726 6040 cdcd e7bf d790 9ebe
00000100: bab2 85be 38e2 8c3f ffd5 b8bd 3732 063f
00000110: 19b0 b43d b996 703f b88e ad3c 3801 ae3e
00000120: f661 46bf 5d11 5c3a 46b1 7e3e 2081 d83e
00000130: 6298 8c3e 6a39 523e 84ec 63be 7d0b 37bf
00000140: b1d5 833a b13d 53bf afe0 f9bc cd48 d1be
00000150: 8c97 83bf 1169 88bf 3e6c 9abf e504 0cbe
00000160: 46af 113f 8247 753d 7c82 103f 98c1 02bf
00000170: 8364 da3c 7be8 14bf 3eec 553e 6b83 1ebf
00000180: ab2b e1be c4dd a73f 00f3 44bf 6c2b 353f
00000190: 6237 f63e 9d34 5d3f d155 c4bd e7f3 5b3f
000001a0: e090 953f 34c4 17be c5a5 2bbf 154b 523e
000001b0: 5194 3e3e a5d4 9b3d 8df4 e63e 2901 4e3f
000001c0: 2bfb a5bd fba5 233d 9538 8dbd 1948 8c3e
000001d0: b265 d4be e6e1 e0be 3e9a b1be 1c15 08be
000001e0: 15aa 513e c5f2 86bf 5421 833d 40ad 703f
000001f0: c701 c23e 7582 58bf 50fa af3f 646c be3e
00000200: 5595 c0be c9dc 79bd d564 dabe 0fa4 00bf
00000210: 1cec 873d 0f5e d7bf 8e11 12bf 07e1 febd
00000220: d71f 9bbc 90e7 523f e9ef d1be 588e 5bbe
00000230: 42e7 abbd 86d5 96bf e520 e0bd bec8 06bf
00000240: 26a2 9f3d 0b5c 07bf c6b3 b63f 32de 313e
00000250: cb82 193f 54fa 9fbf c2c8 2fbf 435f 0abe
00000260: 9e94 283f e039 30be 030a 17c0 6e8d d3be
00000270: 7b5c 4abf 6877 9c3e 70e2 55bf 212a f7be
00000280: 460d 483f 9207 33bd 8dff 3f3f 23a2 72bf
00000290: f1fc b0bf 6406 c2be 5db3 a6be f10b 1f3e
000002a0: 70bb 3e3e 0eaa 91bf ea58 e7bf 8f05 24bd
000002b0: 4a6c 38bf c634 21bf 8c3d 7f3e dd54 ab3f
000002c0: 9eef 14be 6498 1cbf 74ff 60be e9e7 c9bf
000002d0: 8ec6 493f 22e3 debe 6a68 91be d763 cdbe
000002e0: bb10 babe afb9 04bf 1991 1b3d 52b4 ebbe
000002f0: cb4a 9cbd 23d4 3fbf 001d 32bf 298d 0dbf
00000300: 6fd0 373d 43d0 30be d653 c83d a8e6 643f
00000310: 44e8 c63f a616 c2bf 2a2e babe 81a6 80bc
00000320: f0d3 503e 4f4c 8d3d 14d3 acbc 967f be3d
00000330: bd15 013d 0959 85be 015e 18c0 0aaa 1fbd
00000340: ff78 713c 0293 8dbc dd1c 913f 4a93 8bbd
00000350: 2c07 01c0 7537 cb3e ae49 acbf 5581 a43d
00000360: 07ca ed3e 3571 2e3d 13ab 213f 1ab6 05be
00000370: 7e26 26bd a4f4 88be eb91 08bf 603a 62bf
00000380: 1d34 fdbd 0abf e53e d6a7 783f b499 16bf
00000390: dabc bb3d 3164 84bd 5675 1e3d 746f e1be
000003a0: 40d4 f8be dea5 e63e bc00 7f3f 8d41 bcbf
000003b0: a58e d43c 2c7e d5bc d8d6 d5be 21e7 63bf
000003c0: a638 3abd f392 bd3d 84dd 6cbd 9660 7dbd
000003d0: db7d acbf 980b 4ac0 9e97 993d 47cf 0bbe
000003e0: 65e9 a93d 2b03 733c 08ad a5bd 7161 2abd
000003f0: 7c03 18be 0b60 7640 bf2e 0dbf 59ed 283e
-0.04512008 -0.10824947 -0.019006822 0.11446334 -0.09968847 -0.8758339 -0.28830576 -0.20183465
0.3026745 0.24811368 -0.019438302 0.105401315 0.059537645 0.629111 0.6432565 -0.022374578
0.021726372 0.033383068 -1.0657003 0.025699118 1.6215575 -0.08535176 1.2910517 -0.07578017
0.011719866 -0.025501896 -0.08675674 0.60849124 0.19527026 -0.7476398 0.6243977 -0.0253267
-0.08562732 1.2051976 -0.43642417 -0.67641 -0.17066434 0.025158405 -0.08516997 -0.005553901
-0.1622678 -0.26802313 2.0805805 -0.95845544 0.04239402 -0.002413892 -0.3033938 -0.6384162
-0.012984002 -0.015127475 -0.066041775 0.029608116 4.30835 0.35753387 0.118705004 0.03555725
-0.09704826 -0.054278374 0.08472401 -0.040947337 0.020908682 3.502321 -1.810968 -0.3096988
-0.2611292 1.1006536 -0.090251915 0.5242037 0.088226505 0.93979985 0.021186218 0.33985305
-0.77493227 0.00083949213 0.24872312 0.42286015 0.2746001 0.20529714 -0.22258192 -0.71501905
0.0010058192 -0.8251601 -0.030502645 -0.40875855 -1.0280623 -1.0657064 -1.2064283 -0.13673742
0.5690807 0.05988265 0.56449103 -0.5107665 0.026659256 -0.5816724 0.208909 -0.6191928
-0.4397863 1.3114552 -0.7693329 0.7076938 0.4808913 0.86408406 -0.09586681 0.8591904
1.1684837 -0.1482094 -0.6704982 0.20536454 0.18611266 0.07608918 0.45108452 0.8047052
-0.08104547 0.039953213 -0.06895558 0.27398756 -0.41483837 -0.43922347 -0.3468799 -0.13289303
0.20475037 -1.0542837 0.06402841 0.9401436 0.3789198 -0.8457406 1.3748264 0.3719207
-0.3761393 -0.061001573 -0.42655054 -0.50250334 0.06636831 -1.682558 -0.57058036 -0.12445264
-0.01893608 0.82384586 -0.4100335 -0.21441019 -0.08393718 -1.1783912 -0.10943774 -0.5265006
0.07794599 -0.5287482 1.4273612 0.17369917 0.599652 -1.2498269 -0.6866571 -0.13512902
0.6585177 -0.17209578 -2.359986 -0.4131884 -0.79047364 0.3055985 -0.8354864 -0.4827433
0.78145254 -0.04370839 0.74999315 -0.9477865 -1.3827192 -0.378955 -0.32558718 0.15531899
0.18626189 -1.1380022 -1.807401 -0.040044364 -0.72040236 -0.6297115 0.24925822 1.3385273
-0.14544532 -0.6117003 -0.21972448 -1.5773898 0.78818595 -0.43532664 -0.28399974 -0.40115234
-0.3634089 -0.5184583 0.037980173 -0.4603601 -0.07631453 -0.7493307 -0.695755 -0.5529352
0.044876512 -0.17266946 0.097816154 0.89414454 1.5539632 -1.5163162 -0.36363345 -0.015704395
0.20393348 0.0689932 -0.021096744 0.09301679 0.031514872 -0.2604449 -2.3807375 -0.03898052
0.01473832 -0.017282013 1.1336933 -0.068152025 -2.0160627 0.39690748 -1.3459985 0.080324806
0.46443197 0.04258843 0.63151664 -0.13057747 -0.040564053 -0.26749146 -0.53347653 -0.88370323
-0.123634554 0.44872314 0.971311 -0.5882828 0.0916688 -0.064644225 0.03868612 -0.44030344
-0.48599434 0.45048422 0.99610496 -1.4707505 0.025946924 -0.02606114 -0.41765475 -0.8902455
-0.04546418 0.09256544 -0.05782844 -0.06185969 -1.3475908 -3.1569576 0.07499622 -0.13653289
0.082964696 0.014832298 -0.08089644 -0.041596834 -0.14845079 3.849612 -0.55149454 0.16496791

link_predictor.0.weight f4 [64, 416]
00000000: 2971 19be 0bf5 823f 5845 23bd ff1c 9a3d
00000010: 01ea 65be 0a19 71ba 3075 f1bd 5bb9 453c
00000020: 5ec3 77bd 284c d13d e177 3abf dd29 51be
00000030: 4bb9 25bf 64ce adbe bb94 243e cb51 52be
00000040: dc3d d8bd f71b 38bf 553d c5bd c924 bbbe
00000050: aca2 b5bc d972 3dbe ebc2 453e 1f54 2b3d
00000060: d729 87be 9145 1a3d 4a9f c9bc a8e7 a73e
00000070: 1fc3 a3bd 99eb 5d3e 2556 ae3e 76a2 813d
00000080: 4bc3 acc0 3cd9 37c0 47ba 0a41 c1fa fec0
00000090: e91e c540 7294 80c1 6440 3fbe 3f53 03c1
000000a0: 5d40 0041 548f 0941 cc19 b340 d6a9 08bf
000000b0: 642f cb40 fe4d e0bf 00f9 b940 e0bc e140
000000c0: aab1 08c0 26ca 5ac0 ed43 ea40 41c4 cf3f
000000d0: ce34 34c1 a63d 9f40 f358 0040 8ed6 e1c0
000000e0: 1690 ae3f 4447 2440 bb5e d0be 4545 a23f
000000f0: fef2 fb3e 9b55 6b40 b467 69c1 84cd 57c1
00000100: 9588 de40 631c 8741 4c61 7cc1 6dd8 57c1
00000110: 4525 bf3e 74d4 d6bf 4b51 9f40 b586 0fc1
00000120: 01d5 943f 5c73 0e40 529b 6f3f f700 dcc0
00000130: e07d 14c1 bddb 9641 e9eb b6bf a9c9 4341
00000140: f79c 9741 93d6 5740 07df ac40 d100 a53d
00000150: 2a74 6440 a645 9741 a9b7 90c0 7e54 5641
00000160: 1ebd e7c0 fa92 fc40 a1cf 8e3f 248d 33c0
00000170: 3a39 bd40 0e89 bbc0 ac2f 0f40 f38d 1d41
00000180: a6f9 47c1 6e04 473f d27b 1e41 61fe 53c1
00000190: c6e9 06c1 79ee cec0 8bf9 9f40 2591 d940
000001a0: 781e be40 7840 9bc0 536c e1c0 38ae 54c0
000001b0: 7bf8 8e40 7845 4c3e a5ba 2ac1 c559 c040
000001c0: 0026 e740 9678 9740 a496 b241 e1b3 d7be
000001d0: bdd5 e340 097b 5241 53c7 4b40 cadc 0f41
000001e0: 7817 a140 4e7d f140 db7b 8640 63d9 0341
000001f0: 43c4 38bf 1018 19c0 04f8 ba3e ded0 c0c0
00000200: 2e20 03c1 8567 02bf 20ad 5240 56e4 17c1
00000210: 13c1 fcc0 0203 303e b11e 6ebe f5c5 d040
00000220: 3c68 c4be d971 03c1 1b28 3441 8495 dd40
00000230: c496 31bf f4e2 1241 e4c3 01c0 397b 603e
00000240: ae7f 8ebf 522d 04c1 9418 3fc0 50e8 9cc0
00000250: 04ef 5bbf 0ccd b5c0 fb8b a0bf 4667 0141
00000260: 398d e6c0 3e94 4b40 d754 36c0 799f de40
00000270: 50f2 5cc1 720b 6cc1 1d85 e6c0 7a57 afbc
00000280: bf38 0341 eda7 9d41 41fa 01c0 238a 7dc1
00000290: 350f fa40 75f3 62c1 d15e 5fc0 7927 c140
000002a0: a188 e5c0 dd8c a7bf be3e c8c0 d6fe b13d
000002b0: 3821 4bc0 3e30 0840 9a84 9fc0 9c7a dc40
000002c0: 3642 2241 d929 3cc1 3baf 7ac0 e1b2 e340
000002d0: 6d20 4cc1 8044 9840 5ff5 42c0 3e4d 4fc0
000002e0: 476f 9c40 883b 4bc1 6723 adbf fd91 3841
000002f0: d748 eabd 828e 7e40 0417 a9c0 1007 6e41
00000300: 00f1 cc40 4772 0241 e3c9 1c40 57f1 a6c1
00000310: c087 75c0 0716 d1c0 69f3 253f 99f1 6841
00000320: c792 4a40 b1aa a8c0 dfac 37c1 73b0 17c0
00000330: a8b1 03c1 720f df3f da78 88c0 4e1a b340
00000340: d3e1 abc0 ed30 99c1 4fa7 1f41 bc8b 8940
00000350: d39b 2c41 436d 04c1 4898 0fc0 07e7 63c1
00000360: 24c4 313f f22e 0841 5745 b7c0 9c5c adc0
00000370: 2212 ec40 5af9 b13e 9343 f840 a2b4 af40
00000380: fb1f 1641 d492 7dc1 fec3 1441 e1f8 e83f
00000390: e320 5ec1 e74c 283f b246 933f 72a6 3441
000003a0: 074c e7c0 aedf b940 c06d 3ec1 986a 3a41
000003b0: 2f24 81be 6e6e 86c0 d211 6ec0 bf4d 80c0
000003c0: 3ac0 77bf a8a6 bf40 dd3b e3bf 5cce ac40
000003d0: d09e 75c1 4d15 dc40 5d01 20c1 e848 6e40
000003e0: cd40 1140 f08f 06c1 0d3f f6bf e019 0ec1
000003f0: 3fd9 1fc0 03f9 62c0 b220 95c0 1301 c7bc
-0.14984573 1.0231031 -0.039861053 0.07525062 -0.22452547 -0.00091971515 -0.1178993 0.012068118
-0.06048905 0.10219604 -0.7283917 -0.20426126 -0.6473586 -0.33946526 0.16072361 -0.20539014
-0.10558674 -0.7191767 -0.09630839 -0.36551502 -0.022172295 -0.18500842 0.19312637 0.04182827
-0.2639911 0.037664 -0.024612088 0.32793927 -0.07996201 0.21671905 0.34050098 0.06329815
-5.3988395 -2.872634 8.670478 -7.9681096 6.160023 -16.072483 -0.18676907 -8.207824
8.015714 8.597492 5.596899 -0.5338415 6.349535 -1.7523801 5.8116455 7.054306
-2.1358438 -3.4185882 7.3207917 1.6231767 -11.262892 4.9762754 2.005429 -7.0574408
1.3637722 2.5668497 -0.40697274 1.2677389 0.49208826 3.6771 -14.587818 -13.487675
6.9541726 16.88886 -15.773754 -13.490338 0.37333122 -1.6783586 4.9786735 -8.970387
1.1627504 2.225791 0.93596375 -6.875118 -9.280731 18.857294 -1.4290744 12.236733
18.951643 3.3724716 5.402225 0.08056796 3.56959 18.909008 -4.5224195 13.395628
-7.2418356 7.8929415 1.1157113 -2.8054895 5.9132357 -5.8604803 2.2372847 9.847156
-12.498449 0.77741134 9.90523 -13.249604 -8.432074 -6.4666104 4.999212 6.798968
5.9412193 -4.8516197 -7.044473 -3.3231335 4.467832 0.19948375 -10.6705675 6.010958
7.2233887 4.73347 22.323555 -0.42129424 7.119841 13.155038 3.1840408 8.991404
5.034115 7.546546 4.202619 8.240573 -0.7217447 -2.3920937 0.36517346 -6.0254965
-8.195356 -0.5093921 3.2918167 -9.493246 -7.8985686 0.17188647 -0.23253895 6.5241647
-0.38360775 -8.215295 11.259791 6.9245014 -0.69370675 9.1804085 -2.0275812 0.21922006
-1.1132715 -8.261065 -2.9858751 -4.9033585 -0.85911584 -5.68128 -1.2542719 8.087713
-7.204739 3.180923 -2.8489282 6.956967 -13.809158 -14.752794 -7.203749 -0.021404017
8.201354 19.706995 -2.0308993 -15.846225 7.8143563 -14.184438 -3.4901621 6.0360684
-7.1729283 -1.3089863 -6.257659 0.08691184 -3.1739025 2.1279445 -4.9849367 6.889967
10.141165 -11.760217 -3.9169452 7.115586 -12.757916 4.758362 -3.0462263 -3.2390895
4.8885837 -12.702034 -1.3526429 11.535642 -0.11439674 3.977448 -5.2840595 14.876724
6.404419 8.1529 2.4498222 -20.867842 -3.8364105 -6.533939 0.6482454 14.558984
3.1652086 -5.2708364 -11.479705 -2.3701446 -8.230873 1.7426589 -4.2647524 5.596961
-5.3713164 -19.14889 9.978347 4.2983074 10.788043 -8.276675 -2.2436695 -14.243903
0.6943991 8.511461 -5.7272143 -5.417555 7.3772135 0.34760553 7.758249 5.4908
9.382808 -15.848347 9.29785 1.8200952 -13.883029 0.65742344 1.150595 11.290636
-7.2280307 5.8085546 -11.901794 11.651024 -0.25222918 -4.20098 -3.7198377 -4.0094905
-0.9677769 5.989094 -1.7752644 5.4001904 -15.351273 6.8776 -10.000333 3.7231998
2.2695801 -8.410141 -1.9237992 -8.881317 -2.4976346 -3.5464485 -4.660241 -0.024292504

link_predictor.0.bias f4 [64]
00000000: 80fd 4bc1 ffe0 dcc0 4e20 34c1 d15d 10c1
00000010: 586c 21c1 354d 45c1 5f49 71c1 889c 46c1
00000020: 822e 82c1 5217 40c1 a867 edc0 8736 eebd
00000030: 9702 6cc1 bf5e 42c1 a8df a3c0 bd7c d2c0
00000040: fc4e 1ec1 ff13 38c1 88e6 89c1 c1e3 94c0
00000050: d335 38c1 d0a8 24c1 91fb 47c1 1cb3 57c1
00000060: 8024 34c1 f530 45c1 00c5 60c1 0173 4fc1
00000070: 9bce 07c1 f8c0 3fc1 7980 8fc1 6da0 70c1
00000080: ba2e 17c1 6cb2 e0c0 2525 2fc1 4548 22c1
00000090: 9509 dbc0 93c8 90c0 b1ba 58c1 4732 58c1
000000a0: 85e0 d2c0 779c 54c1 0571 14c1 23c1 8cbf
000000b0: 3465 50c0 c78f fdc0 dd86 39c1 244a 4fc1
000000c0: 12af 32c1 7da4 a83e e533 45c1 16f8 2fc1
000000d0: 68dc f8c0 7056 35c1 d6d0 9bc0 e5e5 62c1
000000e0: 4630 1dc1 7208 58c0 8b32 0dc1 6697 3ec1
000000f0: 33de 61c1 4d1b 6bc1 8798 1cc1 3b95 4ac1
-12.74939 -6.9024653 -11.257887 -9.022904 -10.088951 -12.331349 -15.080413 -12.413216
-16.272709 -12.005693 -7.4189034 -0.11631494 -14.750632 -12.148131 -5.121052 -6.577727
-9.894283 -11.504882 -17.237564 -4.652802 -11.513141 -10.291214 -12.498918 -13.481228
-11.258911 -12.324452 -14.048096 -12.965577 -8.487941 -11.9846115 -17.93773 -15.039166
-9.448908 -7.02178 -10.9465685 -10.142644 -6.8449197 -4.524484 -13.545579 -13.512275
-6.589907 -13.288199 -9.277593 -1.0996441 -3.256177 -7.923801 -11.595426 -12.955601
-11.167742 0.32937995 -12.32517 -10.998068 -7.776905 -11.333603 -4.8692427 -14.181127
-9.8242855 -3.3755155 -8.82484 -11.9119625 -14.116748 -14.694165 -9.787238 -12.661433

link_predictor.2.weight f4 [1, 64]
00000000: b3da 993d c245 c1bd d83c e3bd 75fc 1fbe
00000010: 0f88 f3bd 8751 c03d 429d 893d be10 dc3d
00000020: e5f2 ae3d 80dc e2bd c902 babd 56de f3bd
00000030: 8929 ac3d 8919 c53d bc7c e7bd 2516 fdbd
00000040: f838 ae3d ac3e 3dbe 4774 06be 5d9c c2bd
00000050: 82cb 8a3d 0dac 923d 6ba6 03be 3e85 04be
00000060: 4c21 11be 3f2d c9bd edf4 233e 9e1e eebd
00000070: 317d 193e 27be 9fbd eefc d8bd f4bb c03d
00000080: ef18 753d 680d 08be 02a2 b63d db8d 18be
00000090: 09f4 afbd 1b0c c3bd 4610 933d 707f a5bd
000000a0: 2cbb e0bd 50b3 cabd 1d88 e8bd c181 53bd
000000b0: cb38 e1bd c249 a4bd a60b df3d 38a0 9f3d
000000c0: c8f0 debd 0521 c93d d455 8b3d fdb1 b83d
000000d0: ecff ad3d 222c 0d3e 98b1 883d 6c87 10be
000000e0: 41c6 fabd e10d d5bd 52f0 edbd 08c5 2a3d
000000f0: b683 c7bd c5c7 a83d 7e26 883d 5a9b 8d3d
0.07512417 -0.09437133 -0.110955894 -0.15623648 -0.118911855 0.0939055 0.06719448 0.10745381
0.08542422 -0.11077213 -0.090825625 -0.119076416 0.0840636 0.09624011 -0.11303088 -0.12357739
0.0850696 -0.18480939 -0.13130294 -0.0950248 0.06777097 0.07161722 -0.12856452 -0.12941453
-0.14172858 -0.09823083 0.160114 -0.116269335 0.14989163 -0.077999406 -0.105951175 0.09410849
0.05983823 -0.13286364 0.08917619 -0.14897864 -0.08591468 -0.09523793 0.07180838 -0.080809474
-0.109732 -0.098974824 -0.113540865 -0.051637415 -0.109971605 -0.08021881 0.10890894 0.07794231
-0.10885769 0.09820751 0.0680348 0.090183236 0.08496079 0.13786367 0.06674498 -0.1411416
-0.12244845 -0.10403038 -0.11618103 0.04169181 -0.09741919 0.08241228 0.06647967 0.069143966
