checkpoints/model_epoch_27.pth (torch, 217428 bytes, 7 tensors)

conv1.bias f4 [64]
-0.034329 0.68305475 0.97120714 -2.4091299 -3.7573204 -5.3921223 -4.9021306 -0.67304635
-2.771767 -2.8071191 0.061383236 -1.6151661 0.33787864 -17.340483 -14.439644 1.4588324
0.18738374 0.092832334 -19.543467 0.82114106 -18.156122 -9.282949 -9.006433 0.57929343
-9.073055 0.95118445 -9.303545 -1.965317 0.5109662 -7.1896706 -3.642404 -3.4351068
-13.623455 -5.218997 -3.6824503 -3.1952066 -4.3414636 0.081263885 -2.5523024 -3.735417
-4.4326177 -8.252532 -21.060684 -2.8877754 0.7931842 0.7334554 -1.8039614 -9.436947
2.264243 0.78021646 0.15130638 0.3909378 -21.756153 -9.651982 2.5175397 0.22386831
-3.6488106 0.2936261 1.1627687 -0.113275245 -1.7061888 -14.580926 -7.5509896 -7.089383
00000000: 919c 0cbd addc 2e3f 08a1 783f 2f2f 1ac0
00000010: f077 70c0 448c acc0 41de 9cc0 c44c 2cbf
00000020: a164 31c0 d7a7 33c0 fd6c 7b3d c3bd cebf
00000030: 6efe ac3e 4fb9 8ac1 c808 67c1 05bb ba3f
00000040: 86e1 3f3e e11e be3d 0559 9cc1 4d36 523f
00000050: bd3f 91c1 f686 14c1 591a 10c1 934c 143f
00000060: 3c2b 11c1 d380 733f 52db 14c1 828f fbbf
00000070: aece 023f c811 e6c0 261d 69c0 cad8 5bc0
00000080: acf9 59c1 0602 a7c0 44ad 6bc0 447e 4cc0
00000090: 45ed 8ac0 ae6d a63d ec58 23c0 1211 6fc0
000000a0: 01d8 8dc0 5f0a 04c1 487c a8c1 50d1 38c0
000000b0: 1f0e 4b3f bcc3 3b3f 35e8 e6bf bcfd 16c1
000000c0: 5be9 1040 44bc 473f 0ff0 1a3e 0029 c83e
000000d0: 9a0c aec1 856e 1ac1 5f1f 2140 bc3d 653e
000000e0: 1d86 69c0 2956 963e 9bd5 943f dafc e7bd
000000f0: 6564 dabf 794b 69c1 b5a1 f1c0 3adc e2c0

conv1.lin.weight f4 [64, 384]
1.7586308 2.531897 1.3763801 -0.027421681 0.8679876 -1.493258 0.8112543 -0.33241543
-2.1182988 1.5249449 2.2144067 -0.46177804 -3.4811208 2.3178492 1.1165535 0.9628756
-0.8418984 -0.41473734 1.1078544 -1.7464409 -0.54877436 -1.4204353 -0.16615334 1.7308564
4.491237 2.2120926 1.0325991 -0.5661747 2.4099407 2.178464 -0.35948268 2.0106573
-1.1525458 1.2721177 5.8415837 1.8098596 -0.9728572 -0.46482036 -0.2510341 1.27718
-2.1228266 -0.6396471 -0.28008762 -2.4788165 2.1362777 -0.80064344 0.35571963 -2.9274592
0.7786299 -5.7261133 1.3915944 1.3248215 2.121946 -1.7444292 2.5982113 1.45917
1.8504392 0.58390576 -0.25696555 1.8032953 -0.76030856 -0.063393995 -1.0387381 -1.3573239
0.53116584 -4.3856916 2.4584863 2.2435646 0.32800972 0.4754715 2.461809 1.1645684
1.1695025 -0.6011425 1.1500574 -0.7781653 2.429717 -2.8228989 2.1711233 -0.5454975
2.128933 2.2169852 -1.0782436 -0.14696921 1.5116698 -2.1619136 3.2782724 -4.609518
2.8651376 2.0274365 -1.0038989 0.7269551 -1.5754695 0.1593118 0.20966431 -0.13640274
-0.37391993 0.41688356 1.8070986 -1.4653641 1.6131644 0.9461619 0.5644677 -1.2661991
-1.7572881 0.20937015 1.2603046 -0.6415863 -2.2933939 -2.936116 2.2827168 1.545418
-0.8914868 -1.165161 -1.204188 1.3502102 -1.1691278 -2.6063232 1.4464293 1.7946392
1.5582516 3.9266596 -1.34299 -0.9754703 2.6015897 -0.47221795 -1.1915957 0.071992666
-2.006949 1.436695 1.9297378 -2.1170511 -1.3925585 -0.4110143 0.55129296 0.43796924
2.245604 -0.74251205 0.12380179 1.9903388 1.2208735 1.7712035 -1.4408349 1.8530645
0.019016722 1.3999884 -1.5337038 1.3505335 0.886105 1.603103 1.7377863 0.5878451
-0.08842242 0.88296133 0.33546492 1.0130782 -1.9829755 -5.1316714 -2.0815616 -2.878676
-0.7149788 0.9903171 0.24968426 1.2877306 1.4179759 -1.4763665 0.80480605 0.24806446
-0.46307853 -3.0200875 0.1986305 3.526803 0.77381414 -0.60613745 0.6797029 0.68209535
2.4930131 1.88123 -0.13002825 0.71192604 2.2121878 0.70902884 -2.5914526 -0.5200142
1.1888604 0.105011135 -1.9520714 2.356987 2.0290174 0.97041595 2.0276198 1.229307
-2.713141 2.2285335 -0.4992563 -0.5775103 -1.4028642 1.2248702 1.7037389 -1.5543786
-0.26801354 1.8035114 -1.1241956 1.0196804 0.36211458 -0.94653064 0.8863609 1.7745634
1.9182544 -0.22814341 3.7648106 0.31085196 -0.9104209 2.2425585 -0.05654803 3.068889
-2.1142015 0.7340848 4.093507 3.3105698 -1.6585004 0.5139825 1.6901256 0.06464531
-0.92791736 -1.1977093 -0.54554415 2.5002935 0.20707083 0.62622064 1.0763679 0.45116836
1.5877719 2.465834 0.07447252 2.6649945 1.7525855 0.9980438 -0.6589626 0.6444615
1.1346009 -1.8800095 1.4703962 -1.561883 -0.37036628 -1.2819768 0.7281832 1.6122159
0.15307945 2.582612 1.6074426 2.3186584 1.1656237 -0.14376798 -1.239139 2.2747872
00000000: d01a e13f 9a0a 2240 392d b03f 6fa3 e0bc
00000010: 6f34 5e3f 1423 bfbf 5dae 4f3f 5b32 aabe
00000020: 3592 07c0 6531 c33f d7b8 0d40 2c6e ecbe
00000030: afca 5ec0 a457 1440 3aeb 8e3f 047f 763f
00000040: a786 57bf 7458 d4be 2cce 8d3f 608b dfbf
00000050: 7a7c 0cbf d3d0 b5bf 1a24 2abe b48c dd3f
00000060: 37b8 8f40 ed92 0d40 352c 843f d3f0 10bf
00000070: 783c 1a40 f46b 0b40 1d0e b8be 9cae 0040
00000080: 9f86 93bf c1d4 a23f 41ee ba40 7ba9 e73f
00000090: 2b0d 79bf effc edbe 8b87 80be a27a a33f
000000a0: 64dc 07c0 eabf 23bf a567 8fbe eea4 1ec0
000000b0: c6b8 0840 f8f6 4cbf e220 b63e 7e5b 3bc0
000000c0: 4a54 473f 523c b7c0 c41f b23f c093 a93f
000000d0: f7cd 0740 7549 dfbf 1849 2640 15c6 ba3f
000000e0: 31db ec3f d97a 153f fd90 83be 61d2 e63f
000000f0: 95a3 42bf b6d4 81bd 5ff5 84bf cabc adbf
00000100: 7cfa 073f 9657 8cc0 d757 1d40 9096 0f40
00000110: e4f0 a73e 0071 f33e 478e 1d40 9410 953f
00000120: 42b2 953f 7ae4 19bf 1535 933f d735 47bf
00000130: 7c80 1b40 60aa 34c0 aff3 0a40 b9a5 0bbf
00000140: 7040 0840 16e3 0d40 e303 8abf 197f 16be
00000150: 657e c13f cb5c 0ac0 37cf 5140 2c81 93c0
00000160: 6a5e 3740 85c1 0140 c27f 80bf bb19 3a3f
00000170: fca8 c9bf a222 233e 3eb2 563e 29ad 0bbe
00000180: 6f72 bfbe c371 d53e 024f e73f 0d91 bbbf
00000190: 2c7c ce3f ab37 723f f580 103f d012 a2bf
000001a0: d1ee e0bf 2165 563e a951 a13f 003f 24bf
000001b0: f7c6 12c0 53e9 3bc0 0818 1240 42d0 c53f
000001c0: 7b38 64bf ff23 95bf d522 9abf b0d3 ac3f
000001d0: fba5 95bf 00ce 26c0 9824 b93f bdb6 e53f
000001e0: ca74 c73f 644e 7b40 19e7 abbf 6cb8 79bf
000001f0: 7280 2640 8dc6 f1be 3586 98bf e470 933d
00000200: da71 00c0 9fe5 b73f a601 f73f c47d 07c0
00000210: 5b3f b2bf 7770 d2be 8921 0d3f 813d e03e
00000220: fab7 0f40 4515 3ebf cb8b fd3d 6cc3 fe3f
00000230: 9545 9c3f ccb6 e23f 476d b8bf 3831 ed3f
00000240: f5c8 9b3c d232 b33f 6850 c4bf 48de ac3f
00000250: c7d7 623f 7b32 cd3f c86f de3f 047d 163f
00000260: d016 b5bd c109 623f 0fc2 ab3e 8cac 813f
00000270: 24d2 fdbf a736 a4c0 4e38 05c0 3a3c 38c0
00000280: da08 37bf 6c85 7d3f 3bad 7f3e 5bd4 a43f
00000290: 3c80 b53f 94f9 bcbf c507 4e3f 9c04 7e3e
000002a0: a118 edbe 1d49 41c0 cb65 4b3e 24b7 6140
000002b0: af18 463f d32b 1bbf 0201 2e3f cd9d 2e3f
000002c0: 878d 1f40 25cc f03f 2026 05be c940 363f
000002d0: 7c94 0d40 ea82 353f 5cda 25c0 a71f 05bf
000002e0: 942c 983f 1410 d73d 7add f9bf e0d8 1640
000002f0: 6cdb 0140 2e6d 783f 86c4 0140 ef59 9d3f
00000300: 1aa4 2dc0 4ba0 0e40 869e ffbe b7d7 13bf
00000310: 0e91 b3bf 8cc8 9c3f 1e14 da3f e1f5 c6bf
00000320: 1239 89be 76d9 e63f a4e5 8fbf e384 823f
00000330: 1567 b93e d54f 72bf 8ce8 623f e524 e33f
00000340: 5c89 f53f 6d9e 69be a8f2 7040 fd27 9f3e
00000350: 5811 69bf 1486 0f40 e89e 67bd ad68 4440
00000360: 144f 07c0 fbec 3b3f 02fe 8240 60e0 5340
00000370: be49 d4bf 5b94 033f 0956 d83f c364 843d
00000380: fe8b 6dbf 8a4e 99bf c8a8 0bbf cf04 2040
00000390: 600a 543e ff4f 203f 6cc6 893f 8aff e63e
000003a0: 1c3c cb3f 39d0 1d40 0c85 983d 458f 2a40
000003b0: b954 e03f cc7f 7f3f c6b1 28bf 6efb 243f
000003c0: 9a3a 913f 27a4 f0bf f135 bc3f c8eb c7bf
000003d0: a6a0 bdbe d117 a4bf 376a 3a3f 175d ce3f
000003e0: dcc0 1c3e 8449 2540 aec0 cd3f e664 1440
000003f0: 2833 953f ea37 13be 1b9c 9ebf 1d96 1140

conv2.bias f4 [32]
-0.023342136 -0.8878296 12.476441 -0.03540132 0.09211633 -0.1216591 -0.112044 -0.28214666
-0.06676461 -0.34509528 0.06934163 -0.06649603 1.4331983 -5.565972 -0.04455239 -8.729962
2.7691147 -0.28022182 1.4216182 -0.49746552 -0.03195465 -0.36668718 0.08607099 -0.13000953
-0.13854656 0.17260967 0.12727635 -0.018465977 -0.99947876 0.02648139 1.6879407 -0.27458772
00000000: 0238 bfbc cd48 63bf 819f 4741 f900 11bd
00000010: 7da7 bc3d 6828 f9bd 5377 e5bd 8775 90be
00000020: e2bb 88bd 54b0 b0be fc02 8e3d 122f 88bd
00000030: 0b73 b73f 711c b2c0 917c 36bd edad 0bc1
00000040: 2d39 3140 3c79 8fbe 96f7 b53f cdb3 febe
00000050: e1e2 02bd 6cbe bbbe fd45 b03d 3821 05be
00000060: 26df 0dbe 97c0 303e bb54 023e f645 97bc
00000070: d7dd 7fbf 80ef d83c 710e d83f c396 8cbe

conv2.lin.weight f4 [32, 64]
0.11767831 -0.05121266 0.03943555 0.11446334 -0.09968847 -0.8758339 -0.28830576 -0.20183465
0.3026745 0.24811368 -0.021151714 -0.11973961 -0.036445726 -0.9774566 1.3217878 -0.015446124
-0.1502179 -0.012624149 -1.0798342 0.12764065 1.0061494 -2.4867318 1.2910517 0.15465537
2.726837 0.025352547 0.3771836 0.60849124 0.17776516 -0.7476398 0.6243977 -0.0253267
0.13196288 1.2051976 -0.43642417 -0.67641 -0.47771773 0.017869748 -0.2156484 -0.005553901
-0.1622678 0.4218382 0.051876094 -0.95845544 -0.021208502 0.12842342 -0.3033938 -4.305717
-0.0038176146 0.07518595 -0.038112845 -0.05066032 -2.6682737 0.04243018 -0.067812994 -0.131024
0.07714274 -0.017597113 0.06556626 0.089100495 0.07474801 0.03992218 -1.810968 -0.008568218
-0.24136353 1.1640849 -0.5330765 0.5242037 0.088226505 0.93979985 0.021186218 0.33985305
-0.77493227 0.00083949213 0.19068472 0.37357542 0.5807859 -0.25538784 -2.2162259 -0.52029735
0.18634035 -0.8397936 -0.35779387 -0.17041983 -0.5663333 -1.8008658 -1.2064283 -0.061261937
-1.5072703 -0.31368625 0.58663416 -0.5107665 0.10185204 -0.5816724 0.208909 -0.6191928
-0.94209915 1.3114552 -0.7693329 0.7076938 0.87413967 0.67764705 -0.119925745 0.8591904
1.1684837 0.15578482 -0.5480582 0.20536454 0.5907377 0.19259948 0.45108452 -0.60548824
-0.40224427 -0.2087637 0.20886146 0.57638437 0.9702501 -0.12192908 -0.29690838 -0.19114713
0.26023048 -1.1135423 -0.13279931 1.0306414 0.26005074 -2.4693513 1.3748264 1.1998338
-0.4804513 -0.05783864 -0.4149809 -0.50250334 0.06636831 -1.682558 -0.57058036 -0.12445264
-0.01893608 0.82384586 -0.5945039 -0.34102395 0.009672414 -0.26608738 0.0059752087 -0.42509717
-0.03484081 -0.7437586 1.4044676 -0.21978012 -0.83906895 1.7604786 -0.6866571 -0.2171779
2.1930816 -0.28154662 -2.6689963 -0.4131884 -0.8186542 0.3055985 -0.8354864 -0.4827433
0.8412831 -0.04370839 0.74999315 -0.9477865 -1.6090384 -0.5265788 -0.8381725 0.15531899
0.18626189 -1.3363953 0.6088044 -0.040044364 -0.8179015 -0.87028563 0.24925822 0.024323586
-0.29906023 -0.65535766 -0.066468194 -1.798892 1.274361 -0.11929036 -0.30466333 -0.39154747
-0.3204258 -0.6493346 -0.26311547 -0.34809858 -0.23437643 -3.316296 -0.695755 -0.72064054
0.01932447 -0.007252745 -0.09888176 0.89414454 1.5539632 -1.5163162 -0.36363345 -0.015704395
0.20393348 0.0689932 -0.027261931 0.06516647 0.034637883 0.70439655 -0.1346637 0.0052137524
-0.0067967237 0.050204933 0.6960627 -0.20304085 -2.2144907 3.853184 -1.3459985 0.044614475
2.0877523 -0.079297595 0.07507344 -0.13057747 0.102450304 -0.26749146 -0.53347653 -0.88370323
-0.08093072 0.44872314 0.971311 -0.5882828 -0.018418588 -0.078787945 -0.08285962 -0.44030344
-0.48599434 -0.056773327 -0.6350117 -1.4707505 -0.032362763 -0.14850652 -0.41765475 -4.2670465
-0.08053866 -0.061163284 0.00010620701 -0.10871409 -0.3707688 -3.468774 0.028174322 -0.042586256
-0.15442301 0.08578229 -0.14291221 0.0009554592 0.012623339 -3.091192 -0.55149454 0.46196
00000000: 5301 f13d 5ec4 51bd 2c87 213d c16b ea3d
00000010: 7829 ccbd a736 60bf d09c 93be bead 4ebe
00000020: 27f8 9a3e 8311 7e3e 5c46 adbc 0a3a f5bd
00000030: 1d48 15bd 993a 7abf 5830 a93f bd11 7dbc
00000040: b9d2 19be 85d5 4ebc 0238 8abf 3bb4 023e
00000050: 81c9 803f 9d26 1fc0 2f41 a53f fa5d 1e3e
00000060: 7f84 2e40 25b0 cf3c 351e c13e 15c6 1b3f
00000070: 1208 363e 5265 3fbf 87d8 1f3f f179 cfbc
00000080: 4721 073e ea43 9a3f fd72 dfbe 3529 2dbf
00000090: 6b97 f4be 9463 923c efd2 5cbe 80fd b5bb
000000a0: 8829 26be 2dfb d73e 077c 543d 565d 75bf
000000b0: 74bd adbc 6e81 033e 6f56 9bbe 6fc8 89c0
000000c0: f230 7abb 17fb 993d 371c 1cbd 3281 4fbd
000000d0: ffc4 2ac0 45cb 2d3d 8ae1 8abd 282b 06be
000000e0: 03fd 9d3d d227 90bc 9a47 863d 527a b63d
000000f0: 7c15 993d 7185 233d cdcd e7bf b661 0cbc
00000100: 0028 77be bc00 953f b477 08bf 3732 063f
00000110: 19b0 b43d b996 703f b88e ad3c 3801 ae3e
00000120: f661 46bf 5d11 5c3a db42 433e 4745 bf3e
00000130: 62ae 143f 32c2 82be a5d6 0dc0 3532 05bf
00000140: 01d0 3e3e b7fc 56bf c230 b7be 8982 2ebe
00000150: 38fb 10bf c582 e6bf 3e6c 9abf cced 7abd
00000160: 3cee c0bf 7c9b a0be a82d 163f 98c1 02bf
00000170: cd97 d03d 7be8 14bf 3eec 553e 6b83 1ebf
00000180: 692d 71bf c4dd a73f 00f3 44bf 6c2b 353f
00000190: 9ec7 5f3f 477a 2d3f a19b f5bd e7f3 5b3f
000001a0: e090 953f 0e86 1f3e 8b4d 0cbf 154b 523e
000001b0: 963a 173f cc38 453e 8df4 e63e 4701 1bbf
000001c0: f6f2 cdbe 27c6 55be c7df 553e ed8d 133f
000001d0: 5062 783f f4b5 f9bd 6004 98be 13bc 43be
000001e0: ee3c 853e 8e88 8ebf 8bfc 07be 0fec 833f
000001f0: 5f25 853e da09 1ec0 50fa af3f 2794 993f
00000200: b6fd f5be 36e8 6cbd 6078 d4be 0fa4 00bf
00000210: 1cec 873d 0f5e d7bf 8e11 12bf 07e1 febd
00000220: d71f 9bbc 90e7 523f 6831 18bf b19a aebe
00000230: 0b79 1e3c 9b3c 88be afcb c33b 56a6 d9be
00000240: 3db5 0ebd f766 3ebf 98c5 b33f 0a0e 61be
00000250: 39cd 56bf 5d57 e13f c2c8 2fbf e263 5ebe
00000260: 735b 0c40 e126 90be d6d0 2ac0 6e8d d3be
00000270: 5293 51bf 6877 9c3e 70e2 55bf 212a f7be
00000280: 545e 573f 9207 33bd 8dff 3f3f 23a2 72bf
00000290: f8f4 cdbf decd 06bf 7992 56bf f10b 1f3e
000002a0: 70bb 3e3e 000f abbf 9bda 1b3f 8f05 24bd
000002b0: fe61 51bf 0acb 5ebf 8c3d 7f3e 4242 c73c
000002c0: 6c1e 99be 85c5 27bf 7a20 88bd 1842 e6bf
000002d0: 431e a33f 814e f4bd d5fc 9bbe e978 c8be
000002e0: da0e a4be cb3a 26bf 12b7 86be fa39 b2be
000002f0: 6000 70be 323e 54c0 001d 32bf e67b 38bf
00000300: 5a4e 9e3c 6fa8 edbb 8582 cabd a8e6 643f
00000310: 44e8 c63f a616 c2bf 2a2e babe 81a6 80bc
00000320: f0d3 503e 4f4c 8d3d 6a54 dfbc 0076 853d
00000330: 74e0 0d3d 5553 343f 48e5 09be 20d8 aa3b
00000340: 0db7 debb b0a3 4d3d 2a31 323f f1e9 4fbe
00000350: 37ba 0dc0 919a 7640 ae49 acbf abbd 363d
00000360: bc9d 0540 c766 a2bd 1bc0 993d 1ab6 05be
00000370: 77d1 d13d a4f4 88be eb91 08bf 603a 62bf
00000380: 01bf a5bd 0abf e53e d6a7 783f b499 16bf
00000390: 94e2 96bc 935b a1bd 4eb2 a9bd 746f e1be
000003a0: 40d4 f8be 268b 68bd 2090 22bf 8d41 bcbf
000003b0: d18e 04bd 1812 18be d8d6 d5be a58b 88c0
000003c0: 74f1 a4bd 5a86 7abd 74bb de38 7ea5 debd
000003d0: 68d5 bdbe 6500 5ec0 d6cd e63c ed6e 2ebd
000003e0: 1121 1ebe a0ae af3d 9457 12be c877 7a3a
000003f0: 1fd2 4e3c 17d6 45c0 bf2e 0dbf 0586 ec3e

link_predictor.0.weight f4 [64, 416]
0.15517391 0.8839335 0.22931981 0.04941699 -0.002374864 0.09406544 0.08357922 -0.15484329
-0.0022863792 0.04426448 -0.43170652 0.034873847 0.24695586 -0.542294 0.056569744 0.07700297
-0.18454376 -0.70824623 0.027218074 -0.26584777 -0.15760575 -0.16612875 -0.19936298 0.08906921
0.2556178 -0.25097272 -0.14415905 0.87409866 0.3674139 0.11423485 -0.07847915 -0.28444317
-0.014102829 0.76835036 14.585316 -12.148328 4.0790925 -27.691458 -13.99403 -8.935671
8.864301 5.122218 4.409075 -5.0719223 8.231722 -0.55733395 7.4286175 19.282026
7.5362563 0.5249464 9.953184 10.375255 -15.359419 6.026154 -4.7013803 -16.94232
-6.4711566 -3.441904 4.1187296 2.5727863 11.256139 2.148811 -12.854991 -18.447876
10.987759 11.915109 -15.794447 -15.064796 1.101446 -1.311386 1.8243489 -4.027805
8.502063 6.4328938 -8.5361395 -2.913561 -11.673502 29.793251 0.9918647 15.367979
28.139824 -0.108791925 6.4439163 -0.18453255 19.62624 24.197348 -4.6753416 23.216122
-13.79327 9.918279 -5.5098143 2.0739691 9.192685 -5.602852 11.302292 26.32332
-21.69744 2.390057 21.293177 -23.123863 -24.669575 -6.3563943 1.0104382 15.356735
7.9814806 4.1199794 -2.801364 -6.67812 -3.1302726 5.0329795 -25.234419 9.690602
18.814093 -0.6085958 40.753815 1.039903 8.548412 29.79541 3.6229913 7.1453567
1.5944574 5.712752 11.702018 7.7740207 -9.582321 -4.299862 2.4778275 -10.605895
-17.972216 4.259707 10.89162 -17.830727 -6.751976 9.361437 -6.5108075 7.943385
-4.848507 -13.283854 9.748433 13.769948 -13.669343 10.716712 -3.0958328 5.4292126
-8.483341 -12.193736 -3.2161746 -4.4752064 5.0457883 -5.811485 -1.648212 20.754532
-11.57083 3.400688 -2.898473 11.624367 -8.460896 -33.065166 -13.082822 -0.021404017
20.518475 29.874567 -6.7693543 -19.68066 9.400232 -16.712376 -13.879855 5.6580353
-5.9835844 5.2123938 -5.3872094 1.3672509 -15.883652 9.462642 -1.0278233 2.4539547
20.772923 -23.25546 -3.07646 14.37662 -18.217295 -4.5118427 -5.062995 -9.553838
6.741291 -21.127956 6.5465236 21.404005 5.17158 7.650609 -1.7805686 20.85975
11.539098 12.282345 10.932012 -24.012938 -2.8919983 -7.0594687 3.0032895 18.761011
3.8806686 -12.025995 -10.080792 4.9701138 -10.814039 7.520087 -3.5812879 10.029693
-10.740609 -19.027992 9.444503 -4.6168137 8.00802 -14.1223755 3.514836 -16.222237
1.4533467 21.221357 -9.865985 -18.20222 12.701387 -12.821028 7.9343233 5.3620224
20.520943 -20.163269 19.42991 3.6445694 -9.68066 0.8332984 -1.9400761 10.387046
-4.4243665 7.938719 -22.914938 31.108185 1.3879409 -11.733355 -12.83277 -5.2644978
2.6569664 10.424724 -9.506548 7.3131447 -28.292543 9.039581 -5.3791256 -4.8030434
-1.0851725 -4.4195137 -1.8383996 -2.9784088 -7.04613 -12.19515 0.04347 -0.024292504
00000000: e9e5 1e3e 7749 623f d0d2 6a3e 7869 4a3d
00000010: 9ba3 1bbb 62a5 c03d 952b ab3d 3d8f 1ebe
00000020: 14d7 15bb ac4e 353d a308 ddbe e1d7 0e3d
00000030: ffe1 7c3e c8d3 0abf adb5 673d bcb3 9d3d
00000040: 0af9 3cbe a04f 35bf 70f8 de3c 331d 88be
00000050: 6763 21be a81d 2abe cf25 4cbe eb69 b63d
00000060: 56e0 823e 7f7f 80be 6e9e 13be eec4 5f3f
00000070: ad1d bc3e f6f3 e93d adb9 a0bd 89a2 91be
00000080: 8d0f 67bc 9cb2 443f 745d 6941 8d5f 42c1
00000090: ed87 8240 1b88 ddc1 8ce7 5fc1 82f8 0ec1
000000a0: 2dd4 0d41 36e9 a340 2417 8d40 304d a2c0
000000b0: 22b5 0341 70ad 0ebf 3cb7 ed40 9741 9a41
000000c0: 0329 f140 e362 063f 3e40 1f41 0b01 2641
000000d0: 2ec0 75c1 41d6 c040 b571 96c0 df89 87c1
000000e0: b713 cfc0 2848 5cc0 a2cc 8340 88a8 2440
000000f0: 2519 3441 1f86 0940 0bae 4dc1 4095 93c1
00000100: dccd 2f41 49a4 3e41 0eb6 7cc1 6809 71c1
00000110: 2ffc 8c3f 7fdb a7bf 4484 e93f c7e3 80c0
00000120: 7308 0841 44da cd40 0794 08c1 c977 3ac0
00000130: aac6 3ac1 9458 ee41 d8ea 7d3f 3ee3 7541
00000140: 5c1e e141 4dce debd 9034 ce40 1af6 3cbe
00000150: 8a02 9d41 2b94 c141 669c 95c0 9eba b941
00000160: 3cb1 5cc1 45b1 1e41 6650 b0c0 e9bb 0440
00000170: 3d15 1341 904a b3c0 30d6 3441 2996 d241
00000180: 5b94 adc1 b2f6 1840 6d58 aa41 acfd b8c1
00000190: 4a5b c5c1 9567 cbc0 0a56 813f 30b5 7541
000001a0: 4a68 ff40 dfd6 8340 8c49 33c0 29b3 d5c0
000001b0: 6356 48c0 2b0e a140 17e0 c9c1 b50c 1b41
000001c0: 4383 9641 efcc 1bbf e803 2342 8b1b 853f
000001d0: 4cc6 0841 005d ee41 17df 6740 c3a6 e440
000001e0: 2e17 cc3f ddce b640 773b 3b41 c7c4 f840
000001f0: 3051 19c1 7898 89c0 ba94 1e40 bfb1 29c1
00000200: 19c7 8fc1 854f 8840 1344 2e41 54a5 8ec1
00000210: 3010 d8c0 72c8 1541 8958 d0c0 3630 fe40
00000220: f826 9bc0 aa8a 54c1 95f9 1b41 b551 5c41
00000230: a1b5 5ac1 a777 2b41 2022 46c0 1cbc ad40
00000240: c4bb 07c1 8b19 43c1 ced5 4dc0 e434 8fc0
00000250: 1977 a140 aff7 b9c0 9cf8 d2bf 4809 a641
00000260: 1f22 39c1 dfa4 5940 9580 39c0 68fd 3941
00000270: d45f 07c1 bb42 04c2 3d53 51c1 7a57 afbc
00000280: d625 a441 1dff ee41 8d9e d8c0 fe71 9dc1
00000290: 5a67 1641 f2b2 85c1 e313 5ec1 a00e b540
000002a0: 8679 bfc0 eecb a640 0564 acc0 1402 af3f
000002b0: 7023 7ec1 fb66 1741 b78f 83bf 980d 1d40
000002c0: f22e a641 2f0b bac1 b8e4 44c0 a306 6641
000002d0: 05bd 91c1 0461 90c0 0e04 a2c0 85dc 18c1
000002e0: a8b8 d740 0e06 a9c1 1f7d d140 673b ab41
000002f0: 957d a540 cad1 f440 ace9 e3bf c5e0 a641
00000300: 25a0 3841 7c84 4441 85e9 2e41 7f1a c0c1
00000310: 8016 39c0 2be7 e1c0 e535 4040 8d16 9641
00000320: e05c 7840 7a6a 40c1 ed4a 21c1 2c0b 9f40
00000330: 4e06 2dc1 8da4 f040 d233 65c0 9f79 2041
00000340: 89d9 2bc1 5439 98c1 af1c 1741 f0bc 93c0
00000350: da20 0041 40f5 61c1 13f3 6040 24c7 81c1
00000360: 4407 ba3f 57c5 a941 13db 1dc1 269e 91c1
00000370: e238 4b41 ee22 4dc1 fae5 fd40 b095 ab40
00000380: e42a a441 604e a1c1 7570 9b41 a040 6940
00000390: fce3 1ac1 0b53 553f 6a54 f8bf 5731 2641
000003a0: 6994 8dc0 fc09 fe40 cb51 b7c1 90dd f841
000003b0: 0ca8 b13f d2bb 3bc1 0753 4dc1 c476 a8c0
000003c0: bd0b 2a40 abcb 2641 d21a 18c1 4805 ea40
000003d0: 2157 e2c1 20a2 1041 cc21 acc0 88b2 99c0
000003e0: efe6 8abf a86c 8dc0 ae50 ebbf 409e 3ec0
000003f0: e679 e1c0 561f 43c1 990d 323d 1301 c7bc

link_predictor.0.bias f4 [64]
-19.299583 -8.877556 -18.408691 -13.083004 -13.544111 -25.29852 -26.856014 -20.16136
-24.360298 -15.885528 -11.636442 -1.5390288 -25.575947 -20.43261 -7.8175592 -11.542785
-16.681156 -16.99515 -24.54199 -10.259186 -18.211065 -19.74164 -15.932594 -17.4063
-16.264482 -17.912098 -27.416483 -18.080378 -17.301235 -26.964506 -26.404463 -24.186731
-17.790417 -11.511419 -20.27401 -25.044638 -11.989951 -7.2788053 -22.317055 -20.794353
-6.393663 -22.526451 -14.574318 0.16840233 -4.6166167 -12.762598 -19.794485 -23.101341
-17.383327 -5.1836033 -26.534039 -21.411722 -15.336586 -25.79428 -11.932681 -18.321907
-12.59104 -8.3637085 -13.0851 -23.607304 -27.765968 -25.052385 -14.371114 -19.549953
00000000: 8c65 9ac1 780a 0ec1 0045 93c1 fc53 51c1
00000010: aeb4 58c1 5e63 cac1 1ed9 d6c1 774a a1c1
00000020: e4e1 c2c1 1f2b 7ec1 de2e 3ac1 e5fe c4bf
00000030: 8a9b ccc1 fc75 a3c1 7229 fac0 3faf 38c1
00000040: 0273 85c1 11f6 87c1 ff55 c4c1 a025 24c1
00000050: 43b0 91c1 e1ee 9dc1 e8eb 7ec1 1a40 8bc1
00000060: a91d 82c1 fa4b 8fc1 f554 dbc1 9da4 90c1
00000070: ee68 8ac1 4fb7 d7c1 573c d3c1 6d7e c1c1
00000080: c652 8ec1 c62e 38c1 2c31 a2c1 6b5b c8c1
00000090: d7d6 3fc1 f9eb e8c0 5489 b2c1 d65a a6c1
000000a0: e398 ccc0 2c36 b4c1 6830 69c1 a971 2c3e
000000b0: 53bb 93c0 9a33 4cc1 1b5b 9ec1 8ccf b8c1
000000c0: 0e11 8bc1 14e0 a5c0 b645 d4c1 354b abc1
000000d0: a862 75c1 af5a cec1 43ec 3ec1 4493 92c1
000000e0: e674 49c1 c0d1 05c1 925c 51c1 c2db bcc1
000000f0: b420 dec1 496b c8c1 15f0 65c1 4e66 9cc1

link_predictor.2.weight f4 [1, 64]
0.031897962 -0.06885848 -0.10019915 -0.058332395 -0.09067096 0.13403784 0.03421122 0.07349978
0.071247146 -0.0834974 -0.11593879 -0.06390983 0.13191429 0.12138188 -0.10768018 -0.0948951
0.05733106 -0.10222573 -0.07134623 -0.08766375 0.09179315 0.0880172 -0.09901571 -0.07838196
-0.10947839 -0.09228593 0.03860347 -0.07536102 0.08722692 -0.07149779 -0.1306083 0.028031668
0.04267527 -0.108927794 0.06805273 -0.11678568 -0.096438766 -0.06633436 0.07102525 -0.090083666
-0.0892503 -0.11350115 -0.109463625 -0.10946782 -0.09507074 -0.093966946 0.11566334 0.08524889
-0.080912724 0.057318546 0.09740894 0.07830045 0.08005354 0.07502104 0.101960234 -0.12287037
-0.07703096 -0.10010053 -0.09330775 0.09742768 -0.091816805 0.10801677 0.08526055 0.05053544
00000000: 70a7 023d ad05 8dbd 3635 cdbd f3ed 6ebd
00000010: b2b1 b9bd 3741 093e 1021 0c3d 0d87 963d
00000020: 06ea 913d af00 abbd 5171 edbd 28e3 82bd
00000030: 8a14 073e 1097 f83d 6d87 dcbd 5d58 c2bd
00000040: f9d3 6a3d b95b d1bd f91d 92bd 0d89 b3bd
00000050: 0cfe bb3d 5d42 b43d c0c8 cabd b986 a0bd
00000060: 3536 e0bd 6800 bdbd ac1e 1e3d e156 9abd
00000070: 07a4 b23d 6f6d 92bd 2fbe 05be aba2 e53c
00000080: 44cc 2e3d 8915 dfbd 3b5f 8b3d 552d efbd
00000090: b081 c5bd 4fda 87bd b075 913d c97d b8bd
000000a0: dcc8 b6bd 4a73 e8bd 772e e0bd aa30 e0bd
000000b0: 73b4 c2bd be71 c0bd e7e0 ec3d f896 ae3d
000000c0: 92b5 a5bd dac6 6a3d 577e c73d fd5b a03d
000000d0: 1cf3 a33d a2a4 993d 87d0 d03d 76a3 fbbd
000000e0: 68c2 9dbd 8201 cdbd 2218 bfbd 2a88 c73d
000000f0: 730a bcbd e537 dd3d 159d ae3d 40fe 4e3d
