checkpoints/model_epoch_31.pth (torch, 217428 bytes, 7 tensors)

conv1.bias f4 [64]
0.066449694 0.6319879 1.0535789 -2.4091299 -3.7573204 -5.3921223 -4.9021306 -0.67304635
-2.771767 -2.8071191 0.0038648932 -1.6557168 0.2911792 -19.135275 -14.0679455 1.5026579
0.23733735 0.06381946 -22.15537 0.8531115 -19.863972 -12.749487 -9.006433 0.5810924
-11.420734 0.88317496 -9.622309 -1.965317 0.5656594 -7.1896706 -3.642404 -3.4351068
-13.863332 -5.218997 -3.6824503 -3.1952066 -4.5877194 0.031122886 -2.9590578 -3.735417
-4.4326177 -8.218085 -23.917395 -2.8877754 1.0136282 0.7936508 -1.8039614 -10.555172
2.18199 0.62708753 0.06305805 0.3599727 -25.183426 -9.651982 2.5365202 0.24341245
-3.6715198 0.4087365 1.105729 0.07150823 -1.7304926 -16.097105 -7.5509896 -8.048729
00000000: c716 883d f6c9 213f acdb 863f 2f2f 1ac0
00000010: f077 70c0 448c acc0 41de 9cc0 c44c 2cbf
00000020: a164 31c0 d7a7 33c0 264a 7d3b 87ee d3bf
00000030: 7115 953e 0b15 99c1 4e16 61c1 1857 c03f
00000040: 9008 733e c7b3 823d 333e b1c1 8465 5a3f
00000050: 6ae9 9ec1 e6fd 4bc1 591a 10c1 79c2 143f
00000060: 54bb 36c1 c117 623f faf4 19c1 828f fbbf
00000070: 0ecf 103f c811 e6c0 261d 69c0 cad8 5bc0
00000080: 35d0 5dc1 0602 a7c0 44ad 6bc0 447e 4cc0
00000090: 99ce 92c0 6cf5 fe3c 3461 3dc0 1211 6fc0
000000a0: 01d8 8dc0 477d 03c1 d356 bfc1 50d1 38c0
000000b0: 92be 813f b32c 4b3f 35e8 e6bf fce1 28c1
000000c0: b9a5 0b40 cf88 203f 9424 813d 574e b83e
000000d0: a877 c9c1 856e 1ac1 5956 2240 1d41 793e
000000e0: 2efa 6ac0 e945 d13e 8788 8d3f e872 923d
000000f0: c880 ddbf dfc6 80c1 b5a1 f1c0 98c7 00c1

conv1.lin.weight f4 [64, 384]
2.2433748 2.5971265 -0.023336565 -0.033612963 0.34701023 -1.1926669 0.91925704 -0.24027829
-1.3773457 1.2861893 1.7091924 0.25014582 -3.2595232 2.8657973 0.5577408 1.2380615
-0.93341774 -0.4421499 0.7617878 -2.4251595 -0.073805846 -1.4143127 -0.13337454 2.3395753
4.4012947 2.7734408 1.2805411 -0.44401795 1.7964618 1.141542 0.23676378 2.9693792
-1.0726697 1.0119525 5.4562845 1.7130616 -1.027314 -0.8067427 -0.2244923 1.2337915
-3.4182405 -0.20223242 0.13807581 -2.6033297 1.6253095 -0.18469192 -0.36213037 -2.7973297
1.3861918 -5.2321615 1.8416517 2.1147027 2.5818942 -2.512573 2.251821 1.6298954
1.8349934 0.25514174 0.078045994 1.9148471 -1.6906527 0.8186563 -1.8600099 -0.35053423
0.9674325 -3.9703815 2.6285768 1.357741 -0.23114467 0.3408817 2.493452 0.5259532
0.69455004 -0.163809 0.81658524 -1.1082147 2.0484164 -1.9762267 2.9992528 -0.77825105
1.8342159 2.6054688 -1.1415532 0.56595284 2.1544044 -1.8632712 3.6415043 -4.9157314
2.7740047 1.1477915 -1.5461842 -0.3240698 -1.533666 0.06056385 1.3358167 -0.7955969
-0.88978857 0.18128656 1.3909413 -0.59166676 1.4094143 1.4749899 0.5262955 -1.5634775
-2.0456574 -0.5202522 0.5644726 -0.79260534 -1.7984905 -3.1089306 1.7487006 2.1793604
-0.34787664 -1.1683837 -0.36251792 1.0730853 -1.735652 -3.6051285 1.1718063 1.1496152
0.7338291 3.7860584 -0.9285547 -0.88286 2.354158 -0.08084463 -1.2569141 0.071992666
-1.206566 1.0988352 2.4659426 -1.9686593 -0.94070834 -0.073628806 1.6889077 1.4283766
1.8812256 0.34023666 0.18189426 2.345725 1.7247143 2.178415 -1.7198383 2.439602
0.21186726 1.9437124 -1.7504616 1.0720514 1.2512649 1.80745 1.1929126 0.2362802
-0.3274362 0.9498099 -0.12788445 1.1897547 -1.4503466 -4.239928 -1.9778869 -2.5907862
-0.68585575 1.2304235 -0.13723233 1.4521736 2.6195955 -0.8801391 1.1251332 0.69330794
-0.4409086 -3.3641398 -0.034004655 3.625114 0.615149 -0.26566854 1.2124145 0.6839145
3.434535 2.7455971 -0.11808574 0.85268146 1.9840635 0.49362165 -2.6315577 -1.0139136
1.5291092 0.5963754 -2.036366 2.3953776 2.3927317 0.8131881 2.57751 1.7208925
-2.799229 2.449828 -0.12519243 -0.8722731 -1.9509703 1.3791277 1.8386657 -1.8869232
-1.1354171 2.0531716 -0.7470809 0.23995236 0.30418378 -1.4414506 1.2283162 1.5145944
2.0285478 -0.16341175 4.313444 0.7795414 -0.5860371 2.5280244 0.50277567 2.809885
-1.3845676 0.794896 3.6124244 2.344633 -2.180125 -0.00163251 2.7017903 0.06464531
-0.8009777 -0.88915384 -0.36933237 3.0236368 0.7884206 0.6817943 0.6743319 -0.11842392
1.2974195 1.8098778 -0.66229516 2.253831 2.331319 0.65486854 -0.99319625 0.13908982
1.6588397 -1.2523736 1.7440225 -1.2293527 -0.3863608 -0.8252872 0.5000959 0.5262395
-0.20586379 2.0331485 1.0961705 2.1461232 1.280375 0.07291252 -0.5985809 2.1367807
00000000: 7493 0f40 5237 2640 532c bfbc bfad 09bd
00000010: 53ab b13e 4fa9 98bf 6e54 6b3f 830b 76be
00000020: dd4c b0bf daa1 a43f d1c6 da3f 1d13 803e
00000030: 079c 50c0 3969 3740 1ac8 0e3f cd78 9e3f
00000040: 77f4 6ebf 7961 e2be 8604 433f d035 1bc0
00000050: 8527 97bd 3308 b5bf 5693 08be 9abb 1540
00000060: 68d7 8c40 0e80 3140 c5e8 a33f 5256 e3be
00000070: 76f2 e53f 0c1e 923f 3472 723e 4f0a 3e40
00000080: 3e4d 89bf a987 813f e299 ae40 9a45 db3f
00000090: 067f 83bf b186 4ebf 4fe1 65be e1ec 9d3f
000000a0: 74c4 5ac0 0416 4fbe bf63 0d3e f49c 26c0
000000b0: 240a d03f e11f 3dbe 2769 b9be 7307 33c0
000000c0: bc6e b13f de6d a7c0 3ebb eb3f 4a57 0740
000000d0: c13d 2540 ffcd 20c0 d61d 1040 6aa0 d03f
000000e0: 10e1 ea3f f0a1 823e 94d6 9f3d b619 f53f
000000f0: 4f67 d8bf 7693 513f ce14 eebf 3979 b3be
00000100: a8a9 773f bb1a 7ec0 9a3a 2840 75ca ad3f
00000110: 30b1 6cbe 0c88 ae3e b894 1f40 dea4 063f
00000120: 08ce 313f 8cbd 27be bb0b 513f fbd9 8dbf
00000130: 4119 0340 fff4 fcbf c2f3 3f40 763b 47bf
00000140: 96c7 ea3f 00c0 2640 6a1e 92bf 49e2 103f
00000150: c3e1 0940 ac7f eebf 680e 6940 ac4d 9dc0
00000160: 4b89 3140 d5ea 923f 5de9 c5bf 7aec a5be
00000170: 2b4f c4bf cd11 783d 0bfc aa3f 3dac 4bbf
00000180: 2fc9 63bf 2fa3 393e 5d0a b23f 7977 17bf
00000190: b067 b43f 78cc bc3f 4dbb 063f 0820 c8bf
000001a0: 0dec 02c0 402f 05bf 4781 103f 2fe8 4abf
000001b0: f034 e6bf b8f8 46c0 6cd5 df3f a47a 0b40
000001c0: e31c b2be 998d 95bf f39b b9be dc5a 893f
000001d0: d829 debf 6dba 66c0 c0fd 953f 9726 933f
000001e0: 39dc 3b3f c84e 7240 c3b5 6dbf 1d03 62bf
000001f0: 86aa 1640 df91 a5bd 90e2 a0bf e470 933d
00000200: c170 9abf a2a6 8c3f 01d2 1d40 07fd fbbf
00000210: 43d2 70bf b3ca 96bd 212e d83f 0bd5 b63f
00000220: 00cc f03f 8033 ae3e 7d42 3a3e 5c20 1640
00000230: 70c3 dc3f 276b 0b40 a923 dcbf 7022 1c40
00000240: bbf3 583e 91cb f83f 200f e0bf fb38 893f
00000250: 7329 a03f 865a e73f 5cb1 983f 70f3 713e
00000260: b8a5 a7be be26 733f 24f4 02be e249 983f
00000270: f5a4 b9bf 7dad 87c0 662b fdbf 71cf 25c0
00000280: 3e94 2fbf 847e 9d3f a286 0cbe d3e0 b93f
00000290: 74a7 2740 cc50 61bf 5d04 903f a17c 313f
000002a0: c6be e1be 114e 57c0 7748 0bbd de01 6840
000002b0: 687a 1d3f b505 88be 6630 9b3f 0515 2f3f
000002c0: 6ccf 5b40 ddb7 2f40 f0d6 f1bd 5549 5a3f
000002d0: cbf5 fd3f fabb fc3e 716b 28c0 ecc7 81bf
000002e0: dab9 c33f 0fac 183f d253 02c0 de4d 1940
000002f0: 8422 1940 182d 503f edf5 2440 3546 dc3f
00000300: 9126 33c0 fbc9 1c40 7232 00be 4a4d 5fbf
00000310: 65b9 f9bf 4287 b03f 6659 eb3f b386 f1bf
00000320: 5955 91bf 2a67 0340 b240 3fbf 12b6 753e
00000330: fabd 9b3e 7481 b8bf 7739 9d3f 3bde c13f
00000340: bad3 0140 6955 27be bc07 8a40 0690 473f
00000350: 8706 16bf 27cb 2140 e8b5 003f 28d5 3340
00000360: 8339 b1bf 4e7e 4b3f f631 6740 780e 1640
00000370: 2b87 0bc0 f2f9 d5ba 22ea 2c40 c364 843d
00000380: e00c 4dbf 969f 63bf 2219 bdbe 4483 4140
00000390: efd5 493f 128a 2e3f 04a1 2c3f 3d88 f2bd
000003a0: d811 a63f 13aa e73f 2d8c 29bf c43e 1040
000003b0: 5534 1540 77a5 273f 1c42 7ebf 906d 0e3e
000003c0: dc54 d43f c74d a0bf 213c df3f 6e5b 9dbf
000003d0: 15d1 c5be 0646 53bf 4906 003f a2b7 063f
000003e0: f5cd 52be 1b1f 0240 514f 8c3f 155a 0940
000003f0: 54e3 a33f 2953 953d 993c 19bf 04c1 0840

conv2.bias f4 [32]
0.0678953 -0.8839556 12.924714 0.25917977 -0.043992978 -0.084158346 0.007976448 -0.24634413
0.19339849 0.12610415 0.3793149 -0.15413876 1.4338754 -5.119021 0.022239735 -8.9798355
2.7898936 -0.29695052 1.4019922 -0.61521 -0.22251646 -0.41766167 0.010883691 -0.0550057
-0.08781922 0.20775406 -0.06196029 0.14081226 -1.1129278 -0.009662556 1.6684221 -0.17855379
00000000: b10c 8b3d ea4a 62bf a1cb 4e41 36b3 843e
00000010: fb31 34bd 365b acbd a6af 023c a341 7cbe
00000020: 410a 463e 7221 013e 9035 c23e 8dd6 1dbe
00000030: 3b89 b73f 05cf a3c0 1b30 b63c 68ad 0fc1
00000040: 9e8d 3240 e609 98be 7b74 b33f 677e 1dbf
00000050: 5bdb 63be c0d7 d5be 8251 323c a84d 61bd
00000060: 90da b3bd 7bbd 543e 13ca 7dbd 1731 103e
00000070: 6b74 8ebf b34f 1ebc db8e d53f ced6 36be

conv2.lin.weight f4 [32, 64]
0.11374505 0.124133766 -0.10896152 0.11446334 -0.09968847 -0.8758339 -0.28830576 -0.20183465
0.3026745 0.24811368 0.066427544 0.094084136 -0.051639 -0.5488236 0.64371264 0.046851974
-0.048512816 -0.0051324405 -0.90766513 -0.021522854 -1.0926877 -1.2556522 1.2910517 -0.18435499
2.1414587 -0.045256566 0.016049877 0.60849124 -0.026059575 -0.7476398 0.6243977 -0.0253267
0.071340434 1.2051976 -0.43642417 -0.67641 -0.1531505 -0.047774084 0.14550908 -0.005553901
-0.1622678 -0.16179565 0.41703466 -0.95845544 -0.01314758 -0.037126552 -0.3033938 -3.4622657
-0.054062027 -0.019491188 -0.16372605 -0.055365145 -0.3378648 0.04243018 0.10185034 0.18075599
-0.25325787 0.07642478 0.07781063 0.0025324323 0.0060178326 -0.27262315 -1.810968 0.27998823
-0.35630238 1.1242784 -0.41220537 0.5242037 0.088226505 0.93979985 0.021186218 0.33985305
-0.77493227 0.00083949213 0.23342618 0.35323247 0.5455776 -0.33960482 -1.4071889 -0.4843968
0.097403936 -0.7607857 0.083709635 -0.29131234 -0.7543241 -0.79435575 -1.2064283 -0.038599055
-1.6584433 -0.361 0.49460545 -0.5107665 0.17893682 -0.5816724 0.208909 -0.6191928
-0.57624227 1.3114552 -0.7693329 0.7076938 0.86557657 0.7273314 -0.19081517 0.8591904
1.1684837 0.12979083 -0.2214343 0.20536454 0.65513206 0.100515544 0.45108452 -0.33933625
-0.1551314 -0.022931967 0.26730186 0.5792849 1.1029298 -0.12192908 -0.21388362 -0.21725713
0.31398815 -1.1889778 -0.20362033 0.85843307 0.3387246 -1.3831165 1.3748264 1.020771
-0.5439168 -0.15159674 -0.51403445 -0.50250334 0.06636831 -1.682558 -0.57058036 -0.12445264
-0.01893608 0.82384586 -0.63676536 -0.41955742 -0.08707713 0.2604201 0.7639272 -0.5006533
-0.15306692 -0.7351068 0.48031533 -0.1432998 0.065748096 -0.41299996 -0.6866571 -0.17269687
1.0722574 -0.32242134 -2.607513 -0.4131884 -0.8827742 0.3055985 -0.8354864 -0.4827433
1.0409656 -0.04370839 0.74999315 -0.9477865 -1.8399867 -0.50573796 -0.6733671 0.15531899
0.18626189 -1.3562982 0.6868589 -0.040044364 -0.7248385 -0.976408 0.24925822 -0.7706388
-0.18220778 -0.6706869 -0.11809087 -1.7697297 0.0013888836 -0.11929036 -0.3266374 -0.43640065
-0.34801897 -0.7636355 -0.31043944 -0.35952264 -0.2523053 -2.35152 -0.695755 -1.0223128
0.120945014 0.006563162 -0.07132232 0.89414454 1.5539632 -1.5163162 -0.36363345 -0.015704395
0.20393348 0.0689932 -0.041214444 0.20894815 -0.1290099 -1.7803929 -0.239589 -0.010187831
0.088237464 -0.18692903 0.48270008 0.07453767 -3.1763287 1.2355369 -1.3459985 -0.0015862653
1.6379592 0.101897135 0.36207333 -0.13057747 -0.08402152 -0.26749146 -0.53347653 -0.88370323
0.3620364 0.44872314 0.971311 -0.5882828 0.08617873 -0.026871398 -0.12062142 -0.44030344
-0.48599434 0.4864291 0.121306814 -1.4707505 0.12536825 -0.043744057 -0.41765475 -1.0040148
0.005812031 0.027488055 -0.17722373 -0.035552457 -0.99736136 -3.468774 -9.046245e-05 0.050865572
0.18025172 0.1097459 0.13242878 -0.20944144 -0.1946285 0.035797864 -0.55149454 0.13263832
00000000: 2af3 e83d d839 fe3d 3827 dfbd c16b ea3d
00000010: 7829 ccbd a736 60bf d09c 93be bead 4ebe
00000020: 27f8 9a3e 8311 7e3e 2a0b 883d 2faf c03d
00000030: 6b83 53bd b47f 0cbf 5aca 243f dbe7 3f3d
00000040: 60b5 46bd 082e a8bb be5c 68bf b250 b0bc
00000050: 31dd 8bbf 36b9 a0bf 2f41 a53f 8ec7 3cbe
00000060: a90d 0940 f35e 39bd 087b 833c 15c6 1b3f
00000070: e47a d5bc 5265 3fbf 87d8 1f3f f179 cfbc
00000080: ef1a 923d ea43 9a3f fd72 dfbe 3529 2dbf
00000090: 7cd3 1cbe c2ae 43bd 5500 153e 80fd b5bb
000000a0: 8829 26be c2ad 25be 9185 d53e 565d 75bf
000000b0: f368 57bc 0312 18bd 6f56 9bbe c395 5dc0
000000c0: 2570 5dbd fcab 9fbc cda7 27be 90c6 62bd
000000d0: 9dfc acbe 45cb 2d3d e996 d03d 1918 393e
000000e0: 04ab 81be 9884 9c3d 2e5b 9f3d 2af7 253b
000000f0: 3d31 c53b 4395 8bbe cdcd e7bf 9e5a 8f3e
00000100: 446d b6be 5be8 8f3f 950c d3be 3732 063f
00000110: 19b0 b43d b996 703f b88e ad3c 3801 ae3e
00000120: f661 46bf 5d11 5c3a 4607 6f3e e3da b43e
00000130: f9aa 0b3f afe0 adbe c41e b4bf db02 f8be
00000140: b77b c73d dac2 42bf f56f ab3d e426 95be
00000150: 621b 41bf e65a 4bbf 3e6c 9abf 0b1a 1ebd
00000160: df47 d4bf fed4 b8be ed3c fd3e 98c1 02bf
00000170: 373b 373e 7be8 14bf 3eec 553e 6b83 1ebf
00000180: 9d84 13bf c4dd a73f 00f3 44bf 6c2b 353f
00000190: 6d96 5d3f 6432 3a3f 0d65 43be e7f3 5b3f
000001a0: e090 953f e3e7 043e acbf 62be 154b 523e
000001b0: bcb6 273f 18db cd3d 8df4 e63e 7bbd adbe
000001c0: c4da 1ebe d2db bbbc cadb 883e 044c 143f
000001d0: ce2c 8d3f f4b5 f9bd 4f04 5bbe a778 5ebe
000001e0: 0ec3 a03e 6d30 98bf d981 50be 45c2 5b3f
000001f0: 506d ad3e f609 b1bf 50fa af3f a0a8 823f
00000200: 223e 0bbf 2d3c 1bbe c397 03bf 0fa4 00bf
00000210: 1cec 873d 0f5e d7bf 8e11 12bf 07e1 febd
00000220: d71f 9bbc 90e7 523f 0e03 23bf 3bd0 d6be
00000230: 7f55 b2bd c955 853e bc90 433f d12a 00bf
00000240: 93bd 1cbe f62f 3cbf e4eb f53e 2fbd 12be
00000250: f0a6 863d bb74 d3be c2c8 2fbf 73d7 30be
00000260: bb3f 893f 6914 a5be 7ee1 26c0 6e8d d3be
00000270: 7dfd 61bf 6877 9c3e 70e2 55bf 212a f7be
00000280: 5c3e 853f 9207 33bd 8dff 3f3f 23a2 72bf
00000290: af84 ebbf 0b78 01bf c961 2cbf f10b 1f3e
000002a0: 70bb 3e3e 2e9b adbf fcd5 2f3f 8f05 24bd
000002b0: 048f 39bf e0f5 79bf 8c3d 7f3e 9648 45bf
000002c0: ad94 3abe 23b2 2bbf a0d9 f1bd 8186 e2bf
000002d0: 330b b63a 814e f4bd 043d a7be e86f dfbe
000002e0: 8b2f b2be 9e7d 43bf ebf1 9ebe 5a13 b8be
000002f0: 292e 81be 4e7f 16c0 001d 32bf 25db 82bf
00000300: 05b2 f73d cb0f d73b 7011 92bd a8e6 643f
00000310: 44e8 c63f a616 c2bf 2a2e babe 81a6 80bc
00000320: f0d3 503e 4f4c 8d3d 7ad0 28bd 81f6 553e
00000330: 2c1b 04be eae3 e3bf d256 75be dcea 26bc
00000340: d8b5 b43d 536a 3fbe 7724 f73e 35a7 983d
00000350: f848 4bc0 1326 9e3f ae49 acbf 3bea cfba
00000360: a6a8 d13f 72af d03d ad61 b93e 1ab6 05be
00000370: 7a13 acbd a4f4 88be eb91 08bf 603a 62bf
00000380: d65c b93e 0abf e53e d6a7 783f b499 16bf
00000390: 797e b03d 6821 dcbc 5d08 f7bd 746f e1be
000003a0: 40d4 f8be 3c0d f93e b56f f83d 8d41 bcbf
000003b0: 8960 003e f82c 33bd d8d6 d5be 8f83 80bf
000003c0: da72 be3b a12e e13c 237a 35be 749f 11bd
000003d0: 1353 7fbf 6500 5ec0 a8b6 bdb8 6b58 503d
000003e0: e893 383e 75c2 e03d 699b 073e d177 56be
000003f0: b24c 47be c8a0 123d bf2e 0dbf 57d2 073e

link_predictor.0.weight f4 [64, 416]
-0.10879478 0.96744037 0.22975545 -0.16137996 0.16126288 0.29470277 0.038239863 -0.32921207
-0.024009768 -0.025937567 -0.19948916 -0.13266958 0.32945755 -0.51623553 -0.18004058 -0.036998235
0.010821952 -0.9620628 -0.090768605 0.02688298 0.06477352 -0.13691154 0.16671029 -0.26761192
0.11523964 0.14870323 0.13716653 0.5234819 0.6461511 -0.06317898 -0.12766007 -0.19617146
0.3432795 2.933287 13.5571165 -12.562002 1.9491271 -27.617958 -17.033604 -7.646714
10.173572 5.7304025 4.1880507 -5.2639136 8.856555 -2.1120648 7.318252 20.417099
8.519738 0.13622704 8.924401 10.743692 -16.171919 7.883373 -6.539213 -16.18035
-9.482017 -2.7279556 4.3190804 4.3030233 11.435105 0.8995583 -12.802878 -16.390852
8.593455 15.239175 -16.124653 -15.765945 3.4137785 -1.3947263 4.1056166 -0.47561276
9.6248 7.2836995 -13.2943325 -6.090459 -10.256905 31.42387 -1.8978835 14.91228
29.465548 -1.3582442 5.168443 0.09872846 23.909067 25.005672 -4.8807955 25.102926
-14.375155 8.988969 -6.4384346 3.4917526 6.9934855 -4.5817227 11.667619 30.122019
-22.602446 4.0493298 21.736355 -24.789637 -31.21684 -9.063306 2.4986446 16.963585
6.705856 2.5187163 -4.8297663 -7.505845 -4.519842 7.0333796 -26.048143 10.837317
18.509624 -1.3214324 44.130527 3.6574361 9.484963 30.54521 3.3387635 8.115155
0.8092755 6.7856917 13.705518 7.7142577 -9.085579 -3.6877882 1.3998663 -10.209214
-18.41411 3.5724676 10.08669 -21.062506 -6.0902896 11.06885 -5.5169506 8.312018
-5.01457 -15.097762 10.528766 12.6300955 -14.859777 8.254646 -3.4639554 3.576488
-7.0724363 -12.673937 -3.266588 -3.2750652 4.089861 -8.313986 -0.27109239 21.831545
-12.210846 1.6389525 -2.5349646 11.665233 -8.278086 -31.886866 -15.252879 -0.021404017
22.056467 30.285141 -7.266426 -17.59344 11.388194 -16.177332 -16.90928 7.4436975
-3.1266367 5.161742 -5.4137793 0.035844266 -14.365606 11.144358 -0.62618035 2.0927184
21.133009 -23.123833 -3.3845358 17.001951 -15.273629 -3.0573978 -1.6539731 -9.933012
8.087745 -19.447437 4.063241 22.154808 6.5798006 10.321592 -0.10103332 23.427
13.430967 14.545536 8.95073 -24.480175 -4.631784 -5.595752 3.7404368 18.743725
2.6878493 -13.003814 -10.785238 7.577344 -9.754928 9.784985 -4.780979 10.090648
-10.532147 -20.260357 7.2162976 -7.004873 5.9629955 -12.53252 5.6045957 -14.43598
1.136875 24.24248 -10.595388 -20.194424 13.603364 -14.653023 9.067879 4.931586
20.98303 -23.155294 17.651157 5.5258703 -5.8805885 2.3186219 -3.8368528 13.342803
-4.8136506 6.3170347 -25.266945 35.173832 1.2641572 -12.276336 -14.134662 -6.8524036
3.5312104 9.187373 -13.30687 3.2526994 -27.986372 9.848797 -5.799786 -6.8372345
-1.4978755 -4.4805746 -1.310572 0.06150651 -4.588898 -12.035567 1.6443429 -0.024292504
00000000: cccf debd 2caa 773f 0345 6b3e ca40 25be
00000010: 1922 253e 48e3 963e 67a1 1c3d 7c8e a8be
00000020: 22b0 c4bc 057b d4bc e346 4cbe 89da 07be
00000030: a9ae a83e 0328 04bf 8f5c 38be 768b 17bd
00000040: 8e4e 313c bf49 76bf e4e4 b9bd b239 dc3c
00000050: fba7 843d 8a32 0cbe 1ab6 2a3e 6e04 89be
00000060: c302 ec3d a945 183e 6275 0c3e e902 063f
00000070: 296a 253f fb63 81bd 52b9 02be 2ce1 48be
00000080: 55c2 af3e f9ba 3b40 f3e9 5841 f6fd 48c1
00000090: ff7c f93f 94f1 dcc1 d244 88c1 e2b1 f4c0
000000a0: f3c6 2241 755f b740 8304 8640 fb71 a8c0
000000b0: 73b4 0d41 122c 07c0 1f2f ea40 3856 a341
000000c0: d950 0841 1a7f 0b3e 59ca 0e41 2ae6 2b41
000000d0: 1760 81c1 9744 fc40 3c41 d1c0 5b71 81c1
000000e0: 57b6 17c1 d396 2ec0 e835 8a40 5eb2 8940
000000f0: 31f6 3641 7449 663f 97d8 4cc1 7720 83c1
00000100: cb7e 0941 a9d3 7341 4aff 80c1 5041 7cc1
00000110: 597b 5a40 6486 b2bf 3661 8340 8483 f3be
00000120: 2eff 1941 1114 e940 96b5 54c1 0ae5 c2c0
00000130: 481c 24c1 1664 fb41 d9ed f2bf b398 6e41
00000140: 71b9 eb41 f2da adbf e363 a540 2632 ca3d
00000150: c545 bf41 9e0b c841 7a2f 9cc0 cbd2 c841
00000160: a300 66c1 d1d2 0f41 a807 cec0 e078 5f40
00000170: a2ca df40 799d 92c0 91ae 3a41 e5f9 f041
00000180: cfd1 b4c1 1c94 8140 0ee4 ad41 2d51 c6c1
00000190: 17bc f9c1 4d03 11c1 cbe9 1f40 6cb5 8741
000001a0: 5f96 d640 a632 2140 728d 9ac0 e22f f0c0
000001b0: 8ca2 90c0 7211 e140 9962 d0c1 a765 2d41
000001c0: b613 9441 b224 a9bf a985 3042 6f13 6a40
000001d0: 69c2 1741 975c f441 4dae 5540 add7 0141
000001e0: ae2c 4f3f 6324 d940 cd49 5b41 33db f640
000001f0: 885e 11c1 b904 6cc0 d22e b33f f158 23c1
00000200: 1950 93c1 4fa3 6440 1563 2141 0380 a8c1
00000210: a7e3 c2c0 021a 3141 dc8a b0c0 07fe 0441
00000220: 5c77 a0c0 6f90 71c1 d375 2841 df14 4a41
00000230: a6c1 6dc1 0813 0441 72b1 5dc0 2ee5 6440
00000240: 6651 e2c0 72c8 4ac1 c70f 51c0 ab9a 51c0
00000250: 24e0 8240 1606 05c1 9fcc 8abe 01a7 ae41
00000260: a05f 43c1 32c9 d13f dc3c 22c0 cba4 3a41
00000270: 0a73 04c1 4d18 ffc1 cb0b 74c1 7a57 afbc
00000280: a573 b041 f847 f241 9086 e8c0 5dbf 8cc1
00000290: 0b36 3641 2d6b 81c1 3546 87c1 c532 ee40
000002a0: d11a 48c0 fe2c a540 ae3d adc0 70d1 123d
000002b0: 86d9 65c1 4a4f 3241 5b4d 20bf 19ef 0540
000002c0: 6710 a941 9cfd b8c1 3c9c 58c0 ff03 8841
000002d0: c960 74c1 68ac 43c0 64b5 d3bf 9eed 1ec1
000002e0: 6767 0141 5a94 9bc1 1206 8240 0c3d b141
000002f0: ba8d d240 3e25 2541 8fea cebd 7f6a bb41
00000300: 3ee5 5641 84ba 6841 3136 0f41 66d7 c3c1
00000310: 9337 94c0 6610 b3c0 5163 6f40 26f3 9541
00000320: b905 2c40 9f0f 50c1 5690 2cc1 9a79 f240
00000330: 2f14 1cc1 4c8f 1c41 c8fd 98c0 4b73 2141
00000340: ad83 28c1 3615 a2c1 e9eb e640 eb27 e0c0
00000350: dcd0 be40 3485 48c1 d958 b340 c6f9 66c1
00000360: 1f85 913f 99f0 c141 b686 29c1 2e8e a1c1
00000370: 61a7 5941 c872 6ac1 0816 1141 8dcf 9d40
00000380: 3fdd a741 0b3e b9c1 9235 8d41 eed3 b040
00000390: c82d bcc0 4d64 1440 ff8e 75c0 1f7c 5541
000003a0: 6d09 9ac0 2625 ca40 b422 cac1 01b2 0c42
000003b0: e7cf a13f df6b 44c1 9327 62c1 e446 dbc0
000003c0: 5aff 6140 7bff 1241 f1e8 54c1 3a2c 5040
000003d0: 17e4 dfc1 ac94 1d41 d997 b9c0 a0ca dac0
000003e0: 62ba bfbf de60 8fc0 d3c0 a7bf 40ee 7b3d
000003f0: 41d8 92c0 af91 40c1 d479 d23f 1301 c7bc

link_predictor.0.bias f4 [64]
-20.205353 -9.488139 -18.899612 -13.436745 -13.208676 -27.423235 -27.836847 -21.607914
-25.055317 -15.819407 -12.3159895 -1.3034298 -26.845692 -21.667253 -8.286039 -12.20066
-17.815525 -18.062489 -24.919594 -10.985605 -19.208069 -20.745104 -15.958406 -17.438032
-16.680277 -18.725813 -28.576574 -18.595211 -18.246908 -29.593697 -27.379396 -25.05569
-19.410929 -11.393542 -21.080744 -27.27004 -12.996618 -7.5362935 -23.452316 -21.67486
-6.26082 -23.736038 -14.926793 -0.0027697736 -4.3438854 -13.506351 -22.000668 -24.728718
-17.643179 -5.502337 -28.412685 -23.030416 -15.535573 -28.04489 -13.314327 -18.519022
-13.098867 -8.798452 -13.196271 -25.018778 -29.097414 -26.942507 -14.893011 -21.02986
00000000: 90a4 a1c1 6bcf 17c1 6832 97c1 e8fc 56c1
00000010: bd56 53c1 c962 dbc1 ddb1 dec1 02dd acc1
00000020: 4a71 c8c1 4b1c 7dc1 4b0e 45c1 cad6 a6bf
00000030: fac3 d6c1 8956 adc1 9e93 04c1 e735 43c1
00000040: 3286 8ec1 fa7f 90c1 545b c7c1 0ac5 2fc1
00000050: 20aa 99c1 f9f5 a5c1 a255 7fc1 1781 8bc1
00000060: 3571 85c1 77ce 95c1 d39c e4c1 fec2 94c1
00000070: abf9 91c1 e4bf ecc1 0109 dbc1 0e72 c8c1
00000080: 9549 9bc1 f34b 36c1 5da5 a8c1 0b29 dac1
00000090: 26f2 4fc1 5129 f1c0 589e bbc1 1d66 adc1
000000a0: a358 c8c0 68e3 bdc1 25d4 6ec1 1785 35bb
000000b0: 1c01 8bc0 041a 58c1 5e01 b0c1 6ad4 c5c1
000000c0: 3b25 8dc1 2513 b0c0 2e4d e3c1 4b3e b8c1
000000d0: b591 78c1 ef5b e0c1 7c07 55c1 f526 94c1
000000e0: f694 51c1 76c6 0cc1 ed23 53c1 7526 c8c1
000000f0: 81c7 e8c1 418a d7c1 c649 6ec1 273d a8c1

link_predictor.2.weight f4 [1, 64]
0.07715302 -0.097862095 -0.074585885 -0.108355924 -0.117842376 0.10199738 0.0697619 0.09019913
0.077137835 -0.100876905 -0.09152465 -0.119133264 0.09680681 0.13338666 -0.09164721 -0.06643915
0.08014992 -0.14376724 -0.062229566 -0.0932574 0.082453355 0.10426066 -0.08548454 -0.08744322
-0.07615357 -0.07683168 0.09470622 -0.09292625 0.046141222 -0.04763308 -0.10030838 0.06908353
0.1106416 -0.084139474 0.06673779 -0.12238442 -0.091133125 -0.0990814 0.057597466 -0.10012514
-0.11354924 -0.0774657 -0.11262432 -0.059917465 -0.09547953 -0.09809281 0.11110816 0.08694251
-0.09476659 0.11228032 0.0679323 0.06363895 0.088448346 0.09695084 0.050728317 -0.12950197
-0.10867338 -0.08285426 -0.12927878 0.103890896 -0.068251505 0.08514341 0.0712901 0.07600567
00000000: 6702 9e3d ec6b c8bd 7cc0 98bd b6e9 ddbd
00000010: 5857 f1bd 01e4 d03d 54df 8e3d 52ba b83d
00000020: 71fa 9d3d 8d98 cebd 4771 bbbd 24fc f3bd
00000030: a642 c63d 8396 083e 88b1 bbbd 4011 88bd
00000040: a425 a43d b837 13be 6ee4 7ebd bcfd bebd
00000050: 4edd a83d 9d86 d53d 8512 afbd 6e15 b3bd
00000060: 67f6 9bbd ee59 9dbd 56f5 c13d 1e50 bebd
00000070: 94fe 3c3d e81a 43bd 7b6e cdbd aa7b 8d3d
00000080: 1098 e23d 5151 acbd d3ad 883d afa4 fabd
00000090: 01a4 babd 30eb cabd 52eb 6b3d 690e cdbd
000000a0: 818c e8bd 56a6 9ebd 94a7 e6bd 046c 75bd
000000b0: c68a c3bd e2e4 c8bd ad8c e33d ea0e b23d
000000c0: fc14 c2bd 39f3 e53d 1720 8b3d 2355 823d
000000d0: 6824 b53d 298e c63d 7fc8 4f3d 2a9c 04be
000000e0: 2690 debd 7faf a9bd a861 04be c0c4 d43d
000000f0: 72c7 8bbd ab5f ae3d 8b00 923d dca8 9b3d
