checkpoints/model_epoch_2.pth (torch, 217416 bytes, 7 tensors)

conv1.bias f4 [64]
-0.12638336 0.72436917 -0.10399538 -2.4091299 -3.6333091 -3.772725 -3.9586134 -0.67304635
-2.461919 -2.8071191 0.55319905 -0.9316867 0.03387335 -3.9564273 -4.0476985 0.821596
0.23343769 0.035773087 -3.0964909 0.46290034 -3.919825 -4.355427 -3.930294 -0.13230273
-3.017737 0.60802716 -3.4490316 -1.965317 0.5446938 -4.7239738 -3.642404 -3.4351068
-7.5152287 -5.218997 -3.6824503 -3.1952066 -1.2300401 -0.19152851 -0.2884039 -3.735417
-4.4326177 -2.1705945 -4.592302 -2.8877754 0.23516656 0.640195 -1.8039614 -4.8926096
1.4805671 0.34248742 -0.19696802 -0.13870719 -4.5536656 -3.5337338 1.6381743 0.20956208
-1.238013 -0.15627731 0.6826964 -0.12022167 -0.22671565 -3.3371234 -5.505984 -2.0238552
00000000: a46a 01be 4270 393f 88fb d4bd 2f2f 1ac0
00000010: 2388 68c0 5474 71c0 ec59 7dc0 c44c 2cbf
00000020: 1590 1dc0 d7a7 33c0 749e 0d3f 0583 6ebf
00000030: c8be 0a3d 1b36 7dc0 bf86 81c0 1e54 523f
00000040: 4a0a 6f3e cd86 123d e82c 46c0 4601 ed3e
00000050: 6ade 7ac0 a85f 8bc0 f089 7bc0 5e7a 07be
00000060: 9a22 41c0 aba7 1b3f efbc 5cc0 828f fbbf
00000070: 0e71 0b3f cb2a 97c0 261d 69c0 cad8 5bc0
00000080: c17c f0c0 0602 a7c0 44ad 6bc0 447e 4cc0
00000090: f471 9dbf 0d20 44be ada9 93be 1211 6fc0
000000a0: 01d8 8dc0 05eb 0ac0 23f4 92c0 50d1 38c0
000000b0: 81cf 703e d2e3 233f 35e8 e6bf 4290 9cc0
000000c0: 3983 bd3f 835a af3e fcb1 49be 4209 0ebe
000000d0: a1b7 91c0 b228 62c0 b2af d13f 7197 563e
000000e0: 3677 9ebf 2907 20be 31c5 2e3f c736 f6bd
000000f0: 2628 68be 6e93 55c0 0531 b0c0 d886 01c0

conv1.lin.weight f4 [64, 384]
0.9370549 0.31756073 0.49334925 0.11757963 -0.7204295 -1.8112022 0.7671801 1.2791196
-1.4434114 0.55442303 0.91113794 -0.09616741 -2.0072975 0.9223519 0.42972675 -1.62387
1.0395288 -0.32498378 0.083400734 -0.21565196 -0.37615204 -0.23595305 -0.12616451 1.5654289
2.252436 0.91461897 2.188374 -0.97110575 2.1265328 0.3429427 -1.209233 2.2639413
-0.35150814 0.8346045 1.6557069 1.7345994 -0.9064351 -0.8681459 0.063805744 0.21196872
-1.0498137 -0.92796546 -0.017018383 -2.1887426 0.25076485 0.12491728 -0.95820016 -2.4835484
0.46127287 -4.26198 0.42250606 0.53862226 0.85474414 -1.6078093 -0.70655954 -0.5619997
2.0188234 -0.45412287 0.01110382 1.2175211 -1.1492816 0.28713316 -0.04126489 -0.7437735
0.41689038 -1.991477 1.7212307 2.015843 0.4882216 0.6112223 0.689973 -0.38432452
-0.53932863 0.7873756 0.5856673 -0.017411953 1.3619938 -0.5049287 0.89937794 -0.87607926
1.0767548 0.76754767 -1.3467914 0.6974348 0.96941876 -0.94894063 2.5771422 -2.6509044
1.5437297 1.6475965 0.5648983 -0.7913931 -0.9441677 -0.37606767 0.94257236 -0.17334548
-0.5438765 0.46390948 0.73398435 -2.103432 -0.0054753944 -0.17552751 1.5125062 -1.0904974
-0.7831285 0.9332381 1.0912716 0.20806347 -2.1073673 -1.5161674 2.2492018 1.261334
1.5461726 0.21353169 0.3284557 0.025833566 -2.120831 -1.9030664 -0.9206728 1.5515684
0.14022239 1.5240171 -0.32230166 -1.6030463 1.5868602 -0.9565861 -1.4373066 0.071992666
-1.1030662 1.400306 0.33854976 -1.9826919 -0.7024144 -0.24313155 0.24873294 -0.8067776
0.1086891 -1.7428092 0.36872235 0.33081642 0.33163884 -0.07102306 -1.2748122 3.0665956
1.0526361 0.6047437 -2.085253 0.9230676 0.45360792 0.63406163 0.14824466 0.35869366
-1.6701448 -0.34800732 -0.8081257 2.3608363 -1.4741577 -1.809205 -0.5716241 -1.8597208
-1.5523379 0.72073776 -0.6817206 1.1452749 0.9253075 -0.5114706 0.9719255 -0.6109063
0.15591103 -1.9113747 -0.8284486 -0.018540578 -0.8471992 0.23092231 0.79039 1.0858309
1.8339757 0.6723093 0.40005276 0.06945295 2.2015634 0.3835574 -1.7741162 -1.3908783
0.27612397 0.6875379 -0.50291044 0.67684907 -0.14794825 -0.862451 1.0770419 0.07852598
-1.4871088 2.2865603 -1.5676821 -1.4512144 -1.1118999 0.0076868986 -1.0318758 -1.3402737
-0.12875924 -1.1496735 -0.9163597 0.102417156 0.28053257 -0.9358723 -0.055130273 -0.9004368
1.8537357 -0.7589373 0.31585693 0.23508489 0.24606903 -0.042365436 -0.5391015 1.1491909
-1.3341008 0.7612538 0.46991208 0.38353083 -1.5136076 -0.22419356 1.7856311 0.06464531
0.5610017 -1.4019412 -0.8160729 0.5497358 0.6750999 0.22372276 1.0584685 -1.0033809
1.4808666 1.6140205 -0.24051954 0.7658192 1.0279917 0.692573 -1.0008653 -0.116659924
0.28880218 -0.82009053 0.41638103 0.13671094 0.14761339 -1.7357781 1.2900156 -0.063476115
-0.25415376 -1.0501657 1.0970286 1.6054025 1.2419178 0.6963397 -0.94419235 0.76949304
00000000: d4e2 6f3f 5297 a23e 4698 fc3e 97cd f03d
00000010: 116e 38bf 79d5 e7bf ea65 443f 31ba a33f
00000020: b4c1 b8bf abee 0d3f 5640 693f 6bf3 c4bd
00000030: 9077 00c0 411f 6c3f 2505 dc3e f9da cfbf
00000040: 480f 853f 4664 a6be 01ce aa3d ded3 5cbe
00000050: 0097 c0be ad9d 71be 4531 01be f95f c83f
00000060: e927 1040 7824 6a3f 520e 0c40 639a 78bf
00000070: 1d19 0840 3096 af3e 26c8 9abf 6ae4 1040
00000080: e0f8 b3be a4a8 553f 34ee d33f 5a07 de3f
00000090: 210c 68bf cf3e 5ebf 96ac 823d 540e 593e
000000a0: 4c60 86bf 258f 6dbf 236a 8bbc 5c14 0cc0
000000b0: 4064 803e a2d4 ff3d 9b4c 75bf 75f2 1ec0
000000c0: f52b ec3e 2462 88c0 b752 d83e 26e3 093f
000000d0: 83d0 5a3f b2cc cdbf 16e1 34bf 36df 0fbf
000000e0: 6734 0140 cb82 e8be ccec 353c bbd7 9b3f
000000f0: a91b 93bf 1e03 933e 6005 29bd f167 3ebf
00000100: a872 d53e b8e8 febf 4a51 dc3f 9203 0140
00000110: 2ef8 f93e 1179 1c3f 12a2 303f 2fc6 c4be
00000120: 7111 0abf 7391 493f 4bee 153f 83a3 8ebc
00000130: d055 ae3f 0243 01bf a23d 663f bb46 60bf
00000140: 1ad3 893f 017e 443f a963 acbf 168b 323f
00000150: d42b 783f c6ed 72bf e6ef 2440 6ba8 29c0
00000160: ef98 c53f 71e4 d23f 2d9d 103f bd98 4abf
00000170: f9b4 71bf f18b c0be 6c4c 713f 7a81 31be
00000180: 7e3b 0bbf 8b85 ed3e 66e6 3b3f a19e 06c0
00000190: f06a b3bb 7cbd 33be ce99 c13f 6b95 8bbf
000001a0: 1c7b 48bf b1e8 6e3f caae 8b3f 970e 553e
000001b0: 1bdf 06c0 c611 c2bf ecf2 0f40 6473 a13f
000001c0: fce8 c53f 0da8 5a3e 582b a83e eaa0 d33c
000001d0: b2bb 07c0 ae97 f3bf 36b1 6bbf cb99 c63f
000001e0: 7596 0f3e fe12 c33f b904 a5be 9f30 cdbf
000001f0: 3c1e cb3f d4e2 74bf aaf9 b7bf e470 933d
00000200: 4631 8dbf 3a3d b33f 6556 ad3e d9c8 fdbf
00000210: 6ed1 33bf 7af7 78be d9b3 7e3e fa88 4ebf
00000220: 6498 de3d 5f14 dfbf 2dc9 bc3e c560 a93e
00000230: 91cc a93e 8a74 91bd 0c2d a3bf 1a43 4440
00000240: c8bc 863f 7cd0 1a3f c974 05c0 294e 6c3f
00000250: 4c3f e83e dd51 223f 73cd 173e b2a6 b73e
00000260: 4ec7 d5bf 042e b2be 53e1 4ebf f117 1740
00000270: 33b1 bcbf 0894 e7bf f555 12bf 550b eebf
00000280: 02b3 c6bf 4582 383f 3e85 2ebf 5e98 923f
00000290: f4e0 6c3f bdef 02bf 1cd0 783f 5b64 1cbf
000002a0: 24a7 1f3e eda7 f4bf 3515 54bf 69e2 97bc
000002b0: 0ce2 58bf e676 6c3e 0057 4a3f 82fc 8a3f
000002c0: b7bf ea3f 761c 2c3f b7d3 cc3e 593d 8e3d
000002d0: 6ae6 0c40 a361 c43e 3d16 e3bf 4d08 b2bf
000002e0: 1f60 8d3e 7c02 303f bdbe 00bf fb45 2d3f
000002f0: bf7f 17be 97c9 5cbf 82dc 893f 3bd2 a03d
00000300: 9559 bebf 0157 1240 cfa9 c8bf 65c1 b9bf
00000310: bc52 8ebf 61e2 fb3b 8214 84bf 178e abbf
00000320: 76d9 03be 8028 93bf 8d96 6abf 16c0 d13d
00000330: f7a1 8f3e 5495 6fbf 48d0 61bd 0783 66bf
00000340: 3647 ed3f b749 42bf 00b8 a13e 18ba 703e
00000350: 85f9 7b3e 6187 2dbd 8e02 0abf b018 933f
00000360: d1c3 aabf 87e1 423f 5198 f03e 275e c43e
00000370: e5bd c1bf ff92 65be 8f8f e43f c364 843d
00000380: cf9d 0f3f cf72 b3bf 27ea 50bf 7cbb 0c3f
00000390: 59d3 2c3f 9417 653e e57b 873f c96e 80bf
000003a0: 098d bd3f 3998 ce3f c14a 76be ba0c 443f
000003b0: 3b95 833f 774c 313f 5b1c 80bf 66eb eebd
000003c0: e1dd 933e 74f1 51bf e52f d53e f4fd 0b3e
000003d0: f727 173e fa2d debf 3b1f a53f c4ff 81bd
000003e0: 7120 82be d46b 86bf 6f6b 8c3f d47d cd3f
000003f0: 2af7 9e3f 5243 323f 97b6 71bf 7ffd 443f

conv2.bias f4 [32]
-0.5349701 -1.1331882 2.757278 -0.14893526 0.036278255 -0.15002221 0.03314045 0.042758636
-0.05628596 -0.48849 -0.20601714 -0.068508245 0.09079495 -3.4676187 0.0003806087 -3.935626
2.3054519 0.28573552 -1.3284162 -0.4252996 -0.08009625 -0.28328723 0.13900302 0.05648514
0.045924846 0.067422405 0.06716657 -1.4326309 -0.7550164 -0.1887308 0.94907534 0.09722345
00000000: cdf3 08bf 500c 91bf 3e77 3040 7c82 18be
00000010: 8298 143d 6c9f 19be 48be 073d ae23 2f3d
00000020: 1b8c 66bd 5c1b fabe 28f6 52be 0d4e 8cbd
00000030: b4f2 b93d 77ed 5dc0 6f8c c739 4ce1 7bc0
00000040: 868c 1340 ed4b 923e 8b09 aabf dfc0 d9be
00000050: 8109 a4bd 060b 91be cf56 0e3e f65c 673d
00000060: b11b 3c3d c214 8a3d a08e 893d 7360 b7bf
00000070: c148 41bf a642 41be 9af6 723f 171d c73d

conv2.lin.weight f4 [32, 64]
0.13974613 0.20992436 0.2894799 0.11446334 -0.09740617 -0.51324207 -0.27795923 -0.20183465
0.32330304 0.24811368 -0.053149093 0.083814085 0.010746277 -1.5104928 0.96531796 0.111993834
0.038628604 0.0694237 -0.8640527 0.040390927 0.9800016 -0.1533765 -0.028879771 0.0738378
-0.091507666 -0.07278706 -0.7754969 0.60849124 0.25498977 -0.287616 0.6243977 -0.0253267
-1.0765994 1.2051976 -0.43642417 -0.67641 0.03612141 -0.18108037 -0.21997167 -0.005553901
-0.1622678 -0.0005322178 0.15937248 -0.95845544 0.017780986 -0.029550955 -0.3033938 -0.5033266
0.3181318 0.07442958 0.027506437 0.14518864 -0.067207366 0.73336464 -0.07324436 -0.08111139
-0.10884255 0.04160873 0.098147884 0.060025476 0.3317736 1.4441899 -0.037575673 -0.10393846
-0.12025076 0.90380317 0.23167282 0.5242037 0.09272477 0.6237319 -0.17372897 0.33985305
-0.6385512 0.00083949213 0.29140788 0.57996637 0.059374038 0.26856974 0.08066021 -0.526842
0.46472093 -0.6316992 -0.077533096 -0.18846618 0.5635802 -0.48740336 0.041652493 -0.42265722
1.0415055 0.37733647 0.70263404 -0.5107665 -0.059952915 -0.9129722 0.208909 -0.6191928
-0.10227022 1.3114552 -0.7693329 0.7076938 0.2969279 0.7460123 -0.16852027 0.8591904
1.1684837 -0.6763406 1.2738585 0.20536454 0.040413946 0.113757685 0.45108452 1.7777194
0.2053262 0.07703448 -0.044798717 0.23127775 0.9599511 0.7480165 -0.5012023 -0.3679331
-0.20804855 -0.8875435 0.36003408 0.70911866 0.77170664 1.2998754 0.97696966 0.22301899
-0.30588236 -0.18542546 -0.29887572 -0.50250334 0.07326716 -1.804282 -0.27365658 -0.12445264
-0.24528334 0.82384586 -0.37820736 -0.1430205 0.1595319 0.18676837 -0.61414856 -0.43325374
0.1820045 -0.36199835 0.952252 0.45684257 0.09088571 -1.4697192 0.6751823 -0.08855466
0.5409382 -0.035926394 -1.9422064 -0.4131884 -0.54759383 -0.8187112 -0.8354864 -0.4827433
0.5571874 -0.04370839 0.74999315 -0.9477865 -0.97397095 -0.25487563 0.07294286 0.15531899
0.18626189 -0.6782647 -0.93138623 -0.040044364 -0.3935694 -0.3060007 0.24925822 0.14173943
-0.21263967 -0.4798909 -0.049534727 -1.4210881 0.49520734 0.33281866 0.0647351 -0.116533116
-0.4314974 -0.30327824 0.2431281 -0.26267147 0.30945083 0.6941805 0.17208987 -0.5109858
0.055586997 0.03240899 -0.07932864 0.89414454 1.5541605 -1.6383164 -0.049913872 -0.015704395
0.24810496 0.0689932 0.025082331 0.035121936 0.093259424 1.9381359 -2.391596 0.078769796
-0.0004057209 0.12479583 -0.5033443 -0.09481902 -2.9654572 0.25710356 -0.82093316 0.100899406
0.6004069 0.07593455 -0.16334955 -0.13057747 -0.029812468 -0.27483824 -0.53347653 -0.88370323
-0.31243926 0.44872314 0.971311 -0.5882828 0.19264929 0.017554175 0.16475654 -0.44030344
-0.48599434 -0.5553446 0.21485731 -1.4707505 -0.011850681 -0.018997582 -0.41765475 -0.7487015
-0.012661172 0.022326013 0.20283353 0.0044369167 -1.5839434 0.37237135 0.080480635 -0.031968124
0.09590485 -0.053493224 -0.04429615 -0.002301252 0.10844547 0.83783114 1.5981165 0.07559274
00000000: 9c19 0f3e 69f6 563e b636 943e c16b ea3d
00000010: e37c c7bd d563 03bf ac50 8ebe bead 4ebe
00000020: fa87 a53e 8311 7e3e ddb2 59bd b8a6 ab3d
00000030: 2711 303c d457 c1bf 141f 773f 065d e53d
00000040: 0739 1e3d 032e 8e3d 8f32 5dbf f570 253d
00000050: 63e1 7a3f bb0e 1dbe 4595 ecbc 4638 973d
00000060: 5f68 bbbd 6211 95bd f786 46bf 15c6 1b3f
00000070: 058e 823e 6842 93be 87d8 1f3f f179 cfbc
00000080: 02ce 89bf ea43 9a3f fd72 dfbe 3529 2dbf
00000090: 0bf4 133d 226d 39be 4140 61be 80fd b5bb
000000a0: 8829 26be 8884 0bba 8a32 233e 565d 75bf
000000b0: 6ea9 913c d814 f2bc 6f56 9bbe 03da 00bf
000000c0: 2ce2 a23e 896e 983d 2e55 e13c 55ac 143e
000000d0: 04a4 89bd c9bd 3b3f 2401 96bd ba1d a6bd
000000e0: d8e8 debd ea6d 2a3d c201 c93d 46dd 753d
000000f0: 3bde a93e 37db b83f f3e8 19bd b0dd d4bd
00000100: 0846 f6bd a55f 673f a43b 6d3e 3732 063f
00000110: 7ce6 bd3d e5ac 1f3f 02e6 31be 3801 ae3e
00000120: 1778 23bf 5d11 5c3a 6a33 953e ad78 143f
00000130: 3132 733d f981 893e 2e31 a53d 1edf 06bf
00000140: e7ef ed3e 0ab7 21bf acc9 9ebd 47fd 40be
00000150: cb46 103f ef8c f9be ce9b 2a3d 8766 d8be
00000160: 0d50 853f 3f32 c13e d3df 333f 98c1 02bf
00000170: 3091 75bd 8cb8 69bf 3eec 553e 6b83 1ebf
00000180: 0d73 d1bd c4dd a73f 00f3 44bf 6c2b 353f
00000190: ef06 983e a9fa 3e3f 9490 2cbe e7f3 5b3f
000001a0: e090 953f a824 2dbf cc0d a33f 154b 523e
000001b0: 1889 253d caf9 e83d 8df4 e63e 4f8c e33f
000001c0: 0841 523e 41c4 9d3d dc7e 37bd 13d4 6c3e
000001d0: 5bbf 753f 027e 3f3f cb4e 00bf ba61 bcbe
000001e0: ae0a 55be 0d36 63bf 6356 b83e cd88 353f
000001f0: 918e 453f 5162 a63f af1a 7a3f 175f 643e
00000200: 9d9c 9cbe 2ce0 3dbe 3d06 99be 0fa4 00bf
00000210: 180d 963d b6f2 e6bf b71c 8cbe 07e1 febd
00000220: 8e2b 7bbe 90e7 523f 65a4 c1be f773 12be
00000230: 555c 233e 3540 3f3e d738 1dbf 6fd3 ddbe
00000240: 635f 3a3e d957 b9be c9c6 733f 45e7 e93e
00000250: 4a22 ba3d c21f bcbf bfd8 2c3f 255c b5bd
00000260: ed7a 0a3f 8e27 13bd 389a f8bf 6e8d d3be
00000270: 1c2f 0cbf 0f97 51bf 70e2 55bf 212a f7be
00000280: d5a3 0e3f 9207 33bd 8dff 3f3f 23a2 72bf
00000290: 2956 79bf 0f7f 82be 1163 953d f10b 1f3e
000002a0: 70bb 3e3e c1a2 2dbf 546f 6ebf 8f05 24bd
000002b0: ee81 c9be 20ac 9cbe 8c3d 7f3e 2424 113e
000002c0: 37be 59be 43b4 f5be ede4 4abd 37e6 b5bf
000002d0: d18b fd3e 3567 aa3e d693 843d eaa8 eebd
000002e0: 3aed dcbe 4947 9bbe 93f6 783e e07c 86be
000002f0: 5770 9e3e d0b5 313f 5438 303e f7cf 02bf
00000300: 31af 633d 4abf 043d 0e77 a2bd a8e6 643f
00000310: bbee c63f 5ab4 d1bf 7d72 4cbd 81a6 80bc
00000320: 3a0f 7e3e 4f4c 8d3d 7679 cd3c 05dc 0f3d
00000330: ccfe be3d d614 f83f e90f 19c0 0f52 a13d
00000340: f0b6 d4b9 f594 ff3d 2cdb 00bf 7930 c2bd
00000350: 0dca 3dc0 14a3 833e ad28 52bf 59a4 ce3d
00000360: 44b4 193f 9383 9b3d 1b45 27be 1ab6 05be
00000370: 4739 f4bc 99b7 8cbe eb91 08bf 603a 62bf
00000380: 0af8 9fbe 0abf e53e d6a7 783f b499 16bf
00000390: db45 453e c6cd 8f3c f0b5 283e 746f e1be
000003a0: 40d4 f8be 102b 0ebf 8e03 5c3e 8d41 bcbf
000003b0: 5c29 42bc d1a0 9bbc d8d6 d5be e7aa 3fbf
000003c0: ce70 4fbc 0be5 b63c 98b3 4f3e 8e63 913b
000003d0: a8be cabf 75a7 be3e 08d3 a43d 02f1 02bd
000003e0: c369 c43d b61b 5bbd e16f 35bd 9ad0 16bb
000003f0: a918 de3d 1a7c 563f 158f cc3f 5ed0 9a3d

link_predictor.0.weight f4 [64, 416]
0.2437999 0.7172556 -0.3081055 0.09266354 -0.22626016 -0.22636198 0.024563247 -0.17098133
0.027180787 0.110177785 -0.7504314 -0.48041555 -0.09195173 -0.3984315 -0.0026201424 -0.6163865
0.05943677 -0.5174244 -0.26813513 -0.27300957 0.049070112 -0.019997155 -0.07225362 0.072847284
-0.06981772 -0.0502807 0.26691535 -0.14819929 0.120463654 0.039836403 0.3738978 0.041920997
-4.192836 0.11024612 2.794232 -2.6646938 4.9900436 -4.6831365 -3.790813 -3.0056055
-0.40537012 2.6180265 0.7505509 0.25224316 -1.2283928 0.120325446 4.871809 3.4944055
-1.8259556 -3.9373415 1.9092424 -0.9432545 -4.6117535 -0.59120387 -0.4743007 -1.6225983
2.31448 2.1825197 -1.1351964 -3.559954 -1.7426459 -0.15161113 -9.083548 -6.229675
-0.30823216 8.403238 -3.2395794 -5.2194977 0.23475023 -2.0170314 5.419536 -7.0314684
0.14880389 -2.530473 3.5023074 0.86444575 -4.133207 8.334126 2.7214952 8.360709
10.993589 0.43687916 1.1832113 2.4981184 1.3860575 3.1010518 -2.9589365 5.110743
-1.1366059 3.967566 2.064041 -2.4927614 4.3977776 -1.7325375 3.943313 2.133659
-4.927434 -0.11712206 8.521617 -4.112239 -0.78247166 -5.513537 4.7234316 3.909489
9.863612 -2.8948016 -2.6888175 0.33182773 4.162579 -0.6848773 -4.3879952 3.2372608
3.2356246 3.0896983 8.603401 -0.315373 4.293005 6.027442 4.004396 6.479014
0.69388604 3.4090672 0.06811333 3.080509 0.42180794 0.31136474 -0.43974936 -3.5192056
-3.7310517 -0.73681575 -0.9950579 -5.9996467 -4.5187955 -1.6071777 -0.41176587 2.8105848
1.0161616 -4.613867 2.1288006 2.3578606 -0.23308097 2.6427977 2.9951339 2.1469486
2.7485886 -6.3887706 -1.2839882 -5.53377 -3.2591982 -5.345489 0.12538722 4.402714
-4.1451793 4.2941546 -3.8573568 0.008510051 -5.7254853 -6.327577 -2.0026977 -0.021404017
1.7119037 10.304817 -0.5283928 -7.03499 4.4433947 -4.4176993 -1.756632 5.0379777
-4.866378 0.9522203 -2.4342911 -2.6419382 -0.7383549 0.5875035 -4.432167 2.3827064
9.411728 -7.3782816 -3.917682 3.4675522 -5.3544908 5.493826 0.64669746 1.2380277
-0.2309241 -5.260238 0.44953343 9.729571 -2.7920027 -0.21392837 0.7594529 7.8131437
4.8339286 5.3447037 -1.9354475 -10.893351 -2.4720192 -3.5743675 2.8791943 7.2307773
4.4739184 0.96451825 -3.3295221 1.4063843 -2.8856034 1.2904936 0.80641043 0.85463804
-2.1396616 -11.11435 2.893021 4.3097825 5.1192894 -3.1424778 -3.1631 -8.327697
-0.3722106 4.6601853 -1.7454948 -4.1715026 4.8740234 1.9183335 2.8098223 4.3281245
3.1038494 -8.278737 2.499605 -0.29567415 -7.361399 -2.2960165 0.2183108 3.5824773
-2.7885852 -0.41178071 -2.6704931 3.011921 -0.978861 -2.6472282 2.786176 -5.412989
-0.20055193 2.692389 2.7684493 2.158575 -4.8193817 6.1732783 -5.326785 5.3052654
2.012029 -4.9191117 2.8502922 -7.893516 -0.742322 -3.646197 -1.322404 -0.024292504
00000000: aea6 793e 109e 373f 01c0 9dbe 62c6 bd3d
00000010: beb0 67be 6fcb 67be dd38 c93c bb15 2fbe
00000020: 3eaa de3c e4a4 e13d 461c 40bf 07f9 f5be
00000030: 3051 bcbd 37ff cbbe b2b6 2bbb 81cb 1dbf
00000040: f873 733d ed75 04bf 0249 89be e9c7 8bbe
00000050: befd 483d 13d1 a3bc b5f9 93bd f530 953d
00000060: 98fc 8ebd 23f3 4dbd 21a9 883e 8ec1 17be
00000070: a6b5 f63d 7f2b 233d 886f bf3e 5ab5 2b3d
00000080: b62b 86c0 b8c8 e13d b2d4 3240 588a 2ac0
00000090: 70ae 9f40 41dc 95c0 ae9c 72c0 d75b 40c0
000000a0: ac8c cfbe bf8d 2740 1b24 403f 0426 813e
000000b0: fa3b 9dbf 306d f63d dce5 9b40 57a4 5f40
000000c0: eab8 e9bf 67fd 7bc0 0e62 f43f 2079 71bf
000000d0: 7c93 93c0 2359 17bf 8bd7 f2be 4db1 cfbf
000000e0: 7120 1440 67ae 0b40 1e4e 91bf 49d6 63c0
000000f0: 050f dfbf f33f 1bbe 3656 11c1 7f59 c7c0
00000100: 9bd0 9dbe aa73 0641 4555 4fc0 2006 a7c0
00000110: 5d62 703e 0b17 01c0 d76c ad40 ca01 e1c0
00000120: 0c60 183e 45f3 21c0 ce25 6040 514c 5d3f
00000130: 3b43 84c0 9558 0541 fa2c 2e40 77c5 0541
00000140: bee5 2f41 a0ae df3e 7873 973f 2ce1 1f40
00000150: 556a b13f a277 4640 375f 3dc0 358b a340
00000160: 4d7c 91bf 9aec 7d40 3f19 0440 6789 1fc0
00000170: 98ba 8c40 cac3 ddbf 3d5f 7c40 de8d 0840
00000180: 8aad 9dc0 b1dd efbd 8b58 0841 7697 83c0
00000190: 1050 48bf e56e b0c0 5a26 9740 1135 7a40
000001a0: 5bd1 1d41 6e44 39c0 9615 2cc0 53e5 a93e
000001b0: d933 8540 1e54 2fbf 756a 8cc0 482f 4f40
000001c0: 7914 4f40 9ebd 4540 88a7 0941 9278 a1be
000001d0: 4c60 8940 cee0 c040 0324 8040 1554 cf40
000001e0: 84a2 313f 282e 5a40 007f 8b3d 0f27 4540
000001f0: 36f7 d73e 336b 9f3e d426 e1be aa3a 61c0
00000200: 8dc9 6ec0 f59f 3cbf 1dbc 7ebf 1bfd bfc0
00000210: f999 90c0 00b8 cdbf fad2 d2be 9fe0 3340
00000220: 9511 823f cca4 93c0 453e 0840 30e7 1640
00000230: c7ac 6ebe 9923 2940 46b0 3f40 9b67 0940
00000240: e0e8 2f40 cf70 ccc0 ba59 a4bf a514 b1c0
00000250: b496 50c0 3f0e abc0 8265 003e 08e3 8c40
00000260: 4fa5 84c0 b769 8940 efde 76c0 be6d 0b3c
00000270: 2d37 b7c0 837b cac0 332c 00c0 7a57 afbc
00000280: a91f db3f 88e0 2441 c044 07bf a31e e1c0
00000290: 4a30 8e40 cb5d 8dc0 51d9 e0bf 1d37 a140
000002a0: 5eb9 9bc0 b6c4 733f 6dcb 1bc0 8415 29c0
000002b0: d404 3dbf a166 163f 50d4 8dc0 437e 1840
000002c0: 7096 1641 e21a ecc0 4dbb 7ac0 60ec 5d40
000002d0: fd57 abc0 6ccd af40 f78d 253f b177 9e3f
000002e0: 5e77 6cbe df53 a8c0 3f29 e63e 53ac 1b41
000002f0: 2cb0 32c0 0a10 5bbe 816b 423f 4605 fa40
00000300: 8baf 9a40 d007 ab40 bebc f7bf 2a4b 2ec1
00000310: 9035 1ec0 70c2 64c0 b844 3840 8762 e740
00000320: 572a 8f40 abea 763f e416 55c0 6704 b43f
00000330: baad 38c0 e52e a53f ea70 4e3f 8fc9 5a3f
00000340: 37f0 08c0 61d4 31c1 4227 3940 bde9 8940
00000350: 38d1 a340 5b1e 49c0 3b70 4ac0 3f3e 05c1
00000360: 6392 bebe 3d20 9540 606c dfbf f37c 85c0
00000370: 00f8 9b40 f48b f53f 21d4 3340 ff7f 8a40
00000380: 78a5 4640 b575 04c1 87f9 1f40 9a62 97be
00000390: 9590 ebc0 eff1 12c0 de8c 5f3e 4f47 6540
000003a0: 2e78 32c0 ecd4 d2be 5ce9 2ac0 50c3 4040
000003b0: a296 7abf 306c 29c0 b550 3240 3537 adc0
000003c0: 7c5d 4dbe 1a50 2c40 462e 3140 1826 0a40
000003d0: 6038 9ac0 7f8b c540 0675 aac0 bcc4 a940
000003e0: 15c5 0040 5d69 9dc0 306b 3640 af97 fcc0
000003f0: d108 3ebf 4b5b 69c0 8944 a9bf 1301 c7bc

link_predictor.0.bias f4 [64]
-5.4022617 -3.8320704 -4.1634 -3.8461545 -3.9238217 -5.936546 -6.187417 -5.365874
-7.745589 -4.267638 -4.2218575 -0.08344927 -6.942068 -5.00105 -1.4929888 -2.531743
-4.760389 -9.048172 -6.658822 -1.9722255 -5.8758855 -2.7050514 -6.0063014 -4.3732433
-4.740387 -5.2393947 -5.388151 -6.6351595 0.34758133 -4.158821 -7.9539967 -7.8886666
-3.673828 -3.0442078 -4.02598 -2.7792144 -1.2931203 -1.2559863 -6.3287 -5.313979
-3.3394842 -3.9974723 -4.1246 1.5685611 -1.1008353 -3.5808938 -4.988228 -5.4542437
-3.5535228 3.7551472 -2.1764727 -4.4894414 0.6880364 -3.8846529 0.014695287 -5.2550488
-4.958375 -0.83465254 -4.034164 -5.6454415 -5.846945 -5.464757 -4.5727973 -6.582504
00000000: 54df acc0 a440 75c0 933a 85c0 6527 76c0
00000010: e51f 7bc0 2ff8 bdc0 52ff c5c0 3db5 abc0
00000020: dddb f7c0 7e90 88c0 7519 87c0 73e7 aabd
00000030: 6c25 dec0 9a08 a0c0 421a bfbf 1408 22c0
00000040: 1b55 98c0 50c5 10c1 1215 d5c0 e371 fcbf
00000050: 4107 bcc0 901f 2dc0 9f33 c0c0 9cf1 8bc0
00000060: 40b1 97c0 1fa9 a7c0 bc6b acc0 3a53 d4c0
00000070: 2ef6 b13e 1015 85c0 2487 fec0 f56f fcc0
00000080: ff1f 6bc0 4dd4 42c0 d4d4 80c0 a6de 31c0
00000090: f784 a5bf 29c4 a0bf b684 cac0 1e0c aac0
000000a0: 1cba 55c0 96d6 7fc0 b9fc 83c0 9cc6 c83f
000000b0: 2ce8 8cbf 5d2d 65c0 909f 9fc0 2a89 aec0
000000c0: eb6c 63c0 5554 7040 544b 0bc0 81a9 8fc0
000000d0: 2723 303f 279e 78c0 80c4 703c 5c29 a8c0
000000e0: 02ab 9ec0 caab 55bf df17 81c0 75a7 b4c0
000000f0: 2c1a bbc0 4adf aec0 5b54 92c0 dfa3 d2c0

link_predictor.2.weight f4 [1, 64]
0.0855946 -0.1239676 -0.14681703 -0.1490608 -0.17556563 0.10958952 0.07744557 0.11023335
0.121719256 -0.15050231 -0.14504592 -0.1541134 0.13764563 0.120368965 -0.13205206 -0.12536554
0.058027316 0.17021379 -0.1615519 -0.13592035 0.101660125 0.08454393 -0.13817184 -0.1700757
-0.10387177 -0.07380055 0.03985447 -0.11961516 0.100351796 -0.123608045 -0.16083162 0.11314686
0.11183558 -0.14554583 0.120266736 -0.15522863 -0.14168833 -0.16839182 0.13911206 -0.14793095
-0.114138864 -0.09446092 -0.15115078 -0.07055751 -0.10384297 -0.13766745 0.08615569 0.12956296
-0.14543535 0.078685075 0.067502156 0.076947905 0.10354538 0.09452681 0.13077058 -0.17528674
-0.114367634 -0.11526226 -0.122230895 0.08033951 -0.120090075 0.122514784 0.09082002 0.066902205
00000000: 394c af3d bae2 fdbd 3457 16be 65a3 18be
00000010: 7ac7 33be 7870 e03d c89b 9e3d 06c2 e13d
00000020: f247 f93d 471d 1abe eb86 14be e7cf 1dbe
00000030: faf2 0c3e 0184 f63d a838 07be d35f 00be
00000040: 0dae 6d3d 864c 2e3e dc6d 25be b42e 0bbe
00000050: 2f33 d03d 5e25 ad3d eb7c 0dbe 5328 2ebe
00000060: b9ba d4bd be24 97bd 713e 233d cbf8 f4bd
00000070: 3e85 cd3d 3726 fdbd 0bb1 24be 8ab9 e73d
00000080: 0d0a e53d f709 15be 684e f63d 41f4 1ebe
00000090: bf16 11be e86e 2cbe 6473 0e3e 367b 17be
000000a0: a3c1 e9bd ba74 c1bd 45c7 1abe 7580 90bd
000000b0: a0ab d4bd b2f8 0cbe 6572 b03d 27ac 043e
000000c0: 01ed 14be a425 a13d 923e 8a3d dd96 9d3d
000000d0: 9a0f d43d 4697 c13d b9e8 053e 5e7e 33be
000000e0: 9439 eabd 9f0e ecbd 3154 fabd 0b89 a43d
000000f0: c9f1 f5bd 08e9 fa3d d9ff b93d 0604 893d
