checkpoints/model_epoch_23.pth (torch, 217428 bytes, 7 tensors)

conv1.bias f4 [64]
0.12857816 0.5333673 0.88110745 -2.4091299 -3.7573204 -5.3921223 -4.9021306 -0.67304635
-2.771767 -2.8071191 0.32233736 -1.3882596 0.20640609 -14.620836 -14.327821 1.3361157
0.15958525 0.20150355 -16.336855 0.89665985 -15.5050955 -8.450068 -9.006433 0.5784371
-7.501136 0.9141649 -8.491857 -1.965317 0.35361505 -7.1896706 -3.642404 -3.4351068
-13.33539 -5.218997 -3.6824503 -3.1952066 -3.7032342 0.0075346 -2.3975096 -3.735417
-4.4326177 -7.7285743 -18.029255 -2.8877754 0.80579144 0.7846554 -1.8039614 -8.147137
2.249692 0.6114894 -0.07402348 0.36298928 -18.973137 -9.651982 2.4503152 0.21258071
-3.198074 0.19406761 1.029798 -0.10174767 -1.6447589 -13.143149 -7.5509896 -6.8011403
00000000: fea9 033e c28a 083f 4290 613f 2f2f 1ac0
00000010: f077 70c0 448c acc0 41de 9cc0 c44c 2cbf
00000020: a164 31c0 d7a7 33c0 6709 a53e 7eb2 b1bf
00000030: 1e5c 533e f2ee 69c1 c13e 65c1 d705 ab3f
00000040: 516a 233e f256 4e3e e1b1 82c1 808b 653f
00000050: df14 78c1 7b33 07c1 591a 10c1 7414 143f
00000060: 4e09 f0c0 b606 6a3f a5de 07c1 828f fbbf
00000070: 080d b53e c811 e6c0 261d 69c0 cad8 5bc0
00000080: c25d 55c1 0602 a7c0 44ad 6bc0 447e 4cc0
00000090: ca01 6dc0 cee4 f63b cc70 19c0 1211 6fc0
000000a0: 01d8 8dc0 7b50 f7c0 ea3b 90c1 50d1 38c0
000000b0: 5948 4e3f 2ddf 483f 35e8 e6bf ac5a 02c1
000000c0: f4fa 0f40 928a 1c3f 9f99 97bd bbd9 b93e
000000d0: fcc8 97c1 856e 1ac1 f7d1 1c40 c2ae 593e
000000e0: 3fad 4cc0 a9b9 463e 6cd0 833f 1561 d0bd
000000f0: 7687 d2bf 574a 52c1 b5a1 f1c0 f1a2 d9c0

conv1.lin.weight f4 [64, 384]
1.4356734 2.2140396 1.112424 0.026413348 0.53455335 -0.58844453 0.9167862 -0.41422725
-1.7561383 1.1452711 1.8260152 -0.24809502 -4.0317945 1.8614923 0.17441599 0.7802045
-0.81168276 0.8161082 1.3813494 -2.3616917 -0.36554015 -0.85016453 0.21465866 0.8240948
3.5153782 1.6470664 1.3008544 -0.18515542 1.609447 2.2016237 0.1918662 2.907561
-1.5582517 0.95209223 5.61978 1.3601525 -0.7668948 -0.4483105 -0.07838453 0.7866531
-3.126618 0.13441458 0.1949227 -3.0229566 0.7589426 -0.312509 -0.19382204 -3.128497
1.133774 -5.452319 0.6495744 1.2619962 2.340546 -1.812361 2.4482725 1.0361937
1.7001382 -0.63850766 -0.68271804 2.4601672 -1.4671909 0.37247604 -0.77895904 -0.41246203
1.0576811 -4.727109 2.097347 2.1426291 0.27573806 0.44598573 2.8066392 0.68428916
-0.097048335 -0.40468577 2.2739508 -1.1197152 2.5044055 -2.5552628 2.795999 -0.34188163
2.4914205 1.4457344 -0.6858329 0.36565784 1.5819093 -1.277544 3.0715804 -4.0853205
2.3157892 1.4581397 0.21772276 0.09952912 -2.1525543 -0.4647051 0.5590149 0.24530749
-1.1251997 0.436831 1.2714214 -1.4955692 1.5342101 0.99961585 0.7669102 -0.98735917
-2.199909 0.41765377 1.7946308 -1.6646434 -1.7630976 -3.2951767 1.980588 1.1992352
0.8009412 -1.5721197 0.17958635 0.90326524 -1.0785196 -2.8219266 1.2220023 1.443199
1.5192175 3.6869576 -0.7716999 -1.7465202 3.028629 0.3675924 -1.0184995 0.071992666
-1.8738861 1.0166098 2.5744026 -1.725423 -1.0997198 0.028917773 0.9822187 1.305121
1.5941672 -0.46904936 0.60169184 1.4986309 1.0269903 2.4694874 -1.6532862 2.5217144
0.19857994 1.2938529 -2.3569167 1.474468 0.06508086 1.6282147 0.6291037 0.27176586
-0.26580146 0.21328692 0.13698728 1.5412596 -1.5298616 -5.267734 -1.7478716 -2.8308384
-0.093607046 1.2419337 0.65776515 1.1560419 2.3950326 -1.6836323 1.4560232 1.0144614
-0.11151679 -2.3315632 -0.6784114 3.2251902 1.3161145 -0.5142186 0.039508186 1.0230113
2.7521687 1.4607869 0.49359357 0.20646204 1.2593702 0.37301618 -3.201561 -1.1480795
0.52810556 -0.023027886 -1.7619144 2.259116 1.7090204 0.77618015 1.557036 1.476192
-2.4297137 2.8143237 -0.23529422 -1.002993 -1.2441556 1.4852169 1.2787976 -1.2451001
-0.855041 1.7892008 -0.63522565 0.675735 -0.6694635 -1.4585356 0.5227323 0.6370325
3.0644412 -0.565345 4.0774846 1.0789894 -1.2516894 2.4333835 -0.011843155 2.2578692
-1.997378 0.7709929 3.314522 3.9624994 -1.5635241 0.23650149 1.3176423 0.06464531
-0.5765406 -0.29337206 -0.33415285 2.6056106 -0.001004138 0.21288948 0.6556904 -0.17482302
1.2826315 2.026266 -0.99238014 2.7398975 2.158522 1.5226333 -1.0076365 -0.44299945
1.8351626 -1.9654057 1.6567309 -1.5284653 0.3853964 -1.2541351 0.25753918 1.0812405
0.41304913 2.026681 0.936822 2.6880932 0.14090957 0.12679847 -1.399119 2.2706351
00000000: 25c4 b73f d3b2 0d40 e963 8e3f ce60 d83c
00000010: 7dd8 083f 4da4 16bf 80b2 6a3f 9815 d4be
00000020: 24c9 e0bf 3e98 923f deba e93f 9f0c 7ebe
00000030: 7604 81c0 6145 ee3f 1b9a 323e 7bbb 473f
00000040: 71ca 4fbf 78ec 503f 0fd0 b03f f525 17c0
00000050: 1428 bbbe 62a4 59bf 7bcf 5b3e e0f7 523f
00000060: f5fb 6040 12d3 d23f 6682 a63f 6299 3dbe
00000070: 5c02 ce3f 67e7 0c40 9378 443e 7b15 3a40
00000080: cb74 c7bf 51bc 733f 3dd5 b340 7a19 ae3f
00000090: 3853 44bf f488 e5be 1288 a0bd 1962 493f
000000a0: 821a 48c0 faa3 093e d199 473e 1f78 41c0
000000b0: 104a 423f 2e01 a0be 4979 46be 4b39 48c0
000000c0: 821f 913f 6679 aec0 824a 263f 1789 a13f
000000d0: 81cb 1540 72fb e7bf 7fb0 1c40 ffa1 843f
000000e0: 219e d93f 3d75 23bf 9cc6 2ebf 6173 1d40
000000f0: e9cc bbbf 2eb5 be3e dc69 47bf 392e d3be
00000100: 1862 873f 7a44 97c0 ef3a 0640 d620 0940
00000110: 8a2d 8d3e 3e58 e43e fa9f 3340 932d 2f3f
00000120: 47c1 c6bd f932 cfbe 6988 1140 d452 8fbf
00000130: 2e48 2040 6d89 23c0 a6f1 3240 1c0b afbe
00000140: 6f73 1f40 d30d b93f bf92 2fbf 8137 bb3e
00000150: 017c ca3f 9086 a3bf c694 4440 f2ba 82c0
00000160: e435 1440 52a4 ba3f b7f2 5e3e ecd5 cb3d
00000170: 73c3 09c0 d4ed edbe 9a1b 0f3f e331 7b3e
00000180: 8b06 90bf 50a8 df3e f0bd a23f d06e bfbf
00000190: ff60 c43f d3e6 7f3f 3a54 443f 92c3 7cbf
000001a0: 4fcb 0cc0 b7d6 d53e 76b6 e53f 0913 d5bf
000001b0: 2fad e1bf 2de4 52c0 e883 fd3f 8a80 993f
000001c0: 7c0a 4d3f 383b c9bf 7ce5 373e 643c 673f
000001d0: ee0c 8abf 729a 34c0 926a 9c3f bfba b83f
000001e0: b875 c23f 1df7 6b40 208e 45bf f98d dfbf
000001f0: 0fd5 4140 1235 bc3e 315e 82bf e470 933d
00000200: 80db efbf 4520 823f 03c3 2440 a9da dcbf
00000210: 9ec3 8cbf f7e4 ec3c af72 7b3f 340e a73f
00000220: ac0d cc3f 3d27 f0be 7a08 1a3f 23d3 bf3f
00000230: 6b74 833f 150c 1e40 e29e d3bf c563 2140
00000240: 8a58 4b3e f99c a53f b9d7 16c0 5ebb bc3f
00000250: 1d49 853d 5769 d03f f10c 213f e524 8b3e
00000260: 2117 88be e367 5a3e 6546 0c3e ff47 c53f
00000270: 81d2 c3bf 4791 a8c0 42ba dfbf 752c 35c0
00000280: 0db5 bfbd aff7 9e3f 4c63 283f 2ef9 933f
00000290: 3748 1940 4381 d7bf f85e ba3f dfd9 813f
000002a0: ea62 e4bd 5538 15c0 5fac 2dbf 8469 4e40
000002b0: 7176 a83f d5a3 03bf 56d3 213d 09f2 823f
000002c0: 8823 3040 11fb ba3f 4cb8 fc3e c96a 533e
000002d0: 0b33 a13f fafb be3e 60e6 4cc0 45f4 92bf
000002e0: ed31 073f faa4 bcbc 6986 e1bf 5b95 1040
000002f0: 2ec1 da3f beb3 463f f54c c73f dcf3 bc3f
00000300: 6e80 1bc0 e11d 3440 f8f0 70be 1362 80bf
00000310: 7e40 9fbf 961b be3f a4af a33f 715f 9fbf
00000320: f8e3 5abf 8804 e53f 269e 22bf f8fc 2c3f
00000330: f661 2bbf 4bb1 babf c9d1 053f 9014 233f
00000340: ce1f 4440 73ba 10bf c17a 8240 531c 8a3f
00000350: 5c37 a0bf 8ebc 1b40 cb09 42bc ee80 1040
00000360: 15aa ffbf ca5f 453f 2121 5440 9799 7d40
00000370: 8f21 c8bf 722d 723e 81a8 a83f c364 843d
00000380: 2a98 13bf dd34 96be 1516 abbe 53c2 2640
00000390: 489d 83ba b3ff 593e 53db 273f ce04 33be
000003a0: 452d a43f 58ae 0140 a00c 7ebf 7b5a 2f40
000003b0: 3925 0a40 a6e5 c23f 3cfa 80bf d3d0 e2be
000003c0: 9ce6 ea3f 6a92 fbbf c20f d43f c0a4 c3bf
000003d0: ad52 c53e 8087 a0bf 2ddc 833e 1766 8a3f
000003e0: 2d7b d33e 24b5 0140 91d3 6f3f b809 2c40
000003f0: 994a 103e 75d7 013e 5516 b3bf 1652 1140

conv2.bias f4 [32]
-0.109415896 -0.9890902 11.776551 0.017516056 -0.030878574 -0.06384349 -0.017198162 -0.52335924
-0.13110788 -0.42274758 0.14822066 -0.037589334 1.2572725 -5.650461 -0.020399211 -8.605227
2.653524 -0.3104731 1.205739 -0.92805386 0.031224253 -0.52503526 0.04130091 -0.15552804
0.014154604 -0.06656496 0.04435443 -0.2509458 -0.92437994 -0.04190508 1.8165379 -0.035858564
00000000: 7115 e0bd 0435 7dbf c16c 3c41 d57d 8f3c
00000010: 10f5 fcbc 60c0 82bd 29e3 8cbc dffa 05bf
00000020: 2541 06be 5f72 d8be 28c7 173e 46f7 19bd
00000030: 4eee a03f 94d0 b4c0 3f1c a7bc 03af 09c1
00000040: 56d3 2940 55f6 9ebe a855 9a3f f094 6dbf
00000050: 01ca ff3c b668 06bf 252b 293d be42 1fbe
00000060: b6e8 673c 3653 88bd feac 353d f87b 80be
00000070: 2aa4 6cbf a9a4 2bbd 5084 e83f 6ee0 12bd

conv2.lin.weight f4 [32, 64]
-0.0136835845 -0.08704409 -0.13837312 0.11446334 -0.09968847 -0.8758339 -0.28830576 -0.20183465
0.3026745 0.24811368 -0.12776798 0.1679884 -0.03105678 -3.676282 1.7310883 0.030201755
-0.027003245 -0.11926916 0.06678905 0.039619654 0.15141836 -0.9816132 1.2910517 0.06951272
2.7600095 -0.14297767 0.13613656 0.60849124 0.10766466 -0.7476398 0.6243977 -0.0253267
0.057761025 1.2051976 -0.43642417 -0.67641 -0.3123472 -0.0010888546 0.008822955 -0.005553901
-0.1622678 0.15237424 -0.6821454 -0.95845544 -0.12071479 0.07640892 -0.3033938 -2.219299
-0.06531982 -0.14099081 0.19851196 0.03527484 1.5002607 0.04243018 -0.023703406 0.061502144
0.049203057 -0.006402824 -0.0669408 0.04238838 0.021636954 4.9998446 -1.810968 0.53424925
-0.22942147 1.1076114 -0.50633097 0.5242037 0.088226505 0.93979985 0.021186218 0.33985305
-0.77493227 0.00083949213 0.1928525 0.36642143 0.48850954 -1.5735103 -2.4337153 -0.47776
0.046683498 -0.9078883 -0.8770616 -0.34857085 -0.8447563 -2.3433242 -1.2064283 -0.016429076
-1.1325909 -0.339656 0.8746324 -0.5107665 0.24319237 -0.5816724 0.208909 -0.6191928
-0.76807547 1.3114552 -0.7693329 0.7076938 0.5643694 0.6803895 -0.26866168 0.8591904
1.1684837 0.17029649 -1.089271 0.20536454 0.4225994 0.17784582 0.45108452 -2.260163
-0.32979977 -0.024969073 0.13631518 0.49333936 0.5010629 -0.12192908 -0.22161458 -0.27874154
0.5535782 -1.070261 -0.13168986 0.9234799 0.42086005 -1.8666824 1.3748264 1.4645586
-0.5411233 -0.02231167 -0.52717334 -0.50250334 0.06636831 -1.682558 -0.57058036 -0.12445264
-0.01893608 0.82384586 -0.52595365 -0.32918504 -0.07924251 0.5058366 0.1678083 -0.515721
-0.12950256 -0.7923641 0.56254804 -0.14094257 -0.5496205 0.5530206 -0.6866571 -0.18862894
0.1373535 -0.18160512 -2.4606953 -0.4131884 -0.8558405 0.3055985 -0.8354864 -0.4827433
0.9589174 -0.04370839 0.74999315 -0.9477865 -1.5685076 -0.47389913 -0.75015545 0.15531899
0.18626189 -1.3430679 1.2040337 -0.040044364 -0.85681397 -0.86747724 0.24925822 -0.53850764
-0.29660276 -0.70360917 -0.04170481 -1.7944518 1.170667 -0.11929036 -0.3860202 -0.42649233
-0.45086193 -0.7048325 -0.28773254 -0.34521943 -0.2844534 -2.6012387 -0.695755 -0.7801785
-0.27240628 -0.005055776 0.11938435 0.89414454 1.5539632 -1.5163162 -0.36363345 -0.015704395
0.20393348 0.0689932 -0.11212613 0.018080499 -0.030662864 0.8686226 2.0381303 0.19178526
0.027588496 -0.05184058 1.9091326 -0.006177062 1.6806078 3.7168486 -1.3459985 0.108066246
3.1259873 0.02065455 -0.104883894 -0.13057747 -0.013897826 -0.26749146 -0.53347653 -0.88370323
0.13092206 0.44872314 0.971311 -0.5882828 -0.69008607 0.009071164 0.18467037 -0.44030344
-0.48599434 -0.2590027 -2.4164429 -1.4707505 0.088579565 0.17899227 -0.41765475 -2.4194372
0.097079046 0.022290755 -0.21095139 0.046517115 0.45077887 -3.468774 -0.001528369 0.043972436
0.13921954 0.15027933 -0.11459626 0.1532088 -0.07629121 -1.2407849 -0.55149454 -0.32010388
00000000: 1d31 60bc 2c44 b2bd afb1 0dbe c16b ea3d
00000010: 7829 ccbd a736 60bf d09c 93be bead 4ebe
00000020: 27f8 9a3e 8311 7e3e 9cd5 02be 2705 2c3e
00000030: ca6a febc 3448 6bc0 4d94 dd3f ac69 f73c
00000040: e935 ddbc 6443 f4bd b3c8 883d 3848 223d
00000050: 6a0d 1b3e 014b 7bbf 2f41 a53f af5c 8e3d
00000060: ffa3 3040 bd68 12be 6267 0b3e 15c6 1b3f
00000070: 4a7f dc3d 5265 3fbf 87d8 1f3f f179 cfbc
00000080: d396 6c3d ea43 9a3f fd72 dfbe 3529 2dbf
00000090: f9eb 9fbe e6b7 8eba 288e 103c 80fd b5bb
000000a0: 8829 26be fe07 1c3e 15a1 2ebf 565d 75bf
000000b0: 5139 f7bd 487c 9c3d 6f56 9bbe ff08 0ec0
000000c0: 66c6 85bd e55f 10be b846 4b3e 5a7c 103d
000000d0: 8b08 c03f 45cb 2d3d a52d c2bc ace9 7b3d
000000e0: 2589 493d c8ce d1bb 4218 89bd 709f 2d3d
000000f0: fb3f b13c bafe 9f40 cdcd e7bf 8fc4 083f
00000100: 76ed 6abe 36c6 8d3f e89e 01bf 3732 063f
00000110: 19b0 b43d b996 703f b88e ad3c 3801 ae3e
00000120: f661 46bf 5d11 5c3a 207b 453e 979b bb3e
00000130: ec1d fa3e c968 c9bf fec1 1bc0 f59c f4be
00000140: 3237 3f3d 5e6b 68bf 1c87 60bf e177 b2be
00000150: f341 58bf 06f9 15c0 3e6c 9abf 4596 86bc
00000160: bdf8 90bf 64e7 adbe e9e7 5f3f 98c1 02bf
00000170: 6c07 793e 7be8 14bf 3eec 553e 6b83 1ebf
00000180: 98a0 44bf c4dd a73f 00f3 44bf 6c2b 353f
00000190: 837a 103f 022e 2e3f 068e 89be e7f3 5b3f
000001a0: e090 953f 3462 2e3e 3b6d 8bbf 154b 523e
000001b0: f35e d83e 371d 363e 8df4 e63e 83a6 10c0
000001c0: 84db a8be f18b ccbc 3596 0b3e fa96 fc3e
000001d0: a945 003f f4b5 f9bd efee 62be 36b7 8ebe
000001e0: 4db7 0d3f 50fe 88bf b5d9 06be 2e69 6c3f
000001f0: f87a d73e 73ef eebf 50fa af3f a876 bb3f
00000200: 0e87 0abf f7c6 b6bc d5f4 06bf 0fa4 00bf
00000210: 1cec 873d 0f5e d7bf 8e11 12bf 07e1 febd
00000220: d71f 9bbc 90e7 523f e6a4 06bf f18a a8be
00000230: e649 a2bd 827e 013f f0d5 2b3e 4b06 04bf
00000240: 529c 04be 60d8 4abf 2603 103f 4053 10be
00000250: eeb3 0cbf c292 0d3f c2c8 2fbf f227 41be
00000260: 65a6 0c3e b1f6 39be 087c 1dc0 6e8d d3be
00000270: 5d18 5bbf 6877 9c3e 70e2 55bf 212a f7be
00000280: 9c7b 753f 9207 33bd 8dff 3f3f 23a2 72bf
00000290: dbc4 c8bf e8a2 f2be 300a 40bf f10b 1f3e
000002a0: 70bb 3e3e a6e9 abbf c71d 9a3f 8f05 24bd
000002b0: 2958 5bbf fd12 5ebf 8c3d 7f3e a3db 09bf
000002c0: 51dc 97be bb1f 34bf aad2 2abd 99b0 e5bf
000002d0: 6bd8 953f 814e f4bd 71a4 c5be 345d dabe
000002e0: 60d7 e6be e76f 34bf ae51 93be 9ac0 b0be
000002f0: e0a3 91be b27a 26c0 001d 32bf c7b9 47bf
00000300: d678 8bbe ecaa a5bb c87f f43d a8e6 643f
00000310: 44e8 c63f a616 c2bf 2a2e babe 81a6 80bc
00000320: f0d3 503e 4f4c 8d3d 62a2 e5bd 8e1d 943c
00000330: b030 fbbc 0d5e 5e3f ba70 0240 5b63 443e
00000340: 4501 e23c ca56 54bd 755e f43f f468 cabb
00000350: 281e d73f d9e0 6d40 ae49 acbf d651 dd3d
00000360: 2d10 4840 bb33 a93c 5ecd d6bd 1ab6 05be
00000370: b5b3 63bc a4f4 88be eb91 08bf 603a 62bf
00000380: 6f10 063e 0abf e53e d6a7 783f b499 16bf
00000390: 7ba9 30bf 389f 143c 3b1a 3d3e 746f e1be
000003a0: 40d4 f8be 009c 84be 00a7 1ac0 8d41 bcbf
000003b0: 3469 b53d c049 373e d8d6 d5be 0fd8 1ac0
000003c0: 61d1 c63d 1a9b b63c a403 58be bb88 3e3d
000003d0: 7dcc e63e 6500 5ec0 8e53 c8ba 711c 343d
000003e0: 918f 0e3e d3e2 193e 72b1 eabd c5e2 1c3e
000003f0: 913e 9cbd 0ad2 9ebf bf2e 0dbf a8e4 a3be

link_predictor.0.weight f4 [64, 416]
0.16884904 0.8605491 0.02161451 0.10235654 0.04666516 0.10453367 -0.14584994 -0.39777994
0.019648192 -0.29048648 -0.33982867 -0.046927404 0.15776859 -0.44926283 -0.0927114 -0.14846888
0.11857622 -0.7317778 0.05793294 -0.15328814 0.04859188 0.2661506 -0.13858421 -0.013454002
0.28900337 0.06264085 -0.18272284 0.718439 0.45967045 -0.07870355 0.08267647 -0.081662774
0.70036066 -0.29246557 13.696692 -8.524583 5.8776345 -24.360361 -11.40792 -10.891742
8.38548 5.054878 3.6428087 -5.411633 9.470085 0.75641346 6.7730074 17.971317
5.5174866 0.8717451 9.382535 6.844866 -14.786664 6.938303 -1.9739227 -17.306284
-6.8885975 -2.774333 4.4993176 2.073935 8.322522 2.9423094 -12.343061 -17.340866
9.073286 12.046744 -19.188566 -15.507648 1.7143527 -0.7246769 2.943624 -3.6390016
4.9683604 4.7359858 -5.67314 -4.686201 -8.956222 30.168232 0.23103605 16.079254
27.062193 1.1667366 5.4770555 0.05844821 18.050713 22.956827 -5.494988 21.95877
-11.731734 10.276661 -3.8989768 3.43706 9.720397 -4.722442 8.82626 22.018724
-19.527956 5.373698 18.97387 -21.884768 -20.62101 -5.227868 0.49400505 13.569285
7.783652 2.2463167 -4.134964 -8.066979 -3.290557 4.4135156 -21.510292 7.2758274
15.567116 0.38126925 36.63206 2.1202848 8.041816 27.07715 4.191811 8.41206
1.5716811 3.8845246 11.544865 8.360522 -6.5876155 -3.4441063 1.5604244 -11.253528
-18.80091 2.5272675 8.6611 -16.126278 -5.8646464 7.927066 -5.873978 6.052547
-5.0196323 -13.4973135 12.1116085 13.105349 -12.417542 12.910778 -2.1480794 3.9226058
-6.8625236 -12.437243 -3.5026183 -3.7575102 4.1001515 -6.771953 -1.7537233 16.373985
-9.650913 4.501791 -1.8550787 11.558628 -8.7618065 -30.297771 -13.875257 -0.021404017
20.777721 27.62289 -7.5598254 -20.452951 8.133078 -18.506554 -10.621105 5.943554
-6.143381 1.6795046 -5.560482 2.488392 -12.7357435 4.3761296 -1.6982863 2.2942178
20.747978 -21.397558 -3.9514503 15.105504 -17.529278 -2.7850626 -3.6683211 -11.426138
6.888201 -16.900412 4.938516 18.037252 3.0024755 7.550001 -0.88110006 21.403261
11.571233 11.009335 9.562979 -25.114351 -5.262835 -6.648302 0.35337335 17.83479
1.5318627 -10.079986 -11.039421 2.9414961 -9.7516985 9.115936 -3.4988716 10.178957
-8.661041 -18.425459 11.85324 -2.7194571 4.8105326 -12.975325 4.5523567 -15.6195965
2.773762 18.463688 -9.21448 -16.098877 9.809135 -10.046282 8.962299 3.893074
18.22286 -19.993069 15.020675 2.5551295 -9.104814 1.5002091 -1.7942132 11.236569
-3.9511855 8.643668 -22.59773 27.326307 1.2368937 -8.433905 -12.9618635 -4.135883
2.2728775 8.413994 -8.65416 6.624991 -27.709286 9.544596 -7.6245294 -1.5083737
-2.0993586 -5.732857 -0.85272753 -4.0852194 -6.119893 -9.494714 -1.6883357 -0.024292504
00000000: c3e6 2c3e f24c 5c3f ea10 b13c 4ea0 d13d
00000010: f823 3f3d c015 d63d b059 15be d0a9 cbbe
00000020: 3ff5 a03c a5ba 94be 06fe adbe f336 40bd
00000030: 178e 213e c705 e6be 79df bdbd 3a08 18be
00000040: 17d8 f23d ca55 3bbf 174b 6d3d 91f7 1cbe
00000050: 4708 473d e444 883e 05e9 0dbe 2d6e 5cbc
00000060: 40f8 933e d949 803d b21b 3bbe 9eeb 373f
00000070: ed59 eb3e 542f a1bd 4852 a93d d03e a7bd
00000080: d64a 333f 0cbe 95be a725 5b41 b164 08c1
00000090: 9515 bc40 05e2 c2c1 d786 36c1 9344 2ec1
000000a0: ed2a 0641 90c1 a140 c723 6940 192c adc0
000000b0: 7885 1741 50a4 413f 7abc d840 42c5 8f41
000000c0: 408f b040 b02a 5f3f dd1e 1641 2409 db40
000000d0: 2d96 6cc1 9406 de40 80a9 fcbf 4573 8ac1
000000e0: 646f dcc0 ac8e 31c0 69fa 8f40 5abb 0440
000000f0: 0d29 0541 cc4e 3c40 2e7d 45c1 18ba 8ac1
00000100: 2e2c 1141 77bf 4041 2f82 99c1 541f 78c1
00000110: e96f db3f 6d84 39bf 5664 3c40 67e5 68c0
00000120: cffc 9e40 328d 9740 5d8a b5c0 5cf5 95c0
00000130: af4c 0fc1 8a58 f141 b794 6c3e 50a2 8041
00000140: 5f7f d841 a057 953f 0a44 af40 6467 6f3d
00000150: dc67 9041 95a7 b741 f1d6 afc0 90ab af41
00000160: 2fb5 3bc1 346d 2441 d688 79c0 cbf8 5b40
00000170: bf86 1b41 3f1e 97c0 5c38 0d41 5926 b041
00000180: 4139 9cc1 56f5 ab40 7cca 9741 0114 afc1
00000190: d4f7 a4c1 b24a a7c0 3bee fc3e cb1b 5941
000001a0: ad13 f940 a7c3 0f40 a051 84c0 5912 01c1
000001b0: 7c98 52c0 853b 8d40 1415 acc1 94d3 e840
000001c0: e812 7941 b935 c33e 3b87 1242 bfb2 0740
000001d0: 47ab 0041 019e d841 5123 8640 cc97 0641
000001e0: d92c c93f 0d9c 7840 c4b7 3841 b3c4 0541
000001f0: bfcd d2c0 3d6c 5cc0 fdbb c73f 730e 34c1
00000200: 4468 96c1 c0be 2140 de93 0a41 9e02 81c1
00000210: 2fab bbc0 86aa fd40 a1f7 bbc0 77ae c140
00000220: d4a0 a0c0 fff4 57c1 26c9 4141 82af 5141
00000230: 41ae 46c1 8c92 4e41 227a 09c0 f90b 7b40
00000240: cb99 dbc0 f3fe 46c1 e62a 60c0 0c7b 70c0
00000250: 7134 8340 d7b3 d8c0 017a e0bf ecfd 8241
00000260: 246a 1ac1 ac0e 9040 3873 edbf 24f0 3841
00000270: 5c30 0cc1 d661 f2c1 0d01 5ec1 7a57 afbc
00000280: c638 a641 aefb dc41 17ea f1c0 a59f a3c1
00000290: 1621 0241 6c0d 94c1 0cf0 29c1 9831 be40
000002a0: 9496 c4c0 02fa d63f 78ef b1c0 d141 1f40
000002b0: 9bc5 4bc1 4109 8c40 7261 d9bf 77d4 1240
000002c0: dcfb a541 332e abc1 90e4 7cc0 25b0 7141
000002d0: f63b 8cc1 773e 32c0 c6c5 6ac0 76d1 36c1
000002e0: 256c dc40 0b34 87c1 5308 9e40 4b4c 9041
000002f0: 8f28 4040 9c99 f140 c68f 61bf e139 ab41
00000300: c523 3941 3c26 3041 f601 1941 31ea c8c1
00000310: 2569 a8c0 e4be d4c0 5aed b43e a6ad 8e41
00000320: 1414 c43f 9f47 21c1 78a1 30c1 7941 3c40
00000330: f506 1cc1 e0da 1141 83ed 5fc0 02dd 2241
00000340: a093 0ac1 5767 93c1 dfa6 3d41 960b 2ec0
00000350: e2ef 9940 ee9a 4fc1 e8ac 9140 dee9 79c1
00000360: 5185 3140 a2b5 9341 836e 13c1 80ca 80c1
00000370: 38f2 1c41 92bd 20c1 9465 0f41 2028 7940
00000380: 6bc8 9141 cef1 9fc1 af54 7041 3e87 2340
00000390: 51ad 11c1 da06 c03f c7a8 e5bf fdc8 3341
000003a0: 39e0 7cc0 774c 0a41 27c8 b4c1 479c da41
000003b0: 8852 9e3f 46f1 06c1 cb63 4fc1 2759 84c0
000003c0: d376 1140 b89f 0641 7077 0ac1 edff d340
000003d0: 9eac ddc1 aab6 1841 25fc f3c0 6412 c1bf
000003e0: e45b 06c0 9173 b7c0 5a4c 5abf 1eba 82c0
000003f0: 2ad6 c3c0 59ea 17c1 621b d8bf 1301 c7bc

link_predictor.0.bias f4 [64]
-19.142065 -8.489671 -17.341888 -12.70688 -13.329156 -23.85536 -25.34829 -19.258247
-23.695406 -15.483267 -11.023848 -1.8684831 -24.159376 -18.784729 -7.387268 -11.11166
-15.170648 -14.833713 -23.809797 -9.252531 -17.085594 -18.19012 -15.501936 -17.46644
-15.739888 -17.625813 -25.554565 -17.296467 -15.743862 -24.116991 -25.491951 -22.19002
-16.473429 -10.663212 -18.872503 -23.281235 -11.506911 -7.011131 -20.763212 -19.46359
-6.8996606 -21.604374 -13.805918 0.17836478 -4.8094106 -12.05736 -18.628313 -21.6528
-17.017275 -4.8364563 -24.24848 -19.697376 -14.530148 -23.204065 -11.561641 -18.063625
-12.072734 -8.064241 -12.4306135 -21.863007 -25.768755 -23.372265 -14.054388 -19.088444
00000000: f322 99c1 b1d5 07c1 30bc 8ac1 614f 4bc1
00000010: 3944 55c1 c7d7 bec1 4cc9 cac1 e410 9ac1
00000020: 3190 bdc1 76bb 77c1 ae61 30c1 742a efbf
00000030: 6746 c1c1 2047 96c1 8064 ecc0 5cc9 31c1
00000040: f9ba 72c1 e356 6dc1 777a bec1 5e0a 14c1
00000050: 4caf 88c1 5e85 91c1 ee07 78c1 45bb 8bc1
00000060: 95d6 7bc1 aa01 8dc1 c06f ccc1 2a5f 8ac1
00000070: dce6 7bc1 99ef c0c1 84ef cbc1 2985 b1c1
00000080: 95c9 83c1 849c 2ac1 e3fa 96c1 f83f bac1
00000090: 4f1c 38c1 2f5b e0c0 0f1b a6c1 6fb5 9bc1
000000a0: 05ca dcc0 c2d5 acc1 0ae5 5cc1 42a5 363e
000000b0: b1e6 99c0 f2ea 40c1 c906 95c1 ef38 adc1
000000c0: 6123 88c1 40c4 9ac0 e3fc c1c1 3a94 9dc1
000000d0: 7c7b 68c1 eda1 b9c1 7bfc 38c1 4e82 90c1
000000e0: eb29 41c1 2207 01c1 cbe3 46c1 70e7 aec1
000000f0: 6926 cec1 66fa bac1 c6de 60c1 22b5 98c1

link_predictor.2.weight f4 [1, 64]
0.050330438 -0.079355784 -0.12455404 -0.11352561 -0.08276339 0.033943914 0.07457536 0.098010644
0.09324348 -0.11615735 -0.08636684 -0.11496168 0.090549365 0.12871902 -0.09181239 -0.079529785
0.05945795 -0.15454349 -0.0959713 -0.13018963 0.112032406 0.1472508 -0.082324445 -0.102105506
-0.108257435 -0.09821714 0.10323412 -0.09541257 0.028852772 -0.1344115 -0.11981194 0.08951647
0.09638426 -0.08900459 0.09642697 -0.08619113 -0.09675696 -0.13242696 0.10000748 -0.07655635
-0.05509922 -0.13141419 -0.09471063 -0.0803269 -0.108605444 -0.093086906 0.11664091 0.07136425
-0.1019192 0.05085807 0.11736442 0.10140137 0.096390426 0.11578116 0.09193776 -0.11156338
-0.13225028 -0.083724834 -0.07970953 0.090151995 -0.094928995 0.08723466 0.07335266 0.0810678
00000000: 4a27 4e3d 4985 a2bd 3016 ffbd 1d80 e8bd
00000010: da7f a9bd c608 0b3d f7ba 983d ceb9 c83d
00000020: 70f6 be3d e8e3 edbd 19e1 b0bd 0771 ebbd
00000030: f271 b93d ebce 033e 2208 bcbd 83e0 a2bd
00000040: 2e8a 733d a640 1ebe 9a8c c4bd 6e50 05be
00000050: 3f71 e53d eac8 163e b899 a8bd b11c d1bd
00000060: 13b6 ddbd 1126 c9bd 696c d33d aa67 c3bd
00000070: a65c ec3c 2ba3 09be f65f f5bd 6954 b73d
00000080: 1c65 c53d 0a48 b6bd 817b c53d fa84 b0bd
00000090: 8328 c6bd ef9a 07be b9d0 cc3d 93c9 9cbd
000000a0: b8af 61bd 7191 06be a6f7 c1bd 6e82 a4bd
000000b0: 886c debd 59a4 bebd 6ee1 ee3d 6b27 923d
000000c0: 03bb d0bd 8d50 503d c25c f03d 85ab cf3d
000000d0: 5868 c53d ac1e ed3d dd49 bc3d 577b e4bd
000000e0: 9e6c 07be ed77 abbd c03e a3bd 9ca1 b83d
000000f0: 226a c2bd 16a8 b23d eb39 963d e006 a63d
