checkpoints/model_epoch_1.pth (torch, 217416 bytes, 7 tensors)

conv1.bias f4 [64]
-0.44059294 0.76755697 -0.5811036 -2.4091299 -3.1142757 -2.875075 -3.1387572 -0.67304635
-2.461919 -2.8071191 0.5344658 -0.6428022 0.1582724 -3.5704942 -2.6198862 0.4281087
0.0027145857 0.047435485 -2.2501884 0.4720213 -2.2809753 -3.6703613 -1.8535477 -0.14877462
-2.9398122 0.4801103 -2.4269931 -1.965317 0.6560008 -2.4991102 -3.642404 -3.1259952
-5.656685 -3.9004629 -3.365922 -3.1952066 -0.74788636 -0.28807315 -0.2820554 -3.735417
-3.9529934 -1.2943312 -3.183381 -2.8877754 0.41481137 0.88835305 -1.8039614 -2.2571764
1.1143581 0.30421078 -0.5501092 -0.037899435 -3.279811 -3.0712798 1.350912 0.41090935
-0.67347866 -0.1736863 0.52696407 -0.020752015 -0.16601196 -2.892936 -3.6611145 -1.4385616
00000000: 6695 e1be 9d7e 443f 35c3 14bf 2f2f 1ac0
00000010: 4b50 47c0 3b01 38c0 66e1 48c0 c44c 2cbf
00000020: 1590 1dc0 d7a7 33c0 c0d2 083f af8e 24bf
00000030: 2912 223e fa82 64c0 37ac 27c0 1031 db3e
00000040: 31e7 313b b64b 423d 1603 10c0 c7ac f13e
00000050: 80fb 11c0 33e7 6ac0 0d41 edbf 6058 18be
00000060: e225 3cc0 04d1 f53e db53 1bc0 828f fbbf
00000070: abef 273f 6cf1 1fc0 261d 69c0 4e10 48c0
00000080: 9003 b5c0 2fa1 79c0 446b 57c0 447e 4cc0
00000090: 7b75 3fbf 537e 93be 9169 90be 1211 6fc0
000000a0: d8fd 7cc0 a5ac a5bf 84bc 4bc0 50d1 38c0
000000b0: 2862 d43e 1b6b 633f 35e8 e6bf 9475 10c0
000000c0: 49a3 8e3f 84c1 9b3e f5d3 0cbf 703c 1bbd
000000d0: 6ce8 51c0 d98f 44c0 afea ac3f b662 d23e
000000e0: 1969 2cbf d2da 31be 1ee7 063f 2100 aabc
000000f0: 0aff 29be dd25 39c0 b34f 6ac0 c922 b8bf

conv1.lin.weight f4 [64, 384]
0.20207758 0.22413124 0.8819007 -0.58275247 -0.34016016 -0.9118445 0.5618096 0.9566276
-0.7116938 0.6014442 0.45683533 -0.5465136 -1.0367159 0.59372544 1.5022842 -1.0330809
0.4398638 -0.1481102 0.7123875 -0.026253572 -0.30906612 0.038422786 -1.1650772 0.56872207
1.2589318 1.1818514 0.91758996 -0.8037353 1.6715734 0.856323 -1.2664546 1.9687591
0.16794176 0.27174434 1.6513058 2.076457 -1.0610479 -0.83560574 0.6678282 -0.35273752
-0.796285 -0.59463584 0.83631635 -1.5366673 0.071003 -0.014947052 -0.7508798 -2.2482998
0.2792336 -2.9573128 0.011187729 0.6816387 0.08307754 -2.0408497 -0.35349783 -0.63750666
3.11552 -0.4029248 0.029674942 0.24481416 -1.6192268 -0.07299228 -0.15087558 -1.4422711
-0.34988335 -0.95115554 1.2026013 1.2198634 1.132334 0.46042693 0.17312364 -0.0975633
-0.352378 0.32990077 -0.24785213 0.866281 1.1725742 -0.9234278 0.84989077 -0.9463412
1.051982 -0.016927617 -0.09383929 1.100868 0.80655366 -0.40926725 1.6502727 -2.9063148
1.0663067 1.980122 1.2084767 -0.47326165 -0.16077428 -0.4241897 0.8518765 -1.1270394
-0.72189367 0.35709715 0.009939671 -1.8560364 -0.3846312 0.11834145 1.4039285 -0.098564416
0.067896605 0.4048129 0.9565193 -0.5939351 -1.9411536 -1.336571 2.2346098 0.94929135
1.5691942 0.93225265 0.356326 1.1551394 -1.5746603 -1.7047527 -0.71691155 0.72201514
-0.024606235 0.8426765 -1.2937167 -0.78512794 0.84631133 -0.51415336 -0.82493854 0.071992666
-1.297746 0.97768676 -0.009578802 -1.2671608 -0.47516695 0.2849862 0.7078298 -0.49889663
0.5158463 -0.91038406 -0.39770576 0.004563758 0.07860658 -0.02835231 -1.0949634 2.5768402
0.15007876 0.055537045 -1.5157504 0.3237634 0.63236356 -0.056595 0.33651704 0.88421446
-1.3012161 -0.95926607 -0.8092775 1.6824913 -1.0834577 -1.4477109 -0.923371 -0.83721614
-1.2242132 -0.07755666 0.017917948 0.60806763 0.39664507 0.3753504 0.3606636 -0.12619548
0.8038343 -1.2285963 -0.010739099 0.27304986 -0.57431203 -0.37765312 0.6186723 1.0404366
1.8060125 0.24246466 0.773992 -0.51874024 0.8341809 0.1740247 -1.2133213 -0.1376182
0.92894804 0.49625972 -0.18285568 0.102387026 -0.49609923 -0.2780522 0.16233052 -0.4958918
-1.7755079 1.4020083 -0.53738844 -1.030783 -1.2122669 -0.16144747 -1.1510195 -1.0715883
-0.23317745 -0.56428194 -1.136849 -0.2789751 0.58881027 -0.95780635 0.338671 -0.731596
1.9390969 0.14365992 1.0499889 0.6278772 0.44812173 0.40715262 -0.090469755 1.1491723
-1.0565032 0.018707043 0.6671928 -0.73421395 -0.9433858 0.49073982 0.24762683 0.06464531
0.7363752 -0.0900774 -0.85664564 -0.05927966 -0.1320803 0.07711837 1.1660291 -1.3621008
0.52438986 0.6487306 0.2706561 0.5455559 0.11089908 1.0072654 -1.064737 -0.16762832
-0.5912836 -0.50387734 0.27224553 0.006332545 0.045593176 -1.421796 1.7656647 0.82316005
-0.4193296 -1.142272 0.3416497 0.9199016 1.2903446 0.3394511 -0.67224455 0.15908824
00000000: 6ded 4e3e a982 653e 3fc4 613f 442f 15bf
00000010: 7929 aebe a46e 69bf c1d2 0f3f 8ce5 743f
00000020: 9131 36bf 3ff8 193f 52e6 e93e 51e8 0bbf
00000030: 1bb3 84bf 64fe 173f d94a c03f ff3b 84bf
00000040: d435 e13e 33aa 17be 075f 363f bb11 d7bc
00000050: ea3d 9ebe 3661 1d3d 4021 95bf c597 113f
00000060: ad24 a13f e846 973f 2de7 6a3f 99c1 4dbf
00000070: 1ef6 d53f fc37 5b3f 2f1b a2bf 4c00 fc3f
00000080: edf8 2b3e 1322 8b3e fd5d d33f ace4 0440
00000090: 6bd0 87bf 42ea 55bf caf6 2a3f 039a b4be
000000a0: 55d9 4bbf 0e3a 18bf d418 563f 84b1 c4bf
000000b0: 056a 913d 7be4 74bc a939 40bf 25e4 0fc0
000000c0: b5f7 8e3e 9d44 3dc0 bd4c 373c e07f 2e3f
000000d0: 8f24 aa3d 489d 02c0 abfd b4be a333 23bf
000000e0: ae64 4740 294c cebe dd18 f33c 90b0 7a3e
000000f0: d342 cfbf fa7c 95bd 217f 1abe 579c b8bf
00000100: e923 b3be ee7e 73bf d7ee 993f 7c24 9c3f
00000110: 52f0 903f 14bd eb3e 5347 313e 44cf c7bd
00000120: e46a b4be c1e8 a83e f3cc 7dbe 97c4 5d3f
00000130: e916 963f c465 6cbf 7192 593f 6b43 72bf
00000140: 59a7 863f c9ab 8abc d02e c0bd 3ee9 8c3f
00000150: 4d7a 4e3f 7a8b d1be 233c d33f 1001 3ac0
00000160: bd7c 883f a374 fd3f 5daf 9a3f 5a4f f2be
00000170: 03a2 24be 642f d9be 9414 5a3f d442 90bf
00000180: 06ce 38bf 70d5 b63e 00da 223c 9a92 edbf
00000190: 61ee c4be 015d f23d eeb3 b33f 24dc c9bd
000001a0: 600d 8b3d a343 cf3e 73de 743f 210c 18bf
000001b0: b977 f8bf c214 abbf d903 0f40 c204 733f
000001c0: 5bdb c83f 1ca8 6e3f 5d70 b63e 9cdb 933f
000001d0: 788e c9bf 5635 dabf 8487 37bf fcd5 383f
000001e0: 0493 c9bc a6b9 573f 8298 a5bf 25fe 48bf
000001f0: dca7 583f 8e9f 03bf 2c2f 53bf e470 933d
00000200: 8a1c a6bf ae49 7a3f 68f0 1cbc 5332 a2bf
00000210: 1549 f3be b6e9 913e 5534 353f 616f ffbe
00000220: 810e 043f ee0e 69bf 17a0 cbbe 948b 953b
00000230: 7dfc a03d 1b43 e8bc c327 8cbf f3ea 2440
00000240: 3fae 193e d07a 633d 1c04 c2bf 51c4 a53e
00000250: 94e2 213f 29d0 67bd f64b ac3e e15b 623f
00000260: 408e a6bf 7692 75bf cf2c 4fbf e05b d73f
00000270: beae 8abf 974e b9bf 0b62 6cbf cc53 56bf
00000280: 05b3 9cbf 07d6 9ebd a9c8 923c 52aa 1b3f
00000290: 1015 cb3e ed2d c03e e6a8 b83e 6339 01be
000002a0: 16c8 4d3f a542 9dbf 0cf3 2fbc 31cd 8b3e
000002b0: 1d06 13bf c05b c1be 4f61 1e3f 072d 853f
000002c0: 6b2b e73f a848 783e 5724 463f 29cc 04bf
000002d0: e18c 553f 8833 323e 1d4e 9bbf c9eb 0cbe
000002e0: 8acf 6d3f c115 fe3e 853e 3bbe 4ab0 d13d
000002f0: b800 febe dc5c 8ebe f939 263e 88e5 fdbe
00000300: d843 e3bf 0275 b33f 4a92 09bf b3f0 83bf
00000310: 902b 9bbf 7c52 25be 9b54 93bf ce29 89bf
00000320: 12c6 6ebe c874 10bf 4584 91bf d3d5 8ebe
00000330: 45bc 163f cc32 75bf 4966 ad3e e049 3bbf
00000340: 5434 f83f 961b 133e 0966 863f 8fbc 203f
00000350: 3670 e53e 4f76 d03e 3548 b9bd 1418 933f
00000360: 7f3b 87bf 833f 993c 26cd 2a3f 72f5 3bbf
00000370: bb81 71bf 4042 fb3e e391 7d3e c364 843d
00000380: 1683 3c3f 807a b8bd 214d 5bbf 3bcf 72bd
00000390: 0f40 07be 3cf0 9d3d 7140 953f 5259 aebf
000003a0: 6a3e 063f 3513 263f 7093 8a3e 8da9 0b3f
000003b0: 0f1f e33d 13ee 803f 4d49 88bf c2a6 2bbe
000003c0: 5d5e 17bf 1bfe 00bf c463 8b3e 3d81 cf3b
000003d0: e9bf 3a3d 69fd b5bf 4d01 e23f 9eba 523f
000003e0: 5fb2 d6be f835 92bf b6ec ae3e ac7e 6b3f
000003f0: 032a a53f 89cc ad3e 3818 2cbf 07e8 223e

conv2.bias f4 [32]
0.11229521 -1.0804217 1.7351705 0.06736342 0.00030131615 -0.12812038 0.007869944 -0.03348782
0.086695775 -0.46113604 -0.20351444 -0.1273013 0.53733724 -2.558993 -0.006330375 -2.8054686
1.1989061 0.41710854 -1.2346232 0.14453186 -0.393549 -0.4054863 0.07606458 0.009564966
-0.061232194 0.11634301 -0.09704524 -1.2948164 -0.53706384 0.14624126 0.6376966 0.25191155
00000000: 08fb e53d 424b 8abf 111a de3f d5f5 893d
00000010: f8f9 9d39 fd31 03be f0f0 003c 862a 09bd
00000020: 8e8d b13d 061a ecbe 1766 50be 465b 02be
00000030: ef8e 093f 8bc6 23c0 096f cfbb cc8c 33c0
00000040: c175 993f 408f d53e 2208 9ebf 2900 143e
00000050: 417f c9be e69b cfbe bfc7 9b3d 60b6 1c3c
00000060: 9cce 7abd 3e45 ee3d a8bf c6bd 8bbc a5bf
00000070: 047d 09bf 45c0 153e 1640 233f 8dfa 803e

conv2.lin.weight f4 [32, 64]
-0.026302956 0.041384645 0.12793541 0.11446334 -0.6922648 -1.5075483 0.60421985 -0.20183465
0.32330304 0.24811368 0.12887035 0.022514962 0.0067867376 -0.28518274 -0.9906221 -0.14623304
0.08765687 0.14676435 -0.78198737 0.11988814 -1.3054897 -0.62523603 0.5734481 0.042533495
-0.26298973 0.01712358 0.7188645 0.60849124 0.016714966 0.97692543 0.6243977 0.08878933
-0.028712012 1.6856767 -0.35545763 -0.67641 -0.15701179 -0.04257289 -0.029420204 -0.005553901
0.7073232 0.16762866 0.0576051 -0.95845544 -0.07803754 0.07993792 -0.3033938 0.46105653
0.023411851 0.13492787 0.03631294 0.01949894 -0.79210156 0.6530337 -0.0042608236 -0.09825852
0.07724878 -0.021248668 -0.015192393 0.119801894 0.007582549 0.9634226 -0.52890486 0.18887796
-0.11716494 0.9315731 0.42574644 0.5242037 -0.06564645 -0.5633519 -1.1570266 0.33985305
-0.6385512 0.00083949213 0.00942239 0.65975255 0.06879375 0.8323535 0.64383227 -0.41084757
0.41517583 -0.5119119 1.1230695 -0.1599204 -0.20782462 -0.017172387 -0.53882354 -0.41636106
1.0678658 0.31645286 0.4515079 -0.5107665 -0.10337978 -1.0135452 0.208909 -0.3848466
-0.36480117 1.8556587 -0.53972703 0.7076938 0.40501314 0.82534176 -0.13314629 0.8591904
1.2281693 -0.40480956 0.73821294 0.20536454 -0.012686115 0.2826129 0.45108452 1.3745383
0.2506603 0.053532716 -0.01160361 0.15396275 1.5502275 0.33616942 -0.3555673 -0.2578492
-0.07406854 -0.7383652 0.52837783 0.7563507 0.66584027 0.75185794 0.07077837 0.051214103
-0.34131005 -0.179048 -0.4187844 -0.50250334 -0.46914563 -0.852195 -0.3624837 -0.12445264
-0.24528334 0.82384586 -0.34258527 -0.052118428 0.18134558 0.17386234 0.08900962 -0.30985463
0.11439505 -0.24834548 0.32085508 0.47637457 0.22776638 -1.3499738 -0.5293077 0.012246227
0.047831267 -0.02474318 -1.2575438 -0.4131884 -0.40885678 0.25433666 -0.8354864 -0.7543823
0.6268183 -0.12534939 0.5061333 -0.9477865 -0.759425 -0.40417218 0.18581231 0.15531899
0.12979661 -0.45311204 -0.59646314 -0.040044364 -0.38425416 -0.43782452 0.24925822 0.1613068
-0.27717385 -0.36608723 -0.13197331 -1.3918564 0.5177825 0.4736865 -0.0008615467 -0.058356438
-0.33294943 -0.12450042 0.30588388 -0.27412537 0.3113592 0.5557244 -0.16517308 -0.48408976
0.10584832 0.054974936 0.083095156 0.89414454 0.3164995 0.28614733 -0.74523264 -0.015704395
0.24810496 0.0689932 -0.007383611 0.09052374 0.025626212 1.2856702 -0.18156603 -0.12311404
0.055668477 0.19721334 0.10489821 0.114902325 -0.35376623 -0.12534948 -0.41089907 0.0701954
0.88837963 -0.0029962538 -0.018860186 -0.13057747 -0.00799452 -0.6582489 -0.53347653 -0.8193045
-0.2418951 -0.6986789 0.9991715 -0.5882828 0.15071513 -0.07622575 -0.17037146 -0.44030344
-0.32283014 0.3988906 -1.2349766 -1.4707505 -0.029081434 0.0878059 -0.41765475 0.9143437
-0.018382201 0.15704961 -0.015786022 0.119737 -1.34107 -0.10790689 -0.014085297 -0.0015041262
-0.19327663 0.032210596 -0.052607287 0.09378939 0.04308063 0.4926461 1.246365 0.17559806
00000000: 4c79 d7bc f282 293d 8001 033e c16b ea3d
00000010: 4438 31bf 58f7 c0bf 27ae 1a3f bead 4ebe
00000020: fa87 a53e 8311 7e3e 97f6 033e 4c71 b83c
00000030: 4863 de3b 7903 92be 6999 7dbf 1dbe 15be
00000040: 7285 b33d 6549 163e 5330 48bf ea87 f53d
00000050: 491a a7bf 780f 20bf 7fcd 123f 9a37 2e3d
00000060: 97a6 86be c046 8c3c 8107 383f 15c6 1b3f
00000070: d3ed 883c c917 7a3f 87d8 1f3f 2ed7 b53d
00000080: 7435 ebbc 41c4 d73f 8bfe b5be 3529 2dbf
00000090: b3c7 20be e960 2ebd a402 f1bc 80fd b5bb
000000a0: 2213 353f d9a6 2b3e 53f3 6b3d 565d 75bf
000000b0: 25d2 9fbd 7eb6 a33d 6f56 9bbe 9a0f ec3e
000000c0: 36ca bf3c 882a 0a3e e1bc 143d 3ebc 9f3c
000000d0: 2bc7 4abf 372d 273f 619e 8bbb c33b c9bd
000000e0: 9c34 9e3d b011 aebc 84e9 78bc b25a f53d
000000f0: 0877 f83b dda2 763f 4f66 07bf 3969 413e
00000100: 2cf4 efbd 937b 6e3f 70fb d93e 3732 063f
00000110: a571 86bd d537 10bf 7319 94bf 3801 ae3e
00000120: 1778 23bf 5d11 5c3a 5e60 1a3c 8be5 283f
00000130: bde3 8c3d 1e15 553f 31d2 243f 9d5a d2be
00000140: ed91 d43e a90c 03bf bec0 8f3f 2cc2 23be
00000150: facf 54be 1bad 8cbc 57f0 09bf 472d d5be
00000160: d4af 883f 1c06 a23e 0b2c e73e 98c1 02bf
00000170: c7b8 d3bd d9bb 81bf 3eec 553e 9d0a c5be
00000180: 38c7 babe 3986 ed3f 8d2b 0abf 6c2b 353f
00000190: e25d cf3e 9949 533f 8057 08be e7f3 5b3f
000001a0: a734 9d3f 3343 cfbe 86fb 3c3f 154b 523e
000001b0: 6cd9 4fbc a3b2 903e 8df4 e63e dff0 af3f
000001c0: 8c56 803e 1f45 5b3d 111d 3ebc 69a8 1d3e
000001d0: db6d c63f 661e ac3e eb0c b6be cf04 84be
000001e0: 3fb1 97bd 8005 3dbf c543 073f 33a0 413f
000001f0: 8274 2a3f c379 403f 40f4 903d e1c5 513d
00000200: 31c0 aebe 5c58 37be e96a d6be 0fa4 00bf
00000210: db33 f0be 7429 5abf 7797 b9be 07e1 febd
00000220: 8e2b 7bbe 90e7 523f 5667 afbe 227a 55bd
00000230: a8b2 393e f808 323e ad4a b63d 44a5 9ebe
00000240: f447 ea3d 474e 7ebe 1e47 a43e 5ee7 f33e
00000250: 973b 693e f1cb acbf b680 07bf 66a4 483c
00000260: b8ea 433d 36b2 cabc 32f7 a0bf 6e8d d3be
00000270: ad55 d1be 6a38 823e 70e2 55bf 331f 41bf
00000280: 2a77 203f 975b 00be f491 013f 23a2 72bf
00000290: ad69 42bf a8ef cebe 9545 3e3e f10b 1f3e
000002a0: 67e9 043e 4dfe e7be cfb1 18bf 8f05 24bd
000002b0: f6bc c4be 892a e0be 8c3d 7f3e 9c2d 253e
000002c0: bbe9 8dbe c96f bbbe 0324 07be 5a28 b2bf
000002d0: 658d 043f 0987 f23e 6cd9 61ba 2907 6fbd
000002e0: 5978 aabe 14fa febd d09c 9c3e 295a 8cbe
000002f0: 796a 9f3e f443 0e3f 2223 29be 9dda f7be
00000300: 01c7 d83d 662d 613d cb2d aa3d a8e6 643f
00000310: 390c a23e e781 923e 91c7 3ebf 81a6 80bc
00000320: 3a0f 7e3e 4f4c 8d3d 38f2 f1bb 8364 b93d
00000330: 10ee d13c d790 a43f 72ec 39be 3723 fcbd
00000340: a104 643d 4bf2 493e dfd4 d63d e951 eb3d
00000350: d920 b5be 9d5b 00be 5d61 d2be 9bc2 8f3d
00000360: d96c 633f cc5c 44bb ad80 9abc 1ab6 05be
00000370: 72fb 02bc 0083 28bf eb91 08bf f1bd 51bf
00000380: 59b3 77be 9fdc 32bf b4c9 7f3f b499 16bf
00000390: 1155 1a3e 3f1c 9cbd db75 2ebe 746f e1be
000003a0: fe49 a5be 643b cc3e b713 9ebf 8d41 bcbf
000003b0: 303c eebc 94d3 b33d d8d6 d5be 6e12 6a3f
000003c0: 4596 96bc 9dd1 203e b051 81bc ac38 f53d
000003d0: 2fa8 abbf 4afe dcbd 04c6 66bc 1a26 c5ba
000003e0: 4fea 45be 42ef 033d bd7a 57bd a714 c03d
000003f0: 5175 303d 1c3c fc3e e388 9f3f facf 333e

link_predictor.0.weight f4 [64, 416]
-0.017301068 0.53882396 -0.62159437 -0.03899232 0.11721295 -0.026967634 -0.05769326 -0.47653037
0.106919214 -0.20242381 -0.6147071 -0.52403516 -0.15778738 -0.045922965 -0.023778182 -0.8125266
-0.07206074 -0.47766116 -0.055426918 -0.11467389 0.104769975 -0.111331716 -0.12787889 0.11768496
0.1685479 -0.30433458 -0.08741945 0.1663368 -0.15152144 0.024153925 0.6892153 0.017931499
-1.6424624 0.8209536 2.1548736 0.22103028 2.9014428 -1.7682445 -2.7953176 -1.3360406
-0.35414582 1.6065158 -0.89914656 0.7151907 -0.45076576 0.8579785 4.24352 2.4223106
-1.0306 -2.8982434 1.5183923 0.8211055 -1.1513702 -0.6604415 1.3112421 -1.4475474
0.6910872 1.8154933 -1.5130086 -3.1591003 -1.3522921 -2.3018467 -5.796003 -2.0638876
-0.45346335 5.239514 -0.4810488 -4.2745757 -0.50933295 -1.1635728 2.4283 -5.2191143
-0.4466534 -2.352282 1.8834913 2.8542309 -2.1523147 5.733092 1.4442979 4.525978
7.2946124 0.36940104 1.2145442 1.6486636 0.37353313 1.6238141 -0.23139833 5.1755533
0.38164097 0.35751417 2.3994584 -2.4223013 3.584094 -1.068523 1.7441328 1.0790612
0.037160303 1.8109683 6.2836533 -2.6431491 -0.46051913 -2.6993523 4.0297422 2.1943548
9.40717 -3.1005409 -2.5970943 -0.5395593 2.0213094 -0.5567822 -3.0491328 0.79516757
0.29272792 1.6209246 4.925254 0.31313032 3.6999333 5.272499 3.193365 4.3548827
-0.27157962 2.3562403 -0.5226645 3.0275016 -0.72797734 0.3950059 0.47080472 -2.6436975
-1.3574082 -1.8818759 -0.7027487 -4.138646 -2.6631486 -1.1701841 1.0490303 0.97898835
0.8327871 -3.6472967 -0.5905914 0.42361686 -0.38491556 2.29314 2.560568 1.8961103
2.833787 -3.947875 -1.1208491 -4.2138443 -2.500848 -3.8232973 0.474736 2.8693953
-4.5714884 2.6964376 -2.2603328 0.514985 -4.403627 -2.9498188 -2.281199 -0.021404017
0.9588717 6.1864047 0.4066351 -5.2188363 2.730418 -2.0881672 -0.3030627 2.7109995
-3.78287 0.08957864 -1.2784593 -3.9323246 -0.85597813 -0.0064070146 -1.3163414 1.4706426
4.479948 -4.408223 -1.6038432 2.9782488 -3.0835576 3.561104 1.7537647 1.4613277
-0.19464377 -1.8670689 0.10844928 7.0613556 -3.7044644 0.3115289 2.6708517 4.307911
4.4333296 3.1044972 -1.1332357 -6.2714877 -0.85967726 -0.03791372 -0.5536885 6.3420715
4.164328 0.5740197 -1.5119907 -0.0794864 -2.4791791 -0.18132131 3.0539873 -0.17045788
-1.7956101 -5.4860463 0.9099087 1.9653122 2.2373476 -3.424334 -1.4465133 -5.9313087
-2.0592172 3.0502355 -0.5279771 -3.0963633 3.7704132 0.94706583 2.728321 2.750463
1.1537981 -4.908418 -0.28469148 0.14613128 -5.688086 -2.1860301 -0.4137594 1.4085535
-1.8297049 -1.2875019 0.80021733 1.9597569 -2.9838028 -1.3549081 3.7434766 -3.7181683
-0.46910983 2.7475355 2.907318 0.08573457 -2.3918931 4.672498 -1.8411351 2.6507907
-1.301812 -3.29659 3.3608987 -6.416081 0.7160416 -3.3537652 -0.55286026 -0.024292504
00000000: f8ba 8dbc 5ef0 093f cf20 1fbf 69b6 1fbd
00000010: 580d f03d 3aeb dcbc c54f 6cbd cafb f3be
00000020: 76f8 da3d 3048 4fbe 725d 1dbf 2b27 06bf
00000030: 0493 21be b819 3cbd 76ca c2bc be01 50bf
00000040: 9594 93bd 0190 f4be 5607 63bd 25da eabd
00000050: a491 d63d e201 e4bd aff2 02be d004 f13d
00000060: d297 2c3e bed1 9bbe f808 b3bd 3254 2a3e
00000070: 7028 1bbe 74de c53c 6a70 303f 14e5 923c
00000080: 353c d2bf 042a 523f 73e9 0940 c355 623e
00000090: 3db1 3940 d655 e2bf 7ce6 32c0 6103 abbf
000000a0: 9a52 b5be 4fa2 cd3f 782e 66bf bd16 373f
000000b0: c5ca e6be 7ba4 5b3f eaca 8740 2307 1b40
000000c0: b3ea 83bf d27c 39c0 ae5a c23f f833 523f
000000d0: 1960 93bf b212 29bf c8d6 a73f 3c49 b9bf
000000e0: 17eb 303f 1662 e83f 44aa c1bf b32e 4ac0
000000f0: e817 adbf 7551 13c0 db78 b9c0 bc16 04c0
00000100: 592c e8be 19aa a740 074c f6be 53c9 88c0
00000110: a563 02bf f4ef 94bf 4469 1b40 fc02 a7c0
00000120: c1af e4be ca8b 16c0 3e16 f13f b8ab 3640
00000130: 86bf 09c0 7d75 b740 c1de b83f d0d4 9040
00000140: 776d e940 2222 bd3e 2f76 9b3f 6907 d33f
00000150: bc3f bf3e 24d9 cf3f aff3 6cbe 229e a540
00000160: 7266 c33e 190c b73e ba90 1940 fc06 1bc0
00000170: cc61 6540 5dc5 88bf be3f df3f ad1e 8a3f
00000180: 6735 183d cfcd e73f b013 c940 5b29 29c0
00000190: 2ac9 ebbe 30c2 2cc0 a6f3 8040 4f70 0c40
000001a0: c583 1641 436f 46c0 cb36 26c0 8f20 0abf
000001b0: 225d 0140 4789 0ebf fe24 43c0 1a90 4b3f
000001c0: 6fe0 953e 757a cf3f ae9b 9d40 9e52 a03e
000001d0: b5cb 6c40 50b8 a840 1860 4c40 335b 8b40
000001e0: 7c0c 8bbe a4cc 1640 57cd 05bf 96c2 4140
000001f0: b95c 3abf 373e ca3e 510d f13e 5732 29c0
00000200: 8dbf adbf 4fe1 f0bf 57e7 33bf ca6f 84c0
00000210: 0771 2ac0 98c8 95bf a046 863f fb9e 7a3f
00000220: 8931 553f 4f6d 69c0 ff30 17bf 4fe4 d83e
00000230: a713 c5be cec2 1240 59e0 2340 beb3 f23f
00000240: c45c 3540 fca9 7cc0 fc77 8fbf d0d7 86c0
00000250: e50d 20c0 e7b0 74c0 9910 f33e 2ca4 3740
00000260: a249 92c0 6f92 2c40 4ba9 10c0 0fd6 033f
00000270: 83ea 8cc0 d5c9 3cc0 2aff 11c0 7a57 afbc
00000280: 9e78 753f 07f7 c540 7a32 d03e b500 a7c0
00000290: 2bbf 2e40 88a4 05c0 092b 9bbe 0481 2d40
000002a0: 8b1a 72c0 0275 b73d 8ea4 a3bf 35ab 7bc0
000002b0: 6221 5bbf eff1 d1bb e07d a8bf 043e bc3f
000002c0: bc5b 8f40 2a10 8dc0 bc4a cdbf a19b 3e40
000002d0: 0259 45c0 21e9 6340 5d7b e03f c90c bb3f
000002e0: b250 47be 1dfc eebf a81a de3d a0f6 e140
000002f0: f215 6dc0 b780 9f3e 3cef 2a40 68da 8940
00000300: d6dd 8d40 15b0 4640 de0d 91bf 07b0 c8c0
00000310: cf13 5cbf 6b4b 1bbd 88be 0dbf 40f2 ca40
00000320: 2d42 8540 f4f2 123f e988 c1bf c4c9 a2bd
00000330: dfaa 1ec0 4bac 39be 8774 4340 838c 2ebe
00000340: 8dd6 e5bf b18d afc0 c7ef 683f 5a8f fb3f
00000350: b430 0f40 4a28 5bc0 5927 b9bf 48cd bdc0
00000360: 37ca 03c0 0f37 4340 8229 07bf d12a 46c0
00000370: 734e 7140 e872 723f d09c 2e40 9607 3040
00000380: a8af 933f c311 9dc0 15c3 91be 70a3 153e
00000390: cd04 b6c0 ebe7 0bc0 46d8 d3be 7b4b b43f
000003a0: c533 eabf ddcc a4bf 0bdb 4c3f 50d9 fa3f
000003b0: a0f6 3ec0 a16d adbf 1f95 6f40 78f6 6dc0
000003c0: 2a2f f0be 9fd7 2f40 8011 3a40 9b95 af3d
000003d0: c714 19c0 1b85 9540 51aa ebbf 8ea6 2940
000003e0: c7a1 a6bf 55fb 52c0 f718 5740 8950 cdc0
000003f0: 814e 373f 17a4 56c0 4088 0dbf 1301 c7bc

link_predictor.0.bias f4 [64]
-2.765205 -2.0871925 -2.2230742 -2.3125417 -2.0616858 -4.080923 -3.7590039 -3.5478296
-5.5191255 -2.26462 -2.3893661 -0.22662498 -4.3429418 -3.5712368 -0.5531121 -1.6512287
-2.9023201 -4.6334596 -3.4607852 -0.65306765 -3.486414 -0.19150999 -3.4117959 -2.344745
-3.4312215 -2.805855 -3.7208092 -4.2646046 0.6169576 -2.14647 -5.008791 -4.9072666
-2.2613678 -1.7228949 -2.1956677 -1.967826 -0.4460996 -1.0829049 -3.8193438 -2.571516
-1.3058703 -2.1006734 -2.4193017 1.7128379 -0.13733783 -2.220107 -3.0929828 -3.1142132
-2.1040485 3.1211805 -0.3814067 -2.368016 1.7783082 -1.8500068 0.7352824 -2.7772083
-3.3511872 -0.18231216 -1.9475249 -4.1746554 -3.2630365 -2.6197972 -3.0923626 -4.0049753
00000000: 1ef9 30c0 9094 05c0 d946 0ec0 af00 14c0
00000010: a9f2 03c0 ec96 82c0 8593 70c0 a40f 63c0
00000020: ad9c b0c0 89ef 10c0 60eb 18c0 6110 68be
00000030: 61f9 8ac0 258f 64c0 c198 0dbf 765b d3bf
00000040: 9dbf 39c0 4d45 94c0 817d 5dc0 712f 27bf
00000050: 6821 5fc0 321b 44be dd5a 5ac0 4d10 16c0
00000060: 2299 5bc0 2193 33c0 bd21 6ec0 a477 88c0
00000070: eff0 1d3f c45f 09c0 0448 a0c0 5408 9dc0
00000080: 40ba 10c0 d287 dcbf d285 0cc0 b9e1 fbbf
00000090: 2b67 e4be a19c 8abf 2170 74c0 b893 24c0
000000a0: c226 a7bf 6f71 06c0 d7d5 1ac0 463e db3f
000000b0: 4aa2 0cbe 3c16 0ec0 6ef3 45c0 454f 47c0
000000c0: bba8 06c0 6cc1 4740 bd47 c3be 938d 17c0
000000d0: 9a9f e33f 06cd ecbf 783b 3c3f c8bd 31c0
000000e0: da79 56c0 0ab0 3abe 7f48 f9bf c796 85c0
000000f0: 97d5 50c0 c2aa 27c0 45e9 45c0 c228 80c0

link_predictor.2.weight f4 [1, 64]
0.1367054 -0.12857185 -0.15383527 -0.18138634 -0.16528657 0.10534221 0.12144555 0.11219281
0.1297294 -0.15435322 -0.17155522 -0.14114544 0.10863023 0.15467677 -0.16289377 -0.12795486
0.119393125 0.018474782 -0.14626943 -0.12592204 0.10011784 0.10615505 -0.16235493 -0.15684068
-0.20161462 -0.058274478 0.1411687 -0.12392701 0.13667743 -0.16167644 -0.19075285 0.16050959
0.09631509 -0.17454445 0.11787945 -0.22443347 -0.1508369 -0.08829008 0.089444906 -0.15098414
-0.15329748 -0.15449251 -0.12942035 -0.17029707 -0.16613759 -0.1736251 0.09744702 0.10957815
-0.16425917 0.13185988 0.10641732 0.14952193 0.15805466 0.10739495 0.09835618 -0.23093009
-0.16943794 -0.15252277 -0.15775979 0.11118374 -0.11772797 0.04842016 0.073701575 0.09259096
00000000: 80fc 0b3e 57a8 03be fe86 1dbe 57bd 39be
00000010: e240 29be a8bd d73d 72b8 f83d 58c5 e53d
00000020: c9d7 043e c50e 1ebe 2cac 2fbe 6e88 10be
00000030: 8779 de3d 9663 1e3e a0cd 26be 9906 03be
00000040: 6284 f43d 6d58 973c a7c7 15be b5f1 00be
00000050: 950a cd3d d267 d93d 5f40 26be d89a 20be
00000060: 1074 4ebe 38b1 6ebd 878e 103e 72cd fdbd
00000070: 2bf5 0b3e 828e 25be b754 43be a05c 243e
00000080: d940 c53d c8bb 32be c86a f13d e3d1 65be
00000090: fd74 1abe 6ed1 b4bd e42e b73d 969b 1abe
000000a0: 04fa 1cbe 4933 1ebe c586 04be 5b62 2ebe
000000b0: f91f 2abe c7ca 31be 4e92 c73d 826a e03d
000000c0: 8e33 28be 4706 073e 53f1 d93d 471c 193e
000000d0: 15d9 213e e2f1 db3d f76e c93d f078 6cbe
000000e0: 2481 2dbe ee2e 1cbe c88b 21be 4db4 e33d
000000f0: 5d1b f1bd 3854 463d daf0 963d 54a0 bd3d
