checkpoints/model_epoch_6.pth (torch, 217416 bytes, 7 tensors)

conv1.bias f4 [64]
0.034367148 0.73739636 0.5407333 -2.4091299 -3.7573204 -5.3921223 -4.9021306 -0.67304635
-2.771767 -2.8071191 0.6167993 -0.968941 0.015586069 -4.4763713 -4.966898 1.0100946
0.13255952 0.18390468 -4.100871 0.57854515 -5.9286346 -4.3707776 -8.284395 0.45470563
-4.0297785 0.6654335 -5.335762 -1.965317 0.63238305 -7.1896706 -3.642404 -3.4351068
-10.326137 -5.218997 -3.6824503 -3.1952066 -1.5669835 0.008478036 -0.97502613 -3.735417
-4.4326177 -3.9608037 -5.654368 -2.8877754 0.46342507 0.56626743 -1.8039614 -5.819305
1.9611808 0.5172457 -0.11646915 -0.056026198 -7.6411715 -6.9641643 1.9444906 -0.0220982
-1.6851983 -0.22861508 0.69739103 -0.31582615 -0.8194612 -5.7085943 -7.5509896 -3.340087
00000000: 91c4 0c3d 02c6 3c3f 7f6d 0a3f 2f2f 1ac0
00000010: f077 70c0 448c acc0 41de 9cc0 c44c 2cbf
00000020: a164 31c0 d7a7 33c0 8fe6 1d3f 840c 78bf
00000030: b65c 7f3c 6f3e 8fc0 d4f0 9ec0 c84a 813f
00000040: afbd 073e 8251 3c3e 563a 83c0 891b 143f
00000050: 60b7 bdc0 69dd 8bc0 e28c 04c1 2dcf e83e
00000060: f2f3 80c0 da59 2a3f 90be aac0 828f fbbf
00000070: dbe3 213f c811 e6c0 261d 69c0 cad8 5bc0
00000080: db37 25c1 0602 a7c0 44ad 6bc0 447e 4cc0
00000090: ea92 c8bf 76e7 0a3c 509b 79bf 1211 6fc0
000000a0: 01d8 8dc0 cf7d 7dc0 95f0 b4c0 50d1 38c0
000000b0: 0d46 ed3e e7f6 103f 35e8 e6bf bf37 bac0
000000c0: f907 fb3f 376a 043f 6187 eebd ba7b 65bd
000000d0: 7a84 f4c0 6fda dec0 11e5 f83f 4907 b5bc
000000e0: 94b4 d7bf 121a 6abe 3888 323f f7b3 a1be
000000f0: 36c8 51bf ceac b6c0 b5a1 f1c0 fcc3 55c0

conv1.lin.weight f4 [64, 384]
2.0966604 1.1396809 1.1790259 0.8625784 0.8241376 -1.4887904 -0.038632713 0.051214583
-1.6218759 1.6916914 0.9739526 -0.60745496 -2.8503542 1.9981335 0.51089025 0.027180817
-0.060615897 0.7621323 1.3522121 -1.3954365 -0.7156497 -1.5816984 0.2308796 2.0132895
2.7586765 1.35888 1.9915181 -0.85726845 1.4638587 1.0422124 0.37543407 3.1876667
-0.9348664 1.3767098 3.6471488 0.14800549 -0.34201217 0.041066863 -0.5226333 1.4823592
-3.2715585 -0.6143781 -0.66275895 -2.2094285 1.0658834 -0.062318336 0.44193637 -3.212709
-0.04437119 -5.624232 0.40547648 1.1413264 1.776359 -1.3018252 1.8984629 -0.36978677
2.4541292 -0.14074318 -1.457292 1.5981251 -1.2854644 -0.07110671 -1.050113 -0.16954356
1.3421386 -3.7672727 1.141265 2.063971 0.306445 0.21442844 1.7374235 0.19406796
0.54989284 0.37194207 0.339667 -0.7459775 2.491626 -1.9005045 1.638377 -0.85635537
1.516598 1.8738637 -1.1847985 0.53563917 1.5512756 -1.5852147 2.325527 -3.325936
2.273009 2.313124 -0.13447888 -0.13037528 -0.9997966 -0.3117515 0.32608783 -0.2983134
-1.1712619 0.17378415 1.0584244 -0.8307225 1.0760757 -0.0074900063 0.5597347 -0.84637105
-1.3639039 0.019171089 1.4044261 -1.8409202 -3.4902296 -1.8176519 1.5210307 0.53019446
-0.15472172 -0.38712877 1.2055032 0.11863011 -1.294067 -2.4905086 -0.09507424 1.5798476
1.7591463 2.8280585 -0.9970573 -1.1072499 3.3165364 -0.8889642 -0.41416484 0.071992666
-1.9409811 1.4105897 1.636509 -2.6341271 -0.6684724 0.57993424 0.9389753 0.34421915
0.6110714 -2.2602756 -0.1817051 0.6119796 0.51527005 1.549243 -1.1452159 2.190344
0.71289086 0.22582711 -2.0687413 1.394993 0.4009595 1.2172856 -0.49708074 0.4561609
-0.7112314 0.5921243 -0.24642512 0.7185099 -1.6019785 -2.4076946 -0.617937 -2.8803492
-1.5523069 0.23446472 0.13060707 0.14663158 0.45056546 -1.6163553 0.61554796 -0.537454
0.080488086 -2.599196 -0.72678006 0.28249797 -0.36735985 0.24752435 0.08387885 1.110793
2.7733476 1.0571527 -0.2650298 -0.3711878 1.5887897 0.5097691 -2.5466914 -1.59162
0.5258873 1.0558833 -1.4818773 1.5206966 1.4137812 1.1161495 1.2841452 0.124469995
-2.8877506 3.8562155 -2.0335925 -1.6437006 -1.1204761 0.46019182 0.33705226 -0.93090767
-1.9265009 -0.4756335 -0.23027262 1.014603 -0.09851745 -0.60636824 -0.3509665 0.05170566
2.4892178 -0.5321763 2.9255686 1.4719504 -0.10466539 1.515508 0.1723978 2.2365117
-1.7222073 0.15913239 1.2951753 2.1399794 -1.4756289 -0.8111633 2.21857 0.06464531
-0.24137099 -1.3740715 -1.1763012 1.821312 0.25224048 -0.19248518 1.4894965 -0.45731968
1.6787792 1.5980518 -0.24531732 3.0584178 2.4837358 0.94506574 -0.28486505 0.6450999
1.2874997 -0.885673 0.46093673 -0.7571449 0.56293935 -2.4156377 0.27954084 0.60785717
-0.17514174 -0.06552779 0.9064577 2.0396202 -0.1966565 0.3099257 -2.3919828 1.2525421
00000000: af2f 0640 10e1 913f 52ea 963f f0d1 5c3f
00000010: affa 523f af90 bebf 563d 1ebd 62c6 513d
00000020: a199 cfbf 5889 d83f f554 793f 2b82 1bbf
00000030: 346c 36c0 d7c2 ff3f b4c9 023f 4eaa de3c
00000040: 6048 78bd 1a1b 433f 4915 ad3f aa9d b2bf
00000050: d234 37bf 1875 cabf b46b 6c3e bcd9 0040
00000060: 288e 3040 c8ef ad3f 11ea fe3f f275 5bbf
00000070: b95f bb3f 3767 853f e538 c03e bb02 4c40
00000080: 6853 6fbf 0738 b03f e36a 6940 c08e 173e
00000090: 381c afbe ba35 283d 4ccb 05bf f2bd bd3f
000000a0: 3761 51c0 e247 1dbf 92aa 29bf 4767 0dc0
000000b0: de6e 883f 8341 7fbd 7c45 e23e 069d 4dc0
000000c0: 91be 35bd b5f9 b3c0 9d9a cf3e fc16 923f
000000d0: bb5f e33f 35a2 a6bf d500 f33f b154 bdbe
000000e0: 7410 1d40 fb1e 10be 8b88 babf 5d8f cc3f
000000f0: 198a a4bf 65a0 91bd 1a6a 86bf d49c 2dbe
00000100: 33cb ab3f ff1a 71c0 f914 923f 1a18 0440
00000110: 5ce6 9c3e 2193 5b3e e563 de3f c0b9 463e
00000120: c7c5 0c3f 316f be3e d5e8 ad3e 62f8 3ebf
00000130: cd76 1f40 bb43 f3bf 56b6 d13f 1b3a 5bbf
00000140: e21f c23f c4da ef3f 7aa7 97bf a61f 093f
00000150: 3390 c63f 51e8 cabf 6fd5 1440 23dc 54c0
00000160: fb78 1140 390a 1440 d5b4 09be 1981 05be
00000170: acf2 7fbf e59d 9fbe fcf4 a63e 89bc 98be
00000180: e9eb 95bf 79f4 313e 737a 873f 3baa 54bf
00000190: d9bc 893f ba6e f5bb c64a 0f3f c6ab 58bf
000001a0: 6794 aebf b00c 9d3c 3cc4 b33f 46a3 ebbf
000001b0: ec5f 5fc0 d1a8 e8bf 22b1 c23f d3ba 073f
000001c0: 5f6f 1ebe be35 c6be ee4d 9a3f 58f4 f23d
000001d0: fda3 a5bf 7e64 1fc0 48b6 c2bd 7238 ca3f
000001e0: b52b e13f e9fe 3440 263f 7fbf 5dba 8dbf
000001f0: 2242 5440 2893 63bf 6a0d d4be e470 933d
00000200: 1272 f8bf 348e b43f 2079 d13f 8a95 28c0
00000210: 0221 2bbf 9276 143f af60 703f 7e3d b03e
00000220: 2d6f 1c3f 5ba8 10c0 e710 3abe b2aa 1c3f
00000230: bde8 033f 984d c63f 6f96 92bf 992e 0c40
00000240: 0480 363f 393f 673e 4266 04c0 218f b23f
00000250: 904a cd3e 04d0 9b3f 5e81 febe ec8d e93e
00000260: 4313 36bf 7595 173f de56 7cbe 44f0 373f
00000270: a20d cdbf ab17 1ac0 1f31 1ebf a457 38c0
00000280: feb1 c6bf 8517 703e dcbd 053e 9726 163e
00000290: 84b0 e63e bbe4 cebf 8d94 1d3f 9696 09bf
000002a0: f0d6 a43d 3a59 26c0 420e 3abf 93a3 903e
000002b0: 9716 bcbe 0677 7d3e adc8 ab3d 772e 8e3f
000002c0: 877e 3140 c850 873f fcb1 87be 540c bebe
000002d0: 765d cb3f 3a80 023f fefc 22c0 34ba cbbf
000002e0: 8da0 063f 2f27 873f 28ae bdbf 30a6 c23f
000002f0: c8f6 b43f fddd 8e3f df5e a43f 20ea fe3d
00000300: e8d0 38c0 3ccc 7640 6126 02c0 c864 d2bf
00000310: c36b 8fbf 439e eb3e 1d92 ac3e f74f 6ebf
00000320: 9597 f6bf 3c86 f3be 96cc 6bbe 83de 813f
00000330: 84c3 c9bd f33a 1bbf e2b1 b3be 50c9 533d
00000340: 584f 1f40 b53c 08bf 843c 3b40 df68 bc3f
00000350: cf5a d6bd 2bfc c13f 0d89 303e 0223 0f40
00000360: 4a71 dcbf 9af3 223e 4ec8 a53f 6cf5 0840
00000370: 68e1 bcbf 66a8 4fbf 0dfd 0d40 c364 843d
00000380: f529 77be 93e1 afbf 0a91 96bf c020 e93f
00000390: aa25 813e d61a 45be d2a7 be3f ce25 eabe
000003a0: 3de2 d63f f68c cc3f 7734 7bbe 1ebd 4340
000003b0: 87f5 1e40 d4ef 713f d5d9 91be 4425 253f
000003c0: cacc a43f 77bb 62bf e6ff eb3e 40d4 41bf
000003d0: cb1c 103f cf99 1ac0 fa1f 8f3e 879c 1b3f
000003e0: 5b58 33be 6f33 86bd 9d0d 683f 2389 0240
000003f0: 5260 49be 95ae 9e3e 3f16 19c0 4d53 a03f

conv2.bias f4 [32]
0.0042723906 -1.0726612 6.249711 0.23355767 -0.09024739 0.019995574 0.06753118 -0.5127585
-0.13267016 -0.43322587 -0.37184656 0.19904202 0.097966194 -5.303727 -0.10829601 -6.329876
2.8324382 -0.047432166 -0.854436 -0.90152586 0.07983776 -0.24384044 -0.24149214 -0.085198976
-0.1817481 -0.090696216 -0.05687451 -0.5481323 -0.913777 -0.04579148 1.5654525 -0.032387912
00000000: 69ff 8b3b f64c 89bf a2fd c740 be29 6f3e
00000010: a0d3 b8bd c2cd a33c ca4d 8a3d 2444 03bf
00000020: b0da 07be c8cf ddbe ac62 bebe acd1 4b3e
00000030: 80a2 c83d 22b8 a9c0 4cca ddbd 588e cac0
00000040: ab46 3540 3b48 42bd 51bc 5abf 66ca 66bf
00000050: fb81 a33d 4fb1 79be b749 77be cd7c aebd
00000060: 2d1c 3abe f0be b9bd 3ff5 68bd 6652 0cbf
00000070: 4aed 69bf d98f 3bbd bf60 c83f 30a9 04bd

conv2.lin.weight f4 [32, 64]
0.08221738 -0.0474855 0.1898465 0.11446334 -0.09968847 -0.8758339 -0.28830576 -0.20183465
0.3026745 0.24811368 0.08495928 -0.036434144 0.17517646 -2.1321929 0.404715 0.07466109
-0.018745538 -0.01657328 -0.4149228 -0.10640037 3.9707656 -0.08469774 0.80779195 0.054736525
-0.3643787 -0.043989398 -0.18017583 0.60849124 0.007844074 -0.7476398 0.6243977 -0.0253267
-0.1675614 1.2051976 -0.43642417 -0.67641 0.25233683 0.1315486 -0.02300756 -0.005553901
-0.1622678 0.47948733 2.8193605 -0.95845544 -0.0064270603 -0.037968334 -0.3033938 -0.805103
0.0021464666 -0.06860848 0.121035025 -0.07895553 1.044249 1.1821067 -0.05952781 0.007845962
0.15529224 -0.0027395939 0.112484425 -0.00015288801 -0.3222836 2.97851 -1.810968 0.06425224
-0.28467858 1.236738 0.073356465 0.5242037 0.088226505 0.93979985 0.021186218 0.33985305
-0.77493227 0.00083949213 0.16643874 0.40184942 0.07981947 0.8189653 1.2784145 -0.6530677
0.20544015 -0.87862146 0.5074756 -0.29105082 0.7069759 -1.0590583 -1.1537964 0.037634745
0.4377584 0.17778605 0.33898288 -0.5107665 0.03794944 -0.5816724 0.208909 -0.6191928
-0.3069317 1.3114552 -0.7693329 0.7076938 0.41149604 0.7077726 -0.21049781 0.8591904
1.1684837 -0.6144374 -0.2791477 0.20536454 0.0768186 0.0833912 0.45108452 0.8783338
-0.09436867 0.030399425 -0.048764057 0.27509698 0.7783019 0.022129651 -0.31798172 -0.32914948
-0.2316372 -1.0723547 0.14113104 0.97025543 0.29714486 -0.4440425 1.3748264 0.41950282
-0.29926914 -0.041479576 -0.3457835 -0.50250334 0.06636831 -1.682558 -0.57058036 -0.12445264
-0.01893608 0.82384586 -0.4786614 -0.17814064 -0.017016575 -0.1504241 -1.4026092 -0.52690196
0.11366917 -0.36465555 1.4852434 0.29814863 1.3973272 -1.2544876 -1.3799852 -0.13175869
0.96240073 -0.11332762 -2.3272111 -0.4131884 -0.64962494 0.3055985 -0.8354864 -0.4827433
0.6549056 -0.04370839 0.74999315 -0.9477865 -1.1476395 -0.25294518 -0.24273632 0.15531899
0.18626189 -1.2048168 -0.9485385 -0.040044364 -0.5458625 -0.644017 0.24925822 1.036668
-0.07740595 -0.69556576 -0.22410882 -1.5320739 0.98236054 -1.181546 -0.24428487 -0.37567076
-0.32633373 -0.66233236 -0.022769913 -0.41962337 0.07742834 -0.24305321 -0.695755 -0.7197379
0.13622949 -0.064446606 0.10102289 0.89414454 1.5539632 -1.5163162 -0.36363345 -0.015704395
0.20393348 0.0689932 0.061727982 -0.06634301 0.025941575 -0.29412195 -1.5418127 -0.047629997
-0.2052523 -0.041236002 -0.10102968 0.037073962 -1.9750764 0.3964607 -0.3365538 0.09245965
0.14279985 -0.04004278 0.03807105 -0.13057747 -0.04394578 -0.26749146 -0.53347653 -0.88370323
0.107638665 0.44872314 0.971311 -0.5882828 0.05278684 0.113846526 -0.18333805 -0.44030344
-0.48599434 0.086924255 -0.33887383 -1.4707505 -0.056598607 0.0969346 -0.41765475 -1.0087208
-0.05551274 0.080260135 0.047852043 0.06615923 -0.074580625 -1.2657685 0.0687739 0.011830451
0.423804 -0.14019045 0.0938388 0.045453437 -0.16124687 1.6512566 -0.55149454 0.44537747
00000000: 9661 a83d 2880 42bd 1f67 423e c16b ea3d
00000010: 7829 ccbd a736 60bf d09c 93be bead 4ebe
00000020: 27f8 9a3e 8311 7e3e 22ff ad3d f83b 15bd
00000030: 7561 333e d975 08c0 ce36 cf3e eae7 983d
00000040: 3e90 99bc b0c4 87bc c370 d4be 70e8 d9bd
00000050: 0621 7e40 0276 adbd 74cb 4e3f 6833 603d
00000060: d88f babe 3a2e 34bd 0380 38be 15c6 1b3f
00000070: 6e84 003c 5265 3fbf 87d8 1f3f f179 cfbc
00000080: 3795 2bbe ea43 9a3f fd72 dfbe 3529 2dbf
00000090: 4b32 813e adb4 063e 5a7a bcbc 80fd b5bb
000000a0: 8829 26be 5d7f f53e 6770 3440 565d 75bf
000000b0: 179a d2bb af84 1bbd 6f56 9bbe 3b1b 4ebf
000000c0: bcab 0c3b 9a82 8cbd 36e1 f73d 70b3 a1bd
000000d0: f4a9 853f 464f 973f 6fd3 73bd 5a8c 003c
000000e0: ee04 1f3e c28a 33bb 3c5e e63d 9050 20b9
000000f0: 5b02 a5be e89f 3e40 cdcd e7bf ae96 833d
00000100: 64c1 91be 6e4d 9e3f ea3b 963d 3732 063f
00000110: 19b0 b43d b996 703f b88e ad3c 3801 ae3e
00000120: f661 46bf 5d11 5c3a eb6e 2a3e 35bf cd3e
00000130: 6478 a33d b6a7 513f 16a3 a33f 722f 27bf
00000140: e75e 523e 56ed 60bf ece9 013f 9d04 95be
00000150: 5ffc 343f 398f 87bf 9aaf 93bf e426 1a3d
00000160: de21 e03e 8c0d 363e 2a8f ad3e 98c1 02bf
00000170: df70 1b3d 7be8 14bf 3eec 553e 6b83 1ebf
00000180: 2726 9dbe c4dd a73f 00f3 44bf 6c2b 353f
00000190: 9caf d23e 9630 353f bd8c 57be e7f3 5b3f
000001a0: e090 953f c54b 1dbf 73ec 8ebe 154b 523e
000001b0: 1253 9d3d 01c9 aa3d 8df4 e63e 7cda 603f
000001c0: 5c44 c1bd 3708 f93c d2bc 47bd 83d9 8c3e
000001d0: cb3e 473f 3e49 b53c 80ce a2be 4886 a8be
000001e0: 4d32 6dbe eb42 89bf a884 103e a962 783f
000001f0: 5f23 983e 8a59 e3be 50fa af3f 13c9 d63e
00000200: ce39 99be 7de6 29bd 890a b1be 0fa4 00bf
00000210: 1cec 873d 0f5e d7bf 8e11 12bf 07e1 febd
00000220: d71f 9bbc 90e7 523f 1b13 f5be 806a 36be
00000230: 5866 8bbc c608 1abe b388 b3bf 0ce3 06bf
00000240: 62cb e83d 22b4 babe 751c be3f f0a6 983e
00000250: 9edb b23f 0d93 a0bf 5ba3 b0bf c0eb 06be
00000260: e55f 763f 5018 e8bd 07f1 14c0 6e8d d3be
00000270: d24d 26bf 6877 9c3e 70e2 55bf 212a f7be
00000280: e5a7 273f 9207 33bd 8dff 3f3f 23a2 72bf
00000290: dae5 92bf 0882 81be df8f 78be f10b 1f3e
000002a0: 70bb 3e3e 7037 9abf 6bd3 72bf 8f05 24bd
000002b0: a5bd 0bbf 4cde 24bf 8c3d 7f3e 89b1 843f
000002c0: 0387 9ebd 9910 32bf c87c 65be ff1a c4bf
000002d0: fb7b 7b3f e63c 97bf d025 7abe eb57 c0be
000002e0: 3715 a7be 9d8e 29bf f887 babc e0d8 d6be
000002f0: c092 9e3d f1e2 78be 001d 32bf be40 38bf
00000300: be7f 0b3e 95fc 83bd 17e5 ce3d a8e6 643f
00000310: 44e8 c63f a616 c2bf 2a2e babe 81a6 80bc
00000320: f0d3 503e 4f4c 8d3d 7bd6 7c3d d8de 87bd
00000330: 6d83 d43c 2797 96be 1e5a c5bf ac17 43bd
00000340: a92d 52be 15e7 28bd a6e8 cebd deda 173d
00000350: 4ecf fcbf e6fc ca3e c850 acbe 7c5b bd3d
00000360: 203a 123e e603 24bd 64f0 1b3d 1ab6 05be
00000370: 7d00 34bd a4f4 88be eb91 08bf 603a 62bf
00000380: a971 dc3d 0abf e53e d6a7 783f b499 16bf
00000390: 0337 583d 5e28 e93d f8bc 3bbe 746f e1be
000003a0: 40d4 f8be 5805 b23d df80 adbe 8d41 bcbf
000003b0: f1d3 67bd a685 c63d d8d6 d5be c31d 81bf
000003c0: 5461 63bd 6d5f a43d 8100 443d 7e7e 873d
000003d0: babd 98bd b404 a2bf 55d9 8c3d 82d4 413c
000003e0: d6fc d83e 168e 0fbe 8f2e c03d 622d 3a3d
000003f0: e61d 25be 605c d33f bf2e 0dbf 8408 e43e

link_predictor.0.weight f4 [64, 416]
0.14744523 1.0724926 -0.10019832 -0.14821577 0.1298891 0.043426406 -0.05710929 0.053858176
0.09949039 0.011000323 -0.7878982 -0.19775026 -0.4212448 -0.42651775 0.022135021 -0.26828036
0.30456161 -0.76223564 0.0645726 -0.41541556 0.080440834 -0.013029951 0.110665716 0.00038686235
-0.11817202 0.10057031 -0.06450546 0.09197634 0.14099823 -0.08527635 0.63014495 0.08234089
-8.959509 -1.3850677 7.247404 -6.782275 5.305557 -13.062548 -0.9057554 -7.7118483
5.433557 6.701063 4.4230957 0.30028626 5.6545396 -1.5375164 4.1825376 5.2125854
-1.1552119 -2.9351418 6.121966 0.601022 -9.145069 3.5076034 0.6696224 -6.486861
2.1109667 0.24893302 -0.16453058 -0.68080217 0.10446666 1.5118775 -13.868516 -11.95974
4.760905 15.67009 -13.548707 -11.81074 2.731733 -0.9872877 6.043934 -9.125627
-0.40513578 0.15551546 2.1549664 -5.750421 -7.6622715 15.301026 0.37085316 12.409731
17.1131 3.0571446 4.2309833 1.0672262 1.8717403 13.939173 -4.135523 9.778797
-6.656563 8.731555 -0.5928462 -4.0778623 3.3514671 -3.7474332 3.9267573 7.717642
-9.665627 -2.1596386 7.846989 -11.352354 -6.056888 -3.7719066 5.620508 3.873711
8.198208 -5.176347 -5.1093388 -1.3958381 5.808951 -0.2951481 -7.0938582 6.254153
7.294013 4.6872663 18.987328 0.29975164 6.214901 9.219715 2.9592717 8.650934
5.247749 6.7531548 2.8317225 6.3429675 -1.8433946 -1.0442755 0.81164694 -5.6830363
-5.382591 0.041937683 1.3834704 -7.326119 -8.744553 -2.155904 -0.5240112 4.759166
0.67697084 -6.1855783 7.745237 6.2506413 0.19197029 6.691825 0.035597 1.6416904
-0.81260824 -8.138157 -3.5799198 -5.315176 -2.4798882 -6.51656 0.47070625 7.124364
-6.1224995 4.6392756 -1.8217733 3.7482584 -12.246483 -12.197542 -6.102113 -0.021404017
6.3112164 18.045797 -1.190972 -13.360592 7.254501 -11.953405 -4.26353 6.2792525
-9.696643 0.5398089 -5.2121463 0.05139986 -2.291084 0.6256244 -5.0230765 6.9106407
9.464896 -10.485522 -4.5884666 5.2417965 -11.522748 5.0966353 -1.8290681 -2.4651449
4.8964133 -8.990711 0.19414276 12.714472 -0.63562965 4.614859 -4.697367 14.082705
6.076438 6.7131343 -0.5429616 -19.150925 -3.949759 -8.196414 0.7592497 12.992332
4.751052 -3.8839097 -10.149752 -1.027828 -5.978859 0.52529883 -3.2268796 5.6896734
-4.696931 -16.216398 8.861486 4.05772 10.400803 -7.2917943 -2.1190805 -14.551374
-0.20697905 7.838572 -4.3988156 -4.269966 6.1023455 1.2456762 5.406835 4.2566996
6.5760937 -14.524121 8.162905 1.7831672 -12.486634 0.75619423 0.8295984 9.255752
-6.933481 4.924712 -9.822624 10.548696 0.7410687 -2.8397715 -1.3550627 -3.3455732
0.16289659 3.9028087 0.3022068 4.9392815 -13.365269 7.276638 -10.288317 5.0065126
2.318513 -7.259338 -0.29438198 -7.531428 -0.9793259 -1.7790784 -2.4005942 -0.024292504
00000000: e2fb 163e 7047 893f c734 cdbd e0c5 17be
00000010: a601 053e e3df 313d 6eeb 69bd 649a 5c3d
00000020: 9ec1 cb3d b33a 343c b2b3 49bf 0b7f 4abe
00000030: 66ad d7be 8960 dabe 8154 b53c 0b5c 89be
00000040: 80ef 9b3e e021 43bf a43e 843d 59b1 d4be
00000050: 2abe a43d 937b 55bc b5a4 e23d c9d3 ca39
00000060: 2c04 f2bd cff7 cd3d 701b 84bd 175e bc3d
00000070: d761 103e 5ea5 aebd 2e51 213f 57a2 a83d
00000080: 265a 0fc1 e649 b1bf bcea e740 6608 d9c0
00000090: 1fc7 a940 3200 51c1 96df 67bf 76c7 f6c0
000000a0: b3df ad40 1c6f d640 008a 8d40 1fbf 993e
000000b0: fdf1 b440 56cd c4bf 59d7 8540 80cd a640
000000c0: fcdd 93bf 5dd9 3bc0 25e7 c340 94dc 193f
000000d0: 3452 12c1 937c 6040 606c 2b3f 5e94 cfc0
000000e0: 141a 0740 4ce8 7e3e b47a 28be 0d49 2ebf
000000f0: 9ef2 d53d 3485 c13f 71e5 5dc1 185b 3fc1
00000100: 5559 9840 b0b8 7a41 81c7 58c1 cbf8 3cc1
00000110: b7d4 2e40 e3be 7cbf e867 c140 9102 12c1
00000120: f56d cfbe 723f 1f3e f8ea 0940 7303 b8c0
00000130: 5431 f5c0 01d1 7441 77e0 bd3e 428e 4641
00000140: a1e7 8841 42a8 4340 3764 8740 de9a 883f
00000150: 3095 ef3f da06 5f41 3456 84c0 f475 1c41
00000160: 9002 d5c0 73b4 0b41 c5c4 17bf d97d 82c0
00000170: 707e 5640 f2d5 6fc0 fe4f 7b40 ecf6 f640
00000180: 68a6 1ac1 8537 0ac0 891a fb40 3ea3 35c1
00000190: 07d2 c1c0 eb66 71c0 34db b340 e2ea 7740
000001a0: dc2b 0341 a2a4 a5c0 b47f a3c0 d3aa b2bf
000001b0: ede2 b940 a71d 97be e300 e3c0 0522 c840
000001c0: 8e68 e940 16fe 9540 0ce6 9741 0c79 993e
000001d0: 78e0 c640 f483 1341 b564 3d40 3a6a 0a41
000001e0: 8fed a740 d819 d840 f13a 3540 97f9 ca40
000001f0: 5bf4 ebbf d2aa 85bf 18c8 4f3f 6fdb b5c0
00000200: 2f3e acc0 d9c6 2b3d 8f15 b13f 916f eac0
00000210: b0e9 0bc1 55fa 09c0 9925 06bf 164b 9840
00000220: f64d 2d3f 42f0 c5c0 fbd8 f740 4105 c840
00000230: dc93 443e 6e23 d640 29ce 113d e922 d23f
00000240: 1807 50bf e435 02c1 681d 65c0 ec15 aac0
00000250: 7db6 1ec0 a987 d0c0 6900 f13e cafa e340
00000260: 84eb c3c0 f274 9440 de2f e9bf 77e3 6f40
00000270: 98f1 43c1 2229 43c1 8244 c3c0 7a57 afbc
00000280: 7cf5 c940 cb5d 9041 c571 98bf fcc4 55c1
00000290: df24 e840 2641 3fc1 d66e 88c0 a3ef c840
000002a0: 7325 1bc1 eb30 0a3f e7c9 a6c0 a988 523d
000002b0: 1fa1 12c0 ec28 203f 0bbd a0c0 f823 dd40
000002c0: 3770 1741 b3c4 27c1 b8d4 92c0 ccbc a740
000002d0: 2d5d 38c1 a317 a340 e71e eabf efc4 1dc0
000002e0: 6baf 9c40 f4d9 0fc1 5ccd 463e 7a6e 4b41
000002f0: a0b8 22bf edac 9340 d550 96c0 c252 6141
00000300: 2e72 c240 ffd1 d640 88ff 0abf 1835 99c1
00000310: dac8 7cc0 8324 03c1 305e 423f 98e0 4f41
00000320: 9e08 9840 fa91 78c0 6265 22c1 de8f 83bf
00000330: d052 bfc0 fc79 063f 3285 4ec0 ce11 b640
00000340: 424d 96c0 2fbb 81c1 a6c8 0d41 d8d8 8140
00000350: b069 2641 6156 e9c0 049f 07c0 6ed2 68c1
00000360: 51f2 53be 95d5 fa40 19c3 8cc0 90a3 88c0
00000370: 6a46 c340 5172 9f3f cb04 ad40 e236 8840
00000380: 5c6f d240 cd62 68c1 429b 0241 d33e e43f
00000390: 41c9 47c1 f295 413f 9060 543f 8f17 1441
000003a0: 14df ddc0 3e97 9d40 7829 1dc1 75c7 2841
000003b0: aeb6 3d3f d1be 35c0 b272 adbf df1d 56c0
000003c0: 5dce 263e 9ec7 7940 daba 9a3e 980e 9e40
000003d0: 24d8 55c1 38da e840 f29c 24c1 5a35 a040
000003e0: 8462 1440 7f4c e8c0 3cb9 96be 7501 f1c0
000003f0: 1ab5 7abf d7b8 e3bf 56a3 19c0 1301 c7bc

link_predictor.0.bias f4 [64]
-10.9549675 -6.430249 -8.830751 -7.7925587 -8.868165 -10.872788 -12.475452 -10.373609
-13.667747 -9.940221 -6.9916587 0.098589145 -12.281614 -9.847239 -4.188627 -5.633513
-8.617922 -13.884935 -14.760061 -3.8326118 -10.026686 -8.391804 -11.032846 -11.331586
-9.497952 -10.770633 -11.715117 -11.494314 -6.39294 -9.722628 -15.593897 -13.093471
-7.6720166 -5.543177 -9.062773 -7.3830376 -5.6679664 -3.451988 -11.822381 -11.311989
-6.096548 -10.899642 -7.913689 -0.45904058 -2.6819234 -6.694498 -9.841149 -10.966044
-8.864495 1.5091082 -10.201379 -9.56004 -5.5019865 -9.464072 -3.4344738 -12.141939
-8.950879 -2.191253 -8.05381 -10.383657 -11.640925 -12.540084 -8.407181 -11.340305
00000000: 8c47 2fc1 9ac4 cdc0 c24a 0dc1 a45c f9c0
00000010: 01e4 0dc1 f1f6 2dc1 749b 47c1 4dfa 25c1
00000020: 17af 5ac1 250b 1fc1 abbb dfc0 1be9 c93d
00000030: 7e81 44c1 4a8e 1dc1 3b09 86c0 bd45 b4c0
00000040: 02e3 09c1 b228 5ec1 3629 6cc1 8349 75c0
00000050: 4e6d 20c1 d444 06c1 8a86 30c1 2d4e 35c1
00000060: 9df7 17c1 8354 2cc1 1f71 3bc1 b6e8 37c1
00000070: f792 ccc0 e28f 1bc1 9a80 79c1 db7e 51c1
00000080: 2981 f5c0 b561 b1c0 1e01 11c1 d841 ecc0
00000090: fb5f b5c0 5fed 5cc0 7928 3dc1 e8fd 34c1
000000a0: ec16 c3c0 ef64 2ec1 f13c fdc0 5e07 ebbe
000000b0: a2a4 2bc0 5439 d6c0 5975 1dc1 eb74 2fc1
000000c0: f9d4 0dc1 752a c13f d938 23c1 edf5 18c1
000000d0: 4610 b0c0 d76c 17c1 6bce 5bc0 6245 42c1
000000e0: cd36 0fc1 7d3d 0cc0 68dc 00c1 7623 26c1
000000f0: 3b41 3ac1 2fa4 48c1 d083 06c1 e471 35c1

link_predictor.2.weight f4 [1, 64]
0.083867654 -0.1310915 -0.11952869 -0.1397864 -0.13621314 0.112313956 0.03728883 0.047409467
0.08255062 -0.10829101 -0.076482944 -0.12233498 0.09365679 0.07544878 -0.08840131 -0.09720264
0.08963189 -0.14016934 -0.11597681 -0.12981676 0.117939524 0.10499649 -0.09890501 -0.10796756
-0.1323744 -0.09151495 0.10678834 -0.1343474 0.11578124 -0.096440375 -0.12221928 0.09263611
0.110236086 -0.118741006 0.08227321 -0.15948182 -0.13009055 -0.09920628 0.117566966 -0.09934797
-0.0967416 -0.08257638 -0.10958904 -0.107830025 -0.09959398 -0.12137553 0.11034684 0.071463674
-0.10758756 0.12302975 0.053048108 0.076357275 0.13387088 0.10549508 0.112882584 -0.15864418
-0.117091864 -0.05894688 -0.09991732 0.10859698 -0.079112135 0.12590337 0.07495877 0.06860072
00000000: cec2 ab3d da3c 06be 75cb f4bd 2b24 0fbe
00000010: 757b 0bbe dc04 e63d 2cbc 183d 6e30 423d
00000020: 4d10 a93d adc7 ddbd 17a3 9cbd c38a fabd
00000030: 22cf bf3d e484 9a3d bf0b b5bd 2d12 c7bd
00000040: ed90 b73d 8d88 0fbe 4085 edbd afee 04be
00000050: 478a f13d 6608 d73d b68e cabd 191e ddbd
00000060: 288d 07be 316c bbbd d8b3 da3d 5d92 09be
00000070: b71e ed3d 8882 c5bd 1a4e fabd 00b8 bd3d
00000080: 75c3 e13d 7c2e f3bd db7e a83d 344f 23be
00000090: 7536 05be aa2c cbbd f3c6 f03d f376 cbbd
000000a0: 7620 c6bd ce1d a9bd 3870 e0bd fdd5 dcbd
000000b0: eef7 cbbd bc93 f8bd 86fd e13d 8c5b 923d
000000c0: de56 dcbd 06f7 fb3d f948 593d 3461 9c3d
000000d0: 7315 093e ce0d d83d fc2e e73d 9f73 22be
000000e0: dccd efbd 4972 71bd 74a1 ccbd 1868 de3d
000000f0: 8b05 a2bd d0ec 003e fc83 993d 897e 8c3d
