checkpoints/model_epoch_21.pth (torch, 217428 bytes, 7 tensors)

conv1.bias f4 [64]
00000000: 22af 843d aa39 2f3f bf3a 783f 2f2f 1ac0
00000010: f077 70c0 448c acc0 41de 9cc0 c44c 2cbf
00000020: a164 31c0 d7a7 33c0 fc5f 363e e6cf b6bf
00000030: 6c3b 823e 573b 61c1 4eb6 5fc1 739d a03f
00000040: f452 163e c04f a33c ab0d 75c1 6e21 363f
00000050: c737 65c1 fefc eec0 591a 10c1 31de 143f
00000060: 58f1 b7c0 8d31 5c3f 51d4 07c1 828f fbbf
00000070: 653f 113f c811 e6c0 261d 69c0 cad8 5bc0
00000080: 4486 54c1 0602 a7c0 44ad 6bc0 447e 4cc0
00000090: 3d1e 52c0 732e ea3d 026e 0ec0 1211 6fc0
000000a0: 01d8 8dc0 33a4 f1c0 442d 80c1 50d1 38c0
000000b0: 06b7 4e3f 59a3 3c3f 35e8 e6bf 9ff1 dac0
000000c0: 860d 0f40 ac98 1c3f 3923 083d c3c4 a03e
000000d0: d1be 8dc1 856e 1ac1 58aa 1f40 9afb 833e
000000e0: b179 48c0 b043 683e 2591 933f be78 febd
000000f0: 1210 c6bf 57ee 4dc1 b5a1 f1c0 4c96 d4c0
0.064787164 0.68447363 0.9696464 -2.4091299 -3.7573204 -5.3921223 -4.9021306 -0.67304635
-2.771767 -2.8071191 0.17810053 -1.4282196 0.2543596 -14.076987 -13.982008 1.254805
0.14680082 0.019935489 -15.315837 0.7114476 -14.3261175 -7.468383 -9.006433 0.5815154
-5.748211 0.8601311 -8.489335 -1.965317 0.5673736 -7.1896706 -3.642404 -3.4351068
-13.28278 -5.218997 -3.6824503 -3.1952066 -3.2830956 0.11434641 -2.2254643 -3.735417
-4.4326177 -7.551294 -16.022102 -2.8877754 0.8074802 0.7368675 -1.8039614 -6.841995
2.2352004 0.6117046 0.033236716 0.31400117 -17.718172 -9.651982 2.494772 0.25777894
-3.1324275 0.2268207 1.152867 -0.124253735 -1.5473654 -12.870688 -7.5509896 -6.643347

conv1.lin.weight f4 [64, 384]
00000000: ed46 1740 cbb4 2140 4399 493f b6ae e93e
00000010: f27e 593f 98c3 49be 8920 b43e 6de1 e9be
00000020: 58c2 2fc0 e44b 623f b31a d03f 39c2 6bbf
00000030: 0d75 3ac0 6789 0740 6b9d 973f bbae 523f
00000040: 4007 9bbf 3de7 f83e 8142 bb3f 3232 f8bf
00000050: 8005 2ebf 5e66 34bf 1d51 79be b4a9 df3f
00000060: 9e93 6a40 8dd2 923f ba10 0a40 dbc4 04bf
00000070: 824f 0140 1d57 1340 3320 393e 15df 4240
00000080: be99 65bf fd61 693f 9f5f ba40 e1c6 6f3f
00000090: a856 49bf 6dc5 e3bf c142 e63d cb9b 6b3f
000000a0: 973a 5ac0 cdf7 bd3e f222 10bf 8202 31c0
000000b0: aaef 543f 6485 3bbf 9fdd 22bf 7d71 54c0
000000c0: cd17 5c3f 306b aec0 1a26 9b3f 93a7 e33f
000000d0: 09e9 fc3f 310b c2bf 4adc 2b40 c5df ba3f
000000e0: 3b57 d93f 7258 aebe f83c 1dbf df67 dd3f
000000f0: 9660 e8bf 9593 493f 3b71 99be 2b44 5fbe
00000100: 8a98 07bf efff 9cc0 c1c3 a63f e533 2640
00000110: 3569 c53e b071 073f a979 3640 f292 a53f
00000120: e263 763f 7e0d 6abf 56c7 a83f 9f9c 98bf
00000130: f77d e73f 87e8 2fc0 9cd3 2740 9d5e 2abf
00000140: 36a0 f93f f587 f43f b9f6 3bbf 6f00 ff3d
00000150: 5ad3 b83f b165 05c0 c6da 0a40 1bb0 80c0
00000160: de41 3040 b4c5 b73f 19e0 14bd a4fe b03e
00000170: 3ce6 0dc0 63d6 07bf 14ee 4b3f 92cd cf3e
00000180: c3e9 33bf f2e3 563f 5e64 903f 5992 c1bf
00000190: 95af a53f dfc1 4e3e dbfe 743e 0dec 21bf
000001a0: 0022 0bc0 6497 bcbd b575 a63f 07bb c9bf
000001b0: 2806 d9bf 5e47 60c0 8d3c b83f 6788 df3f
000001c0: 734b cbbe 58c4 b6bf 1f21 1bbe de9e 843f
000001d0: ee2a 97bf 4471 3cc0 84d3 a73f 063c c63f
000001e0: e7c6 0a40 d3ca 3c40 7bb7 e6bf 0b53 0dc0
000001f0: 45ac 5640 cce1 b73d 3563 7abf e470 933d
00000200: 31bd b6bf 442a a23f a8c7 2440 a373 b0bf
00000210: 20de a2bf 9f7a 933e dae6 823f 6318 863f
00000220: 1f3b 953f 342a 83bf 48c7 553d cedb a43f
00000230: 440e b13f 59b2 f73f 5e83 fbbf cd6c 3b40
00000240: 461c be3e b2b5 7d3f b2e1 e8bf 63a6 d53f
00000250: 3816 873e c096 ad3f 312f 2d3f a278 3a3e
00000260: 7283 32be 7e25 a2be f72c 9ebd 0505 1d3f
00000270: 84a6 d2bf 9d91 96c0 6110 b4bf f01c 1dc0
00000280: 5370 60be 3e5f 323f 49dc 3d3e d29e b53f
00000290: 35a7 fa3f 3b4b d9bf 2999 c43f fdec e93e
000002a0: 3fa9 033e 689c 41c0 521f ce3e b7b6 3f40
000002b0: e9d2 a53f 47fa 02bf df76 d33c 9ae0 283f
000002c0: 257e 5840 361a 9d3f f0a5 f43e 8377 333e
000002d0: 68a0 743f d8b3 64be e80c 34c0 06ad 96bf
000002e0: 94eb 0b40 d695 373e c35d dbbf 7220 0440
000002f0: 6092 1440 4838 3d3f 295d 793f 5e31 713f
00000300: db75 21c0 b5a4 3740 b838 d6be ff6a 92bf
00000310: 197b a4bf 8b53 d23f 83c0 0540 2815 bbbf
00000320: d5a6 7abf e4dc d93f 631c b93e 7255 a23f
00000330: 8658 943d f1fd b2bf 2938 853f 2eb5 2f3f
00000340: 859e 1a40 ca69 91be 995e 6940 c53d 683e
00000350: 1727 74bf 0955 ef3f 198f babe ab4d 1940
00000360: 1679 ebbf 831b 4b3f e704 6940 e0b2 6e40
00000370: 8d7d 8cbf a84e 30bf d4f9 dc3f c364 843d
00000380: 7bfd a8bf 09d8 5cbe 8e38 1dbf f3f1 2240
00000390: 3437 6e3f cb5c d33e 4af1 793f 4d3f d33e
000003a0: 4e85 c73f 8d08 1340 2fad 92be 4eae 1b40
000003b0: 03b3 1940 7b1d 8f3f 1480 2abf 5b29 13bf
000003c0: ec50 1940 e74e e9bf 99bf a83f 8c74 90bf
000003d0: b8fa 5f3e cc5d b8bf 3120 093e 9ce4 993f
000003e0: b54d 2b3e 770d 3640 feee 643f 19f7 dc3f
000003f0: 57fa b63f 6519 5cbe 3561 b1bf ccd5 0c40
2.363704 2.5266597 0.78749484 0.45641106 0.8495933 -0.1970352 0.35181072 -0.456798
-2.7462368 0.8839705 1.6258148 -0.92093235 -2.9133942 2.1177614 1.1844915 0.8229787
-1.2111588 0.4861392 1.462967 -1.9390318 -0.6797714 -0.704687 -0.24347349 1.7473664
3.6652598 1.1470505 2.157271 -0.5186288 2.0204778 2.302192 0.1807869 3.0448658
-0.89687717 0.91165143 5.8241725 0.9366284 -0.7864785 -1.7794625 0.11243201 0.92034596
-3.409826 0.3710312 -0.5630332 -2.765778 0.831782 -0.7325041 -0.63619417 -3.3194268
0.8597382 -5.4505844 1.2121003 1.7785515 1.9758617 -1.5159665 2.6853204 1.4599539
1.6979746 -0.34051853 -0.61421156 1.7297324 -1.8154476 0.7874082 -0.299692 -0.21803348
-0.5296713 -4.906242 1.3028489 2.5969174 0.3855683 0.5290785 2.8511755 1.2935469
0.9624616 -0.9142684 1.3185833 -1.1922797 1.8085316 -2.7485673 2.6222906 -0.6655062
1.9502017 1.9103991 -0.73423344 0.124512546 1.4439499 -2.0843318 2.1696029 -4.0214972
2.7540202 1.4357209 -0.03634653 0.34569275 -2.2171774 -0.53061503 0.79660153 0.40586525
-0.7027857 0.83941567 1.128063 -1.5122787 1.2944208 0.20191143 0.23925345 -0.6325081
-2.1739502 -0.09208563 1.3004671 -1.5760201 -1.6955004 -3.504356 1.4393479 1.7463502
-0.39706 -1.4278669 -0.15149353 1.0360982 -1.1809976 -2.9444132 1.3111424 1.5487068
2.16839 2.9498794 -1.8024744 -2.2081935 3.3542645 0.08978614 -0.9780763 0.071992666
-1.4276487 1.2669148 2.574686 -1.378529 -1.2724037 0.2880449 1.02267 1.0476192
1.1658667 -1.0247254 0.052192003 1.2879579 1.3832479 1.9351302 -1.9649465 2.9285157
0.37130946 0.9910537 -1.8193877 1.6691402 0.2638414 1.356163 0.67650133 0.1821008
-0.17432955 -0.3166923 -0.0772342 0.61335784 -1.6457067 -4.705275 -1.4067498 -2.4548912
-0.21917848 0.6967658 0.18541063 1.4189093 1.9582278 -1.6976084 1.5359241 0.4568862
0.12857531 -3.0251713 0.4025827 2.995527 1.295499 -0.5116314 0.025813518 0.65967715
3.3826993 1.2273624 0.4778285 0.17526059 0.9555726 -0.2233423 -2.8132877 -1.1771553
2.1862535 0.17928252 -1.7137989 2.0644803 2.321434 0.73914003 0.97407776 0.94215953
-2.5228183 2.869428 -0.41840148 -1.1438903 -1.2850066 1.6431745 2.089875 -1.4615831
-0.97910815 1.7020535 0.3615447 1.2682326 0.07243447 -1.3983747 1.0407764 0.68635833
2.4159253 -0.28401023 3.6463988 0.22679813 -0.95372146 1.8697826 -0.364373 2.3953655
-1.8396327 0.79338855 3.6409242 3.7296677 -1.0975815 -0.6887002 1.7263741 0.06464531
-1.3202356 -0.21566786 -0.6141442 2.5460174 0.93052983 0.41281733 0.976338 0.41259232
1.5587556 2.297397 -0.28647754 2.4325137 2.401551 1.1180872 -0.6660168 -0.5748498
2.395564 -1.8227204 1.3183471 -1.1285567 0.21872985 -1.4403625 0.13391186 1.2022891
0.16728862 2.8445718 0.89427173 1.7262908 1.4295148 -0.21494062 -1.385779 2.2005491

conv2.bias f4 [32]
00000000: 1265 3e3b eb70 71bf 9f97 3541 c41c 553c
00000010: fbe9 973d a3ba cfbd dd03 163e 56cf e8be
00000020: 4a1b 4bbd 83a6 14bf 90f4 7c3e 7b13 183e
00000030: f103 b13f 33f4 bac0 93fd de3c f3d0 08c1
00000040: bd1a 2b40 11a8 dcbd 05c0 753f c664 42bf
00000050: 72bc c63d 9c51 19bf 9e28 16bd 22da babc
00000060: e24e 493e ef98 823d d47a dbbd 611f 78be
00000070: 2e2b 89bf 9a3a fbbd 86e8 e43f 3499 84bd
0.0029051942 -0.94312924 11.349517 0.013007347 0.07417675 -0.1014302 0.14649911 -0.45470685
-0.04958657 -0.58066577 0.24702668 0.14851181 1.3829328 -5.8423095 0.027220523 -8.551013
2.673507 -0.107742436 0.95996124 -0.7593502 0.09703912 -0.5989015 -0.03665983 -0.022809092
0.19658998 0.06376826 -0.10716787 -0.2423072 -1.0716302 -0.12267037 1.788346 -0.06474534

conv2.lin.weight f4 [32, 64]
00000000: d435 0abd 9fc4 ca3d bd01 ebbd c16b ea3d
00000010: 7829 ccbd a736 60bf d09c 93be bead 4ebe
00000020: 27f8 9a3e 8311 7e3e d08b 48bc 8639 303e
00000030: f9f9 b3bd 8ce6 d6be ddc6 2140 2a94 2ebd
00000040: 36b7 03be 8288 0dbb 04fa db3f e687 6d3d
00000050: 9134 1f3e c548 54bf 2f41 a53f 6ceb f23d
00000060: 6755 5a40 2cfb 4bbd fcf7 373e 15c6 1b3f
00000070: f119 4ebd 5265 3fbf 87d8 1f3f f179 cfbc
00000080: b865 503d ea43 9a3f fd72 dfbe 3529 2dbf
00000090: 3084 1bbd df7f 833d 73a3 54be 80fd b5bb
000000a0: 8829 26be 655f 3ebe 6408 60bf 565d 75bf
000000b0: 91fe b6bc fc32 9abc 6f56 9bbe 727c 48bf
000000c0: 8962 8c3c 2f60 d03d ec5c 593d a2c3 4ebd
000000d0: 938f 5240 45cb 2d3d d7ed f6bc 9ae5 2cbd
000000e0: 8241 85be 86dd 5f3c 5e77 fa3c 4532 dc3d
000000f0: 9d49 d6bd 24d7 9740 cdcd e7bf 920e 80be
00000100: ad0c b1be ac90 8e3f a94d fabe 3732 063f
00000110: 19b0 b43d b996 703f b88e ad3c 3801 ae3e
00000120: f661 46bf 5d11 5c3a c71f 8f3d 0f5e 5c3e
00000130: 1d67 263f 87c3 2bbf 6248 b3bf 8fae f8be
00000140: 1e1b 8e3e c4d5 28bf cb0b 91bf 2111 acbe
00000150: 492d b6bf a19d 23be 3e6c 9abf 55ed bbbd
00000160: a2d9 66bf 377e cfbe 8a7d 873e 98c1 02bf
00000170: 70af 663d 7be8 14bf 3eec 553e 6b83 1ebf
00000180: 843e 49bf c4dd a73f 00f3 44bf 6c2b 353f
00000190: 1fc1 433f c058 363f 5b48 d1be e7f3 5b3f
000001a0: e090 953f 1c88 383e 872e 86be 154b 523e
000001b0: 580d ea3e 05fc 703e 8df4 e63e 7123 8cbe
000001c0: 63f4 adbe 32fe 863d 873d 2d3e 20eb 153f
000001d0: f228 3bbe f4b5 f9bd 8798 0dbe 749e 0dbe
000001e0: abb5 e13e d5a7 94bf b8c5 18be d5e6 623f
000001f0: bcd2 6a3e a325 63bf 50fa af3f 1241 823f
00000200: f8da e0be 1394 d4bc 7f7d dcbe 0fa4 00bf
00000210: 1cec 873d 0f5e d7bf 8e11 12bf 07e1 febd
00000220: d71f 9bbc 90e7 523f ab20 0abf bffd ecbe
00000230: c2aa a3bd d0a5 a5be e0e0 d43d 7afc fdbe
00000240: 9c01 d6bd d198 34bf eb65 7dbe 3b81 95bd
00000250: c781 0a3f b91b 8d3f c2c8 2fbf c3f1 4dbe
00000260: ebcf 333f 2c86 81be 3090 20c0 6e8d d3be
00000270: 08be 5fbf 6877 9c3e 70e2 55bf 212a f7be
00000280: 649d 6f3f 9207 33bd 8dff 3f3f 23a2 72bf
00000290: 0eda bfbf 1950 f1be 6e46 28bf f10b 1f3e
000002a0: 70bb 3e3e 850e b5bf 6c35 ca3e 8f05 24bd
000002b0: 85d3 4dbf 1d6e 59bf 8c3d 7f3e 14d6 c4bf
000002c0: bfb0 80be f0b4 34bf d314 0fbe 1a85 dbbf
000002d0: 26c6 283e 814e f4bd 3ea5 94be 3c1e dbbe
000002e0: d47a dabe 9034 34bf 1a76 8ebe 7283 bebe
000002f0: 735b 56be 8a25 3ac0 001d 32bf 8197 12bf
00000300: 9f66 3cbd 70c6 a1bd 333b 9abc a8e6 643f
00000310: 44e8 c63f a616 c2bf 2a2e babe 81a6 80bc
00000320: f0d3 503e 4f4c 8d3d 7d01 b4bd 4e1b 983c
00000330: ce73 813d e4ba d63f e943 a43f 0cd8 4cbd
00000340: a92b d2bc a481 2cbe 9a5e 51be 5814 c23c
00000350: bb14 3d3f 465b e33f ae49 acbf c220 8abd
00000360: a2b1 aa3f 8c3b 023d 0444 8ebe 1ab6 05be
00000370: 8ee9 38be a4f4 88be eb91 08bf 603a 62bf
00000380: 4052 393d 0abf e53e d6a7 783f b499 16bf
00000390: 475d 953e 3417 0f3e 1461 34be 746f e1be
000003a0: 40d4 f8be 2131 383f cabc 77bf 8d41 bcbf
000003b0: ce9e f03c 997a 943b d8d6 d5be 19d9 37c0
000003c0: b597 f23d ea4c f43d 6d37 09bd 95d3 01bb
000003d0: 1294 0240 6500 5ec0 f6cb 0bbc 2025 62bd
000003e0: d274 413e 1c1b b5bc 9c9e 933d 75c5 08bc
000003f0: d084 69be 7e8b 1ec0 bf2e 0dbf d6f1 56be
-0.03374274 0.09900784 -0.11474941 0.11446334 -0.09968847 -0.8758339 -0.28830576 -0.20183465
0.3026745 0.24811368 -0.012240365 0.17209443 -0.08787913 -0.41972768 2.5277627 -0.04262177
-0.12862858 -0.0021596258 1.7185674 0.05799093 0.15547396 -0.8292354 1.2910517 0.118613094
3.4114625 -0.049800083 0.17965692 0.60849124 -0.05031771 -0.7476398 0.6243977 -0.0253267
0.050878257 1.2051976 -0.43642417 -0.67641 -0.03796786 0.06420874 -0.20765476 -0.005553901
-0.1622678 -0.18591078 -0.87512803 -0.95845544 -0.022338184 -0.01882314 -0.3033938 -0.7831489
0.017136829 0.101745956 0.053067133 -0.05047954 3.290013 0.04243018 -0.030142708 -0.042211153
-0.2602654 0.013663655 0.030574497 0.10751776 -0.10463259 4.7450123 -1.810968 -0.25011116
-0.34579983 1.11379 -0.48887375 0.5242037 0.088226505 0.93979985 0.021186218 0.33985305
-0.77493227 0.00083949213 0.06988483 0.21520256 0.6500109 -0.67095226 -1.4006464 -0.48570678
0.27755064 -0.6595118 -1.1331724 -0.33606818 -1.423257 -0.159781 -1.2064283 -0.09176127
-0.9017583 -0.40525982 0.26462966 -0.5107665 0.056319654 -0.5816724 0.208909 -0.6191928
-0.78611016 1.3114552 -0.7693329 0.7076938 0.76466554 0.7122917 -0.40875515 0.8591904
1.1684837 0.18020672 -0.26207373 0.20536454 0.45713305 0.23533638 0.45108452 -0.2737079
-0.33975515 0.06591453 0.16918002 0.585619 -0.18277338 -0.12192908 -0.13827716 -0.13829976
0.44083914 -1.1613718 -0.14919174 0.8863347 0.22931951 -0.88729304 1.3748264 1.0176108
-0.4391706 -0.025949514 -0.43064496 -0.50250334 0.06636831 -1.682558 -0.57058036 -0.12445264
-0.01893608 0.82384586 -0.539561 -0.46287343 -0.07991554 -0.32353067 0.10394454 -0.49606687
-0.10449526 -0.7054568 -0.2474591 -0.073000394 0.54104275 1.1024085 -0.6866571 -0.20111756
0.7023913 -0.25297678 -2.5088005 -0.4131884 -0.8739934 0.3055985 -0.8354864 -0.4827433
0.93599534 -0.04370839 0.74999315 -0.9477865 -1.498842 -0.47131422 -0.6573247 0.15531899
0.18626189 -1.4145056 0.39493883 -0.040044364 -0.8040088 -0.84933645 0.24925822 -1.5377831
-0.25134847 -0.7058859 -0.13972788 -1.7149994 0.16481838 -0.11929036 -0.2903232 -0.42796504
-0.42671835 -0.70392704 -0.2782448 -0.3720966 -0.20933323 -2.9085412 -0.695755 -0.57262427
-0.045996305 -0.07899177 -0.018827057 0.89414454 1.5539632 -1.5163162 -0.36363345 -0.015704395
0.20393348 0.0689932 -0.08789346 0.018567707 0.06320916 1.6775784 1.2833225 -0.050010726
-0.025655584 -0.16846329 -0.20446244 0.023691341 0.7385976 1.776223 -1.3459985 -0.06744529
1.3335459 0.03179507 -0.27786267 -0.13057747 -0.18057844 -0.26749146 -0.53347653 -0.88370323
0.045244455 0.44872314 0.971311 -0.5882828 0.29172727 0.13973695 -0.17615157 -0.44030344
-0.48599434 0.71949965 -0.96772444 -1.4707505 0.029372599 0.0045312163 -0.41765475 -2.8726256
0.11845342 0.11928733 -0.033500124 -0.001980995 2.0402875 -3.468774 -0.008532515 -0.055211186
0.1889222 -0.022107653 0.07207987 -0.008347859 -0.2280457 -2.477264 -0.55149454 -0.2099069

link_predictor.0.weight f4 [64, 416]
00000000: ec2e d03c fed6 523f 5fc0 49bd 4e74 2ebd
00000010: 4ab8 8c3e 33f5 3e3e be3d 11bd f5b2 77bd
00000020: fdbd 673d caac 71bd c516 c3be 3980 163d
00000030: d85a da3d 6a6e 13bf bdb8 f1bd b8a1 1a3d
00000040: a86d 013e f8c6 70bf 89c9 363d 0e24 76be
00000050: 4535 13be a0a5 9cbe e3fb a33e 7221 c53d
00000060: 0e2e 2b3d f9fd 3f3d 620d 073c 625b 463f
00000070: 22e6 883e bf2d df3d d637 f9bd b198 61be
00000080: a48a 953f bbd6 053f 7f82 5441 c7e8 02c1
00000090: 6b68 8f40 afca bdc1 6443 13c1 2881 32c1
000000a0: a0b5 0241 3e85 c040 f04d 9440 bae4 c3c0
000000b0: e783 0141 8723 e53e 1cd8 de40 80b5 7d41
000000c0: 973f a140 46a6 963f 3698 0941 ec20 9540
000000d0: 7faa 4dc1 d09b b640 e151 40c0 e14d 8ec1
000000e0: 083f d1c0 a673 22c0 bb99 8e40 4aa8 6f40
000000f0: 3745 ea40 5aad 0d40 c280 71c1 a4c3 90c1
00000100: 28b4 1841 85f9 6341 a1f1 90c1 84ec 8cc1
00000110: 6436 5b3d 3cf3 32c0 c6fc 1640 70b0 bac0
00000120: 0b16 c340 dcc8 c840 779d 83c0 7e94 3cc0
00000130: 7c47 04c1 2d83 e541 2776 c03f 437c 6c41
00000140: af28 e141 c0d4 1240 bbae a940 9209 17bf
00000150: 2f5b 8241 fab6 b641 702b cbc0 6bfc af41
00000160: 2514 4ac1 889d 1b41 ff3d 1ac0 bfa7 3440
00000170: d956 1341 88c3 d8c0 e079 0241 fd2c a541
00000180: faa1 9cc1 de5d 3c40 ef21 8d41 9a7b a3c1
00000190: f17e a3c1 a467 a2c0 f059 973f b7ed 4141
000001a0: bb54 0941 dea6 d63b db71 38c0 ce84 02c1
000001b0: d0d1 b2bf f624 9340 34a0 acc1 05b9 f540
000001c0: f2a3 5941 ef68 0240 02d2 1142 1db6 443f
000001d0: 61be 0541 2bde c741 d3b2 9040 c823 ee40
000001e0: ca9d b93f 09ca 2d40 453d 2341 c4d8 1041
000001f0: 6924 dfc0 bca1 a0c0 ad8d 213f a31f 05c1
00000200: 2f9b 86c1 26f0 f13f 5072 1841 bba8 8bc1
00000210: 4136 0cc1 1e8a e240 dfc1 98c0 2060 fa40
00000220: 7989 92c0 6b3b 36c1 d78c 4241 dd20 3741
00000230: 2092 1fc1 24cd 2941 6c2a 34bf a298 9240
00000240: 4155 1bc1 81ac 3bc1 5225 1cc0 541d 8dc0
00000250: 717a 6a40 d03a f3c0 7c8d c9bf 0172 8541
00000260: 1345 0ec1 73ef 9540 d299 0ec0 3961 5141
00000270: 413a 12c1 5db7 f6c1 b4fe 3bc1 7a57 afbc
00000280: 812e 9f41 e1fb df41 ba19 f0c0 3060 a0c1
00000290: 4a9c 0641 b0e9 99c1 edc7 24c1 bea7 c240
000002a0: 6a15 08c1 ca17 1140 33ea b8c0 f9c3 f43f
000002b0: 47b2 3ac1 6362 a640 7c03 c7bf eef8 8040
000002c0: bf44 9241 2848 aec1 118a 62c0 243f 4041
000002d0: 6c9f 8bc1 3be4 febf c233 66c0 e3d7 49c1
000002e0: 0b1c b740 00a7 87c1 8c65 ae40 008a 8f41
000002f0: 0d2d 983f 8033 0e41 efc6 c6bf a935 9841
00000300: fc40 3741 1705 3f41 bc3f 1741 cf82 b7c1
00000310: 0d62 9fc0 2777 d4c0 4936 043f 919b 8641
00000320: 95e3 2c40 795e fec0 b1b6 3ec1 8731 d33f
00000330: 780c 1dc1 b6e7 0441 14a8 29c0 a79b f440
00000340: 8213 f9c0 a367 8cc1 3b8e 3c41 fddf 3cc0
00000350: a3a0 dc40 ece3 2cc1 0479 3c40 c09b 68c1
00000360: 6658 fa3f 8606 7c41 c87e 19c1 5251 64c1
00000370: cee4 0c41 8454 25c1 5f0f a740 522e 4840
00000380: d06c 9741 5a9b 9bc1 8113 8041 0273 8540
00000390: fbd3 0fc1 9e05 023e 90a3 0abf 617b 1b41
000003a0: cca9 7dc0 b489 f040 d8e1 bbc1 d77a c841
000003b0: 27bd 1540 7edd 02c1 2d06 48c1 18e3 c8bf
000003c0: 8308 d93f 0846 2841 e057 fdc0 5cc1 9640
000003d0: ae35 d6c1 4743 2241 d0bd 96c0 b41d 54bf
000003e0: 724d d8bf 4cd8 e0c0 210c 3dc0 3a1f 5ec0
000003f0: 0171 bec0 9843 31c1 3aed 0ac0 1301 c7bc
0.025413 0.823593 -0.049255725 -0.042591386 0.2748435 0.18648224 -0.035459273 -0.0604734
0.05657767 -0.059002675 -0.3810331 0.036743376 0.10661858 -0.57590353 -0.11802814 0.037751883
0.12639487 -0.940536 0.044625793 -0.24037191 -0.1437579 -0.30595112 0.32028112 0.0962552
0.041791968 0.046873067 0.008242937 0.7748319 0.26738077 0.10897397 -0.12168853 -0.22030903
1.1682935 0.5228078 13.281859 -8.18183 4.4814963 -23.723967 -9.203953 -11.156532
8.169342 6.016265 4.634514 -6.1216707 8.094703 0.44753668 6.9638805 15.856812
5.0390124 1.1769493 8.599661 4.660269 -12.854125 5.70652 -3.0049975 -17.788027
-6.5389442 -2.5383086 4.456266 3.7446465 7.320949 2.2137055 -15.093935 -18.095528
9.543983 14.248418 -18.117983 -17.615486 0.053518668 -2.7960958 2.359178 -5.834038
6.096441 6.274519 -4.112972 -2.9465632 -8.267452 28.68905 1.5036057 14.780337
28.144865 2.2942352 5.3025794 -0.5899898 16.294523 22.839344 -6.3490524 21.998251
-12.629918 9.72596 -2.410034 2.8227384 9.208703 -6.7738686 8.154755 20.646967
-19.57909 2.9432292 17.64157 -20.435352 -20.436983 -5.0751514 1.1824322 12.120536
8.583186 0.006550654 -2.8819492 -8.157423 -1.397028 4.598262 -21.578224 7.6788354
13.602526 2.0376546 36.455086 0.7684038 8.358979 24.98348 4.521829 7.441868
1.4501278 2.7154562 10.202458 9.052921 -6.9731946 -5.019743 0.63106805 -8.320224
-16.825773 1.8901412 9.527908 -17.457388 -8.763246 7.07936 -4.773666 7.824234
-4.5792813 -11.389506 12.159385 11.445523 -9.973175 10.612583 -0.7037723 4.581132
-9.708314 -11.729615 -2.4397779 -4.40983 3.6637232 -7.6009293 -1.5746303 16.680666
-8.891864 4.6854796 -2.2281384 13.086236 -9.139222 -30.839533 -11.749683 -0.021404017
19.897707 27.997988 -7.5031404 -20.046967 8.4131565 -19.239105 -10.29881 6.0829763
-8.505228 2.267077 -5.778589 1.9122306 -11.668525 5.19951 -1.5547938 4.030387
18.283567 -21.785233 -3.539677 12.015415 -17.452843 -1.99134 -3.596909 -12.615207
5.722173 -16.956543 5.449896 17.942383 1.1888748 8.887573 -1.552946 19.026201
11.453365 11.938743 9.45306 -22.938871 -4.980719 -6.639545 0.5164533 16.82596
2.7013905 -7.9490323 -11.919602 1.649949 -9.815544 8.30657 -2.6508837 7.6440005
-7.7836313 -17.550604 11.784724 -2.9511712 6.894609 -10.805645 2.9448862 -14.538025
1.9558227 15.751593 -9.593452 -14.269854 8.8058605 -10.333134 5.2206264 3.1278272
18.928131 -19.450855 16.009523 4.170289 -8.989253 0.12697455 -0.54155827 9.717622
-3.9634886 7.5168095 -23.485275 25.05998 2.33967 -8.179075 -12.501508 -1.5694304
1.6955723 10.517097 -7.916977 4.7111034 -26.77621 10.141425 -4.7106705 -0.82857823
-1.6898634 -7.0264034 -2.9538653 -3.470656 -5.9512944 -11.079002 -2.1707292 -0.024292504

link_predictor.0.bias f4 [64]
00000000: 7771 93c1 2c20 08c1 ccfa 85c1 d9b0 46c1
00000010: 2859 50c1 5a2a b5c1 e1d5 bfc1 8ea3 92c1
00000020: a71f b8c1 7ab0 76c1 d13e 26c1 3031 dbbf
00000030: cdf6 bbc1 7ddf 92c1 cc45 edc0 67cf 21c1
00000040: 27f7 71c1 b0f0 61c1 98fa bac1 af76 0ec1
00000050: c0b8 82c1 f98b 8cc1 c950 79c1 04ae 8bc1
00000060: eb12 7cc1 3ba2 88c1 2535 c5c1 60d0 8ac1
00000070: d737 6dc1 3489 b5c1 0ac1 c5c1 5fdb acc1
00000080: a168 79c1 c45d 2ac1 1ac3 90c1 c3c4 b0c1
00000090: 0102 32c1 5458 e5c0 8d38 a0c1 359a 96c1
000000a0: 948f d4c0 a459 a9c1 f924 56c1 8f39 153f
000000b0: 327d 92c0 2771 36c1 cf8e 93c1 e412 a9c1
000000c0: d969 87c1 5cb5 91c0 6f5c b6c1 c304 96c1
000000d0: 7ae3 64c1 a661 b1c1 cb7c 29c1 682d 8fc1
000000e0: 8d87 3cc1 3f0a f8c0 08f3 43c1 c256 a3c1
000000f0: 8c20 c6c1 4085 afc1 4e10 5ac1 0846 96c1
-18.430403 -8.507854 -16.74746 -12.418176 -13.021767 -22.64568 -23.979433 -18.32986
-23.015455 -15.418085 -10.390336 -1.7124386 -23.495508 -18.359125 -7.41477 -10.113135
-15.12284 -14.121262 -23.37236 -8.9039755 -16.34021 -17.568346 -15.582223 -17.459969
-15.754619 -17.079214 -24.65095 -17.351746 -14.826133 -22.691994 -24.719257 -21.607115
-15.588044 -10.647892 -18.095264 -22.096075 -11.125489 -7.1670322 -20.027613 -18.825296
-6.6425266 -21.16877 -13.384027 0.5829095 -4.5777826 -11.402625 -18.44473 -21.134224
-16.926683 -4.5533886 -22.795134 -18.752325 -14.305536 -22.17268 -10.592967 -17.897171
-11.783093 -7.7512507 -12.246834 -20.417362 -24.765892 -21.940063 -13.628981 -18.784195

link_predictor.2.weight f4 [1, 64]
00000000: 88cb f33d 8752 6fbd 833e 02be da5b cebd
00000010: 3932 8fbd 6000 b33d 1401 ec3c d1d9 a33d
00000020: 46e0 773d 0467 b2bd 1c88 e2bd e9da c7bd
00000030: e570 803d e989 b43d 499b f4bd 0997 00be
00000040: 79a9 c23d 0d56 08be 3af2 c4bd e4f7 e2bd
00000050: 4b33 123c a119 6e3d fc4d d7bd f485 e2bd
00000060: 0dc1 9dbd 7878 b7bd d548 da3d 4f25 55bd
00000070: 56f6 a93d 6ff7 02be a185 9fbd bdd8 e23d
00000080: 556d 8a3d ff54 ddbd aa1b 8d3d effa 17be
00000090: 3dbb cfbd b860 c7bd edac b43d d993 c6bd
000000a0: 91f0 a9bd 62c6 9fbd 1abc e3bd c9d3 d6bd
000000b0: ec99 dabd 05e4 c3bd 7a13 9c3d b230 863d
000000c0: c261 c6bd 95bb b33d 580f d23d 5fbf b83d
000000d0: 8b76 d53d 310b 3e3e c7f1 643d c6b8 dbbd
000000e0: 8771 97bd 0a9e d8bd 546e b4bd 8153 e53d
000000f0: 4fa7 babd d021 503d a962 a43d eccc ce3d
0.11904055 -0.058428314 -0.12719159 -0.10076113 -0.06992001 0.08740306 0.028809108 0.080005296
0.06051662 -0.08711055 -0.11061117 -0.09758551 0.06271533 0.08815367 -0.11943681 -0.12557615
0.095049806 -0.13314076 -0.096165136 -0.11082438 0.008923362 0.05812991 -0.10512921 -0.11060706
-0.07702837 -0.089585245 0.10658423 -0.052037533 0.08298938 -0.12789701 -0.077891596 0.11076496
0.06759135 -0.10807227 0.06890042 -0.14841817 -0.10143135 -0.097352445 0.088220455 -0.096961685
-0.082978375 -0.078015104 -0.11119862 -0.104896136 -0.106738895 -0.09564976 0.07620902 0.06552257
-0.096866146 0.08776013 0.10256833 0.09020876 0.10423001 0.18558957 0.05589464 -0.10728602
-0.073947005 -0.105770186 -0.08810106 0.11197568 -0.09113943 0.050813496 0.080266304 0.100976795
