checkpoints/model_epoch_4.pth (torch, 217416 bytes, 7 tensors)

conv1.bias f4 [64]
0	0xbcdb5273	-0.026772713
1	0x3f413f89	0.7548757
2	0x3ebcb2e7	0.36855242
3	0xc01a2f2f	-2.4091299
4	0xc07077f0	-3.7573204
5	0xc0a26230	-5.074486
6	0xc09cde41	-4.9021306
7	0xbf2c4cc4	-0.67304635
8	0xc03164a1	-2.771767
9	0xc033a7d7	-2.8071191
10	0x3f2a8853	0.66614264
11	0xbf586c55	-0.845403
12	0x3daddeda	0.08489771
13	0xc093a8b8	-4.6143456
14	0xc0a397bf	-5.1122737
15	0x3f72314e	0.94606483
16	0x3e73bd04	0.23802572
17	0x3d96bcd5	0.073602356
18	0xc0464c73	-3.098416
19	0x3f3d17dc	0.7386453
20	0xc0b0176b	-5.5028586
21	0xc08b5fa8	-4.355427
22	0xc09c4abd	-4.8841233
23	0x3e50b6e6	0.2038227
24	0xc041229a	-3.017737
25	0x3f184e3b	0.5949437
26	0xc09ca518	-4.895153
27	0xbffb8f82	-1.965317
28	0x3f183641	0.59457785
29	0xc0c85293	-6.26008
30	0xc0691d26	-3.642404
31	0xc05bd8ca	-3.4351068
32	0xc114a8ae	-9.291182
33	0xc0a70206	-5.218997
34	0xc06bad44	-3.6824503
35	0xc04c7e44	-3.1952066
36	0xbfbe074e	-1.4845979
37	0x3d025981	0.03182364
38	0xbf184477	-0.5947947
39	0xc06f1112	-3.735417
40	0xc08dd801	-4.4326177
41	0xc056b9c7	-3.355089
42	0xc0933f86	-4.6015043
43	0xc038d150	-2.8877754
44	0x3ec071b1	0.3758674
45	0x3f139c8a	0.57660735
46	0xbfe6e835	-1.8039614
47	0xc0ba37bf	-5.819305
48	0x3febea95	1.8430964
49	0x3eebd97d	0.46064368
50	0xbe34fcfa	-0.17674628
51	0xbdd4ab87	-0.10384279
52	0xc0c2de2d	-6.089621
53	0xc08abde8	-4.335682
54	0x3fedcfb2	1.8579009
55	0x3cecf9c2	0.028927688
56	0xbfb73aec	-1.4314857
57	0xbe106ded	-0.14104433
58	0x3f4835f7	0.78207344
59	0xbea0e840	-0.31427193
60	0xbf02e3b4	-0.511287
61	0xc0a45a0e	-5.135993
62	0xc0f1a1b5	-7.5509896
63	0xc0234067	-2.5508058

conv1.lin.weight f4 [64, 384]
0	0x3fe4c02e	1.7871149
1	0x3f6724e4	0.90290666
2	0x3fe61d9d	1.7977787
3	0x3f3e37cd	0.74303895
4	0x3e8baa09	0.27278164
5	0xbfd97ff9	-1.6992179
6	0xbdbbd822	-0.091720834
7	0x3f883ab3	1.0642914
8	0xbfcb35e9	-1.5875827
9	0x3f487abd	0.78312284
10	0x3fae6e37	1.3627385
11	0xbf81808b	-1.0117353
12	0xc01ecd4a	-2.4812799
13	0x3fd58c92	1.6683524
14	0x3ef04610	0.46928453
15	0xbf6c5f3a	-0.92332804
16	0xbe8ee453	-0.27908573
17	0x3e69d466	0.2283493
18	0x3ed51b8d	0.41622582
19	0xbf408ffc	-0.752197
20	0xbf9db018	-1.2319365
21	0xbf213819	-0.62976223
22	0xbe05f22c	-0.13080662
23	0x400def05	2.2177136
24	0x40308fae	2.7587695
25	0x3fbe191c	1.4851413
26	0x400b82c7	2.179857
27	0xbfab9a57	-1.3406476
28	0x3fdbac7b	1.7162012
29	0x3ef61a25	0.48066822
30	0xbb254116	-0.0025215796
31	0x401cc483	2.4494941
32	0xbf61c3a8	-0.8818917
33	0x3fabe16a	1.3428166
34	0x4077b8e1	3.870659
35	0x3fd202f4	1.6407151
36	0xbe473206	-0.19452676
37	0xbf34bef3	-0.70603865
38	0xbf28bd46	-0.6591381
39	0x3f85811b	1.0430025
40	0xc022c8dd	-2.5435097
41	0xbf492035	-0.7856477
42	0xbe0d68ff	-0.13809584
43	0xc027e72b	-2.6234844
44	0x3f989bec	1.1922584
45	0xbe34f11c	-0.17670101
46	0x3e334787	0.17507754
47	0xc042d368	-3.0441532
48	0x3e066d2e	0.13127586
49	0xc089910c	-4.298956
50	0xbd226361	-0.039645556
51	0x3f8bce11	1.0922261
52	0x4000e1ee	2.0137897
53	0xbf5b05d8	-0.8555579
54	0x3fd2b030	1.6460018
55	0xbf1a2845	-0.60217696
56	0x40216772	2.5219388
57	0xbecfc06f	-0.40576503
58	0xbf392447	-0.7232098
59	0x3f2fd972	0.6869117
60	0xbf5e2462	-0.86774266
61	0x3ee0a4ea	0.4387582
62	0x3e1d19c4	0.1534186
63	0xbebcfc9d	-0.3691148
64	0x3fbe7ccb	1.4881834
65	0xc03ef29d	-2.983558
66	0x3f9f3d90	1.2440662
67	0x402eb37b	2.7297046
68	0x3ef84fc2	0.4849835
69	0x3e02c87d	0.12771793
70	0x3fa51c75	1.2899309
71	0xbec67228	-0.3875897
72	0xbdd9251a	-0.1060278
73	0x3f3a60b2	0.72803795
74	0x3f52d6c6	0.8235897
75	0xbdd6b02b	-0.1048282
76	0x4017e5e3	2.3734062
77	0xbfdbe30a	-1.7178662
78	0x3f8aca46	1.0842979
79	0xbf6ed53e	-0.9329413
80	0x3f9f9668	1.2467775
81	0x40107edf	2.2577436
82	0xbeac5da1	-0.33665183
83	0x3f3d437d	0.73931104
84	0x3f81fee2	1.0155909
85	0xbfa41642	-1.2819293
86	0x40195147	2.3955858
87	0xc06e31be	-3.721786
88	0x401b7016	2.4287162
89	0x401d2483	2.4553535
90	0xbf0b5eec	-0.54441714
91	0xbf17693c	-0.5914495
92	0xbf421907	-0.7581944
93	0xbef2a41b	-0.47390828
94	0x3ea003c8	0.31252885
95	0x3e2b03a7	0.16700612
96	0xbf0e0796	-0.55480325
97	0xbf1becca	-0.60908186
98	0x3e3a752a	0.18208757
99	0xbfa9fb38	-1.3279791
100	0x3f1a788f	0.6034021
101	0xbf128406	-0.572327
102	0x3f25e0be	0.64796054
103	0xbf8062f8	-1.0030203
104	0xbd8e1fbd	-0.06939647
105	0xbe0af52c	-0.13570088
106	0x3f94f31f	1.1636695
107	0xbf8b342a	-1.0875294
108	0xc02b7bba	-2.6794267
109	0xc0108b74	-2.2585115
110	0x400e83ad	2.2267869
111	0x3f87ad37	1.0599736
112	0x3f7e9ac1	0.99454886
113	0xbece9ca9	-0.40353897
114	0xbafdd23a	-0.001936502
115	0xbf2a689d	-0.6656588
116	0xbfdc9029	-1.7231494
117	0xbff0d0ee	-1.881376
118	0xbf0a99cd	-0.5414093
119	0x3f7a097b	0.97670716
120	0x3facd90f	1.3503741
121	0x40140712	2.3129315
122	0xbf341eb9	-0.7035938
123	0xbfd62b60	-1.6731987
124	0x402a81e3	2.6641777
125	0xbe1ca242	-0.15296271
126	0xbf440f50	-0.76585865
127	0x3d9370e4	0.071992666
128	0xbfb803c7	-1.4376153
129	0x400115e3	2.0169609
130	0x3f9a3b6c	1.2049384
131	0xc01e5808	-2.474123
132	0xbfb8582d	-1.4401909
133	0xbe983b62	-0.29732805
134	0x3f1b84d5	0.6074956
135	0x3f553efc	0.8329923
136	0x3e83a0d2	0.25708634
137	0xbfd5ea6a	-1.6712162
138	0x3e0765d6	0.13222441
139	0x3ebfaca3	0.374364
140	0x3f8e9d6d	1.1141793
141	0x3fbd6ac8	1.4798212
142	0xbfbeb86d	-1.4900032
143	0x3ff79bad	1.9344383
144	0x3df06b8b	0.11739262
145	0x3eef3007	0.4671633
146	0xc0072c85	-2.1120923
147	0x3fbf4687	1.4943398
148	0xbe497312	-0.19672802
149	0x3ecdf80c	0.40228307
150	0x3ed778c7	0.42084333
151	0x3f8a2fa6	1.0795791
152	0xbf92aeff	-1.1459655
153	0xbf4d985d	-0.8031061
154	0xbf40c9c0	-0.75307846
155	0x3ffc53b4	1.9713044
156	0xbfa73430	-1.3062801
157	0xc051b088	-3.2763996
158	0xbefa4247	-0.4887869
159	0xc0461fa1	-3.0956805
160	0xbf765a97	-0.9623198
161	0x3e08907c	0.13336366
162	0xbf4abeb6	-0.7919725
163	0x3f84ee0e	1.0385149
164	0x3f377636	0.7166475
165	0xbf1778e1	-0.5916882
166	0x3f28de59	0.65964276
167	0xbc51b456	-0.012799343
168	0x3ec53da3	0.38523588
169	0xc01c8e6b	-2.4461925
170	0xbeb0b3ba	-0.3451212
171	0x3f0e6b4b	0.55632466
172	0xbedce2fa	-0.4314192
173	0x3e5f04b1	0.21779133
174	0x3e29aa5e	0.16568896
175	0x3f1c3557	0.6101889
176	0x403eaa0d	2.979129
177	0x3f7ec142	0.9951364
178	0xbe91bfbd	-0.28466597
179	0xbea79613	-0.32731685
180	0x3fedd1ca	1.8579648
181	0x3f135bb5	0.5756181
182	0xc0028345	-2.039262
183	0xbfbe1d1b	-1.4852632
184	0x3f836043	1.0263752
185	0x3f8f625b	1.1201891
186	0xbfc31f7f	-1.5243987
187	0x3f9192a0	1.1372871
188	0x3f072455	0.52789813
189	0x3f070a31	0.52749926
190	0x3fbd6ccf	1.4798831
191	0x3e8f0b85	0.27938476
192	0xc0265d3b	-2.5994403
193	0x4059fa91	3.4059184
194	0xc002307e	-2.0342097
195	0xc0022185	-2.0332959
196	0xbf3bf8aa	-0.73426306
197	0x3f67fe89	0.90622765
198	0xbe5a5eeb	-0.21325271
199	0xbf8d948c	-1.1060958
200	0xbe0f99c3	-0.14023499
201	0xbf0227bb	-0.50841874
202	0xbf231044	-0.63696694
203	0xbe2b8e10	-0.16753411
204	0x3f11f11b	0.5700852
205	0xbe9de4e0	-0.3083868
206	0xbf181815	-0.59411746
207	0xbea57577	-0.3231618
208	0x4003be61	2.0584948
209	0xbf657388	-0.8962941
210	0x4011be84	2.2772532
211	0x3f4e26f7	0.80528206
212	0x3e006f76	0.12542519
213	0x3f2674c8	0.65021944
214	0xbe8c064e	-0.2734856
215	0x4005fa8f	2.093418
216	0xbf9cb9ad	-1.2244164
217	0x3c9364a1	0.01799232
218	0x3f42ee6d	0.7614506
219	0x3fa027ea	1.2512181
220	0xbfef506d	-1.8696419
221	0xbf58a6b7	-0.84629387
222	0x3fd91b04	1.696137
223	0x3d8464c3	0.06464531
224	0xbe8a88b6	-0.27057427
225	0xbff620e5	-1.9228789
226	0xbec95e90	-0.39329958
227	0x3f81fc9a	1.0155213
228	0x3f1af50b	0.60530156
229	0x3dadf3cd	0.08493767
230	0x40084965	2.1294796
231	0xbf8babf8	-1.0911856
232	0x3fa501a8	1.289113
233	0x3fcb6c62	1.5892451
234	0x3e4721c3	0.19446473
235	0x402999d2	2.6500134
236	0x3fd23c84	1.6424718
237	0x3e844b47	0.25838682
238	0xbe85c69b	-0.26128086
239	0x3f09c2f7	0.5381312
240	0x3f6da13a	0.9282414
241	0xbf071614	-0.52768064
242	0x3f03f761	0.51549345
243	0xbf0a483d	-0.54016477
244	0x3f55386d	0.83289224
245	0xc00b75cc	-2.1790648
246	0x3ea2afa5	0.3177463
247	0x3f226f36	0.63450944
248	0xbe011212	-0.1260455
249	0xbf007a41	-0.50186545
250	0x3f6abc1f	0.916933
251	0x3f50f08f	0.81617063
252	0x3f7f8d53	0.9982502
253	0x3e1d444d	0.15358086
254	0xc013f814	-2.3120165
255	0x3f204944	0.62611794

conv2.bias f4 [32]
0	0xbde638b6	-0.112412855
1	0xbf909212	-1.1294577
2	0x4095a13e	4.675933
3	0x3e07fe00	0.13280487
4	0xbc9a1624	-0.018809386
5	0xbdb53ba6	-0.08849268
6	0xbdddc71e	-0.10828994
7	0xbe24f3b2	-0.16108587
8	0xbd3c362f	-0.04595011
9	0xbf1c6e9c	-0.61106277
10	0xbe150938	-0.14554298
11	0x3d864070	0.06555259
12	0xbe02d728	-0.12777388
13	0xc097fa45	-4.7493005
14	0xbd8ba157	-0.068178825
15	0xc0abfb5e	-5.3744345
16	0x40257d2c	2.585765
17	0x3e5dd73a	0.21664134
18	0xbfa05e8d	-1.2528855
19	0xbf50470c	-0.8135841
20	0xbdb51ff2	-0.08843984
21	0xbea7f883	-0.32806787
22	0xbd43a626	-0.047765873
23	0xbca3bb0c	-0.019986652
24	0xbdc4347d	-0.09580324
25	0x3d894b72	0.06703843
26	0x3d8971cc	0.06711158
27	0xbf6b94fb	-0.920242
28	0xbf738959	-0.9513145
29	0x3d31d849	0.043419156
30	0x3fa8a16e	1.3174264
31	0x3ad9f14f	0.0016627702

conv2.lin.weight f4 [32, 64]
0	0xbd1baa98	-0.038004488
1	0x3e13d534	0.144368
2	0x3dcc4303	0.09973719
3	0x3dea6bc1	0.11446334
4	0xbdcc2978	-0.09968847
5	0xbf260c90	-0.6486292
6	0xbe939cd0	-0.28830576
7	0xbe4eadbe	-0.20183465
8	0x3e9af827	0.3026745
9	0x3e7e1183	0.24811368
10	0xbe1d0932	-0.15335539
11	0x3cca9626	0.0247298
12	0xbe0be384	-0.13661009
13	0xc03e1896	-2.9702506
14	0x3f8b5f79	1.0888511
15	0xbdf08b23	-0.11745288
16	0xbdcabe81	-0.09899617
17	0x3d0e6fc9	0.034774575
18	0xbf90c70f	-1.1310748
19	0xbe10f9ac	-0.14157742
20	0x402642ea	2.597834
21	0xbe1d0ebb	-0.1533765
22	0x3e84fd63	0.2597457
23	0xbdc76bef	-0.097373836
24	0xbdbb685f	-0.091507666
25	0xbcebc9b3	-0.028782701
26	0x3e476840	0.19473362
27	0x3f1bc615	0.60849124
28	0xbca40918	-0.020023867
29	0xbfa9f4ba	-1.327781
30	0x3f1fd887	0.6243977
31	0xbccf79f1	-0.0253267
32	0x3e66d04b	0.22540395
33	0x3f9a43ea	1.2051976
34	0xbedf72fd	-0.43642417
35	0xbf2d2935	-0.67641
36	0x3ce2e3e6	0.027696561
37	0xbd3aed80	-0.045636654
38	0x3e903ad8	0.28169894
39	0xbbb5fd80	-0.005553901
40	0xbe262988	-0.1622678
41	0xbe5f54b8	-0.21809661
42	0x3f2bcb35	0.67106944
43	0xbf755d56	-0.95845544
44	0xbdb5becd	-0.08874283
45	0x3d2d970c	0.042380378
46	0xbe9b566f	-0.3033938
47	0xbf4e1b3b	-0.805103
48	0x3dcd7493	0.100320004
49	0xbe3e0221	-0.185555
50	0x3e331816	0.17489657
51	0xbde0c93c	-0.109758824
52	0xbf17212f	-0.5903501
53	0x3e45a72e	0.19302055
54	0xbc581664	-0.013188932
55	0xbde6109a	-0.11233635
56	0x3dc331eb	0.095310055
57	0x3d281532	0.04103584
58	0xbd97cf6a	-0.07412608
59	0x3daeb2d8	0.085302055
60	0xbe09947a	-0.13435546
61	0x3e00de90	0.12584901
62	0xbfe7cdcd	-1.810968
63	0x3e6c4f84	0.23077208
64	0xbe57ece2	-0.21086457
65	0x3f9212e5	1.1412016
66	0x3d736850	0.059425652
67	0x3f063237	0.5242037
68	0x3db4b019	0.088226505
69	0x3f234d77	0.63790077
70	0x3cad8eb8	0.021186218
71	0x3eae0138	0.33985305
72	0xbf4661f6	-0.77493227
73	0x3a5c115d	0.00083949213
74	0x3e92e7f7	0.286926
75	0x3ec8ce10	0.39219713
76	0x3dad93b2	0.08475436
77	0x3e38fffc	0.180664
78	0xbd81f1d3	-0.063449524
79	0xbf2b0f85	-0.66820556
80	0x3e80bfb8	0.2514627
81	0xbf356b38	-0.7086673
82	0xbeca4134	-0.3950287
83	0xbedd5319	-0.4322746
84	0x3f12c59b	0.5733277
85	0xbef98cef	-0.48740336
86	0xbf1aadec	-0.60421634
87	0xbd8f917c	-0.07010171
88	0x3f85500d	1.0415055
89	0x3e698dd9	0.22808017
90	0x3f0b8f89	0.5451589
91	0xbf02c198	-0.5107665
92	0x3d7ed4c3	0.062214624
93	0x3d5165b0	0.051122367
94	0x3e55ec3e	0.208909
95	0xbf1e836b	-0.6191928
96	0xbe6e40f6	-0.23266968
97	0x3fa7ddc4	1.3114552
98	0xbf44f300	-0.7693329
99	0x3f352b6c	0.7076938
100	0x3f00efd8	0.5036597
101	0x3f344d62	0.70430577
102	0xbe35d398	-0.17756498
103	0x3f5bf3e7	0.8591904
104	0x3f9590e0	1.1684837
105	0xbf18c1b0	-0.59670544
106	0x3fedc9a2	1.8577158
107	0x3e524b15	0.20536454
108	0x3d3c01c4	0.04590012
109	0x3cf0d254	0.029397167
110	0x3ee6f48d	0.45108452
111	0x3f60da7c	0.8783338
112	0xbb620018	-0.003448492
113	0xbc254201	-0.010086537
114	0xbdb021b7	-0.086001806
115	0x3e9947ab	0.2993749
116	0x3fd2c098	1.6465025
117	0x3f8ce0c5	1.1006094
118	0xbebf04f4	-0.37308466
119	0xbef5fe2e	-0.48045486
120	0xbe005d88	-0.1253568
121	0xbf84d886	-1.0378578
122	0x3e03364d	0.12813683
123	0x3f764a14	0.96206784
124	0x3ed41ef0	0.41429853
125	0xbdcfe46c	-0.1015099
126	0x3faffa50	1.3748264
127	0x3dec8030	0.11547887
128	0xbe55cfa8	-0.20879996
129	0xbca4cee6	-0.020118188
130	0xbe98a87e	-0.2981605
131	0xbf00a40f	-0.50250334
132	0x3d87ec1c	0.06636831
133	0xbff9e862	-1.9524043
134	0xbf12118e	-0.57058036
135	0xbdfee107	-0.12445264
136	0xbc9b1fd7	-0.01893608
137	0x3f52e790	0.82384586
138	0xbee559b0	-0.4479499
139	0xbe053268	-0.1300751
140	0xbb177448	-0.002311008
141	0x3f441ad4	0.76603436
142	0xbf85f876	-1.0466449
143	0xbefc4071	-0.49267915
144	0x3e10539c	0.14094394
145	0xbef94b84	-0.48690426
146	0x3fa44c63	1.2835811
147	0x3ed07b09	0.40718868
148	0x3f8935e6	1.0719573
149	0xbfbc1fc2	-1.4697192
150	0xbf00a880	-0.5025711
151	0xbe068481	-0.13136484
152	0x3f0a7aed	0.5409382
153	0xbd67dce1	-0.05660713
154	0xc0052e41	-2.080948
155	0xbed38d6e	-0.4131884
156	0xbf267e13	-0.65036124
157	0x3e9dc558	0.30814624
158	0xbf55e270	-0.8354864
159	0xbef72a21	-0.4827433
160	0x3f22ceb0	0.6359663
161	0xbd330792	-0.04370839
162	0x3f3fff8d	0.74999315
163	0xbf72a223	-0.9477865
164	0xbf88c207	-1.0684212
165	0xbe4e0f99	-0.20123138
166	0xbcb342d9	-0.021882461
167	0x3e1f0bf1	0.15531899
168	0x3e3ebb70	0.18626189
169	0xbf8f45b2	-1.1193144
170	0xbf6909e7	-0.91030735
171	0xbd24058f	-0.040044364
172	0xbf1450df	-0.579359
173	0xbefd02ae	-0.49416107
174	0x3e7f3d8c	0.24925822
175	0x3f84b189	1.036668
176	0xbe644e85	-0.22295578
177	0xbf07f977	-0.5311503
178	0xbd475d49	-0.048672948
179	0xbfc8442a	-1.5645802
180	0x3ee630c0	0.44959068
181	0x3f350c04	0.7072146
182	0xbe089b2a	-0.1334044
183	0xbe612b07	-0.2198907
184	0xbe7e8055	-0.24853642
185	0xbf123a5d	-0.57120305
186	0x3db36f6b	0.08761486
187	0xbec8e640	-0.39238167
188	0x3e03c7b3	0.12869148
189	0x3e6f1f2e	0.23351738
190	0xbf321d00	-0.695755
191	0xbf1c32fd	-0.610153
192	0xbe8f0a09	-0.27937344
193	0x3da336f6	0.07969467
194	0xbe71e017	-0.2362064
195	0x3f64e6a8	0.89414454
196	0x3fc6e844	1.5539632
197	0xbfd7e86d	-1.6867806
198	0xbeba2e2a	-0.36363345
199	0xbc80a681	-0.015704395
200	0x3e50d3f0	0.20393348
201	0x3d8d4c4f	0.0689932
202	0xbd38777f	-0.045035835
203	0xbbeb4d52	-0.007180848
204	0x3c7cdbac	0.015433233
205	0x3d37b0fc	0.04484652
206	0xbfca4338	-1.5801764
207	0xbe1f3e29	-0.15551056
208	0xbcb176ae	-0.021663036
209	0xbcd21789	-0.025645988
210	0xbe5a476f	-0.21316312
211	0x3d228481	0.039677147
212	0xbf3e26fc	-0.74278235
213	0x3e83a314	0.25710356
214	0xbf813c28	-1.0096483
215	0xbe29883a	-0.16555873
216	0x3f19b444	0.6004069
217	0xbd9f7468	-0.077858746
218	0xbe431178	-0.19049633
219	0xbe05b61a	-0.13057747
220	0xbc86147f	-0.016367195
221	0xbf4a42cf	-0.7900819
222	0xbf0891eb	-0.53347653
223	0xbf623a60	-0.88370323
224	0x3dd4c74c	0.10389575
225	0x3ee5bf0a	0.44872314
226	0x3f78a7d6	0.971311
227	0xbf1699b4	-0.5882828
228	0xbe24f793	-0.16110067
229	0x3cd097a7	0.025462938
230	0x3d38543d	0.04500221
231	0xbee16f74	-0.44030344
232	0xbef8d440	-0.48599434
233	0xbdd27af5	-0.102773584
234	0x3ce92c7d	0.028463596
235	0xbfbc418d	-1.4707505
236	0xbce9c869	-0.028537946
237	0x3d12540c	0.035724685
238	0xbed5d6d8	-0.41765475
239	0xbf811dc3	-1.0087208
240	0xbccc0063	-0.024902528
241	0x3d141a2f	0.036157783
242	0xbbe3d818	-0.0069532506
243	0xbe1fb029	-0.15594544
244	0x3e0757da	0.13217106
245	0xbf88819f	-1.0664557
246	0xbc31b3d6	-0.010846099
247	0x3e3cc963	0.18436198
248	0x3e095e1a	0.13414803
249	0x3bf3e582	0.007443131
250	0xbe5fb560	-0.21846533
251	0xbd552c01	-0.05204392
252	0xbe6b4594	-0.2297576
253	0x3f1007da	0.5626198
254	0xbf0d2ebf	-0.55149454
255	0xbe0013c0	-0.12507534

link_predictor.0.weight f4 [64, 416]
0	0x3d94877a	0.072524026
1	0x3f504840	0.81360245
2	0xbe6544c9	-0.2238952
3	0xbd3ff866	-0.04686775
4	0xbd50042a	-0.05078522
5	0xbdf31b76	-0.11870472
6	0x3e2d72e1	0.16938354
7	0xbcc234e3	-0.023706859
8	0x3c715c9f	0.014731555
9	0x3df0da1e	0.117603526
10	0xbf7705fe	-0.9649352
11	0xbee74ab3	-0.45174178
12	0xbee53b1e	-0.44771665
13	0xbecfcbe3	-0.4058524
14	0x3cc0a248	0.023514882
15	0xbe766edd	-0.24065728
16	0x3ea30d1b	0.31845936
17	0xbe0887fb	-0.13333122
18	0x3e3e0078	0.18554866
19	0xbe9fc855	-0.3120753
20	0xbdfe8cae	-0.12429176
21	0xbed990a1	-0.42493156
22	0xbd20e366	-0.039279364
23	0xbe0105be	-0.12599847
24	0xbdbea1fe	-0.09308241
25	0xbe5d5214	-0.21613342
26	0x3d1ce566	0.03830471
27	0x3e56f0ef	0.20990346
28	0xbe8a5053	-0.27014408
29	0x3e91c76b	0.28472456
30	0x3ee4451f	0.44583985
31	0xbd67e9e7	-0.05661955
32	0xc0cb4074	-6.351618
33	0xbe1433b3	-0.14472847
34	0x408ec786	4.461856
35	0xc0c31c14	-6.0971775
36	0x40a9a3cf	5.301246
37	0xc12552bd	-10.3327
38	0xc010bbd0	-2.2614632
39	0xc0bd6d2f	-5.919578
40	0x40444b01	3.0670779
41	0x409506a5	4.657061
42	0x4077f949	3.8745902
43	0xbec28b37	-0.37996837
44	0x3ff5278d	1.9152695
45	0xbf95227d	-1.165115
46	0x40c31759	6.0966
47	0x40b2938d	5.5805116
48	0xbfd5212b	-1.6650747
49	0xc073d536	-3.8098884
50	0x4073c778	3.8090496
51	0x3e0bf3e2	0.13667253
52	0xc0f24abe	-7.571624
53	0x4008ae5d	2.1356423
54	0xbf10083c	-0.56262565
55	0xc08425cf	-4.1296153
56	0x3f84c95c	1.037395
57	0x3ff033db	1.8765825
58	0xbfc6d297	-1.5533017
59	0xc021b553	-2.5266922
60	0xbe6d0f83	-0.23150449
61	0x3e98419e	0.29737562
62	0xc1549ad1	-13.287797
63	0xc115c609	-9.360848
64	0x4038b1f1	2.8858607
65	0x4172283e	15.134825
66	0xc11d5a0d	-9.834485
67	0xc128ffdf	-10.562469
68	0x3febe151	1.8428136
69	0xc0025b37	-2.0368173
70	0x40ddb57a	6.928403
71	0xc107bb0e	-8.483168
72	0xbf79f4d3	-0.976392
73	0xbfff1832	-1.9929259
74	0x405fb367	3.4953249
75	0xc07ca4ec	-3.947566
76	0xc0d2d4e5	-6.588488
77	0x414aedd4	12.6830635
78	0x3fd01e0f	1.6259173
79	0x413526d7	11.321982
80	0x415e036b	13.875834
81	0x40856846	4.1689787
82	0x40698246	3.6485763
83	0x3f5e337b	0.867973
84	0x3fed2751	1.8527623
85	0x412d213f	10.820617
86	0xc05f077e	-3.4848323
87	0x40ec9d10	7.3941727
88	0xc07c65a7	-3.9437044
89	0x40d7b0a3	6.740312
90	0x3f9fcc35	1.2484194
91	0xc090ea65	-4.5286126
92	0x409413b6	4.627406
93	0xc0551ecf	-3.3300054
94	0x404849e6	3.1295104
95	0x40b741af	5.726768
96	0xc1058bd1	-8.346635
97	0xbfa0bc35	-1.2557436
98	0x41072ba1	8.448152
99	0xc10f4760	-8.954926
100	0xc04eab93	-3.229222
101	0xc09f723a	-4.9826937
102	0x409e4061	4.9453588
103	0x4064d75e	3.575645
104	0x41063f33	8.3904295
105	0xc09056f0	-4.5106125
106	0xc0a666f3	-5.200067
107	0x3fccec26	1.6009567
108	0x40bc504d	5.8848023
109	0x3f26f688	0.65219927
110	0xc0ab48dd	-5.3526444
111	0x40b4e8f1	5.653435
112	0x40a37419	5.107922
113	0x408e3c3a	4.444852
114	0x4154866c	13.282818
115	0x3f58cc36	0.846866
116	0x40a5dff9	5.1835904
117	0x40d71f4c	6.7225704
118	0x403024ee	2.752254
119	0x410b75d9	8.716271
120	0x408362ef	4.105827
121	0x40e9b1bf	7.3029475
122	0x4016dd66	2.357263
123	0x40b91ba9	5.7846265
124	0x3f38fac0	0.72257614
125	0x3ec59fd4	0.38598502
126	0xbf1f1f2b	-0.62156934
127	0xc0c23c43	-6.069856
128	0xc035bc95	-2.8396351
129	0xbfffdd22	-1.9989359
130	0x3f4eac5e	0.8073176
131	0xc0c81cd9	-6.2535214
132	0xc0d3b9d3	-6.6164336
133	0xc0493b2a	-3.144236
134	0xbe607ae5	-0.2192188
135	0x408040db	4.007917
136	0xbf18c38d	-0.59673387
137	0xc0f4a9aa	-7.645711
138	0x408ccb9d	4.399855
139	0x408df5f8	4.4362755
140	0x3f858ac8	1.0432978
141	0x40a4b2f3	5.1468444
142	0x40029cad	2.0408127
143	0x40325e88	2.7870197
144	0x3f85ee9b	1.0463442
145	0xc10ba7b1	-8.72844
146	0xc084ba7e	-4.147765
147	0xc0a4df9a	-5.152295
148	0xc0756516	-3.8342948
149	0xc05c7b6a	-3.4450326
150	0x3fb159d8	1.3855543
151	0x40c0b012	6.021493
152	0xc0d99633	-6.799585
153	0x40510ca8	3.2663975
154	0xc07293d8	-3.7902737
155	0x3f645905	0.89198333
156	0xc118e398	-9.555565
157	0xc10d763d	-8.841367
158	0xc094b956	-4.647624
159	0xbcaf577a	-0.021404017
160	0x409f95bb	4.9870276
161	0x415892c4	13.535831
162	0xc02dce64	-2.715722
163	0xc12c8483	-10.7823515
164	0x40d0e39e	6.5277853
165	0xc0f93a3f	-7.78836
166	0xc07a7afe	-3.9137568
167	0x40b85b20	5.7611237
168	0xc108831a	-8.532007
169	0xc00461d9	-2.0684721
170	0xc081b7f2	-4.0537043
171	0xbfd3df39	-1.6552497
172	0x3f26f7e3	0.65221995
173	0x3ef627fb	0.48077378
174	0xc0b33051	-5.599648
175	0x40d45efa	6.636594
176	0x4122a555	10.165364
177	0xc11d9598	-9.849022
178	0xc061e6dd	-3.5297158
179	0x40944fce	4.634742
180	0xc10f087f	-8.939574
181	0x40aceca4	5.403887
182	0x3f3c1df3	0.734832
183	0xc00c5d12	-2.1931806
184	0x406b3363	3.6750114
185	0xc10f312a	-8.949503
186	0x3fac5dc4	1.3466115
187	0x41302618	11.0093
188	0xc00c4a34	-2.192029
189	0x4048ae11	3.1356242
190	0xc0573d04	-3.363099
191	0x41339528	11.223915
192	0x40ed322b	7.412374
193	0x40820b34	4.0638676
194	0x3f8045ba	1.0021279
195	0xc1821fb4	-16.26548
196	0xc035d5b1	-2.8411677
197	0xc0d1e36c	-6.5590115
198	0x4003a9a6	2.0572295
199	0x41194ebd	9.581723
200	0x40e98dc6	7.2985563
201	0xbf7692a1	-0.9631749
202	0xc0e65a9e	-7.1985617
203	0xbe922304	-0.2854234
204	0xc08e4ae5	-4.4466424
205	0xbe0a4f92	-0.13506916
206	0xc00bdb25	-2.1852505
207	0x4059dbb6	3.404035
208	0xc0591eed	-3.3925126
209	0xc17f4a5c	-15.955654
210	0x40eb6f77	7.3573565
211	0x406edef5	3.7323582
212	0x40f705cc	7.7194576
213	0xc0b3fa43	-5.6242995
214	0xc029d219	-2.6534483
215	0xc133a4d9	-11.227746
216	0xbe2bc818	-0.16775548
217	0x40e87940	7.264801
218	0xc05fb24d	-3.4952576
219	0xc097f4db	-4.7486396
220	0x40b7a263	5.7385726
221	0x3f1dc182	0.61623394
222	0x40b1a56d	5.5514436
223	0x408cb658	4.3972588
224	0x40b56f16	5.6698103
225	0xc1498e4b	-12.5972395
226	0x40bbf779	5.873959
227	0x3e53ac16	0.20671114
228	0xc123a0b5	-10.226735
229	0xbf95258b	-1.1652082
230	0x3fe66656	1.799998
231	0x40b575fb	5.670652
232	0xc0b5e0b9	-5.683682
233	0x4034ba94	2.8238878
234	0xc0fc0c18	-7.8764763
235	0x40ec332c	7.3812466
236	0x3f8926f7	1.0715016
237	0xc01cf2a9	-2.4523108
238	0x3dcb50a9	0.09927494
239	0xc055ad07	-3.3386858
240	0xbf706a03	-0.9391176
241	0x407b5dc5	3.9275982
242	0x3fe7810e	1.8086259
243	0x406ecdb6	3.7313056
244	0xc1268e39	-10.409722
245	0x40f72884	7.7236958
246	0xc11e3ac7	-9.88935
247	0x40c9afa1	6.302689
248	0x402fd419	2.7473204
249	0xc0af197a	-5.47186
250	0x40592a33	3.3932006
251	0xc0fe8ed4	-7.954935
252	0xc02a342a	-2.6594338
253	0xbfbc101e	-1.4692419
254	0xbf5320a7	-0.824717
255	0xbcc70113	-0.024292504

link_predictor.0.bias f4 [64]
0	0xc10b517e	-8.707396
1	0xc0b04869	-5.508839
2	0xc0d508fb	-6.6573462
3	0xc0c9290a	-6.2862597
4	0xc0e57bfc	-7.171385
5	0xc10046c1	-8.017274
6	0xc12237f5	-10.138661
7	0xc10d81c5	-8.844182
8	0xc12efb00	-10.936279
9	0xc0fc1f4e	-7.8788214
10	0xc0bc1164	-5.877123
11	0x3e0ba633	0.13637619
12	0xc126678f	-10.400283
13	0xc0fd12bd	-7.9085374
14	0xc04d7626	-3.2103362
15	0xc08cff3b	-4.406156
16	0xc0df3635	-6.975367
17	0xc15528b3	-13.322436
18	0xc1313473	-11.075305
19	0xc045c38f	-3.090061
20	0xc10aafb9	-8.667901
21	0xc0beec32	-5.9663324
22	0xc10cb621	-8.794465
23	0xc104b76f	-8.294784
24	0xc0eb5b92	-7.354928
25	0xc10afd04	-8.686771
26	0xc10fa096	-8.976706
27	0xc11a2f62	-9.636568
28	0xc05652ca	-3.348803
29	0xc0e03a36	-7.007106
30	0xc1489b15	-12.537862
31	0xc1321002	-11.128908
32	0xc0c1ff2c	-6.062399
33	0xc08664d7	-4.1998096
34	0xc0dbaa18	-6.8645134
35	0xc0a01536	-5.002589
36	0xc0790123	-3.8906944
37	0xc01f15b9	-2.4857008
38	0xc11a3248	-9.637276
39	0xc10d3638	-8.825737
40	0xc0a9da0a	-5.307866
41	0xc10079e8	-8.029762
42	0xc0c93d2b	-6.288717
43	0x3f573638	0.84067106
44	0xbff06234	-1.8779969
45	0xc0af795e	-5.4835653
46	0xc0fb7900	-7.8585205
47	0xc1088270	-8.531845
48	0xc0d516c0	-6.659027
49	0x405d429f	3.4571912
50	0xc0cdc750	-6.43058
51	0xc0eefc43	-7.4682937
52	0xc018642f	-2.3811147
53	0xc0d7b1ab	-6.740438
54	0xbfe5a0df	-1.7939719
55	0xc1122574	-9.134144
56	0xc0e9697b	-7.294126
57	0xbfc90ba8	-1.5706682
58	0xc0c8c768	-6.2743416
59	0xc1003eda	-8.015345
60	0xc1151bf2	-9.319323
61	0xc119671e	-9.587675
62	0xc0e4659f	-7.137405
63	0xc1162356	-9.383627

link_predictor.2.weight f4 [1, 64]
0	0x3e0173ee	0.1264188
1	0xbdd15760	-0.102217436
2	0xbdee4557	-0.11634319
3	0xbe08839a	-0.13331452
4	0xbe237a6e	-0.15964672
5	0x3de15b69	0.11003763
6	0x3d50b8d8	0.05095753
7	0x3dd7cf65	0.10537604
8	0x3dd56a34	0.10420647
9	0xbe00d95b	-0.12582915
10	0xbdd03901	-0.10167123
11	0xbdbf7f0d	-0.09350405
12	0x3dff1f36	0.12457125
13	0x3dd0aaa9	0.10188801
14	0xbdda0747	-0.10645919
15	0xbdb6c85f	-0.089249365
16	0x3dddb19f	0.10824894
17	0xbdbdc167	-0.09265404
18	0xbded0386	-0.11572938
19	0xbe00d737	-0.12582098
20	0x3dbdfd9f	0.0927689
21	0x3d5f9ae6	0.054591082
22	0xbdeef1ef	-0.11667239
23	0xbe099f12	-0.13439587
24	0xbdef2ed3	-0.11678853
25	0xbe040688	-0.12893116
26	0x3db4bca8	0.08825046
27	0xbe09001e	-0.13378951
28	0x3dcf38ac	0.10118231
29	0xbe21aec2	-0.15789321
30	0xbdfdc0df	-0.12390303
31	0x3dd06634	0.10175744
32	0x3dda1bfe	0.1064987
33	0xbdfbd294	-0.12296024
34	0x3d855678	0.06510633
35	0xbe3950bc	-0.18097204
36	0xbdf21cb2	-0.118218794
37	0xbe07a257	-0.13245521
38	0x3dc691d7	0.096957855
39	0xbdb914d8	-0.09037179
40	0xbe07f978	-0.13278759
41	0xbe20becb	-0.15697782
42	0xbdeb5f4d	-0.114927866
43	0xbdaace08	-0.083400786
44	0xbdb82b24	-0.089926034
45	0xbd66522d	-0.056230713
46	0x3d82e814	0.06391922
47	0x3d653975	0.055963
48	0xbdab24df	-0.08356642
49	0x3dc55d37	0.0963692
50	0x3e047ed6	0.12939009
51	0x3d97e5b7	0.074168615
52	0x3e0dc8a9	0.13846077
53	0x3de3ebfb	0.11128994
54	0x3dc0f108	0.09420973
55	0xbe104af7	-0.14091097
56	0xbe186f4d	-0.14886208
57	0xbe0b72ed	-0.1361806
58	0xbe07e2a2	-0.13270047
59	0x3da1e49e	0.079049334
60	0xbdd2653f	-0.102732174
61	0x3df1e064	0.11810377
62	0x3df48bf7	0.11940759
63	0x3d7d8ddb	0.061902862
