checkpoints/model_epoch_29.pth (torch, 217428 bytes, 7 tensors)

conv1.bias f4 [64]
0	0x3d9da2d1	0.076970704
1	0x3f1f9bcb	0.62347096
2	0x3f891b74	1.0711503
3	0xc01a2f2f	-2.4091299
4	0xc07077f0	-3.7573204
5	0xc0ac8c44	-5.3921223
6	0xc09cde41	-4.9021306
7	0xbf2c4cc4	-0.67304635
8	0xc03164a1	-2.771767
9	0xc033a7d7	-2.8071191
10	0x3bf95266	0.0076086996
11	0xbfe8e1ce	-1.819391
12	0x3eb63c18	0.35592723
13	0xc190e988	-18.114029
14	0xc16f3ca1	-14.952302
15	0x3fc5d290	1.5454884
16	0x3e9211c1	0.2852917
17	0x3bc2a7ae	0.005940399
18	0xc1a6fcb8	-20.873398
19	0x3f4f1b97	0.80901474
20	0xc195bed1	-18.718172
21	0xc12e87ea	-10.908182
22	0xc1101a59	-9.006433
23	0x3f348ce0	0.7052746
24	0xc110d345	-9.051579
25	0x3f670b86	0.9025196
26	0xc1175d06	-9.460211
27	0xbffb8f82	-1.965317
28	0x3eb7dc9b	0.35910496
29	0xc0e611c8	-7.1896706
30	0xc0691d26	-3.642404
31	0xc05bd8ca	-3.4351068
32	0xc15d44cf	-13.829299
33	0xc0a70206	-5.218997
34	0xc06bad44	-3.6824503
35	0xc04c7e44	-3.1952066
36	0xc08f52d2	-4.47886
37	0x3e4d185c	0.20028824
38	0xc02fc031	-2.7461054
39	0xc06f1112	-3.735417
40	0xc08dd801	-4.4326177
41	0xc1051c5a	-8.319422
42	0xc1b71fc4	-22.89051
43	0xc038d150	-2.8877754
44	0x3f825831	1.0183164
45	0x3f402b46	0.7506603
46	0xbfe6e835	-1.8039614
47	0xc115eff5	-9.371083
48	0x400fab6a	2.2448373
49	0x3f59a7f2	0.8502189
50	0x3dfa6234	0.12225762
51	0x3ee25814	0.44207823
52	0xc1aed2e9	-21.852983
53	0xc11a6e85	-9.651982
54	0x4026bb96	2.6051993
55	0x3ea75847	0.32684538
56	0xc0713ce9	-3.7693427
57	0x3e3e04c4	0.18556505
58	0x3f8e6c47	1.1126794
59	0xbc1826c8	-0.00928659
60	0xbfde79f3	-1.7380966
61	0xc172e11d	-15.179959
62	0xc0f1a1b5	-7.5509896
63	0xc0f16e33	-7.544702

conv1.lin.weight f4 [64, 384]
0	0x4007fca0	2.124794
1	0x4016ab82	2.354218
2	0x3efd9dac	0.49534357
3	0x3f3b76a2	0.73227894
4	0x3f2623df	0.64898485
5	0xbf62eeb8	-0.88645506
6	0x3f5ecca2	0.87030995
7	0xbd09c1c6	-0.033632062
8	0xbff91060	-1.9458122
9	0x3f6e88e9	0.9317766
10	0x3fdde1a3	1.7334484
11	0xbedfe22b	-0.4372724
12	0xc0620de8	-3.5320988
13	0x400bf597	2.1868646
14	0x3f4e4e7b	0.805885
15	0x3efb8893	0.49127635
16	0xbef63a95	-0.4809157
17	0xbe6ae7d0	-0.22939992
18	0x3fcc1566	1.594403
19	0xc0023336	-2.0343757
20	0xbf5c0c1d	-0.85955983
21	0xbfad2933	-1.3528198
22	0x3dc3d4dc	0.09562084
23	0x40280b16	2.6256766
24	0x408f96a8	4.4871407
25	0x4047fbb8	3.1247387
26	0x3f85629e	1.042072
27	0x3ed7c701	0.42144015
28	0x3fdc40e7	1.7207307
29	0x3f6b8e39	0.9201389
30	0x3e989317	0.2979972
31	0x402d2256	2.7052207
32	0xbfa7c0b4	-1.3105683
33	0x3f7efc1f	0.99603456
34	0x40ad0001	5.4062505
35	0x3ff842c6	1.9395378
36	0xbf78e787	-0.9722828
37	0xbece04b3	-0.4023796
38	0xbf23d034	-0.6398957
39	0x3f9eea9b	1.2415346
40	0xc00a2e7d	-2.1590874
41	0xbe6d88c3	-0.23196702
42	0x3e8916db	0.2677525
43	0xc01e1392	-2.4699445
44	0x3fdda37c	1.7315516
45	0xbefb121f	-0.49037263
46	0xbe65082e	-0.22366402
47	0xc03a3405	-2.909425
48	0x3f8bc9b1	1.0920926
49	0xc0b2131b	-5.564832
50	0x3fa0f63c	1.2575145
51	0x3fc1a8a7	1.5129594
52	0x402e2088	2.7207355
53	0xbfcbe251	-1.5928441
54	0x3ff5e2af	1.9209803
55	0x3faa2895	1.3293635
56	0x4020f2ad	2.5148118
57	0x3f18cc38	0.59686613
58	0xbf600fdc	-0.875242
59	0x3fd3b76e	1.6540353
60	0xbf87d601	-1.0612184
61	0x3e0f1902	0.13974383
62	0xbfc54709	-1.5412303
63	0xbf05e9df	-0.52309984
64	0x3fa01f06	1.2509468
65	0xc09d0073	-4.906305
66	0x402a669d	2.662513
67	0x3fe1e903	1.7649235
68	0x3f013855	0.5047658
69	0xbe4a3951	-0.19748427
70	0x402e7819	2.7260802
71	0x3f98bf34	1.193335
72	0x3ee048d3	0.4380556
73	0xbec1fe49	-0.37889317
74	0x3f9e5eac	1.2372642
75	0xbea76640	-0.32695198
76	0x3fcc373b	1.5954355
77	0xc013ce1d	-2.3094552
78	0x402c8528	2.6956272
79	0xbf52cf13	-0.8234722
80	0x4000370f	2.0033605
81	0x3ffe76d1	1.988001
82	0xbf873476	-1.0562885
83	0xbe6ca3f4	-0.23109418
84	0x3fb63434	1.4234681
85	0xbf6724a3	-0.9029028
86	0x4040990f	3.009342
87	0xc093710b	-4.607549
88	0x4019cf91	2.4032938
89	0x3fbc3b30	1.4705563
90	0xbfab591d	-1.338657
91	0xbd79d88c	-0.06099753
92	0xbfd0d2ce	-1.6314332
93	0xbf3b0dee	-0.7306813
94	0x3fba41ec	1.4551368
95	0xbcee5908	-0.029095188
96	0xbcc0e485	-0.023546467
97	0xbe8f287d	-0.27960578
98	0x3ff5c74b	1.9201444
99	0xbf40c07c	-0.7529371
100	0x3f8a56f9	1.0807792
101	0x3f65dfb6	0.8979448
102	0x3f349a3f	0.7054786
103	0xbf804732	-1.0021727
104	0xbfee4606	-1.861512
105	0xbe96c6dd	-0.29448596
106	0x3f908891	1.1291677
107	0xbf52b5c9	-0.8230863
108	0xbff146c7	-1.8849725
109	0xc055e103	-3.3418586
110	0x3ffb40bd	1.9629132
111	0x3f9fe365	1.249127
112	0xbebe33a1	-0.37148765
113	0xbfbb5d5d	-1.4637867
114	0xbf3ae6c4	-0.7300837
115	0x3fdd29b8	1.7278357
116	0xbfe95bfa	-1.8231194
117	0xc0667ade	-3.6012492
118	0x3f8ea133	1.1142944
119	0x3ff3e40a	1.9053967
120	0x3fd13ed8	1.6347303
121	0x4052c96e	3.2935443
122	0xbf8fd518	-1.1236906
123	0xbf844238	-1.0332708
124	0x40167e92	2.3514752
125	0x3e006fc7	0.1254264
126	0xbf6b0cee	-0.91816604
127	0x3d9370e4	0.071992666
128	0xbf8c7c01	-1.0975343
129	0x3f350718	0.7071395
130	0x4034ea4f	2.826801
131	0xc0063224	-2.0968103
132	0xbfb5e97b	-1.4211878
133	0xbc2c7788	-0.010526545
134	0x3fe5f989	1.7966777
135	0x3f8b48bd	1.0881573
136	0x40129edc	2.290946
137	0xbe840152	-0.25782257
138	0x3f1c8c41	0.6115151
139	0x400190b9	2.0244582
140	0x3e936a0b	0.28791842
141	0x40244f5f	2.5673444
142	0xbfad9c44	-1.3563313
143	0x4024720b	2.5694606
144	0x3f14aa70	0.58072567
145	0x40089bd2	2.1345105
146	0xbf8d119e	-1.1021001
147	0x3fa1a0cc	1.2627196
148	0x3f723bd6	0.9462255
149	0x3fecbd64	1.8495297
150	0x3d5304b4	0.051518157
151	0x3f3a4639	0.727634
152	0xbea53f03	-0.32274637
153	0x3f288a4c	0.65836024
154	0x3e774d7a	0.24150649
155	0x3f801f62	1.0009577
156	0xbfc31d65	-1.5243345
157	0xc0a2d018	-5.087902
158	0xbffa2f96	-1.9545772
159	0xc035814a	-2.8360162
160	0xbf7374f5	-0.9510034
161	0x3f684be6	0.9074081
162	0xbc969a06	-0.018383991
163	0x3fbf6fd7	1.4956006
164	0x40212af9	2.5182478
165	0xbf4ea508	-0.8072057
166	0x3f205ce7	0.6264176
167	0x3c79504e	0.0152169
168	0xbf1a6f6e	-0.6032628
169	0xc043f5e9	-3.0618842
170	0x3e1ad54b	0.15120427
171	0x4061cc43	3.5280921
172	0x3f5cef05	0.86302215
173	0x3e325693	0.17415838
174	0x3ec320d7	0.38110992
175	0x3f615969	0.88027054
176	0x4035112e	2.8291736
177	0x4010e048	2.263689
178	0xbf5b3f45	-0.85643417
179	0x3e888150	0.26661158
180	0x3fc900e5	1.5703398
181	0x3f6cbed3	0.92478675
182	0xc00effe6	-2.2343688
183	0xbf269fd4	-0.6508763
184	0x3f90ae2d	1.1303154
185	0xbd31b2f9	-0.043383572
186	0xbfc80745	-1.5627218
187	0x40200fd5	2.5009663
188	0x3ff7c80f	1.9357928
189	0x3f83c1e8	1.029355
190	0x4037be80	2.8710022
191	0x3f98e4fe	1.1944883
192	0xc0400598	-3.0003414
193	0x40505176	3.254972
194	0x3de58936	0.112078115
195	0xbf9b7aa5	-1.2146803
196	0xc0020671	-2.0316432
197	0x3fd26cce	1.6439455
198	0x3fc588f9	1.5432426
199	0xc00789f3	-2.1177948
200	0xbf1777d6	-0.5916723
201	0x4003a320	2.0568314
202	0xbf15aa45	-0.58462936
203	0x3f1bfcd2	0.6093265
204	0xbf056a96	-0.5211576
205	0xbf71f2b4	-0.9451096
206	0x3f539cb9	0.82661015
207	0x40036c8e	2.0535007
208	0x400dcc44	2.2155924
209	0xbe8072b2	-0.25087506
210	0x4077a1c2	3.869248
211	0x3f28d216	0.65945566
212	0xbd3a8435	-0.04553624
213	0x40324edf	2.786064
214	0xbe66433e	-0.22486588
215	0x401271d3	2.2881973
216	0xbff8d869	-1.9441043
217	0x3fc9816f	1.5742625
218	0x40771f94	3.8613024
219	0x4071555b	3.7708347
220	0xc00345b3	-2.051129
221	0x3ea4e706	0.32207507
222	0x3fb1cb93	1.3890251
223	0x3d8464c3	0.06464531
224	0xbfdee971	-1.7414991
225	0xbedbf22f	-0.4295821
226	0xbe907d1d	-0.28220454
227	0x401bd824	2.4350672
228	0xbeadc909	-0.3394244
229	0x3f624dcf	0.88399976
230	0x3eeac2c5	0.45851722
231	0x3ed9715e	0.42469305
232	0x3f99a1d5	1.2002512
233	0x402c1507	2.6887834
234	0xbf572f50	-0.8405657
235	0x40154d2b	2.332835
236	0x4020834a	2.5080132
237	0x3f8dba7c	1.1072536
238	0xbe9ed2bc	-0.31020153
239	0x3f2068bc	0.6265981
240	0x3fd0bb59	1.6307174
241	0xbf4bde85	-0.7963641
242	0x4000e24a	2.0138116
243	0xbfd82a6e	-1.6887949
244	0x3d8f8373	0.07007494
245	0xbf2b4500	-0.6690216
246	0x3f11f735	0.57017833
247	0x3f93ab0c	1.1536574
248	0x3d18fa23	0.037347924
249	0x4030acf1	2.7605555
250	0x3fa2220b	1.2666639
251	0x4021cd9a	2.528174
252	0x3fd8212c	1.6885123
253	0xbc8ec8ad	-0.017429674
254	0xbf0e480e	-0.55578697
255	0x3ff0e69b	1.8820375

conv2.bias f4 [32]
0	0xbe733415	-0.23750336
1	0xbf54eb10	-0.83171177
2	0x414b4783	12.704959
3	0x3e38a62d	0.18032141
4	0xbd790fd5	-0.060806114
5	0x3d3f361a	0.046682455
6	0xbdb38f85	-0.087676086
7	0xbee02162	-0.4377547
8	0x3d645ca6	0.05575242
9	0xbdf1f176	-0.11813633
10	0x3e92ddbd	0.28684798
11	0xbe17e2b9	-0.14832582
12	0x3fb73546	1.4313133
13	0xc0ab520d	-5.353766
14	0x3d1bc252	0.038027115
15	0xc10d4528	-8.829384
16	0x40332ad5	2.7994893
17	0xbe4c8244	-0.19971567
18	0x3fbcb2d6	1.4742076
19	0xbebe4cf5	-0.3716809
20	0x3e855f45	0.26049247
21	0xbed6f830	-0.41986227
22	0x3cc47d29	0.023985462
23	0x3e531ccc	0.20616454
24	0x3d5178eb	0.051140707
25	0xbeac2d6f	-0.33628413
26	0xbc0f95de	-0.008763758
27	0xbd0b3e6a	-0.03399507
28	0xbf8b885e	-1.0900991
29	0xbd3dcf79	-0.04634044
30	0x3fc7eec6	1.5619743
31	0xbeae9110	-0.3409505

conv2.lin.weight f4 [32, 64]
0	0x3d709002	0.058731087
1	0x3cd26e32	0.02568731
2	0xbba38752	-0.0049904967
3	0x3dea6bc1	0.11446334
4	0xbdcc2978	-0.09968847
5	0xbf6036a7	-0.8758339
6	0xbe939cd0	-0.28830576
7	0xbe4eadbe	-0.20183465
8	0x3e9af827	0.3026745
9	0x3e7e1183	0.24811368
10	0xbcd121b3	-0.025528764
11	0x3dc027fb	0.09382626
12	0x3d81c068	0.06335527
13	0x3eee6b6d	0.46566334
14	0x3f9085b7	1.1290807
15	0x3c93de45	0.018050322
16	0xbc8a680b	-0.016895315
17	0xbcae2206	-0.021256458
18	0x3f98112a	1.1880238
19	0x3dcad694	0.09904209
20	0x3f989415	1.1920191
21	0x3f4c7ccc	0.79877925
22	0x3fa5412f	1.2910517
23	0x3d8a925f	0.06766199
24	0x40093af0	2.1442223
25	0xbdd3d6ac	-0.1034368
26	0xbe007747	-0.125455
27	0x3f1bc615	0.60849124
28	0x3c6c01cc	0.014404725
29	0xbf3f6552	-0.7476398
30	0x3f1fd887	0.6243977
31	0xbccf79f1	-0.0253267
32	0xbe8960ed	-0.2683176
33	0x3f9a43ea	1.2051976
34	0xbedf72fd	-0.43642417
35	0xbf2d2935	-0.67641
36	0xbe8e9906	-0.27851123
37	0x3cadf209	0.021233575
38	0x3e7281ac	0.23682278
39	0xbbb5fd80	-0.005553901
40	0xbe262988	-0.1622678
41	0xbe257e58	-0.16161478
42	0xbfde1054	-1.7348733
43	0xbf755d56	-0.95845544
44	0xbd82194f	-0.063524835
45	0x3c81e362	0.015855495
46	0xbe9b566f	-0.3033938
47	0xc0a7c822	-5.2431803
48	0x3d29a9ce	0.041421704
49	0xbce226d7	-0.02760641
50	0x3be9cea3	0.0071352287
51	0xbdd9225c	-0.10602257
52	0xbfa9fa18	-1.3279448
53	0x3d2dcb45	0.04243018
54	0xbb47e30f	-0.0030500328
55	0xbd9d7cb5	-0.076898016
56	0xbe41d409	-0.18928541
57	0xbe6ae64d	-0.22939415
58	0xbbc79347	-0.006090555
59	0x3dd16e7c	0.10226151
60	0x3e035fe4	0.12829548
61	0x3e0bc71e	0.13650176
62	0xbfe7cdcd	-1.810968
63	0x3ed8dec4	0.42357457
64	0xbe75e7d5	-0.24014218
65	0x3f930f5d	1.1489064
66	0xbf0a50a6	-0.5402931
67	0x3f063237	0.5242037
68	0x3db4b019	0.088226505
69	0x3f7096b9	0.93979985
70	0x3cad8eb8	0.021186218
71	0x3eae0138	0.33985305
72	0xbf4661f6	-0.77493227
73	0x3a5c115d	0.00083949213
74	0x3e6f813f	0.23389147
75	0x3edc6eac	0.43053186
76	0x3f12458c	0.5713737
77	0xbeb187c0	-0.34673882
78	0xbfa67383	-1.3004001
79	0xbf052413	-0.5200817
80	0x3e71e05c	0.23620743
81	0xbf4ddac2	-0.8041192
82	0xbf402a94	-0.7506497
83	0xbea0a456	-0.31375378
84	0xbf1df2cc	-0.61698604
85	0xbeb121aa	-0.34595996
86	0xbf9a6c3e	-1.2064283
87	0x3d786105	0.0606394
88	0xbfeb2519	-1.8370696
89	0xbece5961	-0.40302566
90	0x3ea7b5b4	0.32755816
91	0xbf02c198	-0.5107665
92	0x3d92d6ca	0.07169874
93	0xbf14e87b	-0.5816724
94	0x3e55ec3e	0.208909
95	0xbf1e836b	-0.6191928
96	0xbf5543c4	-0.8330653
97	0x3fa7ddc4	1.3114552
98	0xbf44f300	-0.7693329
99	0x3f352b6c	0.7076938
100	0x3f13b716	0.5770124
101	0x3f1a7d0c	0.60347056
102	0xbde98ad0	-0.114034295
103	0x3f5bf3e7	0.8591904
104	0x3f9590e0	1.1684837
105	0x3e2e0892	0.16995457
106	0xbef76f97	-0.48327324
107	0x3e524b15	0.20536454
108	0x3f1dbe0e	0.61618125
109	0x3e3484b9	0.17628755
110	0x3ee6f48d	0.45108452
111	0x3e3e5fdc	0.18591255
112	0xbeb402e5	-0.35158458
113	0xbd99c226	-0.07507734
114	0x3e0742db	0.13209097
115	0x3f107b2e	0.5643796
116	0xbf519d67	-0.818808
117	0xbdf9b5f4	-0.12192908
118	0xbe643512	-0.2228587
119	0xbdf7eb32	-0.12105407
120	0x3ea71386	0.32632083
121	0xbf997275	-1.1988055
122	0xbe12acae	-0.14323685
123	0x3f73b9a7	0.9520516
124	0x3ea01a0b	0.3126987
125	0xbf4e5581	-0.8059922
126	0x3faffa50	1.3748264
127	0x3f8d3b7d	1.1033779
128	0xbefd6a44	-0.49495137
129	0xbe4723ac	-0.19447201
130	0xbf01cf79	-0.50707203
131	0xbf00a40f	-0.50250334
132	0x3d87ec1c	0.06636831
133	0xbfd75e0f	-1.682558
134	0xbf12118e	-0.57058036
135	0xbdfee107	-0.12445264
136	0xbc9b1fd7	-0.01893608
137	0x3f52e790	0.82384586
138	0xbf179d30	-0.59224224
139	0xbec467d7	-0.38360474
140	0xbc89964a	-0.016795296
141	0xbf707d6f	-0.93941396
142	0x3eeb8243	0.4599782
143	0xbefd209c	-0.4943894
144	0xbe1f6dd5	-0.15569241
145	0xbf5e1244	-0.8674662
146	0xbf1b2ca3	-0.60614985
147	0xbe2dea7b	-0.16983978
148	0xbf29c9da	-0.66323626
149	0x3dd9745d	0.10617898
150	0xbf2fc8c2	-0.6866571
151	0xbeb51c62	-0.35373217
152	0x3efda3a5	0.49538913
153	0xbe646a62	-0.22306207
154	0xc025fa26	-2.5933928
155	0xbed38d6e	-0.4131884
156	0xbf62d9ab	-0.88613385
157	0x3e9c7768	0.3055985
158	0xbf55e270	-0.8354864
159	0xbef72a21	-0.4827433
160	0x3f860930	1.0471554
161	0xbd330792	-0.04370839
162	0x3f3fff8d	0.74999315
163	0xbf72a223	-0.9477865
164	0xbfefbf8e	-1.8730333
165	0xbee0a301	-0.43874362
166	0xbf474df1	-0.77853304
167	0x3e1f0bf1	0.15531899
168	0x3e3ebb70	0.18626189
169	0xbfa0d5fd	-1.2565304
170	0x3e8ed9b1	0.2790046
171	0xbd24058f	-0.040044364
172	0xbf5050f5	-0.8137353
173	0xbf723c5a	-0.9462334
174	0x3e7f3d8c	0.24925822
175	0x3cfcdd1f	0.030867158
176	0xbe9b47f5	-0.30328336
177	0xbf2c2c8b	-0.6725547
178	0xbdb1aef8	-0.08675951
179	0xbfdf663e	-1.7453077
180	0x3f97365b	1.1813463
181	0xbdf44e81	-0.11929036
182	0xbeaef792	-0.34173256
183	0xbef1c08a	-0.47217208
184	0xbec6a31f	-0.38796327
185	0xbf1f3552	-0.62190735
186	0xbe89fd50	-0.26951075
187	0xbe90607b	-0.2819861
188	0xbe2cbbeb	-0.1686856
189	0xc004a8a2	-2.0727925
190	0xbf321d00	-0.695755
191	0xbf589837	-0.8460726
192	0x3d309c40	0.04311776
193	0xbe453490	-0.19258332
194	0xbd982c8f	-0.07430374
195	0x3f64e6a8	0.89414454
196	0x3fc6e844	1.5539632
197	0xbfc216a6	-1.5163162
198	0xbeba2e2a	-0.36363345
199	0xbc80a681	-0.015704395
200	0x3e50d3f0	0.20393348
201	0x3d8d4c4f	0.0689932
202	0xbdd5d08b	-0.10440167
203	0x3dc4d101	0.09610177
204	0x3da23b43	0.079214595
205	0xc00d2d36	-2.2058845
206	0xc0406b79	-3.0065596
207	0xbd05843a	-0.032596804
208	0x3e0609f7	0.13089739
209	0xbcd87726	-0.026424002
210	0x3fbed025	1.4907271
211	0xbd6a9576	-0.057271443
212	0xc03b93d8	-2.9308987
213	0x40351de1	2.8299487
214	0xbfac49ae	-1.3459985
215	0xbe025c2e	-0.12730476
216	0x40035dac	2.0525923
217	0x3e17237b	0.14759628
218	0x3f60409e	0.875986
219	0xbe05b61a	-0.13057747
220	0xbd837c88	-0.06420237
221	0xbe88f4a4	-0.26749146
222	0xbf0891eb	-0.53347653
223	0xbf623a60	-0.88370323
224	0x3e01a673	0.12661152
225	0x3ee5bf0a	0.44872314
226	0x3f78a7d6	0.971311
227	0xbf1699b4	-0.5882828
228	0x3f0d132b	0.55107373
229	0xbab68394	-0.0013924711
230	0x3c3f582b	0.011678736
231	0xbee16f74	-0.44030344
232	0xbef8d440	-0.48599434
233	0x3ef3bfbe	0.47607225
234	0x3fa3fa95	1.2810847
235	0xbfbc418d	-1.4707505
236	0x3d20199b	0.03908692
237	0x3b7539ae	0.0037418413
238	0xbed5d6d8	-0.41765475
239	0xc04a6740	-3.1625519
240	0xbd5d2c69	-0.05399743
241	0x3d32d709	0.043662105
242	0x3dbb3001	0.091400154
243	0xbc32a80d	-0.010904324
244	0xc0889c8d	-4.26911
245	0xc05e0065	-3.468774
246	0xbdd6f7cf	-0.104964845
247	0xbceeb448	-0.0291387
248	0x3e789d8f	0.24278854
249	0x3d6c2070	0.057648122
250	0x3d0fd951	0.03511936
251	0x3e130225	0.14356287
252	0xbdd2c19b	-0.102908336
253	0xbf8e0da5	-1.1097914
254	0xbf0d2ebf	-0.55149454
255	0xbd50d4d6	-0.050984226

link_predictor.0.weight f4 [64, 416]
0	0x3c2ea1ea	0.0106587205
1	0x3f68f6c1	0.91001517
2	0xbdae7e3c	-0.08520171
3	0xbe4a028f	-0.19727539
4	0x3e8797a1	0.2648287
5	0xbdb868b6	-0.09004347
6	0xbea66d2b	-0.32505164
7	0xbe134ab0	-0.1438396
8	0x3e9415b0	0.28922796
9	0x3e118965	0.14212568
10	0xbf3c0d86	-0.73458135
11	0xbe2390a5	-0.15973146
12	0x3e55282c	0.20816106
13	0xbf089457	-0.5335135
14	0x3edf7b88	0.43648934
15	0x3c06c363	0.008225295
16	0xbd1e5f58	-0.038665146
17	0xbf2c9119	-0.674089
18	0x3cb5076c	0.022098266
19	0x3d76f65c	0.06029354
20	0x3ea80d67	0.32822725
21	0xbe87adbc	-0.26499736
22	0x3e0b3b06	0.13596734
23	0x3717a000	9.037554e-06
24	0x3dbca27f	0.09210681
25	0x3e0ff761	0.14059211
26	0xbe31745f	-0.17329548
27	0x3f26649b	0.6499726
28	0x3e8f2a2b	0.2796186
29	0x3e5e4af8	0.21708286
30	0xbd6c7c6b	-0.05773584
31	0xbe965333	-0.2936035
32	0x3f5e9254	0.8694203
33	0x3d496f2a	0.04917828
34	0x4160aa2b	14.041545
35	0xc13560e0	-11.336151
36	0x4082c52b	4.0865684
37	0xc1d20fb7	-26.257673
38	0xc1780c6d	-15.503034
39	0xc0ff3cb4	-7.97616
40	0x41213ecb	10.07783
41	0x40a1bbab	5.0541587
42	0x405431da	3.3155427
43	0xc0aa78d2	-5.3272486
44	0x410ad6c3	8.677432
45	0xc011f36b	-2.280482
46	0x40f6247c	7.6919537
47	0x419b8145	19.43812
48	0x40dbc079	6.867245
49	0xbf20e127	-0.62843555
50	0x411c6592	9.774797
51	0x41376a8a	11.4635105
52	0xc184716a	-16.555378
53	0x40df48d1	6.9776387
54	0xc0b92ec7	-5.78696
55	0xc16d11c5	-14.816838
56	0xc0fe8635	-7.9538827
57	0xbfee0fd1	-1.8598577
58	0x40874b22	4.2279215
59	0x4029d6ab	2.6537273
60	0x41277a40	10.467346
61	0x3fa165da	1.2609208
62	0xc147c829	-12.486367
63	0xc191d75d	-18.230158
64	0x41192bd6	9.573202
65	0x418125bb	16.143423
66	0xc16b45bb	-14.704524
67	0xc17dda30	-15.865768
68	0x400249c7	2.035753
69	0xbfa9f02a	-1.3276417
70	0x40824025	4.07033
71	0xc074a70a	-3.8226953
72	0x41052c4d	8.323316
73	0x40cff918	6.499157
74	0xc117d7f4	-9.490223
75	0xc0ac838f	-5.3910594
76	0xc127144e	-10.442457
77	0x41f52347	30.642225
78	0xbfdab0f7	-1.7085255
79	0x416cb8a3	14.795077
80	0x41e865d9	29.04973
81	0xbebbe029	-0.36694458
82	0x40c0f1e4	6.0295277
83	0x3db50b05	0.088399924
84	0x41b3ce4c	22.47573
85	0x41c51560	24.635437
86	0xc0a308c3	-5.0948195
87	0x41cd46e6	25.659618
88	0xc14d1782	-12.818239
89	0x411770c0	9.465027
90	0xc0b5996d	-5.6749787
91	0x4012b15c	2.2920752
92	0x40a65410	5.1977615
93	0xc0bc2a12	-5.8801355
94	0x412788ee	10.47093
95	0x41de6376	27.798565
96	0xc1ad739f	-21.681456
97	0x407efd37	3.984205
98	0x41a43739	20.526964
99	0xc1c4fec1	-24.624392
100	0xc1d89d98	-27.07695
101	0xc1068f14	-8.409931
102	0x3fc3fc2f	1.5311335
103	0x41820e9b	16.257132
104	0x40eabe68	7.335743
105	0x406449fe	3.5670161
106	0xc0741321	-3.8136675
107	0xc10c7cd6	-8.780478
108	0xc038b48d	-2.88602
109	0x41017a70	8.092392
110	0xc1c86c2e	-25.052822
111	0x4120bb6d	10.045758
112	0x4191f373	18.243872
113	0x3e890cab	0.26767477
114	0x4228a2ad	42.158863
115	0x4060ae8f	3.5106542
116	0x411aaaa3	9.666659
117	0x41e64818	28.785202
118	0x402048a8	2.5044346
119	0x410816be	8.505552
120	0x404a33c3	3.1594093
121	0x40c9e74d	6.309485
122	0x41375aac	11.459637
123	0x40d173df	6.5453944
124	0xc1148dce	-9.28462
125	0xc04034bb	-3.0032184
126	0x400f4758	2.2387295
127	0xc10d585b	-8.834071
128	0xc1a08131	-20.063082
129	0x404d40bc	3.207076
130	0x41274b74	10.455921
131	0xc19fed85	-19.990976
132	0xc08c6331	-4.3871083
133	0x412239ef	10.139144
134	0xc094648b	-4.6372733
135	0x41038498	8.2198715
136	0xc0994aa3	-4.790361
137	0xc16a0fee	-14.628889
138	0x411b362e	9.700727
139	0x4157de84	13.491825
140	0xc16e9138	-14.910454
141	0x412d4624	10.829624
142	0xc072ed96	-3.795751
143	0x4063be59	3.558493
144	0xc0f1d9d6	-7.5578413
145	0xc17c0d49	-15.753243
146	0xbfb4d959	-1.4128829
147	0xc0926b28	-4.5755806
148	0x4072fc5e	3.7966533
149	0xc107ab4f	-8.479323
150	0xc03d5e14	-2.958867
151	0x41a60a59	20.755053
152	0xc13b1265	-11.691991
153	0x408d6430	4.41848
154	0xbf6a350a	-0.9148718
155	0x411ee329	9.930459
156	0xc1089e7a	-8.538691
157	0xc200ce73	-32.20161
158	0xc15d7ea5	-13.843419
159	0xbcaf577a	-0.021404017
160	0x41a6d6cf	20.854887
161	0x41e6e763	28.862982
162	0xc0ec7441	-7.389191
163	0xc1903391	-18.025179
164	0x411e77ca	9.904245
165	0xc172e0cb	-15.179881
166	0xc16f45af	-14.954513
167	0x40fb62df	7.855819
168	0xc08001b9	-4.0002103
169	0x407fc30e	3.9962802
170	0xc0c64365	-6.195727
171	0x3ffcbe14	1.9745507
172	0xc183719a	-16.43047
173	0x41196aac	9.588543
174	0x3ec3f8d7	0.38275787
175	0x3fffb892	1.9978201
176	0x41ae75e3	21.807562
177	0xc1b482ea	-22.563923
178	0xc033f24e	-2.811664
179	0x4170ce96	15.050436
180	0xc18fa752	-17.9567
181	0xc061761f	-3.5228345
182	0xbfec37a6	-1.8454483
183	0xc122dcb0	-10.178879
184	0x40d8df18	6.777233
185	0xc1a8697b	-21.051504
186	0x40a8d6a4	5.2762012
187	0x41b7f39c	22.99395
188	0x40c1b8ce	6.053809
189	0x41156b9d	9.338773
190	0x3fcfe7bb	1.6242594
191	0x41ad1f21	21.6402
192	0x415d2115	13.820577
193	0x415c4ed6	13.769247
194	0x41201c26	10.006872
195	0xc1c68204	-24.813484
196	0xc0955e38	-4.6677513
197	0xc0c46dba	-6.1383944
198	0x403ad868	2.9194584
199	0x41ab61a5	21.422678
200	0x400b5280	2.1769104
201	0xc144f618	-12.3100815
202	0xc124ee97	-10.308249
203	0x40dd6904	6.9190693
204	0xc120d1c7	-10.051215
205	0x40dca24e	6.8948126
206	0xc079ecee	-3.905086
207	0x4111c419	9.110375
208	0xc11ee26e	-9.930281
209	0xc1a01cc3	-20.014044
210	0x41216ba8	10.088783
211	0xc0a6bde6	-5.210681
212	0x40c79353	6.236734
213	0xc1554edd	-13.331754
214	0x40a964f8	5.2935753
215	0xc15ec0bd	-13.922055
216	0x4000839d	2.008033
217	0x41b21380	22.259521
218	0xc11e344f	-9.887771
219	0xc1a0f0ff	-20.117674
220	0x415234f9	13.137933
221	0xc167e770	-14.494003
222	0x4102f084	8.18372
223	0x409e020a	4.937749
224	0x41a61184	20.758553
225	0xc1b5810b	-22.68801
226	0x418fed6c	17.990929
227	0x40d8fa4a	6.780553
228	0xc12ba4fb	-10.727778
229	0x40323926	2.784738
230	0xc0295faf	-2.646465
231	0x413551e7	11.332496
232	0xc09247e6	-4.5712767
233	0x40cd489a	6.4151125
234	0xc1be8fd6	-23.820232
235	0x42048e88	33.13919
236	0x3efa41e0	0.48878384
237	0xc13726cd	-11.446973
238	0xc16a236a	-14.633646
239	0xc091faed	-4.5618806
240	0x403115ab	2.7669475
241	0x40e6736b	7.201589
242	0xc1533ceb	-13.202373
243	0x40df4188	6.9767494
244	0xc1e4d145	-28.602182
245	0x41151ab6	9.319021
246	0xc0b457a3	-5.635698
247	0xc0a34b02	-5.102906
248	0xc010161a	-2.251349
249	0xc08fc733	-4.4930663
250	0xbfa4746a	-1.2848027
251	0x3e84915b	0.25892147
252	0xc0958f13	-4.673715
253	0xc13592b2	-11.348314
254	0x3fb4a5ed	1.4113137
255	0xbcc70113	-0.024292504

link_predictor.0.bias f4 [64]
0	0xc1a02134	-20.016212
1	0xc11267b1	-9.150315
2	0xc19681c1	-18.813356
3	0xc1539f50	-13.226395
4	0xc152d95a	-13.178064
5	0xc1d5cc83	-26.72486
6	0xc1dd2d71	-27.647188
7	0xc1a654e7	-20.791456
8	0xc1c11c2e	-24.13876
9	0xc17f58ce	-15.959181
10	0xc13e0348	-11.875801
11	0xbfc176a4	-1.5114331
12	0xc1d31a67	-26.387892
13	0xc1a9abef	-21.208952
14	0xc0fa14f0	-7.815056
15	0xc1397c56	-11.592855
16	0xc1883fb6	-17.031109
17	0xc1895412	-17.16605
18	0xc1c4f4a6	-24.619457
19	0xc12a73f0	-10.653305
20	0xc193f32d	-18.493738
21	0xc1a14e69	-20.163286
22	0xc1829530	-16.322845
23	0xc18cf177	-17.617903
24	0xc182d658	-16.35466
25	0xc193fdda	-18.498951
26	0xc1e1186f	-28.13693
27	0xc194b2e8	-18.587357
28	0xc18d820a	-17.688496
29	0xc1e0c67b	-28.096914
30	0xc1d71fbb	-26.890493
31	0xc1c62ab2	-24.770847
32	0xc192a69d	-18.331354
33	0xc13a624c	-11.648998
34	0xc1a39cd7	-20.451582
35	0xc1d243e2	-26.283146
36	0xc14693bb	-12.411067
37	0xc0f3a584	-7.6139545
38	0xc1b4c34d	-22.595362
39	0xc1ab48db	-21.410574
40	0xc0c793b6	-6.236781
41	0xc1bbb455	-23.463053
42	0xc167f6f1	-14.497788
43	0x3e5f752a	0.21822038
44	0xc0944648	-4.6335793
45	0xc155d1fc	-13.363766
46	0xc1a6d57e	-20.854244
47	0xc1c12151	-24.141268
48	0xc18b4318	-17.40776
49	0xc0a9328e	-5.287421
50	0xc1d89cc2	-27.076542
51	0xc1b67592	-22.807407
52	0xc1766497	-15.399558
53	0xc1d7adc0	-26.959839
54	0xc14a5a0a	-12.646982
55	0xc1923be4	-18.279243
56	0xc14781d8	-12.4692
57	0xc10c5f02	-8.773195
58	0xc151ff14	-13.124775
59	0xc1c2ae7a	-24.335194
60	0xc1e30e3f	-28.381956
61	0xc1d23ddd	-26.280207
62	0xc16b8595	-14.720113
63	0xc1a41c8a	-20.513935

link_predictor.2.weight f4 [1, 64]
0	0x3da26da4	0.079310685
1	0xbdc1e330	-0.09467161
2	0xbda6650c	-0.08124742
3	0xbd9cac2f	-0.07650029
4	0xbe03ab38	-0.12858284
5	0x3dc9867a	0.098401025
6	0x3d88f576	0.06687443
7	0x3d803412	0.062599316
8	0x3db44394	0.08801952
9	0xbe05dd6d	-0.13072748
10	0xbd94bc82	-0.072625175
11	0xbdcf873c	-0.10133216
12	0x3dc7deee	0.09759317
13	0x3df36cf5	0.11886016
14	0xbdc78da5	-0.097438134
15	0xbdb9200e	-0.09039317
16	0x3dae1deb	0.085018
17	0xbde43fc8	-0.11144978
18	0xbdd82141	-0.10553218
19	0xbdc99099	-0.09842033
20	0x3d98d967	0.07463341
21	0x3dae43ba	0.085090116
22	0xbd967c33	-0.07347908
23	0xbd8df408	-0.06931311
24	0xbe038c0a	-0.1284639
25	0xbdcf0af2	-0.101095095
26	0x3e10a0a6	0.14123783
27	0xbd9bf91a	-0.07615872
28	0x3db1976d	0.0867146
29	0xbdc25d27	-0.09490424
30	0xbda8f7e3	-0.08250406
31	0x3bdcbb3a	0.0067361863
32	0x3dcafe5d	0.09911797
33	0xbd8d68ae	-0.06904732
34	0x3ddfdf45	0.10931257
35	0xbdd38b29	-0.10329277
36	0xbdbe0a14	-0.09279266
37	0xbdc5e1d9	-0.09662218
38	0x3dcfae4d	0.10140667
39	0xbdb36f09	-0.08761413
40	0xbdd59594	-0.104289204
41	0xbd8e4d86	-0.0694838
42	0xbdd564d6	-0.104196236
43	0xbdd5d8f8	-0.10441774
44	0xbda2f0b8	-0.0795607
45	0xbdc32932	-0.09529342
46	0x3dd7bce6	0.105340764
47	0x3d831f18	0.06402415
48	0xbdddc7c9	-0.108291216
49	0x3d9a32d6	0.075292274
50	0x3e1c9e89	0.15294851
51	0x3dadcd78	0.08486456
52	0x3da45e29	0.08025772
53	0x3dd2c1f2	0.102908984
54	0x3db15360	0.08658481
55	0xbdd6a230	-0.104801536
56	0xbdac6d88	-0.08419329
57	0xbdedbad6	-0.11607902
58	0xbe04b347	-0.12959014
59	0x3e121202	0.14264682
60	0xbd899b33	-0.06719055
61	0x3db00e26	0.085964486
62	0x3db9ccb5	0.09072248
63	0x3db53b7f	0.088492386
