checkpoints/model_epoch_13.pth (torch, 217428 bytes, 7 tensors)

conv1.bias f4 [64]
00000000: 5081 25bd ee77 253f 5405 593f 2f2f 1ac0
00000010: f077 70c0 448c acc0 41de 9cc0 c44c 2cbf
00000020: a164 31c0 d7a7 33c0 e312 fa3e 3331 a2bf
00000030: e57e 313e 5f12 1bc1 23a7 08c1 7227 9c3f
00000040: e843 c33c ef91 0a3e 0f28 1cc1 31bc 133f
00000050: 4fd8 22c1 874d 8ac0 591a 10c1 81ae 0c3f
00000060: 5170 99c0 e804 553f d98d ecc0 828f fbbf
00000070: d3bb 2e3f c811 e6c0 261d 69c0 cad8 5bc0
00000080: f18b 41c1 0602 a7c0 44ad 6bc0 447e 4cc0
00000090: 786e 1bc0 586b c63d aae0 bcbf 1211 6fc0
000000a0: 01d8 8dc0 db5c c0c0 61e6 10c1 50d1 38c0
000000b0: 57e4 333f aa40 383f 35e8 e6bf eba3 abc0
000000c0: d622 0340 8917 173f 3453 893d 9a0c 3e3e
000000d0: 9e24 4cc1 856e 1ac1 529b 1640 5341 5c3e
000000e0: 9746 25c0 3792 29be e3dd 6b3f 2b73 76be
000000f0: 0caa a9bf f9a8 2bc1 b5a1 f1c0 fea6 9fc0
-0.040406525 0.64636123 0.84773755 -2.4091299 -3.7573204 -5.3921223 -4.9021306 -0.67304635
-2.771767 -2.8071191 0.48842534 -1.2671264 0.17333563 -9.691985 -8.540805 1.2199538
0.023836091 0.13532232 -9.75978 0.5770903 -10.17781 -4.321964 -9.006433 0.5495377
-4.7949605 0.8321061 -7.3923154 -1.965317 0.68255347 -7.1896706 -3.642404 -3.4351068
-12.096665 -5.218997 -3.6824503 -3.1952066 -2.4286175 0.09688443 -1.4756062 -3.735417
-4.4326177 -6.011335 -9.056245 -2.8877754 0.70270294 0.7197367 -1.8039614 -5.3637595
2.0490012 0.59020287 0.06705323 0.18559495 -12.75894 -9.651982 2.35323 0.21509294
-2.5824335 -0.16559683 0.9213545 -0.2406737 -1.3255019 -10.728753 -7.5509896 -4.989135

conv1.lin.weight f4 [64, 384]
00000000: 1a53 d63f 5d85 e93f ded9 d73f a6fc 3abd
00000010: 3eac 463f 2ad8 43bf 1d42 d23e 98a2 dabc
00000020: 3cfd d7bf bd1b 8d3f 9f1e a73f 0d8f 2dbf
00000030: 5bb9 1bc0 b22d 1d40 850c 4b3f 30e5 ea3d
00000040: 9d5e eabe d0a1 223f c1ff 863f efed d6bf
00000050: c286 58bf d5a3 55bf c333 443f a669 b93f
00000060: d58e 6b40 0002 d03f 6be7 d43f f6e6 e9be
00000070: 455b 0a40 7480 d33f 1a44 dcbe 0d21 4f40
00000080: ba35 f8be 2a8b e93f eb3e 9940 17a3 743e
00000090: f6b7 d5be 89eb 28bf 4dcb b6bd 694e 933f
000000a0: ab82 47c0 b1c8 adbe 6107 adbf 17b1 f6bf
000000b0: 8f3c cf3e e8e0 9ebe 6c25 3b3f 9a41 63c0
000000c0: 3576 b33e 9a9a b8c0 b4a0 823d 676e c03f
000000d0: f337 f33f 8915 a9bf 995d 5240 8d1a d53e
000000e0: 9c27 2a40 20c0 093e 9221 a0bf 9b8b f93f
000000f0: 58d1 3cbf 9205 fc3e 9864 7fbf 5d6a 5d3f
00000100: 7d0f 543e 50eb 86c0 e28f bc3f 89b0 ee3f
00000110: 31d6 553f 9926 4b3f 900f 2140 70e3 bf3f
00000120: 4961 3c3f f0f5 acbe f948 9d3f 345b 93bf
00000130: 06d5 2640 1e89 33c0 bb38 2b40 aedd 1cbf
00000140: 44db 0c40 913f f43f 711f d1be e1b9 523f
00000150: 2ff4 a73f 8b9d c0bf fa2d 1a40 ba3d 61c0
00000160: 95c3 3140 93af 0340 4155 8e3e af05 783e
00000170: 2784 cabf dfeb 3dbf 9519 2e3f ad42 8a3f
00000180: 8bdc 3abe 2d33 ac3e 5d77 973f 2e0f 97bf
00000190: 2153 cf3f 8beb 083d 81a4 af3e d7b1 5cbf
000001a0: 3862 0ac0 42f3 0e3f 84af e63f e61e 72bf
000001b0: 6cc0 24c0 b9ef 2bc0 45bc 1840 7463 c73f
000001c0: c2f9 313f 6849 cbbf 3403 c03e a893 0f3f
000001d0: 7875 8ebf 1de8 38c0 31d3 16be d261 923f
000001e0: a9bc 0b40 8452 3540 d296 c6bf 06d8 f1bf
000001f0: fe3b 4d40 60ac 563e aa66 7abf e470 933d
00000200: 05f9 02c0 118f be3f 13f6 1740 c8c4 fdbf
00000210: 40c3 8cbf 34b6 8abd e13c 943f 9273 953f
00000220: 57b8 9c3f 6aa1 bcbf 07f6 7c3e 4fa9 113f
00000230: 798f bf3f 0264 e93f 2b8d 91bf a1c7 5440
00000240: 8dec 593f 9119 473f eff7 d0bf 4143 a73f
00000250: 143c f73e 287c d93f cad2 cabe 4d83 1f3f
00000260: a315 eebe 7df9 2b3e 7fff a0bd 72fb 553f
00000270: 7e94 c3bf a668 87c0 aee5 c2bf 74d8 36c0
00000280: f037 44bf 9c13 513f 26d9 0fbe 8839 283f
00000290: a54f df3f 16c7 0ac0 5bc6 b23f faa1 92be
000002a0: d284 5cbe 6c24 66c0 bb93 38bf e163 0640
000002b0: 3785 373f ed7e 4e3f 4bdd d5be 3ea4 263f
000002c0: 8535 3840 cd8a 9d3f 9fe9 d0be 1922 33be
000002d0: d714 983f cc64 e73e 58f9 57c0 36e0 a3bf
000002e0: f866 f53f 7743 9f3e 63e0 c1bf 26f9 0940
000002f0: 2305 d43f d647 863d 6a02 0640 b90f 053f
00000300: 026c 1dc0 73bd 2740 1373 23bf 1983 79bf
00000310: f459 bfbf 9ad7 b83e 2554 583f 15cb 8ebf
00000320: 5d9a 75bf 51a6 573f a3b1 5cbf 53d5 2b3f
00000330: 86ae d83e 2cc2 55bf df4b 933f a747 093f
00000340: 51c6 fc3f 0c57 ae3d 7e03 5a40 2eb0 bd3f
00000350: f367 11bf 129c ac3f a27b c5bc e7c9 0240
00000360: 5d61 f7bf eb2b 193e 732a 3f40 fbae 6f40
00000370: 7c92 efbf 0b4d 073e ac18 c73f c364 843d
00000380: eb4f 41be dea1 46bf e318 42bf a112 0340
00000390: cae6 fe3b 7f5d 39be 8633 893f 1bfc 26bf
000003a0: 7594 923f 3d90 d13f 0e67 edbe db04 7940
000003b0: 5799 0b40 4ece 5d3f 2dad 0fbf 0c3a 36bd
000003c0: 6d8f be3f 1738 06c0 520f 5c3f 278e 9ebf
000003d0: 86cb 103f ead1 bfbf 2c48 673e 9576 c73f
000003e0: 24fd 81be 4ec4 653f 19a4 743f 00f4 d63f
000003f0: f467 6b3d fda4 a9bd e01e f5bf 6468 d03f
1.674411 1.8243824 1.6863363 -0.0456511 0.7760657 -0.76501715 0.41066065 -0.026688859
-1.6874156 1.102409 1.305622 -0.67796403 -2.4331882 2.455914 0.7931598 0.11469495
-0.4577531 0.63528156 1.05468 -1.6791362 -0.84580624 -0.8345311 0.7664148 1.4485366
3.6805928 1.625061 1.6633123 -0.45684022 2.1618207 1.6523576 -0.43020707 3.2363923
-0.4847849 1.8245595 4.7889304 0.23890339 -0.41741914 -0.659844 -0.08925495 1.1508304
-3.1173503 -0.33942178 -1.3517877 -1.9272794 0.4047589 -0.31030965 0.73103976 -3.550879
0.35051122 -5.7688723 0.06378308 1.5033692 1.9001449 -1.3209697 3.2869627 0.4162182
2.6586676 0.13452196 -1.2510245 1.9495729 -0.73756933 0.49223 -0.9976287 0.8649042
0.20709033 -4.2162247 1.473141 1.8647624 0.83529955 0.7935577 2.5165749 1.4991283
0.73585945 -0.33781385 1.2287894 -1.1512208 2.606752 -2.805244 2.6753376 -0.61275756
2.200883 1.9081899 -0.408443 0.8231488 1.3121394 -1.5048078 2.4090562 -3.5193925
2.7775624 2.0575912 0.2779942 0.24220918 -1.582158 -0.74188036 0.68007785 1.0801598
-0.18248193 0.33632794 1.1833302 -1.1801507 1.6197244 0.033427756 0.34305194 -0.8620886
-2.1622448 0.5583993 1.8022313 -0.945784 -2.5742445 -2.6865065 2.386491 1.5577226
0.69521725 -1.5881777 0.37502444 0.5608468 -1.1129599 -2.889167 -0.14729 1.1436102
2.18339 2.8331614 -1.5514777 -1.889405 3.2067866 0.20964193 -0.978129 0.071992666
-2.046449 1.488741 2.3743942 -1.9825678 -1.0997086 -0.06773034 1.1581079 1.1675894
1.2243756 -1.473676 0.24703227 0.5689897 1.4965659 1.8233645 -1.1371206 3.3246844
0.8512657 0.77773386 -1.6325663 1.3067399 0.48288023 1.6991014 -0.39613944 0.62309724
-0.46500883 0.16794391 -0.07861232 0.835868 -1.5279691 -4.2315245 -1.5226343 -2.8569613
-0.76647854 0.81670547 -0.1404768 0.65712786 1.744618 -2.1684012 1.3966783 -0.28639203
-0.21535042 -3.595973 -0.7210042 2.0998461 0.71687645 0.80662423 -0.41770396 0.65094364
2.8782666 1.2307984 -0.4080324 -0.17493476 1.188136 0.4519409 -3.3745937 -1.2802799
1.9172049 0.3110616 -1.5146602 2.1558318 1.6564068 0.0655667 2.0938973 0.51977116
-2.4597173 2.620938 -0.63847464 -0.97465664 -1.4949327 0.3610199 0.84503394 -1.1155726
-0.95938665 0.84238154 -0.8620855 0.6712238 0.4232065 -0.8349941 1.1507529 0.5362496
1.9748021 0.085126966 3.4064631 1.4819391 -0.5679924 1.3485129 -0.024106804 2.0435731
-1.9326588 0.1495816 2.986966 3.745055 -1.8716578 0.13212983 1.5554404 0.06464531
-0.18878143 -0.7759074 -0.75819224 2.048012 0.007778977 -0.18102072 1.0718849 -0.6522843
1.1451555 1.6372143 -0.46367687 3.8909214 2.1812341 0.8664292 -0.5612362 -0.04448895
1.488752 -2.0971735 0.85960877 -1.2387131 0.5656055 -1.4985936 0.22586125 1.5583063
-0.25388443 0.8975266 0.95562893 1.6793213 0.057472184 -0.08283422 -1.9150047 1.6281857

conv2.bias f4 [32]
00000000: 12d9 1c3e cc8e 7cbf ac8b 1841 bdba f33d
00000010: 90f0 21bc 7bbb b2bc ffa0 113e de34 5cbf
00000020: 7cf8 2b3e 7f5b fabe b904 dc3d 0048 a5b7
00000030: 9d3a 1e3f 9345 bec0 80d6 c7bd 406d fac0
00000040: 6685 3640 ceb0 8fbd fdb8 bd3d 8c3d 36bf
00000050: 7a83 80ba c6f4 eebe 28a4 7fbe 978b ad3d
00000060: 4ac2 c43d 03ab 0b3e a10b 133e b02d 15be
00000070: e1fc 8fbf ab79 22bd fbf5 e63f 0070 02be
0.15317181 -0.9865539 9.5341 0.11900852 -0.009884015 -0.021817913 0.14221571 -0.8601817
0.16794008 -0.4889793 0.10743088 -1.970306e-05 0.61808187 -5.945993 -0.097577095 -7.825836
2.851892 -0.07016145 0.09263799 -0.71187663 -0.0009804808 -0.46671122 -0.24964964 0.0847389
0.0960737 0.13639455 0.14359905 -0.1456821 -1.1249048 -0.039666813 1.8043817 -0.12738037

conv2.lin.weight f4 [32, 64]
00000000: c530 06be 4b04 b9bd 424a 97bd c16b ea3d
00000010: 7829 ccbd a736 60bf d09c 93be bead 4ebe
00000020: 27f8 9a3e 8311 7e3e 5dd5 cc3d 8f62 d73c
00000030: e42d da3d cbb4 33bd ff03 8c3f e864 08be
00000040: 982c f2bc 363f e63d 054c bf3e 5bf3 4e3d
00000050: 61ba 753f 991f 3f3e 2f41 a53f e948 c2bd
00000060: a1a7 aebe 9532 bebd 3468 30bf 15c6 1b3f
00000070: 9c96 383c 5265 3fbf 87d8 1f3f f179 cfbc
00000080: b277 9cbd ea43 9a3f fd72 dfbe 3529 2dbf
00000090: aea1 873b 495c bebd 5b35 763d 80fd b5bb
000000a0: 8829 26be 55b9 063f e36e 8140 565d 75bf
000000b0: 9ce8 aa3c cdd1 c7bd 6f56 9bbe bcd1 953e
000000c0: 025c a8bd b0ea 143c bcae b13c d76c 6c3d
000000d0: 9181 713e 45cb 2d3d 9e4c 043e 443a ae3d
000000e0: ddf8 14be 4149 e83c d849 2fbd 77ba 003e
000000f0: 0ce9 e0bd 2886 7640 cdcd e7bf 0ebf 1dbf
00000100: f8f8 83be 9533 993f 84f1 cbbe 3732 063f
00000110: 19b0 b43d b996 703f b88e ad3c 3801 ae3e
00000120: f661 46bf 5d11 5c3a 2186 643e 78cf af3e
00000130: c90b 0a3f f8d4 ddbe 2b39 92bf f548 08bf
00000140: 33e6 803e 48d3 62bf a5dd 603f 0a0e cebe
00000150: 5c3c bcbe 444f b1bf 3e6c 9abf b517 12bd
00000160: 5911 a0be 7369 43be fa3e 0e3e 98c1 02bf
00000170: 5e6d a7bd 7be8 14bf 3eec 553e 6b83 1ebf
00000180: afb9 6dbf c4dd a73f 00f3 44bf 6c2b 353f
00000190: 4622 d43e 9a3b 4b3f cb24 b1be e7f3 5b3f
000001a0: e090 953f d91a ad3d 1680 67bf 154b 523e
000001b0: c250 763e d532 843e 8df4 e63e 07cc 1c3d
000001c0: 7338 8ebe 6490 ec3d c6aa 2b3e ef1c d53e
000001d0: 7d61 e93e f4b5 f9bd d961 a0be 04ad 0abe
000001e0: 9d7f 083e 9e66 9cbf 2f3f a13c 86a0 873f
000001f0: b63d 573e 3a67 4f3e 50fa af3f 8aa5 7f3f
00000200: eb2d f3be 4aa4 de3b 17b6 dbbe 0fa4 00bf
00000210: 1cec 873d 0f5e d7bf 8e11 12bf 07e1 febd
00000220: d71f 9bbc 90e7 523f 7cc4 edbe a59d 58be
00000230: 9e8f 87bc a378 2bbe 81c5 a33f b701 e4be
00000240: 548f 27be 5844 44bf 78e9 a73e 1f49 5a3e
00000250: e5c1 1a3f cf05 e3be c2c8 2fbf 6c32 77be
00000260: 8aaf 233f 0804 08be e8e9 1ec0 6e8d d3be
00000270: 9c4e 4bbf 6877 9c3e 70e2 55bf 212a f7be
00000280: 195b 753f 9207 33bd 8dff 3f3f 23a2 72bf
00000290: 02bd b3bf 6fd6 e7be ca8b 05bf f10b 1f3e
000002a0: 70bb 3e3e 1146 a8bf 9cd2 da3e 8f05 24bd
000002b0: c1dc 27bf c5aa 56bf 8c3d 7f3e cfbc 52bf
000002c0: 1eb9 1cbe 5c1c 1fbf 2132 74be 8842 dfbf
000002d0: 7df7 4dbf 814e f4bd daff 8bbe 7125 d4be
000002e0: 3df8 07bf 4d05 27bf 69a1 f1bd fe52 05bf
000002f0: 03c7 88bd df51 c3be 001d 32bf e3b1 19bf
00000300: 8659 f9bc ceeb 94bb 88b8 28bd a8e6 643f
00000310: 44e8 c63f a616 c2bf 2a2e babe 81a6 80bc
00000320: f0d3 503e 4f4c 8d3d 28ab 62bc 7af0 953a
00000330: e5e1 80bd 22ac 223f d04e 0140 7db9 5f3d
00000340: cba2 b03d de3e 153c 1c54 0a3e 33b0 b83d
00000350: 66dc 1fc0 ff9f 9f3e ae49 acbf a027 71bc
00000360: d50a 2140 d005 0cbc 6570 513d 1ab6 05be
00000370: 4ccd c6bb a4f4 88be eb91 08bf 603a 62bf
00000380: 9713 8f3d 0abf e53e d6a7 783f b499 16bf
00000390: 9650 943c 8d1c 64bd 46ea 1a3d 746f e1be
000003a0: 40d4 f8be d339 e2bc 7ac1 8fbe 8d41 bcbf
000003b0: 178d 663d 0de0 ac3c d8d6 d5be f5c1 6dbf
000003c0: a155 d73c 7e75 673d fc60 04bd fab1 23bc
000003d0: 7a8e 37bf 6500 5ec0 9a65 003c 087b 763d
000003e0: 69fa 83bd 7812 033c dc74 623d 0120 d2bb
000003f0: 2dd6 0bbd 7a3d 5140 bf2e 0dbf 2a4d 70bd
-0.13104542 -0.09034022 -0.073872104 0.11446334 -0.09968847 -0.8758339 -0.28830576 -0.20183465
0.3026745 0.24811368 0.10001633 0.026292114 0.10653284 -0.04387359 1.093872 -0.13319743
-0.02956228 0.11242525 0.37362686 0.05052505 0.95987517 0.18664397 1.2910517 -0.09486563
-0.34112266 -0.092869915 -0.68909 0.60849124 0.011266377 -0.7476398 0.6243977 -0.0253267
-0.076400176 1.2051976 -0.43642417 -0.67641 0.004139147 -0.09294946 0.060109477 -0.005553901
-0.1622678 0.52626544 4.044786 -0.95845544 0.02086287 -0.09756813 -0.3033938 0.29261577
-0.08220674 0.009089157 0.021689765 0.057720985 0.23584582 0.04243018 0.12919852 0.08507207
-0.14548059 0.028355243 -0.042795032 0.1257113 -0.1098195 3.8519382 -1.810968 -0.6161965
-0.25775886 1.1968867 -0.398327 0.5242037 0.088226505 0.93979985 0.021186218 0.33985305
-0.77493227 0.00083949213 0.22316791 0.34337974 0.5392423 -0.43326545 -1.1423696 -0.53236324
0.25175628 -0.8860364 0.878382 -0.40245086 -0.367648 -1.3852315 -1.2064283 -0.03566714
-0.31263235 -0.19083194 0.13891211 -0.5107665 -0.08175157 -0.5816724 0.208909 -0.6191928
-0.92861456 1.3114552 -0.7693329 0.7076938 0.414324 0.7938782 -0.34598383 0.8591904
1.1684837 0.084523864 -0.9042982 0.20536454 0.24054244 0.25820032 0.45108452 0.038280513
-0.27777442 0.11550978 0.16764364 0.41623637 0.4558219 -0.12192908 -0.31324652 -0.13542563
0.1332993 -1.2218816 0.019683449 1.0595863 0.21019635 0.20254222 1.3748264 0.9986197
-0.4749597 0.006794487 -0.4291236 -0.50250334 0.06636831 -1.682558 -0.57058036 -0.12445264
-0.01893608 0.82384586 -0.46438968 -0.21153887 -0.016547974 -0.16745238 1.2794648 -0.44532558
-0.16363269 -0.76666784 0.3279531 0.21316956 0.6045211 -0.4434037 -0.6866571 -0.24140328
0.63939726 -0.13282788 -2.4830265 -0.4131884 -0.79416823 0.3055985 -0.8354864 -0.4827433
0.9584213 -0.04370839 0.74999315 -0.9477865 -1.4042056 -0.45280787 -0.52166426 0.15531899
0.18626189 -1.3146383 0.42738807 -0.040044364 -0.6557122 -0.83854324 0.24925822 -0.8231935
-0.15304992 -0.6215265 -0.23847248 -1.7442179 -0.8045576 -0.11929036 -0.27343637 -0.41434816
-0.53113157 -0.65242463 -0.11798365 -0.5207976 -0.066785835 -0.381484 -0.695755 -0.6003706
-0.030438196 -0.0045447117 -0.041191608 0.89414454 1.5539632 -1.5163162 -0.36363345 -0.015704395
0.20393348 0.0689932 -0.013834752 0.0011439465 -0.06293086 0.63543904 2.0204353 0.054620255
0.086248 0.009109227 0.13508648 0.09017982 -2.497827 0.31176755 -1.3459985 -0.01471892
2.5162861 -0.008546308 0.05113258 -0.13057747 -0.0060669538 -0.26749146 -0.53347653 -0.88370323
0.06986158 0.44872314 0.971311 -0.5882828 0.018104833 -0.05569129 0.037821077 -0.44030344
-0.48599434 -0.027615463 -0.28077298 -1.4707505 0.056286898 0.02110293 -0.41765475 -0.9287408
0.026285948 0.056508534 -0.032319054 -0.009991163 -0.71701777 -3.468774 0.007836724 0.060175925
-0.06444246 0.008000009 0.055287227 -0.0064125066 -0.0341398 3.2693772 -0.55149454 -0.05866734

link_predictor.0.weight f4 [64, 416]
00000000: ee74 fbbd 0925 823f a661 5a3d a601 06bd
00000010: d16c f73c 8ec8 2bbe 17b1 f73d 3a52 a73d
00000020: e602 8cbc b1f2 e3bd 74e0 78bf 2d5a 2abe
00000030: 1401 0abd cc6f 85be 3a8f 41be 5c0f 9a3d
00000040: 2403 1dbe b94f 7cbf 94c6 af3d 7156 eebe
00000050: f077 973d 45a3 f93b 6fd4 ae3b 0423 543d
00000060: 3464 203e d723 01be 3131 983d 0862 003f
00000070: db80 b0bd 40cf 373c 66b1 913e 94da 063e
00000080: 99cf 61c0 bb90 3cbf 62f4 3041 5672 02c1
00000090: a97e 7840 01e9 96c1 2124 5dc0 0e59 2fc1
000000a0: 6cc3 0e41 0757 ff40 652d e140 0dea 3dc0
000000b0: f1ab 0941 9e6c f73e 30ce e940 5855 3a41
000000c0: 6455 373f a218 a6bf 1a76 fd40 2f1b 8140
000000d0: 5d65 50c1 70a4 b440 59af ac3f d376 3ec1
000000e0: 8491 6fc0 2a30 59c0 8b3c d43f cfad 3240
000000f0: e61b 8540 beb4 6f40 a056 6fc1 434f 79c1
00000100: 922e e140 be49 7641 20f6 93c1 e8db 7dc1
00000110: 406d d3bf d915 29c0 198d a53f b8ba 03c1
00000120: 4d20 0e40 8148 b040 0dac b33f 6f24 adc0
00000130: 4a9d 00c1 39e9 bb41 bd88 cdbf 2f37 5441
00000140: 9549 c041 716a 8340 8ea7 6b40 5a9b c9bf
00000150: 68de f740 34ce a641 df52 e4bf 1e54 9741
00000160: 0bce 0ac1 0c36 fc40 6855 ac3f 8a0c fcbf
00000170: 6059 0a41 3222 adc0 af2b 6a40 334b 5f41
00000180: beaa 7ec1 4717 7c3f 4faa 5141 2c84 87c1
00000190: d657 2fc1 92fc 7bc0 ee2d 6a40 3437 1741
000001a0: bb28 1241 94bf 6dc0 e98c b4c0 7493 9ac0
000001b0: 7087 ba3f 5111 1140 c797 5fc1 e1bc b940
000001c0: 90e7 d240 e80d 8540 b438 e641 01b8 09c0
000001d0: 1eb4 0741 b6b7 9941 876e eb3f 4c7f ca40
000001e0: 6917 1d40 b638 a540 d72e 9f40 c590 0f41
000001f0: e47e b3bf 0417 7fc0 6b35 06be e0b1 cfc0
00000200: e4bd 37c1 bd66 d5bf aeb7 e840 be51 54c1
00000210: 3afa 12c1 9de6 d03f 371c 5fc0 fe82 c040
00000220: 6c9c e4bf 2447 04c1 8fbc 3d41 7205 0c41
00000230: aa6c aac0 61ea 3f41 c3dc 40c0 eeae 843f
00000240: f2bb dcc0 68fc 2ac1 7ed0 81c0 f5bc 9fc0
00000250: f363 cd3f 4899 95c0 09c2 4bc0 205b 4641
00000260: 54ce fec0 d17d a640 b14d 2fc0 b3b9 2f41
00000270: 8709 3ac1 95ea a5c1 08f8 29c1 7a57 afbc
00000280: 4d5f 8341 bf01 b441 7a8c 52c0 7f80 92c1
00000290: 1f46 1241 4f87 84c1 e378 aac0 8190 1241
000002a0: 2d54 19c1 a425 393d 0e3d ecc0 4e98 643f
000002b0: cfdb c6c0 f817 4340 6ec4 3ec0 9143 9340
000002c0: dbbb 3c41 30a3 8cc1 db56 8ac0 90b7 0341
000002d0: ec7e 83c1 4c86 8a3f 6d81 8cc0 c907 0bc1
000002e0: 848c 9040 20b4 58c1 f734 23bf ef6b 5b41
000002f0: 90a1 3e3f 1149 eb40 c4d4 a2c0 4d65 8341
00000300: a382 0e41 2d7f 1341 8962 5040 9dcb b8c1
00000310: eb40 e3c0 9112 fbc0 6e05 c2bf 552d 8e41
00000320: b322 2440 e143 00c1 48e0 33c1 5621 39bf
00000330: 4b20 0cc1 fc86 c440 8f3c 58c0 b5ba ca40
00000340: c1ae c4c0 699d 8ac1 308f 5541 da47 2e40
00000350: 9ee3 2141 804c 3fc1 6df4 753e 82fc 56c1
00000360: a712 3a3f fad9 2241 6d9d dcc0 1fe8 1ec1
00000370: 033a 0241 1332 acc0 f7fe d940 6733 6a40
00000380: 939b 6241 c46d 91c1 542c 5841 b2f9 4b3f
00000390: 96aa 63c1 8d2c fabd c82d 9a3f bb2f 3e41
000003a0: 7aaf 83c0 c280 e940 40da 9ac1 eaf0 9a41
000003b0: 7277 8e3e f6c0 c1c0 7ad9 c1c0 163c 2cc0
000003c0: a38f ca3f 6e21 d740 c918 d3c0 54d4 c140
000003d0: 0456 9dc1 ebf8 0f41 8926 fcc0 9ab0 0e40
000003e0: 8f1a 2f40 a5a7 c1c0 e5a1 3fc0 eff2 0ec1
000003f0: 432e c5c0 cee4 d7c0 fd6d 10c0 1301 c7bc
-0.12278162 1.0167552 0.05331578 -0.032716416 0.030203255 -0.16775724 0.12094324 0.0816998
-0.017091226 -0.11130274 -0.9721749 -0.16635962 -0.033692434 -0.26061857 -0.18902293 0.07522461
-0.1533323 -0.9855915 0.08582798 -0.46550325 0.07395923 0.00761834 0.0053353827 0.051791206
0.15663224 -0.12611328 0.074312575 0.50149584 -0.08618327 0.011218846 0.28455657 0.13169318
-3.5282958 -0.7365834 11.059664 -8.152914 3.8827307 -18.863771 -3.4553301 -10.959242
8.92271 7.9793735 7.0367913 -2.9674103 8.604478 0.48325056 7.3064194 11.645836
0.7161467 -1.2976267 7.9206667 4.0345683 -13.024747 5.645073 1.3491012 -11.90401
-3.7432566 -3.3935647 1.6580976 2.7918584 4.1596556 3.7454066 -14.958649 -15.581851
7.036935 15.393003 -18.495178 -15.866188 -1.6517715 -2.6419585 1.2933685 -8.233086
2.2207215 5.5088506 1.4036881 -5.4106975 -8.038401 23.488878 -1.6057354 13.263473
24.035929 4.1067433 3.6821017 -1.5750535 7.745899 20.850685 -1.783779 18.916073
-8.675303 7.8815975 1.3463564 -1.9691327 8.64682 -5.410424 3.6589162 13.955859
-15.916685 0.9847302 13.104079 -16.939537 -10.958944 -3.9372907 3.6590533 9.450977
9.134944 -3.714818 -5.642201 -4.8304996 1.4572582 2.266682 -13.974555 5.8043065
6.590767 4.1579475 28.777687 -2.1518557 8.481474 19.214703 1.8393105 6.328039
2.4545538 5.1631727 4.9744678 8.972844 -1.4023099 -3.9857798 -0.13106315 -6.4904633
-11.48386 -1.6671978 7.272422 -13.269957 -9.18609 1.6320378 -3.486097 6.0159903
-1.7860236 -8.267368 11.858535 8.751329 -5.3257647 11.994721 -3.0134742 1.0365884
-6.8979425 -10.686623 -4.0567007 -4.991816 1.6046127 -4.674961 -3.183718 12.397247
-7.9626865 5.2028584 -2.739117 10.982837 -11.627326 -20.739542 -10.6230545 -0.021404017
16.421534 22.500853 -3.289824 -18.312742 9.142119 -16.566069 -5.3272567 9.160279
-9.583051 0.045201913 -7.382453 0.892949 -6.214332 3.048338 -2.980739 4.601998
11.795863 -17.579681 -4.3231025 8.232315 -16.436974 1.0822234 -4.390799 -8.689401
4.517153 -13.543976 -0.6375269 13.713851 0.74465275 7.3526692 -5.0884724 16.424463
8.906894 9.218549 3.256014 -23.09942 -7.1016746 -7.8460164 -1.5157907 17.772135
2.5646179 -8.016572 -11.242256 -0.7231649 -8.757884 6.1414776 -3.3786962 6.3352914
-6.1463323 -17.32686 13.347458 2.7231355 10.118071 -11.956177 0.24019022 -13.436647
0.7268471 10.178217 -6.894217 -9.93167 8.139163 -5.3811126 6.8123736 3.6593874
14.162982 -18.178596 13.510822 0.7967788 -14.229147 -0.12215529 1.2045221 11.886653
-4.1151705 7.2969675 -19.356567 19.367634 0.27825505 -6.054805 -6.0577974 -2.6911674
1.5825084 6.722831 -6.5967755 6.057169 -19.667 8.998271 -7.879704 2.229529
2.735996 -6.0517144 -2.9942563 -8.93431 -6.161897 -6.7466803 -2.2567132 -0.024292504

link_predictor.0.bias f4 [64]
00000000: aabe 80c1 7ebd e4c0 7915 5fc1 ce14 31c1
00000010: 60c3 45c1 776f 87c1 f9d5 99c1 4d4f 73c1
00000020: 3421 a1c1 6255 64c1 45fd 04c1 6f61 13bf
00000030: e771 95c1 a2f7 6ec1 83af c0c0 fcc6 0bc1
00000040: 62bf 42c1 226c 2fc1 ba69 a6c1 67af ddc0
00000050: 0c21 5fc1 4aa4 65c1 c07b 6ec1 8b2e 80c1
00000060: 4546 5dc1 c457 73c1 e45e 98c1 30bb 6fc1
00000070: 8393 3dc1 7a36 84c1 c478 abc1 4ec9 91c1
00000080: 3a5c 3ac1 20a5 0cc1 2bfe 65c1 82d9 7cc1
00000090: 0d79 0fc1 935e bfc0 31f4 85c1 4112 76c1
000000a0: a2cc ddc0 f9cd 8dc1 472b 38c1 0516 21bf
000000b0: f806 88c0 99d2 18c1 4395 64c1 e86c 8ac1
000000c0: de6b 5fc1 be2b 2cc0 377f 8cc1 be28 69c1
000000d0: ca7c 38c1 981f 80c1 23f6 e7c0 e521 84c1
000000e0: 4d97 2fc1 8fe5 c4c0 319b 33c1 1b66 7cc1
000000f0: 09d7 99c1 d17a 96c1 9f5b 3bc1 7540 7ec1
-16.093098 -7.1481314 -13.942742 -11.067579 -12.360199 -16.929426 -19.229479 -15.206861
-20.141212 -14.270845 -8.311833 -0.57570547 -18.680616 -14.935457 -6.021425 -8.73608
-12.171724 -10.9639 -20.801624 -6.9276614 -13.945568 -14.35261 -14.905212 -16.022726
-13.829656 -15.208927 -19.046333 -14.9832 -11.848514 -16.5266 -21.433968 -18.223293
-11.647516 -8.790314 -14.374553 -15.8031025 -8.967053 -5.9802947 -16.744234 -15.3794565
-6.9312296 -17.725573 -11.510566 -0.62924224 -4.2508507 -9.551415 -14.286441 -17.303177
-13.963835 -2.6901698 -17.562117 -14.572447 -11.530466 -16.015427 -7.248796 -16.51655
-10.974439 -6.1530223 -11.225389 -15.774928 -19.229998 -18.809969 -11.709868 -15.890737

link_predictor.2.weight f4 [1, 64]
00000000: 0a81 a13d 01e2 c6bd d0d9 dfbd 3c22 fabd
00000010: d228 e3bd c841 333d 258d a23d d3d5 b03d
00000020: 32b0 c83d d782 9abd 7bea d9bd 81f9 b9bd
00000030: 9838 3b3d 7a86 b73d bcac edbd db2b e5bd
00000040: f96d 9c3d c793 d4bd 6fc5 e1bd 98bb cfbd
00000050: 3ac2 9c3d ca5c c43d 0481 d2bd 62a6 dabd
00000060: 7d6b cbbd 227c f2bd 94be 173e e395 f6bd
00000070: 3bc3 433d a537 01be 760a c7bd 891f 843d
00000080: c90e 953d aa53 d3bd 9c39 9e3d 5bff 0abe
00000090: da2e b9bd c981 e7bd 1410 e93d 6d11 03be
000000a0: 67d6 d0bd cc7d bcbd 34fd f0bd 8a95 a6bd
000000b0: bb1d d3bd 62a8 08be bcae 913d 0ab8 dc3d
000000c0: f2d3 60bd 46b2 373d 5a8c 953d 0b30 633d
000000d0: 6328 a43d e61a ad3d 2f40 d33d 1feb 0abe
000000e0: 6df3 d7bd 68f8 fcbd 30e2 f4bd 2ec5 b33d
000000f0: 5011 9bbd 140e ba3d 2ce9 5d3d cce9 363d
0.078859404 -0.097110756 -0.10930216 -0.12213561 -0.1109177 0.043763906 0.079370774 0.08634534
0.097992316 -0.07544487 -0.10640427 -0.09080792 0.04570827 0.08961196 -0.11605212 -0.111900054
0.07638163 -0.10379749 -0.110239856 -0.101432025 0.07654233 0.095880106 -0.10278514 -0.10676266
-0.09932611 -0.11840083 0.14818794 -0.120403074 0.04779361 -0.12618883 -0.09718792 0.06451327
0.07278211 -0.10318692 0.07725832 -0.13573973 -0.09042139 -0.113040514 0.1138002 -0.12799616
-0.10197144 -0.09203681 -0.11767045 -0.08133991 -0.10308405 -0.13345483 0.07113406 0.1077729
-0.054889627 0.04484775 0.073021606 0.05546574 0.08015516 0.08452396 0.103149764 -0.13566254
-0.10544477 -0.12352067 -0.11957204 0.087778434 -0.075716615 0.090847164 0.05417745 0.04465656
