checkpoints/model_epoch_24.pth (torch, 217428 bytes, 7 tensors)

conv1.bias f4 [64]
000000 ce 06 79 3d b6 c6 06 3f d9 88 65 3f 2f 2f 1a c0
       0.060797505 0.5264696 0.8966194 -2.4091299
000010 f0 77 70 c0 44 8c ac c0 41 de 9c c0 c4 4c 2c bf
       -3.7573204 -5.3921223 -4.9021306 -0.67304635
000020 a1 64 31 c0 d7 a7 33 c0 49 f3 65 3e 34 bf c7 bf
       -2.771767 -2.8071191 0.22456087 -1.5605226
000030 b0 bf 8d 3e a0 27 78 c1 b4 e3 73 c1 00 38 b2 3f
       0.27685308 -15.509674 -15.243092 1.392334
000040 a0 a6 c2 3c 99 b9 09 3e ed 46 87 c1 67 b4 59 3f
       0.023761094 0.13449706 -16.909632 0.850409
000050 f5 4d 85 c1 81 72 0f c1 59 1a 10 c1 3d fb 43 3f
       -16.663065 -8.965455 -9.006433 0.76555234
000060 3a b4 f6 c0 3e ee 6e 3f 50 1d 0f c1 82 8f fb bf
       -7.7095003 0.9333228 -8.944656 -1.965317
000070 90 48 08 3f c8 11 e6 c0 26 1d 69 c0 ca d8 5b c0
       0.5323572 -7.1896706 -3.642404 -3.4351068
000080 ee 36 59 c1 06 02 a7 c0 44 ad 6b c0 44 7e 4c c0
       -13.575911 -5.218997 -3.6824503 -3.1952066
000090 39 7c 7b c0 46 06 94 3d ac 0f 1b c0 12 11 6f c0
       -3.929457 0.07227759 -2.4228315 -3.735417
0000a0 01 d8 8d c0 63 d8 00 c1 e2 ec 93 c1 50 d1 38 c0
       -4.4326177 -8.052829 -18.490665 -2.8877754
0000b0 d6 3b 78 3f ff d7 28 3f 35 e8 e6 bf 82 b1 fc c0
       0.969663 0.65954584 -1.8039614 -7.8966684
0000c0 29 cf 0f 40 15 00 31 3f fa 58 a5 3d 4e 28 9a 3e
       2.247019 0.6914075 0.080736116 0.30108875
0000d0 a9 6b 9d c1 85 6e 1a c1 1b e3 1f 40 06 1f 5d 3e
       -19.677568 -9.651982 2.4982364 0.21593866
0000e0 5c fa 5b c0 3d 66 5a 3e ac 69 8a 3f 03 f7 23 3b
       -3.4371557 0.21328063 1.0813498 0.0025019057
0000f0 e6 98 d8 bf ee af 53 c1 b5 a1 f1 c0 2f de dc c0
       -1.6921661 -13.230452 -7.5509896 -6.902122

conv1.lin.weight f4 [64, 384]
000000 a2 c8 12 40 a2 8a 0c 40 8c 1c 79 3f 79 c7 87 bd
       2.2934957 2.1959615 0.97309184 -0.06629843
000010 34 4c c0 3e 70 72 54 bf 59 e7 2b 3f 3a 70 45 be
       0.37558138 -0.8298712 0.67149884 -0.19281092
000020 2d 7c 08 c0 b4 8f b5 3f 1f c6 c7 3f 2f 51 23 bf
       -2.132579 1.418448 1.5607337 -0.6379575
000030 df 61 6c c0 cd c1 ef 3f 0e eb 2e 3f 10 5f 82 3f
       -3.6934736 1.8731018 0.68327415 1.0185261
000040 c9 76 c2 bf 8e 40 44 3e 50 8a a3 3f 90 8c 22 c0
       -1.51925 0.1916525 1.2776585 -2.5398293
000050 5c 5e 4d bf a7 66 8b bf 75 1c cb bd ed 4b d6 3f
       -0.80222106 -1.0890702 -0.09917537 1.6741921
000060 16 ee 80 40 1f ed e8 3f 11 e2 0b 40 fe 60 4b be
       4.029063 1.8197364 2.185673 -0.19861218
000070 6b 2c 0b 40 a8 52 17 40 47 e3 e7 3e 78 e1 3c 40
       2.174586 2.36442 0.45290586 2.9512615
000080 a5 f0 01 bf 60 e0 a3 3f 08 a2 ba 40 a8 b0 e9 3f
       -0.5075782 1.2802849 5.832279 1.8257036
000090 ff 1b cb bd 66 15 39 bf 2a 7f 3e 3e b8 24 ad 3f
       -0.09917449 -0.72298276 0.18603197 1.3526831
0000a0 9d ea 40 c0 0f 44 91 bf 6c 06 de 3e d0 e3 1d c0
       -3.0143197 -1.1348895 0.43364275 -2.4670296
0000b0 ef 5d a2 3f d5 85 85 be 01 9a 18 bf 29 05 68 c0
       1.2684916 -0.26078668 -0.5960999 -3.625315
0000c0 4e 62 6a 3f bd a6 ab c0 20 14 93 3f 8c fb 5a 3f
       0.9155625 -5.364104 1.1490517 0.8554008
0000d0 aa d9 f8 3f 78 f8 9e bf 51 6b 32 40 69 7f 53 3f
       1.9441426 -1.2419577 2.7878 0.8261629
0000e0 b2 65 df 3f b7 c8 1b bf d0 9d 9a bf 31 05 01 40
       1.745291 -0.6085314 -1.207941 2.0159419
0000f0 e1 f9 52 bf 14 53 7d 3f 94 31 3c bf 56 7f 6a bf
       -0.82412535 0.9895489 -0.7351315 -0.9160055
000100 19 44 45 3f 01 74 a1 c0 05 7b f6 3f 24 9a 0a 40
       0.77057034 -5.0454106 1.9256293 2.165658
000110 39 98 46 3e a6 0c 9b be a5 f8 4a 40 ec ce 07 3f
       0.19394006 -0.30283087 3.171426 0.5305011
000120 ef 07 28 3e 26 56 5c be c8 4c b1 3f fe 68 95 bf
       0.16409276 -0.21517238 1.3851557 -1.1672666
000130 3d a5 12 40 4f f1 03 c0 dc 04 39 40 d4 4e 07 bf
       2.2913353 -2.0616033 2.8909216 -0.5285466
000140 2d 9d 32 40 39 42 ea 3f eb 6b c7 bf a7 34 33 3e
       2.7908432 1.830146 -1.5579809 0.17500554
000150 ac 81 b4 3f 9e f6 0c c0 39 aa 23 40 f8 08 84 c0
       1.4102073 -2.2025523 2.5572646 -4.126095
000160 f2 c6 28 40 31 19 e3 3f 43 64 68 be 25 6c 23 3f
       2.6371427 1.7742063 -0.22694497 0.6383689
000170 49 a9 25 c0 71 77 21 bf 0a 12 40 3f 67 07 56 3f
       -2.5884573 -0.6307288 0.75027525 0.83605045
000180 95 4e 5c be 3a 06 68 bd 79 97 86 3f 32 5b af bf
       -0.21514352 -0.056646563 1.0514976 -1.3699706
000190 d7 83 e2 3f f7 60 ae 3f a9 71 5d 3e 5c 63 5b bf
       1.7696484 1.3623341 0.21625389 -0.85698485
0001a0 c8 9b b8 bf c5 97 39 3f a9 51 2e 3f 43 5e a5 bf
       -1.4422541 0.72497207 0.68093354 -1.2919391
0001b0 98 1a f2 bf 2d 0b 3d c0 d2 1f c5 3f 8c 96 83 3f
       -1.8914366 -2.953807 1.5400336 1.0280318
0001c0 af f5 a3 3d 56 a9 f8 bf 04 66 ba 3c 42 39 94 3f
       0.08005845 -1.9426677 0.022753723 1.1579974
0001d0 fc c6 c8 bf 37 ff 33 c0 6e 65 d3 3f 0d 52 13 40
       -1.5685725 -2.812452 1.6515329 2.301883
0001e0 23 d0 d9 3f 5a b2 38 40 e5 23 9f bf 65 41 a6 bf
       1.7016643 2.8858857 -1.2432829 -1.2988707
0001f0 79 93 43 40 90 02 f4 3e 40 11 7e bf e4 70 93 3d
       3.055876 0.47658205 -0.9924507 0.071992666
000200 10 3f f2 bf c6 59 dd 3f 2d b9 f7 3f a4 09 0d c0
       -1.8925495 1.7293022 1.9353386 -2.2037134
000210 b9 d3 97 bf 84 d5 d8 bd 42 f3 3f 3f 78 22 81 3f
       -1.1861488 -0.105876 0.74980557 1.0088644
000220 cb 17 9d 3f 9d cd 66 bf b2 56 ed bd 22 a9 c6 3f
       1.2272886 -0.9015749 -0.115888014 1.5520365
000230 a4 f9 5f 3f de f2 15 40 96 3a 9d bf a6 75 0e 40
       0.87490296 2.3429484 -1.2283504 2.2259307
000240 c3 c0 51 3e 84 13 9a 3f 77 ba da bf 09 5a 88 3f
       0.20483689 1.2037206 -1.7088155 1.0652477
000250 29 66 02 3f 11 05 90 3f 42 0b 6f 3f 48 14 b4 3e
       0.50937134 1.1251546 0.93376553 0.35171723
000260 c9 d6 36 be c2 a3 11 3f f7 62 12 3f 36 f0 e6 3f
       -0.17855372 0.568905 0.5718226 1.8042057
000270 6f 13 bd bf b0 51 ae c0 ff f8 ec bf c1 22 31 c0
       -1.4771556 -5.4474716 -1.8513488 -2.7677462
000280 1b d8 b9 be 7f 3d 7b 3f 3e e5 55 3f b1 46 88 3f
       -0.36297688 0.9814071 0.8355292 1.0646573
000290 d4 5a 0c 40 cc f4 c0 bf 07 2f 40 3f fb ed 2f 3f
       2.1930437 -1.5074706 0.7507176 0.68722504
0002a0 f2 0a 87 be 76 c8 36 c0 d6 df 1a 3f 22 ff 58 40
       -0.26375538 -2.8559852 0.60497797 3.390572
0002b0 26 c7 69 3f cc 6c a6 be 47 1b 77 3e 8f d0 1e 3f
       0.913195 -0.3250488 0.24131499 0.62036985
0002c0 4a 49 16 40 ce 78 63 3f 3c 9d a1 3e 8d a9 3d 3f
       2.3482232 0.8885621 0.31565273 0.7408684
0002d0 c0 75 f3 3f 4e 9d 83 3d f0 0b 37 c0 7a f7 70 bf
       1.902031 0.06426488 -2.8601036 -0.9412762
0002e0 7f 9c 85 3f 68 04 f4 b9 bc aa 95 bf d5 03 10 40
       1.0438384 -0.0004654259 -1.1692729 2.250234
0002f0 54 bb 04 40 ca b9 12 3f 28 bc eb 3f 08 9c be 3f
       2.0739336 0.5731474 1.8416796 1.4891367
000300 f5 99 12 c0 ad ac f0 3f be 43 c1 be 2f 4e a3 bf
       -2.2906468 1.8802696 -0.37746996 -1.2758235
000310 86 79 aa bf bb 82 e3 3f a9 93 79 3f 52 59 0b c0
       -1.3318336 1.7774271 0.97490937 -2.1773267
000320 c3 f8 b6 bf ee 6d d2 3f d1 76 64 bf 3b 5a 0f 3f
       -1.4294666 1.6439798 -0.892438 0.55997056
000330 02 99 9a be a5 2a d7 bf d3 36 88 3f 07 06 ae 3f
       -0.3019486 -1.6809889 1.0641731 1.3595589
000340 34 35 26 40 26 b3 fb bd be 17 80 40 3c fd d8 3f
       2.5969973 -0.12290029 4.002898 1.6952281
000350 96 19 0e bf 0a 0e 2e 40 dd 5e 93 3e d8 2d 3e 40
       -0.5550779 2.7196069 0.28783312 2.971548
000360 49 1d a2 bf 3f 27 82 3f 92 b0 56 40 e1 59 47 40
       -1.2665187 1.0168227 3.354527 3.1148608
000370 09 ca ac bf ea dc 46 bd 0b 6b c8 3f c3 64 84 3d
       -1.3499156 -0.048550524 1.5657667 0.06464531
000380 e6 be d8 be a7 52 44 bf 63 b5 62 bf f5 9d 3c 40
       -0.42333144 -0.7668862 -0.88558024 2.947141
000390 70 eb 87 3e 8a e4 a8 be 06 e4 64 3f 1e 2e 8d be
       0.26546812 -0.3298686 0.89410436 -0.27574247
0003a0 0e 1b bf 3f 33 11 14 40 8a 5f d9 be ef b2 26 40
       1.4930131 2.3135498 -0.42455703 2.6046712
0003b0 ea 97 0a 40 8e 31 68 3f 41 1e 56 bf 6b b0 b0 3d
       2.165522 0.90700614 -0.83639914 0.08627399
0003c0 d6 fa c3 3f 47 98 ce bf 49 d7 ec 3f 8f 27 8c bf
       1.5310924 -1.6140221 1.85032 -1.0949572
0003d0 a0 2c a5 be 70 66 87 bf e7 c4 bc 3e 63 db 71 3f
       -0.3226061 -1.0578136 0.36868975 0.9447538
0003e0 db 20 1c 3d 5b 5e 30 40 bf c3 b5 3f a5 f2 fd 3f
       0.03811727 2.755759 1.4200362 1.9839674
0003f0 5e 60 63 3f af 02 e7 3e 62 b0 9d bf 28 73 db 3f
       0.8881892 0.45119235 -1.2319453 1.7144518

conv2.bias f4 [32]
000000 84 e4 ee 3c 6e ca 71 bf 2a da 3e 41 fa 80 75 bd
       0.0291617 -0.9444951 11.928263 -0.059937455
000010 8e 3d 8d 3d fe 57 ee bc 05 08 00 3d 3d 04 32 bf
       0.06896506 -0.029094692 0.031257648 -0.6953772
000020 42 0b c4 bd d1 b1 eb be a3 30 8b 3d b8 41 ec bd
       -0.0957246 -0.460341 0.06796386 -0.11535972
000030 b5 79 ad 3f 70 b9 b2 c0 0e fa 2a bd ed 98 0b c1
       1.3552767 -5.5851364 -0.041742377 -8.724835
000040 4a 1b 30 40 fa 90 80 be 63 7b 9a 3f 79 60 62 bf
       2.7516656 -0.25110608 1.2068905 -0.88428456
000050 b4 0d 29 3d e9 91 01 bf 17 0e 91 3d 55 65 41 be
       0.041272834 -0.50613266 0.070827655 -0.18886311
000060 4b 8a cd bd 31 d7 e3 3d bf 18 f4 bc 0f 1e 55 be
       -0.10036143 0.11125029 -0.029796956 -0.20812248
000070 3c d2 6d bf 91 ee 00 3e bd aa db 3f cb 11 b7 bd
       -0.9289892 0.12591006 1.716148 -0.089389406

conv2.lin.weight f4 [32, 64]
000000 69 dd 64 3e 6f 9e dd bd 97 d9 49 3e c1 6b ea 3d
       0.22350086 -0.108212344 0.1971191 0.11446334
000010 78 29 cc bd a7 36 60 bf d0 9c 93 be be ad 4e be
       -0.09968847 -0.8758339 -0.28830576 -0.20183465
000020 27 f8 9a 3e 83 11 7e 3e 97 58 c7 bc 7b 68 2b 3c
       0.3026745 0.24811368 -0.024334235 0.010461922
000030 77 09 34 3e b5 7a c4 bf f9 17 b4 3f cf 9c 28 3c
       0.17581736 -1.5349947 1.4069816 0.010291292
000040 f7 5e 86 bd d1 9d e7 3d 6d 33 0b bf a0 c3 2a 3e
       -0.06561082 0.11309398 -0.54375345 0.16676188
000050 af 08 9a 3e f5 98 21 c0 2f 41 a5 3f 0c c5 d2 bc
       0.3008475 -2.5249608 1.2910517 -0.025728725
000060 61 72 e6 3f b8 3c a4 bd 42 2f dc 3e 15 c6 1b 3f
       1.8003656 -0.08019394 0.43004805 0.60849124
000070 76 11 19 be 52 65 3f bf 87 d8 1f 3f f1 79 cf bc
       -0.14948067 -0.7476398 0.6243977 -0.0253267
000080 52 5d b2 3e ea 43 9a 3f fd 72 df be 35 29 2d bf
       0.34836823 1.2051976 -0.43642417 -0.67641
000090 b9 38 25 3d 25 78 9e bd a0 d2 12 3e 80 fd b5 bb
       0.040337298 -0.077377595 0.1433816 -0.005553901
0000a0 88 29 26 be bd c4 f7 3d b2 20 24 3f 56 5d 75 bf
       -0.1622678 0.12098072 0.6411239 -0.95845544
0000b0 72 14 ca bc cc e1 10 3d 6f 56 9b be b0 d0 53 c0
       -0.024667952 0.035371587 -0.3033938 -3.3096123
0000c0 4c 0d 01 3d e9 6b cd bd 09 e3 c1 bd e1 6a 21 bd
       0.03150682 -0.10030348 -0.09467132 -0.03940857
0000d0 55 06 c5 bf 45 cb 2d 3d bf 36 c6 3c fb b7 c8 be
       -1.5392557 0.04243018 0.024196027 -0.39202866
0000e0 96 3c ee 3d d1 e9 9e bd 81 33 9e bc 5f 40 5f bd
       0.116326496 -0.07759441 -0.019311668 -0.05450475
0000f0 54 36 2c be 81 c1 42 40 cd cd e7 bf bd f2 d9 3e
       -0.168176 3.0430605 -1.810968 0.42568007
000100 59 81 64 be 29 2c 90 3f 79 79 10 bf 37 32 06 3f
       -0.22314967 1.1263477 -0.5643535 0.5242037
000110 19 b0 b4 3d b9 96 70 3f b8 8e ad 3c 38 01 ae 3e
       0.088226505 0.93979985 0.021186218 0.33985305
000120 f6 61 46 bf 5d 11 5c 3a 50 df 9e 3e 79 27 7b 3e
       -0.77493227 0.00083949213 0.3102975 0.24526776
000130 0e af 17 3f eb 9e 6b bf f1 eb d6 bf 76 f3 05 bf
       0.5925149 -0.92039365 -1.6790754 -0.52324617
000140 1a 20 62 3e 9a 62 46 bf da 5d cc bf 1a 59 9a be
       0.22082558 -0.77494204 -1.5966141 -0.30146104
000150 ce 82 fb be d6 02 89 bf 3e 6c 9a bf 3c 2b 9b bd
       -0.49123234 -1.070399 -1.2064283 -0.07576606
000160 18 c7 bf bf d1 aa 9a be e5 fa 04 3f 98 c1 02 bf
       -1.4982634 -0.30208448 0.51945335 -0.5107665
000170 f3 f4 5c 3e 7b e8 14 bf 3e ec 55 3e 6b 83 1e bf
       0.21577816 -0.5816724 0.208909 -0.6191928
000180 5d 79 20 bf c4 dd a7 3f 00 f3 44 bf 6c 2b 35 3f
       -0.62685186 1.3114552 -0.7693329 0.7076938
000190 65 cd 66 3f 4c ad 40 3f 97 6e ec bd e7 f3 5b 3f
       0.9015716 0.7526443 -0.11544531 0.8591904
0001a0 e0 90 95 3f c7 70 2b 3e c6 a7 2b bf 15 4b 52 3e
       1.1684837 0.1674224 -0.67052877 0.20536454
0001b0 9b 52 f1 3e c6 0e 68 3e 8d f4 e6 3e ab 48 f2 bf
       0.47133335 0.22661886 0.45108452 -1.8928427
0001c0 f6 fe 58 be 98 5e f6 3b cf 26 2a 3e 96 04 09 3f
       -0.2119101 0.0075186007 0.16616367 0.5352262
0001d0 1f ae 20 bf f4 b5 f9 bd e5 ed 56 be d6 b1 95 be
       -0.6276569 -0.12192908 -0.20989187 -0.2923724
0001e0 d2 92 01 3f e1 49 98 bf c3 a9 18 be 14 13 83 3f
       0.50614655 -1.1897546 -0.14908509 1.0240197
0001f0 a5 97 dc 3e 36 e5 17 c0 50 fa af 3f 9e f3 9a 3f
       0.43084446 -2.373365 1.3748264 1.2105596
000200 cf b7 04 bf 3a c5 8c bd ac fd bf be 0f a4 00 bf
       -0.5184297 -0.068735555 -0.37498224 -0.50250334
000210 1c ec 87 3d 0f 5e d7 bf 8e 11 12 bf 07 e1 fe bd
       0.06636831 -1.682558 -0.57058036 -0.12445264
000220 d7 1f 9b bc 90 e7 52 3f a8 86 fe be 01 f7 be be
       -0.01893608 0.82384586 -0.4971211 -0.37297824
000230 19 5b 24 bd 66 c3 cd bf fb dd 8b bf 71 bc 0a bf
       -0.04012594 -1.6075256 -1.0927118 -0.5419379
000240 b6 fa 03 bd 62 ce 51 bf d3 c3 2f 3f 8d 78 dc bd
       -0.03222152 -0.8195554 0.6865818 -0.10765181
000250 f3 9b 5d be 68 d3 75 3e c2 c8 2f bf e1 61 74 be
       -0.21641521 0.24006426 -0.6866571 -0.23865463
000260 64 a9 78 3e 48 9e 56 be 1d 4e 15 c0 6e 8d d3 be
       0.24283367 -0.20958817 -2.3328927 -0.4131884
000270 d1 2b 66 bf 68 77 9c 3e 70 e2 55 bf 21 2a f7 be
       -0.8991061 0.3055985 -0.8354864 -0.4827433
000280 9b 0a 64 3f 92 07 33 bd 8d ff 3f 3f 23 a2 72 bf
       0.8907868 -0.04370839 0.74999315 -0.9477865
000290 9a 87 bc bf 51 b4 cd be cd 60 43 bf f1 0b 1f 3e
       -1.4728882 -0.40176633 -0.7631958 0.15531899
0002a0 70 bb 3e 3e 2e c0 b4 bf 2b 26 1a 3f 8f 05 24 bd
       0.18626189 -1.4121149 0.6021449 -0.040044364
0002b0 de 47 50 bf 78 62 6b bf 8c 3d 7f 3e b6 d8 84 3e
       -0.8135966 -0.91947126 0.24925822 0.25946587
0002c0 a1 fc 87 be 82 6d 1b bf a8 5d 48 be 50 f3 de bf
       -0.26559928 -0.6071397 -0.19566977 -1.7418003
0002d0 e9 c1 e9 3e 81 4e f4 bd 04 fb a9 be 5a b9 d3 be
       0.45655754 -0.11929036 -0.33199322 -0.4135235
0002e0 d4 a3 a5 be dd 3e 39 bf 7a 07 46 be 86 c4 b7 be
       -0.32351553 -0.72361547 -0.1933879 -0.35892123
0002f0 fe b6 71 be e8 f8 4f c0 00 1d 32 bf 09 dc 52 bf
       -0.23604962 -3.249567 -0.695755 -0.82366997
000300 4e 61 00 3e e7 64 70 bd e2 bc 8b 3c a8 e6 64 3f
       0.12537119 -0.058689978 0.01705784 0.89414454
000310 44 e8 c6 3f a6 16 c2 bf 2a 2e ba be 81 a6 80 bc
       1.5539632 -1.5163162 -0.36363345 -0.015704395
000320 f0 d3 50 3e 4f 4c 8d 3d 56 2a 3d be 13 c6 d4 3c
       0.20393348 0.0689932 -0.18473181 0.025973355
000330 9b 56 f0 3c 8c 3b 47 3f e1 50 50 3f 53 13 3c 3e
       0.029338172 0.77825236 0.8137341 0.18366747
000340 a2 1e 10 3e 4b 14 d6 bc 1f f0 1f 40 82 1f 4f bd
       0.14074185 -0.026132723 2.4990308 -0.050567158
000350 39 56 64 bd 55 0a 3d 40 ae 49 ac bf 04 0f 12 3d
       -0.05574629 2.9537556 -1.3459985 0.03565885
000360 51 5c 6b 40 6a d4 87 bb a7 ef 34 3f 1a b6 05 be
       3.6775095 -0.004145195 0.7067818 -0.13057747
000370 cc 3e bf 3d a4 f4 88 be eb 91 08 bf 60 3a 62 bf
       0.093381494 -0.26749146 -0.53347653 -0.88370323
000380 28 12 1c bd 0a bf e5 3e d6 a7 78 3f b4 99 16 bf
       -0.038103253 0.44872314 0.971311 -0.5882828
000390 93 15 b3 be 16 25 35 3d ea fc 97 3c 74 6f e1 be
       -0.34977397 0.04422482 0.018553216 -0.44030344
0003a0 40 d4 f8 be 16 9f bd bb 47 99 bb bf 8d 41 bc bf
       -0.48599434 -0.005786787 -1.4656152 -1.4707505
0003b0 50 1b 8d 3d a4 53 da 3d d8 d6 d5 be 43 d2 0d c0
       0.06889975 0.106604844 -0.41765475 -2.2159584
0003c0 3a 52 89 bd 44 0b 47 39 4b 2d f9 bd 06 00 e2 3c
       -0.067051366 0.00018982316 -0.12166842 0.027587902
0003d0 de 53 2b be 65 00 5e c0 a0 74 88 bd b7 d2 46 3c
       -0.16731212 -3.468774 -0.066628695 0.012135199
0003e0 3d 34 2f 3d 6d 63 87 3d 56 13 06 3d de 84 97 bd
       0.042774428 0.06610761 0.032733284 -0.07398389
0003f0 33 0c 7f 3d 6d 60 85 bf bf 2e 0d bf af b9 b1 be
       0.062267493 -1.0420052 -0.55149454 -0.34711978

link_predictor.0.weight f4 [64, 416]
000000 9a de 3a bc 61 64 84 3f a2 c3 17 3e 90 d8 61 be
       -0.011405611 1.0343133 0.14820722 -0.22055268
000010 22 71 6f 3e bc 27 da bd 72 a8 1d 3e 58 37 a9 be
       0.23383 -0.1065211 0.15396288 -0.33050036
000020 e7 3b 29 be 6a 15 16 be 3e e5 c7 be e1 5f d1 bd
       -0.16526757 -0.14656606 -0.39042085 -0.102233656
000030 f7 62 50 3e 78 0c 82 be 04 15 6d 3e b8 b1 84 3d
       0.20350252 -0.25400138 0.23152548 0.0647921
000040 4d dc 94 3d 17 dd 23 bf 11 a6 3d 3e ea de 2b 3c
       0.072685815 -0.6400923 0.1852038 0.010490159
000050 89 bf 88 3d 16 c6 23 3d 2a 18 85 bd ba 6e 04 3e
       0.066771574 0.03998383 -0.064987496 0.12932864
000060 f8 d3 fe 3d 6a 07 2c 3e 56 a2 58 3d 92 40 4e 3f
       0.124427736 0.16799703 0.05288919 0.80567276
000070 8e ac 1a 3f 4f 50 e9 3d e0 d8 38 3e c8 b8 90 be
       0.6041955 0.11392271 0.18051481 -0.28265977
000080 95 94 20 40 14 fc 85 3e 5a db 62 41 10 d5 13 c1
       2.5090687 0.26168883 14.178553 -9.239517
000090 8e 60 b4 40 91 e0 cb c1 43 e1 45 c1 72 af 24 c1
       5.6367865 -25.484652 -12.367496 -10.292833
0000a0 c9 f7 08 41 52 40 8f 40 47 d0 54 40 fa 57 ad c0
       8.560494 4.4766016 3.3252122 -5.4169893
0000b0 0b d6 0c 41 01 59 0f 3f 3e 8a 09 41 21 73 94 41
       8.802257 0.55995184 8.596251 18.556215
0000c0 c7 34 c5 40 6c ca 35 3f d3 61 27 41 c0 ea f8 40
       6.1626925 0.71011996 10.461383 7.778656
0000d0 63 64 62 c1 94 c1 df 40 4f a5 5e c0 db 33 91 c1
       -14.149508 6.99238 -3.4788396 -18.15032
0000e0 94 87 00 c1 f2 e5 26 c0 0b 91 b2 40 49 0a 3c 40
       -8.0331 -2.6077847 5.5802054 2.9381278
0000f0 85 04 0f 41 fa fe 27 40 f5 b0 4e c1 c4 29 96 c1
       8.938603 2.6249375 -12.918202 -18.770393
000100 37 cd 04 41 1a f1 4a 41 e3 2c 94 c1 67 85 6d c1
       8.300101 12.683863 -18.521917 -14.845069
000110 50 9d 11 3f a0 0e 0d 3f 0d c3 86 40 7d 02 61 c0
       0.56880665 0.5510044 4.21131 -3.5157769
000120 28 2d e0 40 84 2f b2 40 66 da e6 c0 45 0d 84 c0
       7.005512 5.5683002 -7.21416 -4.12662
000130 e8 e2 07 c1 61 51 f5 41 70 22 a2 3f 2e 03 88 41
       -8.492897 30.664736 1.266676 17.001553
000140 85 40 d9 41 fb e8 a5 be 20 f5 c8 40 95 d0 02 bf
       27.156504 -0.32404312 6.2799225 -0.5109952
000150 dd c1 90 41 3d 77 b6 41 38 00 c2 c0 f9 08 bb 41
       18.09466 22.808222 -6.0625267 23.379381
000160 f7 8f 2c c1 3a 2f 18 41 14 e2 9e c0 08 45 4e 40
       -10.785148 9.51153 -4.9650974 3.2229633
000170 80 52 26 41 d3 8c 84 c0 35 c0 26 41 8c 14 b2 41
       10.395142 -4.1421905 10.421926 22.260033
000180 9f a1 a1 c1 28 6b 9d 40 dc 8b 98 41 48 4b b5 c1
       -20.203917 4.9193306 19.06829 -22.661758
000190 8d 26 b1 c1 1f 6e c5 c0 dd 9d 16 3e fc 8d 4f 41
       -22.143824 -6.1696925 0.14708658 12.972164
0001a0 f8 19 df 40 8c e5 3b 40 f5 13 8c c0 7a 69 12 c1
       6.97192 2.9358854 -4.377436 -9.150751
0001b0 63 ac 20 c0 a6 89 a5 40 c3 96 c1 c1 a1 4d 03 41
       -2.5105217 5.173053 -24.198614 8.206452
0001c0 1e 49 73 41 06 2d 8f 3f 6b 58 1a 42 6c 2d 90 3f
       15.205351 1.1185615 38.586346 1.1263862
0001d0 31 a1 11 41 14 e4 ce 41 7c 01 6b 40 c1 3a 05 41
       9.101853 25.861366 3.6719656 8.326844
0001e0 c3 ba f4 3f 5e 50 bd 40 f4 88 32 41 bc 04 ed 40
       1.9119495 5.9160604 11.158436 7.406828
0001f0 34 75 e4 c0 62 77 33 c0 94 9d 22 40 9f 10 27 c1
       -7.139307 -2.8041615 2.5408678 -10.441558
000200 d4 fb 97 c1 74 a7 37 40 62 f3 03 41 31 37 8a c1
       -18.997963 2.8695955 8.24692 -17.276949
000210 60 94 c5 c0 e5 b4 fa 40 89 01 d7 c0 f3 b1 b6 40
       -6.174362 7.834582 -6.7189374 5.7092223
000220 b2 87 a1 c0 09 88 42 c1 37 6d 30 41 15 38 53 41
       -5.0478144 -12.158212 11.026664 13.201192
000230 f8 44 4e c1 24 c0 35 41 ca f1 0e c0 4e 77 44 40
       -12.891838 11.359409 -2.2335076 3.0697818
000240 51 38 e8 c0 04 67 44 c1 dc 41 82 c0 a6 98 ba c0
       -7.2568746 -12.27515 -4.0705395 -5.831134
000250 2a 4f 7f 40 4f c4 b8 c0 56 f8 3d c0 24 5d 8d 41
       3.9892068 -5.7739635 -2.9682822 17.670479
000260 93 a3 1f c1 2a ce a1 40 3c 0b 73 c0 4e 93 45 41
       -9.977435 5.0564165 -3.7975607 12.348463
000270 70 9b 0b c1 24 82 f0 c1 d1 6b 61 c1 7a 57 af bc
       -8.725449 -30.063545 -14.088822 -0.021404017
000280 0b 8a a9 41 c8 d2 e0 41 d1 9d 0a c1 bf b8 a2 c1
       21.192404 28.10292 -8.663529 -20.340208
000290 dc ee 0d 41 f7 20 88 c1 24 cc 38 c1 ab 81 b4 40
       8.870815 -17.016096 -11.549839 5.6408286
0002a0 69 5a c9 c0 33 5b 80 40 3b 5f c0 c0 53 83 02 40
       -6.2922864 4.0111327 -6.011625 2.0392654
0002b0 98 b2 4c c1 6b 51 b7 40 63 17 1d c0 6d 3d 89 40
       -12.793602 5.7286887 -2.4545524 4.2887483
0002c0 b4 c4 a2 41 56 43 ab c1 e5 0f 73 c0 23 2d 64 41
       20.346046 -21.407879 -3.7978451 14.26102
0002d0 52 c2 91 c1 f4 82 fa bf 68 89 76 c0 94 f8 43 c1
       -18.219883 -1.9571214 -3.8521366 -12.248188
0002e0 09 f9 b7 40 1f 93 93 c1 90 62 90 40 11 12 97 41
       5.74915 -18.446836 4.5120316 18.883821
0002f0 f1 76 3a 40 df 4c ca 40 d3 69 66 bf c2 79 b5 41
       2.9135096 6.3218837 -0.90005225 22.684452
000300 dc 01 4d 41 bc f2 1c 41 af 5a 17 41 af 7b c7 c1
       12.812954 9.809261 9.45964 -24.935392
000310 81 fb 73 c0 6b d4 cc c0 ff c4 5b be b3 42 90 41
       -3.8122256 -6.40093 -0.21461867 18.032568
000320 29 cb 61 40 c7 af 30 c1 a7 74 28 c1 93 40 5c 40
       3.528025 -11.042914 -10.52848 3.4414413
000330 c8 84 0c c1 53 82 f1 40 51 1b 5d c0 f7 00 26 41
       -8.782417 7.5471587 -3.4547923 10.375236
000340 82 24 17 c1 a6 80 91 c1 8d 7e 22 41 9f ef 2c c0
       -9.446413 -18.187817 10.155896 -2.7021253
000350 b1 64 b1 40 57 a9 4a c1 cb 6e 56 40 2c 3d 73 c1
       5.5435414 -12.666343 3.3505123 -15.202435
000360 3f ca 23 40 65 24 a1 41 da b9 25 c1 d3 ea 84 c1
       2.5592191 20.14277 -10.357874 -16.61466
000370 16 31 12 41 9d 89 44 c1 08 a0 09 41 8a fd 5a 40
       9.136984 -12.283597 8.60157 3.4217248
000380 5c e4 99 41 10 23 9c c1 32 59 86 41 11 74 62 40
       19.236504 -19.51712 16.793552 3.5383341
000390 d4 55 14 c1 7a 9c dd 3e a6 b7 82 bf 91 f2 45 41
       -9.270954 0.43283445 -1.0212295 12.37172
0003a0 65 c4 75 c0 b2 57 02 41 e4 7d bb c1 fb 9d e3 41
       -3.840112 8.14641 -23.43647 28.452139
0003b0 71 2a be 3f 9b 05 11 c1 41 1a 4d c1 d9 05 83 c0
       1.4856702 -9.0638685 -12.81891 -4.094464
0003c0 37 3b f5 3f 08 d6 1c 41 69 4b 13 c1 89 3d c5 40
       1.9158696 9.802254 -9.205911 6.1637616
0003d0 b3 25 e2 c1 42 86 2f 41 5d d3 c5 c0 a7 39 86 bf
       -28.268408 10.970278 -6.182051 -1.0486344
0003e0 e0 4c c7 bf 57 12 b9 c0 c6 e7 8f bf f5 0a 38 c0
       -1.5570335 -5.7834888 -1.1242607 -2.8756688
0003f0 d1 ac c5 c0 ae 34 2c c1 20 64 d7 bf 13 01 c7 bc
       -6.1773458 -10.762861 -1.6827431 -0.024292504

link_predictor.0.bias f4 [64]
000000 22 ac 9b c1 ce 16 0c c1 ff e5 8a c1 ec 44 4b c1
       -19.45905 -8.755568 -17.362303 -12.704327
000010 05 7d 56 c1 76 13 c5 c1 9b 5d cd c1 aa bf 9e c1
       -13.405522 -24.634502 -25.670706 -19.843586
000020 15 37 bd c1 7f 34 7c c1 a7 64 33 c1 87 f8 c6 bf
       -23.651896 -15.762816 -11.212073 -1.5544595
000030 d8 71 c3 c1 d8 6a 99 c1 c8 69 f4 c0 94 4a 2e c1
       -24.430588 -19.17717 -7.6379128 -10.893208
000040 dd 96 78 c1 a7 fb 76 c1 ea b2 c0 c1 8e 61 1c c1
       -15.536832 -15.436439 -24.08736 -9.773817
000050 0c df 8a c1 1d f5 95 c1 69 2c 7b c1 ce 29 8c c1
       -17.35891 -18.744684 -15.698342 -17.520412
000060 f2 2d 7e c1 2a 76 8c c1 ef 64 cd c1 32 ff 8c c1
       -15.886217 -17.557697 -25.674284 -17.624607
000070 95 22 82 c1 90 50 c9 c1 d3 00 d0 c1 4c 69 b1 c1
       -16.266886 -25.164337 -26.000402 -22.176414
000080 6d 91 86 c1 e1 61 30 c1 1c 21 99 c1 3e c6 be c1
       -16.821009 -11.023896 -19.141167 -23.846798
000090 d2 dd 3c c1 0d 33 e4 c0 69 88 aa c1 c7 0d a0 c1
       -11.804155 -7.131232 -21.316607 -20.006727
0000a0 fe da d6 c0 49 e5 ae c1 63 b8 5c c1 a0 e0 fb 3e
       -6.7142324 -21.861956 -13.795016 0.49194813
0000b0 1b 31 8f c0 6b 84 43 c1 3b cf 98 c1 29 54 b1 c1
       -4.4747443 -12.219829 -19.101187 -22.166094
0000c0 0f df 8a c1 f9 3f 9a c0 50 d8 c4 c1 80 7d a2 c1
       -17.358915 -4.820309 -24.605621 -20.31128
0000d0 03 c9 68 c1 0a 30 c3 c1 e4 bf 38 c1 d1 7e 92 c1
       -14.549075 -24.398457 -11.546848 -18.311922
0000e0 c3 fd 40 c1 84 3a 03 c1 74 25 47 c1 44 86 b1 c1
       -12.061954 -8.201786 -12.446644 -22.19056
0000f0 c9 58 d6 c1 86 64 c0 c1 08 7a 5e c1 49 08 99 c1
       -26.793352 -24.049084 -13.904793 -19.129045

link_predictor.2.weight f4 [1, 64]
000000 ed 7c 46 3d cf 37 bf bd 86 79 81 bd 91 48 a4 bd
       0.048458982 -0.093368165 -0.06322007 -0.080216534
000010 44 92 01 be b3 cd 0b 3e bd d4 e0 3d b3 25 a3 3d
       -0.12653452 0.13652687 0.109780766 0.07966175
000020 7d df 57 3d 6b 3f 9e bd 72 cf e0 bd ed c4 c1 bd
       0.05270337 -0.0772694 -0.10977067 -0.09461389
000030 2c 85 b8 3d 3d 5c 4d 3d 4c e9 a4 bd e8 ec 99 bd
       0.090097755 0.050136793 -0.0805231 -0.075158894
000040 4d 02 8c 3d 45 a2 21 be a8 cc 02 be 7a b0 dd bd
       0.06836376 -0.15784557 -0.12773383 -0.10824676
000050 78 9d cf 3d c8 88 93 3d d5 0c b1 bd e7 d4 a1 bd
       0.10137457 0.07203823 -0.08645026 -0.07901936
000060 d8 be d2 bd ec 75 d5 bd cf d9 70 3d 5b aa d8 bd
       -0.10290307 -0.104228824 0.05880147 -0.10579368
000070 de cf bb 3d 6d ad 8b bd 0b ad c0 bd 65 df b9 3d
       0.09170507 -0.06820188 -0.09408005 0.09075812
000080 b2 c1 60 3d bd 97 a4 bd b6 27 e2 3d 5a 2d e1 bd
       0.054872222 -0.08036754 0.110427305 -0.10994978
000090 fe d2 5e bd 30 19 e4 bd b9 75 e0 3d e4 a0 b9 bd
       -0.054400437 -0.11137617 0.10959954 -0.090638906
0000a0 aa 9b 18 bd cf a1 ea bd 89 8f aa bd 5d d0 cd bd
       -0.037257828 -0.11456644 -0.083281584 -0.10049508
0000b0 de d1 fb bd 70 6b dc bd b6 f1 d3 3d bc 32 72 3d
       -0.12295888 -0.107626796 0.10348837 0.059130415
0000c0 52 05 c2 bd 2a a1 a4 3d c6 7f 10 3e f9 61 db 3d
       -0.09473671 0.08038552 0.14111242 0.10712046
0000d0 8b 23 90 3d da a5 01 3e 7d 82 b2 3d 92 14 ba bd
       0.07038029 0.12660924 0.08716295 -0.09085955
0000e0 1d 42 e8 bd b4 ca c6 bd 70 f7 bb bd e5 cb 80 3d
       -0.11340735 -0.09706631 -0.09178054 0.0628889
0000f0 cb 37 87 bd b0 8b 1e 3e f0 cf a8 3d 63 67 9f 3d
       -0.066024385 0.15482974 0.08242786 0.07783391
