checkpoints/model_epoch_19.pth (torch, 217428 bytes, 7 tensors)

conv1.bias f4 [64]
000000 c6 c8 ff 3c da 88 0f 3f b7 d5 58 3f 2f 2f 1a c0
       0.031223666 0.56068194 0.847011 -2.4091299
000010 f0 77 70 c0 44 8c ac c0 41 de 9c c0 c4 4c 2c bf
       -3.7573204 -5.3921223 -4.9021306 -0.67304635
000020 a1 64 31 c0 d7 a7 33 c0 89 c4 a0 3e e0 66 b1 bf
       -2.771767 -2.8071191 0.31399944 -1.385952
000030 dc 5b 30 3e 8e 9c 3f c1 d6 9a 4e c1 22 4e a8 3f
       0.17222542 -11.975721 -12.912802 1.3148844
000040 d9 09 9d bc f2 8b 4b 3d ce 27 57 c1 64 89 35 3f
       -0.019169735 0.04969401 -13.447218 0.70912766
000050 45 c4 52 c1 64 8c c8 c0 59 1a 10 c1 f2 40 0c 3f
       -13.172917 -6.2671375 -9.006433 0.547866
000060 7c 7c 9b c0 09 55 54 3f ec 59 fc c0 82 8f fb bf
       -4.858946 0.82942253 -7.885977 -1.965317
000070 61 50 1e 3f c8 11 e6 c0 26 1d 69 c0 ca d8 5b c0
       0.618414 -7.1896706 -3.642404 -3.4351068
000080 b8 4b 4f c1 06 02 a7 c0 44 ad 6b c0 44 7e 4c c0
       -12.955986 -5.218997 -3.6824503 -3.1952066
000090 37 c2 40 c0 7e 59 34 3e d5 a7 ff bf 12 11 6f c0
       -3.011854 0.17612264 -1.9973093 -3.735417
0000a0 01 d8 8d c0 98 36 e8 c0 06 4b 5c c1 50 d1 38 c0
       -4.4326177 -7.2566643 -13.768316 -2.8877754
0000b0 c6 bd 65 3f 5c 7f 38 3f 35 e8 e6 bf fc 73 ad c0
       0.89742696 0.72069335 -1.8039614 -5.4204082
0000c0 af e4 11 40 ee 49 2c 3f 6e c2 c7 bb 92 05 7d 3e
       2.2795827 0.6730031 -0.006096176 0.24709156
0000d0 75 1f 7f c1 85 6e 1a c1 6a 47 1a 40 e3 b3 20 3e
       -15.94518 -9.651982 2.4106088 0.15693621
0000e0 d3 b9 3c c0 df 91 ab 3d fa 5f 86 3f e9 8c 54 bd
       -2.9488418 0.08377432 1.049804 -0.051892195
0000f0 e8 5c ba bf ea 7e 44 c1 b5 a1 f1 c0 86 15 c1 c0
       -1.4559603 -12.280985 -7.5509896 -6.0338774

conv1.lin.weight f4 [64, 384]
000000 92 73 f4 3f 72 23 2f 40 8e 31 a1 3f 0a 22 23 3e
       1.9097769 2.7365384 1.2593248 0.15930954
000010 03 78 4a 3e fd a8 a0 be c2 bd 47 3f 50 5b 62 bf
       0.19772343 -0.31378928 0.7802392 -0.8842058
000020 ee 78 b3 bf 9e 88 3f 3f 4b f7 be 3f f9 ba 03 bf
       -1.402128 0.74817836 1.4919218 -0.5145717
000030 49 99 41 c0 ea d1 42 40 d5 66 b8 3f d1 21 85 3f
       -3.0249808 3.0440621 1.4406382 1.0400945
000040 eb f0 2b 3c 82 19 17 3f d4 86 c4 3f 14 d0 ff bf
       0.010494451 0.59023297 1.5353646 -1.9985375
000050 f2 1f 40 bf 35 2e 57 bf d3 8b 37 3e 92 29 8b 3f
       -0.75048745 -0.8405488 0.17924432 1.0872061
000060 52 d1 70 40 01 ac c5 3f a7 25 1e 40 ee cc ce 3e
       3.762776 1.5443116 2.471048 0.40390724
000070 51 aa 06 40 12 c0 c5 3f bc 34 29 bd b7 fe 4a 40
       2.1041453 1.544924 -0.041310057 3.1717966
000080 1b 51 d1 be e6 6e b4 3f ae d4 9c 40 01 84 59 3f
       -0.4088219 1.4096344 4.900962 0.84967047
000090 92 3f 48 bf ed 2f ca be 23 0e 18 bf 08 5f ac 3f
       -0.78222 -0.3948969 -0.5939657 1.3466501
0000a0 b7 12 65 c0 2f a1 49 bf ef b6 4c bf f8 61 48 c0
       -3.5792673 -0.7876157 -0.79966635 -3.1309795
0000b0 31 12 41 3f 09 8c 2c bf cc 77 7b bc 04 c0 8b c0
       0.7541838 -0.67401177 -0.015348386 -4.3671894
0000c0 e9 20 df 3e 4c d9 9e c0 00 ea a3 3f 88 51 53 3f
       0.43579796 -4.9640255 1.2805786 0.8254628
0000d0 7a da ec 3f f0 33 a7 bf 00 d4 11 40 19 65 80 3f
       1.8504174 -1.3062725 2.2785645 1.0030853
0000e0 f7 b0 d0 3f 9a 47 d8 3e 8e 5d 17 bf 2e 21 d9 3f
       1.6304005 0.42242128 -0.5912713 1.6963251
0000f0 7c 2c f8 bf 77 37 86 3f 6c ae 3b bf 28 3a 52 3e
       -1.9388576 1.0485677 -0.7331302 0.20529997
000100 66 dd 81 be fd 8f a4 c0 d3 7d f2 3f eb 8f 3a 40
       -0.25364226 -5.1425767 1.8944649 2.915034
000110 aa e2 72 3e 0f ec 63 3f e4 4f 3e 40 68 65 88 3f
       0.23719278 0.8903207 2.9736261 1.0655947
000120 6f 53 03 3f 91 86 c4 be ac 09 9b 3f 1a 20 b2 bf
       0.51299185 -0.38383916 1.2112327 -1.3916047
000130 9b 16 2d 40 9c df 1f c0 3a a6 0c 40 17 ae 3b bf
       2.7045047 -2.498023 2.1976457 -0.73312515
000140 ce f4 1b 40 a3 bf c5 3f b7 15 9a bf a8 82 52 be
       2.4368167 1.5449108 -1.2037877 -0.20557654
000150 09 d2 c9 3f 45 d1 ad bf 61 26 25 40 20 87 7d c0
       1.5767223 -1.3579489 2.5804675 -3.9613724
000160 43 fa 34 40 66 d7 d3 3f 4b dd 1b 3f e8 fb 20 bf
       2.8277748 1.6550109 0.6088454 -0.6288438
000170 dd 68 dd bf 86 c2 84 be 1f f3 18 3f 11 17 4a 3f
       -1.7297627 -0.2592966 0.59745973 0.78941447
000180 e9 b7 26 bf f2 0f 74 3c 7d 5d 70 3f 9f 89 bc bf
       -0.65124375 0.01489638 0.9389265 -1.4729499
000190 19 0c af 3f 75 a5 c5 3e 46 7e 00 3e ec fc 81 bf
       1.3675567 0.38602796 0.1254817 -1.0155311
0001a0 80 7f 39 c0 f3 51 07 3f 4c 3c 92 3f ce 52 b1 bf
       -2.898407 0.5285942 1.1424651 -1.3853395
0001b0 b7 93 04 c0 8f ac 20 c0 12 7a 15 40 ab 2d be 3f
       -2.0715158 -2.5105321 2.3355756 1.4857687
0001c0 3b b6 0a 3f d2 ff d5 bf fa a0 85 bb 6c 70 95 3f
       0.5418431 -1.6718695 -0.004078028 1.1674933
0001d0 49 d6 cf bf 08 3c 31 c0 39 90 b7 3f cc 64 99 3f
       -1.623727 -2.769289 1.4340888 1.1983886
0001e0 d4 e8 08 40 79 7b 4e 40 1d 30 52 bf 79 b2 9c bf
       2.1392107 3.2262862 -0.82104665 -1.2241966
0001f0 3e 3d 58 40 dd f8 f8 3d ed 55 65 bf e4 70 93 3d
       3.378738 0.12156842 -0.8958424 0.071992666
000200 cb 4d 17 c0 02 d3 a0 3f 00 a6 1a 40 82 fd 9e bf
       -2.364123 1.2564394 2.4163818 -1.2421114
000210 88 96 86 bf a2 0a 1f bc 28 79 9b 3f 6c 33 95 3f
       -1.0514688 -0.009707125 1.2146349 1.1656318
000220 79 2d a5 3f c9 c7 95 bf f3 1f 73 3f c3 9c eb 3f
       1.2904502 -1.1701595 0.94970626 1.8407215
000230 bb b2 af 3f eb a1 07 40 6d 87 ae bf 67 f9 4d 40
       1.3726419 2.1192577 -1.3635079 3.2183473
000240 d8 73 86 3f ea b8 62 3f 49 61 0a c0 07 58 b5 3f
       1.0504103 0.88563406 -2.1621878 1.4167489
000250 36 4f c5 3d 28 4f c6 3f f9 ef 3d 3d 9f 4a 9f 3e
       0.09634249 1.5492907 0.046371434 0.3111162
000260 e0 ec 31 bf 1d c5 0c bc b1 e7 1c 3f d6 b4 ba 3f
       -0.6950207 -0.008591917 0.61291033 1.4586437
000270 e8 02 ab bf d4 75 78 c0 b7 e4 b9 bf 69 a4 36 c0
       -1.3360262 -3.8821917 -1.4522923 -2.8537848
000280 df ae aa be f3 87 34 3f c3 d1 18 be 7c 9a 16 3f
       -0.3333654 0.7051994 -0.14923768 0.58829474
000290 da c4 f1 3f 6a 3d eb bf 6e c4 9d 3e 83 f2 d9 3e
       1.8888199 -1.8378117 0.30813926 0.42567834
0002a0 c4 0b 5c bf 44 ed 4a c0 3e ee 82 bc 18 b8 16 40
       -0.8595545 -3.1707315 -0.015982743 2.3549862
0002b0 72 a2 a3 3f 3b 92 78 bd 7a da 36 bd 87 a6 68 3f
       1.2783949 -0.06068633 -0.04464195 0.908791
0002c0 b6 3a 1b 40 3e 7b 98 3f 17 01 7b 3e 02 57 4a be
       2.4254584 1.191261 0.24512134 -0.19759753
0002d0 7e 22 a3 3f ab 72 5e 3e bd ab 5a c0 68 e1 4f bf
       1.2744901 0.2172343 -3.416732 -0.8120332
0002e0 81 9c e3 3f 07 1b 96 be 2e e1 8e bf 62 c4 0f 40
       1.7782136 -0.29317495 -1.1162469 2.2463613
0002f0 3e 03 0e 40 aa f5 44 3f ac 9f fd 3f db 8e 93 3f
       2.218948 0.76937354 1.9814353 1.1527971
000300 e7 0b 1d c0 80 9c 36 40 4a 1c 69 3e c4 0f 3b bf
       -2.4538515 2.853302 0.22764698 -0.7307093
000310 5c ff b7 bf d5 dd 5f 3f 3d d4 8d 3f 0b c5 aa bf
       -1.4374804 0.87447864 1.1080395 -1.3341383
000320 0f c0 25 bf d6 93 b5 3f a7 e9 0b bf 33 e1 9e 3f
       -0.64746183 1.4185741 -0.546534 1.2412475
000330 58 2a 0b 3f 52 7e 72 bf d0 a2 3d 3f b5 31 70 3f
       0.54361486 -0.94724 0.7407656 0.93825847
000340 55 2f 25 40 46 51 4e 3e 13 2e 6b 40 35 00 8d 3f
       2.581014 0.20148191 3.6746871 1.1015688
000350 a2 68 df bf 0e c4 21 40 f3 ce c8 be 6d 0d 01 40
       -1.7453806 2.5275912 -0.3922039 2.0164444
000360 d0 94 f0 bf a9 e1 15 3f cc da 41 40 fb 50 5f 40
       -1.8795414 0.58547455 3.0289793 3.4893177
000370 b1 ba 8a bf fe 68 24 bf 31 a3 12 40 c3 64 84 3d
       -1.0838224 -0.64222705 2.2912104 0.06464531
000380 96 65 52 bf ec 57 46 bf b4 82 15 bf e9 1b 14 40
       -0.8218626 -0.7747791 -0.5840256 2.3142035
000390 01 48 a0 3d 14 de d8 bc dc 4b cc 3f 82 a3 90 3e
       0.07826234 -0.026473083 1.596065 0.28249747
0003a0 08 6a 94 3f 56 31 1c 40 bc f7 8d be 03 f3 33 40
       1.1594858 2.4405112 -0.2772807 2.8117073
0003b0 5b 0e 35 40 ff 8e c0 3f a7 9c 06 bf a4 2f 47 be
       2.8290012 1.5043639 -0.5258278 -0.19451767
0003c0 87 ea 02 40 2e 16 07 c0 a0 92 8c 3f 9d e7 43 bf
       2.0455644 -2.1107287 1.0982246 -0.7652529
0003d0 00 57 da 3d d3 5c 03 c0 e9 b0 f0 3e eb 15 e6 3f
       0.10661125 -2.0525405 0.47009972 1.7975439
0003e0 0c 46 3b 3f d3 3a de 3f 83 09 98 3f ee 1a 13 40
       0.7315376 1.7361702 1.1877903 2.2985187
0003f0 c4 d3 6d 3f a2 bb 18 be ec b0 ba bf 84 8b d6 3f
       0.92901254 -0.14915326 -1.4585242 1.6761327

conv2.bias f4 [32]
000000 ca 53 6a 3d ed 02 87 bf 2d 3a 30 41 47 fe 00 3e
       0.057208814 -1.0547768 11.014203 0.12596999
000010 1f f4 5c 3c 07 c4 6a 3d 30 78 d9 bd 6f fe fd be
       0.013485937 0.057315852 -0.10618627 -0.4960818
000020 46 61 0a be 9b dc 10 bf 58 d4 b5 3e e0 b6 17 bc
       -0.1351367 -0.5658662 0.35513568 -0.009259909
000030 db 3b 95 3f 21 13 bb c0 05 85 07 bd 1f fe 06 c1
       1.1658891 -5.846085 -0.03308584 -8.437041
000040 70 fa 31 40 7d f3 12 be bd d3 3e 3f fb ca 38 bf
       2.7809105 -0.14350696 0.74541837 -0.72184724
000050 96 9a be 3d 29 8a 0a bf 9b bd d7 bc 26 e1 ee bd
       0.09306829 -0.54117066 -0.026335528 -0.116640374
000060 05 bd 2e 3c 52 f5 b0 3c c5 5c 08 be 17 03 cd be
       0.010665183 0.021601353 -0.13316639 -0.4004142
000070 83 d7 73 bf d0 4d 9e bd f0 16 de 3f ef a7 be bd
       -0.9525072 -0.07729685 1.735075 -0.093093745

conv2.lin.weight f4 [32, 64]
000000 ec 23 13 be 15 d8 69 bc 48 0d 09 be c1 6b ea 3d
       -0.14369172 -0.014272709 -0.13383973 0.11446334
000010 78 29 cc bd a7 36 60 bf d0 9c 93 be be ad 4e be
       -0.09968847 -0.8758339 -0.28830576 -0.20183465
000020 27 f8 9a 3e 83 11 7e 3e 39 e4 b9 bd 47 29 00 be
       0.3026745 0.24811368 -0.09076733 -0.12515746
000030 2c 8f b5 3d 32 96 3f 3e 1c 89 18 40 57 fb ce 3d
       0.088651985 0.18709639 2.3833685 0.10106533
000040 69 40 3f 3d 66 32 9f bd 09 5d f2 be aa 50 5d 3d
       0.046692286 -0.077732846 -0.47336605 0.054032005
000050 5c 09 1b 40 68 24 bc 3f 2f 41 a5 3f 93 1a 3d be
       2.4224463 1.469861 1.2910517 -0.18467169
000060 80 a3 fd 3e 26 fe 85 bd 59 db d5 3e 15 c6 1b 3f
       0.49538803 -0.065426156 0.4176891 0.60849124
000070 d9 b1 93 3d 52 65 3f bf 87 d8 1f 3f f1 79 cf bc
       0.07211656 -0.7476398 0.6243977 -0.0253267
000080 2e 5e 3d 3e ea 43 9a 3f fd 72 df be 35 29 2d bf
       0.18492958 1.2051976 -0.43642417 -0.67641
000090 6f 6e a6 3e 8c cd f5 bc 89 f3 62 be 80 fd b5 bb
       0.3250613 -0.030005239 -0.22163214 -0.005553901
0000a0 88 29 26 be 47 67 08 bf bf 17 ef bf 56 5d 75 bf
       -0.1622678 -0.5328259 -1.8679122 -0.95845544
0000b0 3e 64 98 3d 9c 7c 71 3d 6f 56 9b be d7 b1 9c bf
       0.07440995 0.058956727 -0.3033938 -1.2241772
0000c0 09 60 e4 bc 02 fd 9e 3d 91 1d 8d bb e0 be af 3d
       -0.027877824 0.07763101 -0.004306503 0.085813284
0000d0 26 5a 43 3f 45 cb 2d 3d f1 b5 c2 bd d5 f4 a6 3d
       0.7630943 0.04243018 -0.09507359 0.08152167
0000e0 3a 12 fc 3d c8 f1 51 3a 83 87 d2 bd 90 e2 c4 bc
       0.12308164 0.00080087455 -0.10279753 -0.024033815
0000f0 90 7c 8b 3c 5a 22 33 40 cd cd e7 bf e1 fd 9a be
       0.01702717 2.7989717 -1.810968 -0.3027182
000100 6c b4 47 be 5b 78 9b 3f 49 b5 e7 be 37 32 06 3f
       -0.19502419 1.2146105 -0.45255497 0.5242037
000110 19 b0 b4 3d b9 96 70 3f b8 8e ad 3c 38 01 ae 3e
       0.088226505 0.93979985 0.021186218 0.33985305
000120 f6 61 46 bf 5d 11 5c 3a 91 1e 13 3e 03 32 78 3e
       -0.77493227 0.00083949213 0.14367129 0.24237828
000130 af a3 28 3f 85 98 08 3f 49 f9 90 bf a6 2a 0f bf
       0.6587476 0.53357726 -1.1326076 -0.5592445
000140 14 2a d5 3d 3e 59 4c bf 20 5d 2f bf ad 58 91 be
       0.104084164 -0.7982367 -0.6850147 -0.28387967
000150 55 da d5 bd f6 22 d7 bf 3e 6c 9a bf 8d 18 93 bd
       -0.10442034 -1.6807544 -1.2064283 -0.07182417
000160 cd 9f a0 bf b6 04 74 be 13 5a 3e 3f 98 c1 02 bf
       -1.2548767 -0.23829922 0.7435619 -0.5107665
000170 d8 9f 36 3e 7b e8 14 bf 3e ec 55 3e 6b 83 1e bf
       0.17834413 -0.5816724 0.208909 -0.6191928
000180 c2 8e 4f bf c4 dd a7 3f 00 f3 44 bf 6c 2b 35 3f
       -0.81077206 1.3114552 -0.7693329 0.7076938
000190 eb fb 34 3f 5f a1 57 3f 45 e5 ec bd e7 f3 5b 3f
       0.70696896 0.8423061 -0.11567167 0.8591904
0001a0 e0 90 95 3f 0f 7c 33 3d 6e 31 ae be 15 4b 52 3e
       1.1684837 0.043819483 -0.34022087 0.20536454
0001b0 61 62 e1 3e e0 63 bb 3d 8d f4 e6 3e 7c 2c b9 bf
       0.4402037 0.09149909 0.45108452 -1.44667
0001c0 f1 53 7f be da 53 82 bc ec 5d fe 3d 8a 19 08 3f
       -0.24934365 -0.015909124 0.12420258 0.5316397
0001d0 24 02 a5 be f4 b5 f9 bd 89 d6 e9 bd 7b a4 56 be
       -0.32228196 -0.12192908 -0.114178725 -0.20961182
0001e0 28 f3 f1 3e bd df 88 bf 4c 15 84 bd 0e 78 7a 3f
       0.47255826 -1.069328 -0.064493746 0.9783944
0001f0 61 46 c5 3e f1 72 c4 bf 50 fa af 3f 48 e5 8e 3f
       0.38530257 -1.5347577 1.3748264 1.1163721
000200 e4 e9 fe be c7 bd 0c bd cc 21 e7 be 0f a4 00 bf
       -0.4978782 -0.034360673 -0.45142972 -0.50250334
000210 1c ec 87 3d 0f 5e d7 bf 8e 11 12 bf 07 e1 fe bd
       0.06636831 -1.682558 -0.57058036 -0.12445264
000220 d7 1f 9b bc 90 e7 52 3f e8 43 f6 be 1c 4a d5 be
       -0.01893608 0.82384586 -0.48098683 -0.41658103
000230 f6 b6 ca bd 1d ad 95 3e 78 62 d7 bf 39 af d5 be
       -0.09898178 0.29233637 -1.6826925 -0.41735247
000240 50 c3 17 be d1 e1 3c bf 51 5d 08 be bc 28 db bc
       -0.148206 -0.7378207 -0.13316847 -0.026752822
000250 76 3a 33 bf b9 40 3c 3f c2 c8 2f bf 81 38 8d be
       -0.7001108 0.7353626 -0.6866571 -0.27582172
000260 34 15 dd bd ce 99 2d be fe 1a 1d c0 6e 8d d3 be
       -0.1079506 -0.16953203 -2.4547725 -0.4131884
000270 35 13 4f bf 68 77 9c 3e 70 e2 55 bf 21 2a f7 be
       -0.8088868 0.3055985 -0.8354864 -0.4827433
000280 d4 49 80 3f 92 07 33 bd 8d ff 3f 3f 23 a2 72 bf
       1.002253 -0.04370839 0.74999315 -0.9477865
000290 94 44 b4 bf 19 87 e5 be 5e c2 09 bf f1 0b 1f 3e
       -1.4083428 -0.44829634 -0.53812206 0.15531899
0002a0 70 bb 3e 3e d7 3a bd bf a3 61 26 3f 8f 05 24 bd
       0.18626189 -1.4783581 0.6499273 -0.040044364
0002b0 72 29 34 bf 73 68 63 bf 8c 3d 7f 3e 87 bc 7e bc
       -0.7037574 -0.8883125 0.24925822 -0.015547878
0002c0 6b 20 57 be d8 4b 3c bf 1d fd 88 3d 17 f0 de bf
       -0.2100846 -0.7355323 0.066889025 -1.741702
0002d0 06 6a 9b 3c 81 4e f4 bd de 6d 86 be 63 29 b7 be
       0.018971454 -0.11929036 -0.26255697 -0.35773763
0002e0 b6 e0 fe be 95 97 10 bf fd 96 8f be 61 88 ce be
       -0.49780816 -0.56481296 -0.28044882 -0.40338424
0002f0 d7 fa 3b be 4e a2 00 c0 00 1d 32 bf 24 63 3d bf
       -0.18357407 -2.0099063 -0.695755 -0.739794
000300 c4 dd 9d 3d ce 3c ae 3c 2a 96 45 be a8 e6 64 3f
       0.07708314 0.021269228 -0.19295564 0.89414454
000310 44 e8 c6 3f a6 16 c2 bf 2a 2e ba be 81 a6 80 bc
       1.5539632 -1.5163162 -0.36363345 -0.015704395
000320 f0 d3 50 3e 4f 4c 8d 3d bc 98 40 3d 1d 9f 16 3e
       0.20393348 0.0689932 0.04702066 0.14709134
000330 6d 48 98 bd 8f 5d 04 bf f5 89 c3 3f 6f f5 a0 bd
       -0.07435689 -0.5170526 1.5276476 -0.07859313
000340 1d 2d 2e bd e5 39 0d 3d 0f c4 9e bf 45 f5 d5 3d
       -0.042523492 0.03447904 -1.2403582 0.10447172
000350 8b 01 23 40 7d 90 ec 3f ae 49 ac bf b9 49 47 3d
       2.5469692 1.8481594 -1.3459985 0.04865429
000360 a9 4f 90 40 85 64 60 3d 79 f1 9b 3c 1a b6 05 be
       4.509724 0.054783363 0.019036042 -0.13057747
000370 b6 6c 00 3d a4 f4 88 be eb 91 08 bf 60 3a 62 bf
       0.031353675 -0.26749146 -0.53347653 -0.88370323
000380 d9 2e 9b 3d 0a bf e5 3e d6 a7 78 3f b4 99 16 bf
       0.07577295 0.44872314 0.971311 -0.5882828
000390 34 5c 24 bd 76 2f e5 3c 1b 9e dc bd 74 6f e1 be
       -0.040126994 0.027976733 -0.10772344 -0.44030344
0003a0 40 d4 f8 be 4b 5f 7e 3e 43 5d 15 c0 8d 41 bc bf
       -0.48599434 0.24841039 -2.3338172 -1.4707505
0003b0 0c 82 83 bd 8c e9 03 3d d8 d6 d5 be 6a 79 05 c0
       -0.06421289 0.03220515 -0.41765475 -2.0855355
0003c0 9f dc 39 3d c1 70 a5 3d 40 f7 f3 bd 1e 0d c4 3c
       0.045376416 0.08078147 -0.119123936 0.023932036
0003d0 ef 27 bd 3f 65 00 5e c0 29 68 ec 3d cf d9 10 be
       1.4777812 -3.468774 0.115433045 -0.14145587
0003e0 37 a2 f1 bd 56 f1 0a bc 2b f1 97 3d cc 2e fb bc
       -0.11798518 -0.0084803905 0.07419046 -0.030661963
0003f0 a0 1a ef bc 7f ba 21 c0 bf 2e 0d bf 9f b5 be be
       -0.0291875 -2.5270078 -0.55149454 -0.3724794

link_predictor.0.weight f4 [64, 416]
000000 b4 82 0c bc 26 b2 82 3f b7 7a f7 bd 5b 45 2e be
       -0.008576084 1.0210617 -0.12083953 -0.17018645
000010 f9 b5 3b 3d 1c 5b 5e 3e 2a c9 a1 bb 20 37 84 be
       0.04582784 0.21714443 -0.0049373107 -0.25823307
000020 2c 31 80 3e ec b4 a8 be e6 64 2b bf 4d 15 2c be
       0.25037515 -0.32950532 -0.66950834 -0.16805
000030 95 30 88 be 5b 00 d3 be 77 8b d4 bd 16 4c 94 bd
       -0.26599565 -0.4121121 -0.10378163 -0.07241075
000040 6e ca ed 3d 99 fc 52 bf e4 6c 0b 3e ac 22 05 be
       0.11610876 -0.82416683 0.13615757 -0.13001508
000050 a6 7d db bd 1d 8f d3 bd a9 bd fb bc 93 61 30 3d
       -0.10717325 -0.10330031 -0.030730085 0.043061804
000060 4c aa 14 bd 1d 74 ad bd bd 7e 99 bd 44 66 68 3f
       -0.03629522 -0.084694125 -0.074948765 0.90781045
000070 36 e1 9d 3c 25 0f 4f 3d f6 7b 32 3e 19 d0 9d bb
       0.019272428 0.050551552 0.174301 -0.004816067
000080 ce 54 b9 bf 0d af 18 bf 7c 0b 5c 41 0b c1 fd c0
       -1.4479005 -0.59642106 13.752804 -7.929815
000090 4a 79 99 40 aa 91 af c1 5d d0 09 c1 3e 76 37 c1
       4.796056 -21.946125 -8.61337 -11.466368
0000a0 00 a9 2e 41 d8 73 b4 40 d5 7d a5 40 d5 fc 89 c0
       10.91626 5.639141 5.1716104 -4.3121133
0000b0 86 f8 f5 40 62 c1 a1 3e 26 7a e4 40 62 bc 55 41
       7.6865873 0.31592852 7.1399107 13.358492
0000c0 36 db 53 40 77 d0 20 bf d8 39 05 41 b3 b6 88 40
       3.3102546 -0.6281809 8.326622 4.272302
0000d0 50 d6 72 c1 71 5f e3 40 39 5d 1c bf 83 45 96 c1
       -15.177322 7.1054006 -0.61079746 -18.783941
0000e0 03 cb a8 c0 9d 9e 68 c0 83 f2 28 40 96 f2 94 40
       -5.2747817 -3.634681 2.6398017 4.6546125
0000f0 b1 06 f7 40 8a 5a 33 40 fc a2 64 c1 21 66 8a c1
       7.719567 2.802401 -14.289791 -17.299868
000100 2a 3f 20 41 33 f1 64 41 9d af 92 c1 8a 6e 81 c1
       10.015421 14.308887 -18.335749 -16.178974
000110 9d c0 45 c0 e7 e8 01 c0 b9 62 ab 3f b7 f9 d5 c0
       -3.0898812 -2.0298402 1.3389503 -6.686733
000120 a5 b7 b5 40 52 20 ac 40 04 cf 25 c0 33 71 90 c0
       5.6786675 5.3789454 -2.5907602 -4.5138183
000130 c5 e9 e2 c0 22 e9 e2 41 f9 8e 08 bf 27 45 68 41
       -7.0910363 28.363834 -0.5334316 14.516883
000140 01 27 dd 41 84 83 d4 3f 8b 87 89 40 75 a4 1b c0
       27.644045 1.6602635 4.297796 -2.4319127
000150 ec 5f 74 41 8b 3c b3 41 00 ba 9a c0 42 31 ab 41
       15.273418 22.404562 -4.835205 21.399052
000160 b2 f5 18 c1 46 98 15 41 41 61 d1 bf 80 1f 77 be
       -9.559984 9.349676 -1.6357805 -0.2413311
000170 29 9c 29 41 ea 0b df c0 54 ac cb 40 48 c2 99 41
       10.600625 -6.9702044 6.364786 19.219864
000180 f5 37 a8 c1 11 17 2d 40 9c 12 8b 41 d5 58 a6 c1
       -21.027323 2.7045329 17.384087 -20.793375
000190 7c 5a 79 c1 30 09 c0 c0 ea 35 fd 3f 27 a0 43 41
       -15.584591 -6.0011215 1.9782078 12.2266
0001a0 1e ca f9 40 41 45 a4 3e 1f 0a 56 c0 d8 7d 01 c1
       7.8059225 0.32084087 -3.3443677 -8.093224
0001b0 cc 96 80 bf 58 05 aa 40 87 2e 9e c1 73 84 00 41
       -1.004602 5.3131523 -19.772718 8.032336
0001c0 29 ac 52 41 60 12 8e 3f b6 a8 01 42 d2 95 d9 3e
       13.167031 1.1099358 32.414757 0.42497116
0001d0 56 5c 0b 41 d6 e0 c4 41 de 20 2e 40 9a 32 b1 40
       8.710043 24.609783 2.720756 5.537427
0001e0 f8 71 14 40 9e b0 86 40 91 bd 05 41 b7 09 fe 40
       2.319456 4.2090597 8.358781 7.938686
0001f0 6c ed c6 c0 6e ec 8a c0 34 9e cf 3f 13 b8 0e c1
       -6.216482 -4.341361 1.6220155 -8.91994
000200 d0 5f 86 c1 8c 3e a0 3f c0 81 05 41 6b 46 88 c1
       -16.796783 1.2519088 8.344177 -17.034384
000210 2a 89 0f c1 74 a8 a4 40 89 1f 8f c0 ae 48 d9 40
       -8.970987 5.145563 -4.4725995 6.790122
000220 b7 dc 52 c0 54 15 29 c1 58 2e 46 41 99 39 38 41
       -3.2947214 -10.567707 12.386314 11.514062
000230 70 8e 14 c1 bb 13 3d 41 b1 12 e0 bf 96 51 71 40
       -9.284775 11.817317 -1.7505704 3.7706046
000240 86 94 f7 c0 91 eb 38 c1 e0 38 f6 bf 31 04 b5 c0
       -7.7368803 -11.557511 -1.9236107 -5.6567616
000250 c0 98 84 40 c2 d5 c4 c0 3f c5 32 c0 97 92 6c 41
       4.1436462 -6.1510935 -2.793289 14.785789
000260 e5 ec 0e c1 d3 6c b9 40 b8 05 83 c0 84 c8 49 41
       -8.932836 5.794534 -4.094448 12.611454
000270 e7 4f 2f c1 93 91 e9 c1 74 77 29 c1 7a 57 af bc
       -10.957007 -29.196081 -10.591663 -0.021404017
000280 dc 50 a4 41 f2 8f ca 41 0a b5 de c0 b2 fa 9c c1
       20.539482 25.320286 -6.9595995 -19.62241
000290 50 75 1e 41 2f 6f 92 c1 a5 ab 0d c1 72 35 c8 40
       9.903641 -18.304289 -8.854405 6.256524
0002a0 2f e9 d8 c0 bb 7c f3 3f ae c3 cf c0 9f a5 e9 3f
       -6.778465 1.902244 -6.4926367 1.8253669
0002b0 cd f8 0c c1 9d 53 96 40 f0 05 25 c0 df 59 61 40
       -8.810742 4.6977067 -2.5784874 3.5211103
0002c0 04 81 8e 41 c4 7b 9c c1 2b e2 89 c0 eb 87 44 41
       17.812996 -19.560432 -4.3088584 12.283183
0002d0 49 a3 8e c1 fc 61 3a 3f 02 5f 3f c0 c1 c1 38 c1
       -17.82973 0.7280576 -2.9901738 -11.547303
0002e0 81 0a 9c 40 0c 31 86 c1 e8 11 6d 40 b6 13 79 41
       4.876282 -16.773949 3.704218 15.567312
0002f0 24 98 17 40 b8 6c ad 40 9b af 54 bf dc 3b 99 41
       2.368661 5.4195213 -0.8308045 19.154228
000300 3c 1d 32 41 c3 c2 3a 41 fe 20 e3 40 9f b5 b6 c1
       11.132137 11.672549 7.0977774 -22.838682
000310 2e bf 6e c0 a5 70 e1 c0 87 46 90 bf b2 32 80 41
       -3.7304187 -7.0450006 -1.1271523 16.024754
000320 ad 05 a1 3f 24 da fb c0 08 dc 37 c1 36 43 0c 40
       1.2579857 -7.8703785 -11.491219 2.1916022
000330 fa 5b 16 c1 73 f1 c8 40 53 97 0f c0 43 99 01 41
       -9.397455 6.279474 -2.243611 8.099917
000340 e8 df c8 c0 20 c0 87 c1 c6 3f 47 41 86 86 8d bf
       -6.2773323 -16.968811 12.45307 -1.1056678
000350 86 e1 f3 40 5c 53 39 c1 f0 2e 30 40 5c 8a 4c c1
       7.6212797 -11.582851 2.7528648 -12.783779
000360 a7 25 4a 40 e0 df 84 41 94 d9 0b c1 84 df 4f c1
       3.158548 16.609314 -8.74062 -12.992069
000370 36 5a 09 41 f9 ef 0f c1 04 30 d6 40 75 1c 6a 40
       8.584524 -8.996087 6.6933613 3.6579869
000380 ab 5d 8c 41 fd 37 96 c1 47 cb 77 41 1e 71 3a 40
       17.545736 -18.777338 15.487128 2.9131541
000390 84 a9 f9 c0 81 b0 a7 be a2 b0 83 bf 15 36 32 41
       -7.801943 -0.3275185 -1.0288279 11.138204
0003a0 36 ac 8a c0 93 66 d9 40 38 d8 c5 c1 df 47 cf 41
       -4.333522 6.7937713 -24.730576 25.910093
0003b0 e5 a9 9f 3f 78 3d 16 c1 9a ae 21 c1 02 d2 17 c0
       1.2473723 -9.390007 -10.105127 -2.3721929
0003c0 76 47 10 40 6d 4b 20 41 10 fc cf c0 80 f3 de 40
       2.2543616 10.0184145 -6.4995193 6.967224
0003d0 1d ef c9 c1 3c df 2e 41 ca 14 cd c0 05 3b c9 3d
       -25.241755 10.929501 -6.4087877 0.0982571
0003e0 37 17 b4 3d 87 a5 f2 c0 ef 26 77 c0 93 01 d9 c0
       0.087934904 -7.582706 -3.8617513 -6.781442
0003f0 c5 97 bc c0 a8 5f 27 c1 8c bb 29 bf 13 01 c7 bc
       -5.8935266 -10.460854 -0.663018 -0.024292504

link_predictor.0.bias f4 [64]
000000 f3 01 8f c1 3e c7 fe c0 a0 37 7e c1 6a af 45 c1
       -17.875952 -7.9618216 -15.88858 -12.355326
000010 f6 d1 4d c1 2b 46 ab c1 c6 41 b8 c1 b5 f5 8e c1
       -12.86376 -21.409262 -23.032116 -17.869974
000020 5b 06 b3 c1 d7 fb 77 c1 95 46 1d c1 2c 00 c4 bf
       -22.378103 -15.498984 -9.829732 -1.5312552
000030 7c d1 b1 c1 1d 76 90 c1 83 bc e6 c0 53 cb 20 c1
       -22.227287 -18.057673 -7.2105117 -10.04964
000040 df f6 68 c1 5b 63 56 c1 1f 7a b8 c1 4e 78 0b c1
       -14.560271 -13.399257 -23.05963 -8.716871
000050 8f c4 7a c1 7e d8 85 c1 8f 1c 75 c1 24 14 8c c1
       -15.672988 -16.73071 -15.319472 -17.509834
000060 69 f9 74 c1 84 95 88 c1 ae 84 bb c1 be 63 86 c1
       -15.310891 -17.073006 -23.439785 -16.798702
000070 5b 0a 61 c1 85 c7 a8 c1 e2 cd c0 c1 28 70 a7 c1
       -14.065028 -21.097422 -24.100529 -20.929764
000080 b7 e3 6b c1 8e 2b 26 c1 3d 20 89 c1 b0 fb a4 c1
       -14.743094 -10.385633 -17.140741 -20.622894
000090 f3 f1 25 c1 4d 3f e5 c0 95 05 9d c1 b5 bc 8e c1
       -10.37157 -7.163977 -19.627726 -17.842142
0000a0 da ea d8 c0 52 fe a3 c1 6d 87 54 c1 c9 1e c8 3e
       -6.7786684 -20.49918 -13.283063 0.39085987
0000b0 91 6d 92 c0 e0 0f 31 c1 02 6e 89 c1 f5 07 a3 c1
       -4.575875 -11.066376 -17.178715 -20.378885
0000c0 8f 23 83 c1 f2 0c 86 c0 1c 05 ad c1 29 d4 92 c1
       -16.392363 -4.18908 -21.627495 -18.353594
0000d0 d8 76 5e c1 60 f8 a3 c1 db 89 1a c1 8d ef 8c c1
       -13.904015 -20.496277 -9.658656 -17.616968
0000e0 b7 c7 3a c1 c6 39 f0 c0 21 8f 3c c1 b1 0a 9d c1
       -11.6737585 -7.5070524 -11.784944 -19.63022
0000f0 be 7b be c1 71 13 a9 c1 c5 a2 51 c1 96 22 90 c1
       -23.810421 -21.134493 -13.102239 -18.016888

link_predictor.2.weight f4 [1, 64]
000000 b3 f1 5f 3d 17 eb b1 bd 44 e7 c7 bd 4c c9 dd bd
       0.05467386 -0.08687418 -0.09760907 -0.1082941
000010 80 1d d2 bd d3 5a d4 3d 8e 26 f0 3d 7d cf 91 3d
       -0.10259533 0.10368886 0.11726104 0.071196534
000020 2b 94 a2 3d 21 47 bb bd 91 4a c2 bd f8 0f f2 bd
       0.07938417 -0.09144426 -0.09486879 -0.11819452
000030 f3 bc ca 3d 6d a9 3e 3d ca a1 b5 bd 77 ea bb bd
       0.098993205 0.046548296 -0.088687494 -0.0917558
000040 fb da 83 3d eb 09 e8 bd 83 73 ed bd 1f 5b e2 bd
       0.064382516 -0.11330017 -0.11594298 -0.11052536
000050 cf c8 d3 3d 5b b6 c3 3d 8e a9 ed bd 19 90 ab bd
       0.103410356 0.09556266 -0.116046056 -0.08377094
000060 c9 67 b1 bd f6 e2 8e bd 6e 3b 12 3e 8c 0d e8 bd
       -0.086623736 -0.06976883 0.14280483 -0.11330709
000070 9f 8b 64 3d fa 68 a2 bd 35 04 e6 bd d3 d6 65 3d
       0.055797216 -0.07930179 -0.11231271 0.056113075
000080 75 77 95 3d 52 4f c1 bd cc 4e 8f 3d a2 76 0b be
       0.07298175 -0.09438957 0.06997451 -0.13619474
000090 56 8a e3 bd e5 c6 8b bd cd 84 dc 3d 87 c2 89 bd
       -0.1111037 -0.068250455 0.10767517 -0.06726556
0000a0 04 0f d4 bd 1a 98 ab bd 7c 34 f5 bd 3e d0 93 bd
       -0.103544265 -0.083786204 -0.11972901 -0.072174534
0000b0 99 fb bd bd 03 ad c5 bd 6c 85 af 3d 85 43 04 3d
       -0.09276504 -0.0965214 0.0857037 0.032290954
0000c0 96 d0 9d bd 10 2a 83 3d 68 eb 11 3e f4 dc bd 3d
       -0.077058 0.06404507 0.14249957 0.09270659
0000d0 28 7a c0 3d f1 e5 e1 3d 7d 92 b5 3d cb 05 b0 bd
       0.093982995 0.11030186 0.08865831 -0.08594855
0000e0 48 f9 d5 bd 91 7e 02 be 58 e6 ac bd 39 d2 b4 3d
       -0.10447937 -0.12743594 -0.08442372 0.08829159
0000f0 46 85 ab bd 9f 88 07 3e 45 99 b0 3d ce 52 7d 3d
       -0.08375029 0.1323571 0.08622984 0.061846547
