checkpoints/model_epoch_12.pth (torch, 217428 bytes, 7 tensors)

conv1.bias f4 [64]
0.11837944 0.96477973 0.66698545 -2.4091299 -3.7573204 -5.3921223 -4.9021306 -0.67304635
-2.771767 -2.8071191 0.5502114 -1.2417406 0.16020192 -8.644537 -8.441041 1.2262822
-0.012102037 0.004288305 -9.363274 0.64828146 -9.005837 -4.435503 -9.006433 0.5537145
-5.055938 0.80844456 -6.7338185 -1.965317 0.53110427 -7.1896706 -3.642404 -3.4351068
-11.909423 -5.218997 -3.6824503 -3.1952066 -2.261545 0.035503805 -1.7645477 -3.735417
-4.4326177 -5.8013144 -8.073072 -2.8877754 0.6885824 0.6141633 -1.8039614 -4.9635515
2.0754888 0.63535327 -0.0940503 0.13269323 -11.1240635 -9.651982 2.237198 0.2755985
-2.4138615 -0.04053756 0.8612593 -0.33406657 -1.1970412 -10.297753 -7.5509896 -4.8703804
00000000: eb70 f23d cefb 763f 8fbf 2a3f 2f2f 1ac0
00000010: f077 70c0 448c acc0 41de 9cc0 c44c 2cbf
00000020: a164 31c0 d7a7 33c0 a8da 0c3f 5bf1 9ebf
00000030: f90b 243e 0650 0ac1 810e 07c1 d1f6 9c3f
00000040: 9f47 46bc e984 8c3b f8cf 15c1 c6f5 253f
00000050: e917 10c1 a4ef 8dc0 591a 10c1 3cc0 0d3f
00000060: 3eca a1c0 39f6 4e3f 717b d7c0 828f fbbf
00000070: 73f6 073f c811 e6c0 261d 69c0 cad8 5bc0
00000080: ff8c 3ec1 0602 a7c0 44ad 6bc0 447e 4cc0
00000090: 27bd 10c0 706c 113d b3dc e1bf 1211 6fc0
000000a0: 01d8 8dc0 5ea4 b9c0 4e2b 01c1 50d1 38c0
000000b0: f046 303f ce39 1d3f 35e8 e6bf 6ad5 9ec0
000000c0: cfd4 0440 83a6 223f 729d c0bd bce0 073e
000000d0: 2afc 31c1 856e 1ac1 412e 0f40 3f1b 8d3e
000000e0: b57c 1ac0 b60a 26bd 7d7b 5c3f c60a abbe
000000f0: a538 99bf 99c3 24c1 b5a1 f1c0 28da 9bc0

conv1.lin.weight f4 [64, 384]
1.7228343 1.6107678 1.3758334 0.17791927 1.0621357 -1.3604566 0.13817409 0.032442156
-2.3119724 1.2324659 1.2634122 -1.3359619 -3.0191252 2.502176 0.24315217 0.80959046
-0.17538366 0.66820174 0.77937585 -2.153804 -1.4159838 -1.4285077 0.023205288 1.8045826
3.00961 1.3351825 1.3534269 -0.43204743 1.8299445 2.3896165 0.20997244 2.6298664
-0.9032314 1.7497058 4.571001 0.08652824 -0.81680524 0.028231794 -0.63235056 1.097456
-3.5969872 -0.25653043 -0.34394494 -2.4019818 1.7170751 0.11687811 0.85569954 -3.0759807
0.68260586 -5.5627127 0.28768033 1.0592115 2.4773993 -1.5541931 3.2308147 0.7135885
2.3760915 -0.28355733 -1.5677592 1.9968693 -1.6699762 0.35547936 -0.8956445 0.8939047
-0.11820155 -4.2941794 1.6899595 2.1901062 0.03213562 0.7938753 2.6298518 0.6871145
0.12888852 -0.4081211 0.5045007 -0.84736246 2.140498 -2.8142724 2.5370796 -0.47665286
2.0992928 2.270599 -0.47459453 0.13406275 1.9524133 -1.3687795 2.6751118 -3.289372
3.0477965 2.2533827 0.09606957 0.46661824 -0.81741136 -0.483172 0.59206814 0.4806478
-1.0889374 0.46938485 0.65087736 -1.4794064 1.0529287 -0.34662703 0.20674257 -1.3832517
-2.224418 -0.7258243 1.8654182 -0.8601104 -2.0499935 -2.613157 1.5556519 1.7161123
0.057751745 -1.47188 0.2784505 0.71491426 -1.7626113 -2.9096136 0.03747959 0.832376
2.0982955 3.3354478 -1.8602713 -1.7686335 3.4294288 -0.12487292 -1.08388 0.071992666
-1.8490472 1.418146 2.2733831 -1.407746 -0.87190163 0.9653002 0.8982866 0.49536738
0.81218684 -1.9585141 -0.026146287 0.85622126 0.25972128 1.7233967 -1.1319433 2.6772573
0.7535662 1.1526622 -1.5648499 1.6522319 -0.32016456 2.1032722 -1.0117592 0.891067
0.3545731 0.21447168 -0.8908701 0.9082099 -1.8504552 -3.6025867 -1.4769585 -2.394265
-0.96167076 0.4549445 -0.75504357 0.45165008 1.6070178 -2.0597308 1.2657802 0.39101014
0.21417864 -3.142167 -0.46418548 2.4314904 0.4160408 0.47305533 -0.24640633 0.74219453
2.821789 1.3388638 -0.26795644 -0.5191335 1.7402812 0.800873 -3.193959 -1.1322536
1.1001409 0.50224847 -1.266893 1.9454391 1.1944858 1.1191489 2.2989774 0.07704084
-3.007522 2.5605352 -0.7312296 -0.536902 -1.225531 0.2773451 0.62856895 -0.82253796
-0.29369786 0.58247465 -0.020398509 0.7716168 0.26139733 -0.65453964 0.90274674 0.91169167
2.3513825 -0.047194377 3.688668 1.6441392 -0.78714687 1.6517415 0.39885765 1.9743708
-1.8111193 0.88426 2.1982985 3.190961 -1.5331641 -0.5836874 1.9770898 0.06464531
-0.91429013 -1.9196429 -0.22105736 2.3153412 0.90007234 0.12853633 1.2995285 -0.3578759
1.4652566 1.6894381 -0.5415567 2.8864312 2.5699337 2.0721517 -0.02339222 -0.3476862
1.7496045 -1.9453105 1.6169732 -0.9697802 -0.044767544 -1.5491618 0.31586525 1.7764668
-0.11239181 0.5981732 0.9057971 1.8462079 0.7136769 0.06838333 -1.979581 1.679773
00000000: d685 dc3f a42d ce3f 4f1b b03f 7830 363e
00000010: 10f4 873f 7123 aebf 827d 0d3e 11e2 043d
00000020: 5bf7 13c0 71c1 9d3f 7eb7 a13f cd00 abbf
00000030: 5939 41c0 a723 2040 e2fc 783e 5241 4f3f
00000040: c697 33be 450f 2b3f 2d85 473f edd7 09c0
00000050: f53e b5bf 57d9 b6bf 0419 be3c 90fc e63f
00000060: 739d 4040 43e7 aa3f 183d ad3f 5235 ddbe
00000070: 9f3b ea3f 7aef 1840 0403 573e bb4f 2840
00000080: 2c3a 67bf 5cf6 df3f a445 9240 b835 b13d
00000090: 261a 51bf 5d46 e73c bae1 21bf 7079 8c3f
000000a0: 0a35 66c0 f557 83be 8d19 b0be 12ba 19c0
000000b0: 1ec9 db3f ca5d ef3d 200f 5b3f dedc 44c0
000000c0: 42bf 2e3f be01 b2c0 d64a 933e 3e94 873f
000000d0: b68d 1e40 cdef c6bf abc5 4e40 bcad 363f
000000e0: e211 1840 6d2e 91be 55ac c8bf 6a99 ff3f
000000f0: c8c1 d5bf 6401 b63e f548 65bf f0d6 643f
00000100: a713 f2bd eb69 89c0 9850 d83f b32a 0c40
00000110: a4a0 033d 693b 4b3f 7e4f 2840 bce6 2f3f
00000120: 5afb 033e 40f5 d0be f526 013f bfec 58bf
00000130: ebfd 0840 0a1d 34c0 835f 2240 d80b f4be
00000140: d05a 0640 7e51 1140 0efe f2be bf47 093e
00000150: aee8 f93f 2b34 afbf 0835 2b40 1285 52c0
00000160: 190f 4340 6c37 1040 1fc0 c43d 96e8 ee3e
00000170: df41 51bf 5262 f7be c791 173f 7817 f63e
00000180: 4d62 8bbf 3653 f03e e69f 263f 305d bdbf
00000190: 5ec6 863f 1979 b1be 53b4 533e 640e b1bf
000001a0: dd5c 0ec0 9fcf 39bf 06c6 ee3f 3230 5cbf
000001b0: 1833 03c0 f73d 27c0 9a1f c73f 91a9 db3f
000001c0: 188d 6c3d 9066 bcbf 1091 8e3e 9f04 373f
000001d0: 3f9d e1bf 1c37 3ac0 3384 193d 9816 553f
000001e0: 794a 0640 fa77 5540 5f1d eebf 9562 e2bf
000001f0: c37b 5b40 60bd ffbd 94bc 8abf e470 933d
00000200: 94ad ecbf cf85 b53f 1c7f 1140 0531 b4bf
00000210: f234 5fbf ea1d 773f 1cf6 653f cba0 fd3e
00000220: 7aeb 4f3f 97b0 fabf bd30 d6bc 5131 5b3f
00000230: 30fa 843e 4398 dc3f 85e3 90bf 2f58 2b40
00000240: b7e9 403f 6f8a 933f 004d c8bf 567c d33f
00000250: 9cec a3be 039c 0640 5381 81bf f81c 643f
00000260: 9b8a b53e 779e 5b3e 1010 64bf 7280 683f
00000270: b7db ecbf c890 66c0 fa0c bdbf a33b 19c0
00000280: 0e30 76bf 7cee e83e 894a 41bf ae3e e73e
00000290: c2b2 cd3f a1d2 03c0 1605 a23f 7b32 c83e
000002a0: a551 5b3e 4419 49c0 b8a9 edbe 8a9d 1b40
000002b0: 4d03 d53e 4f34 f23e f151 7cbe 7600 3e3f
000002c0: 3198 3440 e45f ab3f 9631 89be efe5 04bf
000002d0: 89c1 de3f 0306 4d3f d369 4cc0 b0ed 90bf
000002e0: 6bd1 8c3f 5b93 003f 8d29 a2bf 2604 f93f
000002f0: e9e4 983f 4540 8f3f 7222 1340 97c7 9d3d
00000300: 3e7b 40c0 cfdf 2340 dd31 3bbf 6972 09bf
00000310: 33de 9cbf 2d00 8e3e e5e9 203f d991 52bf
00000320: 915f 96be 0f1d 153f c61a a7bc ae88 453f
00000330: dfd5 853e e98f 27bf 691a 673f a064 693f
00000340: 0d7d 1640 e44e 41bd 2313 6c40 2773 d23f
00000350: 7582 49bf 446c d33f 1237 cc3e 2fb8 fc3f
00000360: c2d2 e7bf dd5e 623f ecb0 0c40 b438 4c40
00000370: b93e c4bf 8a6c 15bf 4711 fd3f c364 843d
00000380: eb0e 6abf dcb6 f5bf dc5c 62be 8d2e 1440
00000390: 246b 663f 079f 033e f356 a63f 833b b7be
000003a0: 878d bb3f 823f d83f 76a3 0abf 4abb 3840
000003b0: cb79 2440 229e 0440 0aa1 bfbc ed03 b2be
000003c0: 0af3 df3f efff f8bf faf8 ce3f 8443 78bf
000003d0: 2c5e 37bd ef4a c6bf 17b9 a13e 4463 e33f
000003e0: ad2d e6bd e121 193f 52e2 673f 8a50 ec3f
000003f0: 88b3 363f 8f0c 8c3d e962 fdbf cd02 d73f

conv2.bias f4 [32]
-0.11824914 -0.8448591 9.239741 -0.03337134 -0.15003207 -0.1512822 -0.051058725 -0.90340674
0.0064928755 -0.50607467 0.101289086 -0.023496553 0.6748547 -5.9761953 -0.0045725647 -7.785806
2.622988 0.024909303 -0.07400408 -0.76518893 -0.100128494 -0.47073162 -0.045647316 -0.064407006
0.037389345 -0.071857154 0.018984234 -0.1317615 -1.1157631 -0.032729547 1.8054821 -0.1328765
00000000: 9b2c f2bd b048 58bf fbd5 1341 63b0 08bd
00000010: 02a2 19be b9e9 1abe f422 51bd aa45 67bf
00000020: 30c2 d43b 1c8e 01bf a770 cf3d d87b c0bc
00000030: 47c3 2c3f fe3c bfc0 74d5 95bb 5325 f9c0
00000040: 09df 2740 980e cc3c 738f 97bd 6ce3 43bf
00000050: 2b10 cdbd bc03 f1be aef8 3abd d2e7 83bd
00000060: 9225 193d d829 93bd d384 9b3c 7dec 06be
00000070: 53d1 8ebf 6b0f 06bd 0a1a e73f c710 08be

conv2.lin.weight f4 [32, 64]
0.115934744 0.02743317 -0.1026937 0.11446334 -0.09968847 -0.8758339 -0.28830576 -0.20183465
0.3026745 0.24811368 -0.086019725 0.19973283 -0.114490815 -0.38022077 1.3740743 -0.024648046
-0.023707809 0.14286873 0.78361696 -0.015915478 -0.3247248 0.18735501 1.2910517 0.024249587
-0.2924461 0.07862581 0.2676174 0.60849124 0.0049732435 -0.7476398 0.6243977 -0.0253267
0.02144854 1.2051976 -0.43642417 -0.67641 -0.007027733 0.011368913 0.07703875 -0.005553901
-0.1622678 0.16151914 3.3565445 -0.95845544 -0.05000627 -0.03246738 -0.3033938 -1.2820897
-0.014575867 0.09898591 0.102466054 -0.035485554 1.3355639 0.04243018 0.11476453 -0.013110184
-0.2071843 -0.1504576 0.022339763 0.03798212 0.031389147 3.0591207 -1.810968 0.05406593
-0.3323747 1.0974928 -0.37101677 0.5242037 0.088226505 0.93979985 0.021186218 0.33985305
-0.77493227 0.00083949213 0.1750678 0.3688836 0.5013993 0.45190507 -0.3602401 -0.58773273
0.21513076 -0.76870334 -0.7102525 -0.34674656 -0.8171353 -1.3664079 -1.2064283 0.05895218
-0.14462727 -0.28061888 0.41679317 -0.5107665 0.11303764 -0.5816724 0.208909 -0.6191928
-0.73558146 1.3114552 -0.7693329 0.7076938 0.60633683 0.8991135 -0.2336591 0.8591904
1.1684837 -0.36263686 -1.4213395 0.20536454 0.32504982 0.17061329 0.45108452 0.5950217
-0.27315548 0.0074317725 -0.04050448 0.477767 -0.92362565 -0.12192908 -0.28890523 -0.306653
0.23656632 -1.1428068 -0.093172915 1.0942336 0.2675671 -0.345761 1.3748264 0.86074865
-0.35046387 -0.06511465 -0.41441596 -0.50250334 0.06636831 -1.682558 -0.57058036 -0.12445264
-0.01893608 0.82384586 -0.5028784 -0.30336532 0.026816795 -0.8069437 1.5272659 -0.6241378
-0.021779997 -0.54135334 0.1908592 0.25001127 -0.15995349 -0.47944084 -0.6866571 -0.19687998
0.3792014 -0.1271545 -2.2191217 -0.4131884 -0.6852889 0.3055985 -0.8354864 -0.4827433
0.9279183 -0.04370839 0.74999315 -0.9477865 -1.2938459 -0.33480597 -0.36030132 0.15531899
0.18626189 -1.4433796 1.1575959 -0.040044364 -0.68386817 -0.7124604 0.24925822 1.2120286
-0.18387617 -0.649352 -0.17510268 -1.6981692 0.34052458 -0.11929036 -0.29786903 -0.44797623
-0.3653413 -0.6710612 -0.16937438 -0.47105563 -0.14675227 -0.03706696 -0.695755 -0.7136652
0.16590647 -0.037257392 -0.022308756 0.89414454 1.5539632 -1.5163162 -0.36363345 -0.015704395
0.20393348 0.0689932 -0.008659901 -0.05901782 0.13125557 0.8751747 2.464238 -0.023413513
-0.003952053 0.090596706 0.9513066 -0.07278983 -1.6053761 0.31268805 -1.3459985 0.019718047
2.5059123 -0.10004635 -0.15068966 -0.13057747 0.119590014 -0.26749146 -0.53347653 -0.88370323
-0.077004984 0.44872314 0.971311 -0.5882828 -0.07288606 -0.0057595703 0.10680008 -0.44030344
-0.48599434 -0.5257065 1.2785364 -1.4707505 0.017691655 -0.08580521 -0.41765475 -0.6893537
-0.030192163 -0.040407762 0.040596526 0.00657355 -3.9081674 -3.468774 0.041267175 -0.027583547
-0.009969855 -0.09868631 -0.018016819 0.09864791 0.038434837 2.4129825 -0.55149454 0.25070298
00000000: 326f ed3d 87bb e03c 1351 d2bd c16b ea3d
00000010: 7829 ccbd a736 60bf d09c 93be bead 4ebe
00000020: 27f8 9a3e 8311 7e3e 1c2b b0bd c386 4c3e
00000030: 297a eabd 4cac c2be abe1 af3f b3ea c9bc
00000040: e136 c2bc 2e4c 123e 1f9b 483f 2d61 82bc
00000050: 5442 a6be fed9 3f3e 2f41 a53f 12a7 c63c
00000060: 7fbb 95be 9206 a13d 2605 893e 15c6 1b3f
00000070: 97f6 a23b 5265 3fbf 87d8 1f3f f179 cfbc
00000080: d9b4 af3c ea43 9a3f fd72 dfbe 3529 2dbf
00000090: e648 e6bb ad44 3a3c 7ec6 9d3d 80fd b5bb
000000a0: 8829 26be 4665 253e a0d1 5640 565d 75bf
000000b0: 60d3 4cbd 84fc 04bd 6f56 9bbe 841b a4bf
000000c0: 9ecf 6ebc 20b9 ca3d b9d9 d13d 4d59 11bd
000000d0: c2f3 aa3f 45cb 2d3d aa09 eb3d 19cc 56bc
000000e0: 1f28 54be 8f11 1abe e101 b73c 2493 1b3d
000000f0: e891 003d a2c8 4340 cdcd e7bf 3d74 5d3d
00000100: 042d aabe a57a 8c3f e9f5 bdbe 3732 063f
00000110: 19b0 b43d b996 703f b88e ad3c 3801 ae3e
00000120: f661 46bf 5d11 5c3a f944 333e 50de bc3e
00000130: b45b 003f 1a60 e73e 6471 b8be a775 16bf
00000140: 3d4b 5c3e bec9 44bf 1cd3 35bf c488 b1be
00000150: c72f 51bf 74e6 aebf 3e6c 9abf d777 713d
00000160: 2c19 14be 47ad 8fbe ea65 d53e 98c1 02bf
00000170: 4780 e73d 7be8 14bf 3eec 553e 6b83 1ebf
00000180: 114f 3cbf c4dd a73f 00f3 44bf 6c2b 353f
00000190: e438 1b3f 4d2c 663f 5544 6fbe e7f3 5b3f
000001a0: e090 953f 8aab b9be 74ee b5bf 154b 523e
000001b0: ee6c a63e 40b5 2e3e 8df4 e63e 5853 183f
000001c0: 09db 8bbe 3a86 f33b 07e8 25bd e09d f43e
000001d0: bb72 6cbf f4b5 f9bd 63eb 93be 9f01 9dbe
000001e0: 713e 723e 7e47 92bf 71d1 bebd d90f 8c3f
000001f0: 8efe 883e 9607 b1be 50fa af3f 065a 5c3f
00000200: 0070 b3be d45a 85bd 542e d4be 0fa4 00bf
00000210: 1cec 873d 0f5e d7bf 8e11 12bf 07e1 febd
00000220: d71f 9bbc 90e7 523f a4bc 00bf b352 9bbe
00000230: e5ae db3c dd93 4ebf 737d c33f 7fc7 1fbf
00000240: f76b b2bc 2296 0abf 9870 433e 7a01 803e
00000250: d9ca 23be 4579 f5be c2c8 2fbf e89a 49be
00000260: b026 c23e ca34 02be 1706 0ec0 6e8d d3be
00000270: 186f 2fbf 6877 9c3e 70e2 55bf 212a f7be
00000280: 0e8c 6d3f 9207 33bd 8dff 3f3f 23a2 72bf
00000290: be9c a5bf b06b abbe 6a79 b8be f10b 1f3e
000002a0: 70bb 3e3e aac0 b8bf 1a2c 943f 8f05 24bd
000002b0: fc11 2fbf ce63 36bf 8c3d 7f3e c123 9b3f
000002c0: 094a 3cbe ef3b 26bf 1e4e 33be 9c5d d9bf
000002d0: 3d59 ae3e 814e f4bd 4a82 98be 245d e5be
000002e0: 040e bbbe abca 2bbf 7a70 2dbe 342e f1be
000002f0: 3a46 16be 86d3 17bd 001d 32bf c3b2 36bf
00000300: 63e3 293e 359b 18bd dac0 b6bc a8e6 643f
00000310: 44e8 c63f a616 c2bf 2a2e babe 81a6 80bc
00000320: f0d3 503e 4f4c 8d3d 42e2 0dbc abbc 71bd
00000330: dc67 063e 730b 603f 13b6 1d40 b2cd bfbc
00000340: 3980 81bb c48a b93d d488 733f d612 95bd
00000350: f77c cdbf a618 a03e ae49 acbf be87 a13c
00000360: de60 2040 1ae5 ccbd 644e 1abe 1ab6 05be
00000370: 9ceb f43d a4f4 88be eb91 08bf 603a 62bf
00000380: cab4 9dbd 0abf e53e d6a7 783f b499 16bf
00000390: 4945 95bd c7ba bcbb 00ba da3d 746f e1be
000003a0: 40d4 f8be b494 06bf 15a7 a33f 8d41 bcbf
000003b0: 17ee 903c a4ba afbd d8d6 d5be 7c79 30bf
000003c0: 8e55 f7bc 9c82 25bd 8b48 263d ef66 d73b
000003d0: 6a1f 7ac0 6500 5ec0 c507 293d e4f6 e1bc
000003e0: 9a58 23bc 0c1c cabd 0298 93bc ea07 ca3d
000003f0: d96d 1d3d 4e6e 1a40 bf2e 0dbf 245c 803e

link_predictor.0.weight f4 [64, 416]
0.016700316 1.169495 -0.076151416 0.0314124 0.32783297 0.04050368 -0.0024178568 -0.190638
0.25649366 -0.29235405 -0.71679735 -0.07667779 -0.17199191 -0.02895927 0.05021573 -0.029530797
-0.10001655 -0.9017627 -0.14207058 -0.1311091 0.055982854 -0.09083512 0.07014254 0.16627657
-0.022167422 -0.15087946 -0.10290096 0.47443756 -0.18281531 -0.11644007 0.067442134 -0.027877044
-2.9427478 0.20265238 11.002513 -7.0877485 5.1549225 -19.386154 -3.8944175 -10.827792
9.746889 8.288529 7.3530946 -3.1208255 7.992755 -0.6338966 5.799787 11.700389
0.5656662 -0.9283097 7.748855 2.9220169 -12.096603 5.5847583 2.0986767 -11.280619
-1.0783144 -2.9005284 1.8677794 4.249109 4.562442 3.8153477 -16.375248 -15.390119
5.9234905 16.788744 -18.585657 -14.13394 -0.18618298 -2.7942815 2.9246569 -9.830351
1.7357825 5.0654974 2.7416043 -4.888705 -9.013652 22.373692 -1.8562438 12.743006
22.722178 4.4632506 4.0599575 -0.32224607 7.9198294 20.70284 -2.4496257 16.707983
-7.900041 8.010518 2.1759238 -2.1137211 8.716178 -5.1908717 3.050918 12.649985
-16.211355 0.97093314 13.209905 -17.368717 -11.075114 -3.6581476 3.1109955 8.617195
8.01759 -5.6753554 -6.4812446 -4.9076576 0.92118025 2.2489157 -14.775207 5.769062
8.184979 4.09859 25.80544 -2.8394637 8.623395 17.782166 2.7473693 7.0996146
2.8729334 4.4482102 4.9818716 8.534325 -1.1529399 -3.1401603 -0.49637073 -7.4507976
-10.661215 -0.93083775 4.063811 -12.280089 -8.47802 2.0762854 -5.155887 6.866174
-1.0608765 -9.205216 12.281568 8.159176 -5.2076893 10.342506 -2.1815789 0.22994922
-4.657236 -8.756291 -4.0679173 -5.629472 0.15885366 -6.0853415 -3.0846143 10.574506
-7.5185843 3.8674712 -2.2145553 11.607025 -12.586775 -21.254871 -9.2671795 -0.021404017
15.057673 21.64257 -3.3509507 -17.034193 7.8860927 -17.006886 -3.8452466 6.884331
-9.731099 1.0708493 -7.8553004 0.56365925 -6.1693945 2.6365387 -3.1241941 4.8813944
11.835729 -15.746834 -4.301275 9.044547 -15.1924095 2.1030145 -3.7329254 -7.9647675
5.0033507 -13.844768 0.20420237 14.2294655 0.15290792 8.06845 -4.6563354 15.71534
8.789395 10.593458 1.6749454 -22.004751 -6.559105 -8.791566 0.38801762 16.016521
1.1870639 -7.0250807 -11.239718 -1.4771984 -9.279148 4.74611 -3.6027238 6.5524693
-5.7340636 -18.104181 12.85644 3.82661 10.126429 -11.439373 -0.32350793 -14.761775
1.1488783 11.284055 -7.3385277 -8.879083 6.1195807 -3.382014 5.938023 2.9797554
13.113936 -15.8599825 13.095299 2.484553 -13.731778 -1.2817603 0.81875145 12.186232
-3.9727907 7.8305783 -17.211172 18.168896 0.86670905 -5.011259 -4.780609 -2.6444218
1.8016059 7.0115986 -4.563587 5.7911105 -19.62516 8.014084 -8.99035 4.0771313
1.5366448 -6.016333 -4.416092 -8.910875 -4.817814 -6.1057825 -1.9532181 -0.024292504
00000000: 1acf 883c 03b2 953f 46f5 9bbd 4aaa 003d
00000010: b9d9 a73e 30e7 253d e874 1ebb 9c36 43be
00000020: 2353 833e 6eaf 95be 0880 37bf 3f09 9dbd
00000030: a61e 30be fe3b edbc 02af 4d3d 92ea f1bc
00000040: 7ad5 ccbd ecd9 66bf f37a 11be 7741 06be
00000050: 474e 653d c307 babd e4a6 8f3d 6844 2a3e
00000060: 7498 b5bc 2580 1abe bdbd d2bd 7be9 f23e
00000070: f033 3bbe 2278 eebd 1a1f 8a3d 665e e4bc
00000080: fb55 3cc0 1b84 4f3e 4b0a 3041 d6ce e2c0
00000090: 20f5 a440 d816 9bc1 233e 79c0 a33e 2dc1
000000a0: 42f3 1b41 d19d 0441 8d4c eb40 9bbb 47c0
000000b0: a6c4 ff40 0c47 22bf db97 b940 cb34 3b41
000000c0: 80cf 103f b4a5 6dbf 9ff6 f740 5302 3b40
000000d0: b08b 41c1 57b6 b240 b850 0640 6a7d 34c1
000000e0: 3506 8abf 42a2 39c0 6513 ef3f b3f8 8740
000000f0: 86ff 9140 a82e 7440 8200 83c1 ed3d 76c1
00000100: 3c8d bd40 594f 8641 6daf 94c1 9e24 62c1
00000110: c0a6 3ebe 82d5 32c0 942d 3b40 1e49 1dc1
00000120: 1f2e de3f 8e18 a240 7276 2f40 4570 9cc0
00000130: eb37 10c1 52fd b241 6699 edbf 5ae3 4b41
00000140: 05c7 b541 f3d2 8e40 2ceb 8140 70fd a4be
00000150: 3e6f fd40 6b9f a541 abc6 1cc0 f3a9 8541
00000160: 23cd fcc0 152b 0041 5642 0b40 3547 07c0
00000170: 7775 0b41 9f1b a6c0 3e42 4340 5766 4a41
00000180: dbb0 81c1 138f 783f c55b 5341 22f3 8ac1
00000190: ab33 31c1 171f 6ac0 8d1a 4740 08e0 0941
000001a0: 0c48 0041 839c b5c0 5b66 cfc0 880b 9dc0
000001b0: 78d2 6b3f 3cee 0f40 3f67 6cc1 289c b840
000001c0: adf5 0241 a627 8340 8b71 ce41 c6b9 35c0
000001d0: 6df9 0941 e041 8e41 e6d4 2f40 0b30 e340
000001e0: 24de 3740 bd57 8e40 7e6b 9f40 988c 0841
000001f0: 8993 93bf 63f8 48c0 4e24 febe ef6c eec0
00000200: 5694 2ac1 624b 6ebf bd0a 8240 3f7b 44c1
00000210: f8a5 07c1 dce1 0440 07fd a4c0 b3b7 db40
00000220: cdca 87bf 9148 13c1 4d81 4441 fc8b 0241
00000230: 64a5 a6c0 e87a 2541 fd9e 0bc0 cf77 6b3e
00000240: 1408 95c0 c519 0cc1 612c 82c0 a224 b4c0
00000250: 89aa 223e 1ebb c2c0 526a 45c0 2d31 2941
00000260: 3e98 f0c0 a684 7740 46bb 0dc0 60b6 3941
00000270: 6e63 49c1 fa09 aac1 5e46 14c1 7a57 afbc
00000280: 3bec 7041 fc23 ad41 fa75 56c0 0746 88c1
00000290: df5a fc40 1a0e 88c1 8518 76c0 714c dc40
000002a0: 95b2 1bc1 9711 893f 9f5e fbc0 f94b 103f
000002b0: ae6b c5c0 0dbd 2840 ccf2 47c0 6234 9c40
000002c0: 255f 3d41 08f3 7bc1 0ba4 89c0 77b6 1041
000002d0: 1c14 73c1 ca97 0640 40e8 6ec0 60df fec0
000002e0: 731b a040 2b84 5dc1 6d1a 513e e4ab 6341
000002f0: e593 1c3e 5f18 0141 b300 95c0 0872 7b41
00000300: 5da1 0c41 ce7e 2941 9c64 d63f bb09 b0c1
00000310: 30e4 d1c0 41aa 0cc1 3faa c63e d621 8041
00000320: b6f1 973f 76cd e0c0 e3d5 33c1 d614 bdbf
00000330: 6477 14c1 22e0 9740 0793 66c0 d4ad d140
00000340: 737d b7c0 5dd5 90c1 fab3 4d41 2ee7 7440
00000350: da05 2241 ac07 37c1 d5a2 a5be 3b30 6cc1
00000360: 720e 933f 7d8b 3441 38d5 eac0 b910 0ec1
00000370: 9bd3 c340 eb72 58c0 4904 be40 50b4 3e40
00000380: afd2 5141 7dc2 7dc1 5886 5141 eb02 1f40
00000390: 5db5 5bc1 b910 a4bf b299 513f cefa 4241
000003a0: 3442 7ec0 1994 fa40 7bb0 89c1 e659 9141
000003b0: a5e0 5d3f 3c5c a0c0 c0fa 98c0 353e 29c0
000003c0: 069b e63f 045f e040 e808 92c0 c750 b940
000003d0: 5400 9dc1 b039 0041 79d8 0fc1 dc77 8240
000003e0: c7b0 c43f cd85 c0c0 a050 8dc0 f292 0ec1
000003f0: 882b 9ac0 9262 c3c0 0d03 fabf 1301 c7bc

link_predictor.0.bias f4 [64]
-15.389944 -7.426342 -13.431824 -10.846576 -12.039124 -15.825523 -18.269146 -14.920126
-19.582386 -14.019183 -8.259199 -0.53789604 -18.19097 -14.495977 -5.810961 -8.585152
-11.759154 -10.596625 -20.176146 -6.333692 -13.875562 -13.799285 -14.555749 -15.622015
-13.277213 -14.557683 -17.941196 -14.467786 -11.193101 -15.766724 -21.048635 -17.702877
-11.4816885 -8.493271 -13.833734 -14.824182 -8.635359 -5.6558404 -16.311768 -14.951938
-7.0263796 -16.848473 -11.23832 -0.48407018 -4.0806384 -9.423406 -13.680338 -16.63202
-13.733231 -2.0104427 -16.308842 -14.398148 -11.132027 -15.288989 -6.859616 -16.269777
-11.050814 -5.7528377 -10.697254 -15.191593 -18.21014 -18.030594 -11.482105 -15.028508
00000000: 363d 76c1 98a4 edc0 c0e8 56c1 938b 2dc1
00000010: 40a0 40c1 5835 7dc1 3627 92c1 d6b8 6ec1
00000020: baa8 9cc1 934e 60c1 ae25 04c1 8eb3 09bf
00000030: 1b87 91c1 86ef 67c1 64f3 b9c0 c85c 09c1
00000040: 7f25 3cc1 c78b 29c1 bf68 a1c1 9bad cac0
00000050: 4d02 5ec1 dfc9 5cc1 59e4 68c1 c6f3 79c1
00000060: 776f 54c1 45ec 68c1 9287 8fc1 0d7c 67c1
00000070: f116 33c1 8044 7cc1 9b63 a8c1 7e9f 8dc1
00000080: ffb4 37c1 70e4 07c1 f956 5dc1 d92f 6dc1
00000090: 6e2a 0ac1 a5fc b4c0 807e 82c1 233b 6fc1
000000a0: 1ad8 e0c0 acc9 86c1 29d0 33c1 0cd8 f7be
000000b0: 9794 82c0 45c6 16c1 aae2 5ac1 610e 85c1
000000c0: 50bb 5bc1 18ab 00c0 8278 82c1 d05e 66c1
000000d0: c81c 32c1 b39f 74c1 f981 dbc0 8128 82c1
000000e0: 22d0 30c1 3f17 b8c0 f427 2bc1 c410 73c1
000000f0: 5eae 91c1 a83e 90c1 b4b6 37c1 c574 70c1

link_predictor.2.weight f4 [1, 64]
0.07954676 -0.0830214 -0.12891369 -0.12172785 -0.10714578 0.06670712 0.07364964 0.09240237
0.07462752 -0.11452863 -0.107837714 -0.11676199 0.1100228 0.086724654 -0.10555145 -0.09319443
0.07943293 -0.1448172 -0.09689496 -0.10005783 0.06234158 0.085079886 -0.10034151 -0.08113758
-0.072253875 -0.103626885 0.1150827 -0.08271786 0.05767234 -0.11313291 -0.12081926 0.09401395
0.080551095 -0.06553903 0.08378376 -0.12918885 -0.11148482 -0.10253028 0.10609802 -0.05108254
-0.060342662 -0.10019438 -0.09105845 -0.088368036 -0.10323504 -0.118051395 0.08147183 0.09678765
-0.085151166 0.09071151 0.078082494 0.0857055 0.10432022 0.13717268 0.113211 -0.102748156
-0.10637156 -0.11715571 -0.10587227 0.051103 -0.11216648 0.11844365 0.08169333 0.050771188
00000000: 69e9 a23d 2007 aabd f301 04be 734c f9bd
00000010: 3f6f dbbd be9d 883d 9fd5 963d 743d bd3d
00000020: 50d6 983d fd8d eabd 05da dcbd e920 efbd
00000030: a253 e13d b29c b13d 5c2b d8bd b9dc bebd
00000040: bbad a23d f64a 14be dd70 c6bd 1feb ccbd
00000050: e259 7f3d 5d3e ae3d d97f cdbd 762b a6bd
00000060: d7f9 93bd 553a d4bd 7bb0 eb3d fb67 a9bd
00000070: d539 6c3d 3ab2 e7bd 1770 f7bd 638a c03d
00000080: f9f7 a43d 5439 86bd d296 ab3d 154a 04be
00000090: 2752 e4bd 65fb d1bd eb49 d93d ed3b 51bd
000000a0: de29 77bd b632 cdbd da7c babd 4dfa b4bd
000000b0: e56c d3bd eec4 f1bd b4da a63d 9a38 c63d
000000c0: bc63 aebd f5c6 b93d b7e9 9f3d 5d86 af3d
000000d0: d7a5 d53d ff76 0c3e 2bdb e73d a06d d2bd
000000e0: 55d9 d9bd 55ef efbd 90d3 d8bd 6151 513d
000000f0: 8ab7 e5bd 9692 f23d d54e a73d 73f5 4f3d
