checkpoints/model_epoch_10.pth (torch, 217428 bytes, 7 tensors)

conv1.bias f4 [64]
0.088880025 0.90066785 0.74098486 -2.4091299 -3.7573204 -5.3921223 -4.9021306 -0.67304635
-2.771767 -2.8071191 0.51848775 -1.1221845 0.1214244 -7.9543715 -6.833451 1.1667633
0.052260626 0.11524681 -7.998247 0.6620761 -7.994626 -4.3621774 -9.006433 0.4259127
-4.4869103 0.77805907 -6.580766 -1.965317 0.64031804 -7.1896706 -3.642404 -3.4351068
-11.478821 -5.218997 -3.6824503 -3.1952066 -2.01659 0.04125975 -1.7693851 -3.735417
-4.4326177 -5.568334 -7.565197 -2.8877754 0.75796074 0.57304823 -1.8039614 -5.1985126
2.2233078 0.546251 0.040677104 0.13012761 -10.909622 -9.651982 2.1314073 0.24716921
-2.3166757 -0.14859821 0.9220084 -0.28498098 -1.1451218 -9.612142 -7.5509896 -4.2499547
00000000: bb06 b63d 2b92 663f 2fb1 3d3f 2f2f 1ac0
00000010: f077 70c0 448c acc0 41de 9cc0 c44c 2cbf
00000020: a164 31c0 d7a7 33c0 9dbb 043f bea3 8fbf
00000030: 5bad f83d 368a fec0 a1ab dac0 8058 953f
00000040: 3d0f 563d 8506 ec3d a4f1 ffc0 d27d 293f
00000050: fad3 ffc0 f596 8bc0 591a 10c1 3b11 da3e
00000060: c594 8fc0 e12e 473f a395 d2c0 828f fbbf
00000070: e2eb 233f c811 e6c0 261d 69c0 cad8 5bc0
00000080: 40a9 37c1 0602 a7c0 44ad 6bc0 447e 4cc0
00000090: d00f 01c0 fcff 283d 367b e2bf 1211 6fc0
000000a0: 01d8 8dc0 cb2f b2c0 1816 f2c0 50d1 38c0
000000b0: b709 423f 4ab3 123f 35e8 e6bf 375a a6c0
000000c0: ad4a 0e40 1bd7 0b3f 099d 263d 2c40 053e
000000d0: d08d 2ec1 856e 1ac1 fa68 0840 ed19 7d3e
000000e0: 6a44 14c0 212a 18be be08 6c3f 07e9 91be
000000f0: 5a93 92bf 55cb 19c1 b5a1 f1c0 a1ff 87c0

conv1.lin.weight f4 [64, 384]
1.545623 1.6445668 1.332377 0.6902077 1.3550968 -1.3035663 0.40787035 -0.14269632
-2.1351407 1.0912523 1.2021853 -1.0080845 -2.3735898 2.472018 0.51540554 0.52211857
-0.20952308 0.6636974 1.1278532 -1.740004 -0.4127216 -1.2607349 0.09725727 1.1519647
3.0482647 1.0902323 1.6383622 -0.5741126 1.2863529 1.0323284 -0.108886264 3.2849615
-0.4689347 2.828897 4.704531 0.3882223 -0.7572596 -0.23434821 -0.25813287 1.3285499
-3.389286 -0.5458951 -0.7336727 -1.8073777 0.8120568 -0.2919437 0.5568373 -3.709951
0.5918343 -6.0730133 0.13923319 1.1702105 2.1486259 -1.2238965 3.4963486 0.79303074
2.4538822 0.07026924 -1.5176059 1.391921 -1.6301045 0.44916758 0.033976667 -0.033601116
-0.015276986 -4.372605 1.6557763 2.8002598 0.0041254004 0.30319762 2.2228913 0.90677243
0.41546515 -0.8685811 0.7492402 -0.815127 2.884138 -2.510845 1.7041817 -0.15989809
1.850222 2.539454 -0.41248164 0.5537502 1.3248438 -1.1361647 3.0469043 -3.491436
2.762645 1.3784349 -0.17359903 -0.6451499 -1.814562 -0.31023985 -0.2253021 0.85169715
-1.1430955 0.24833447 1.0206546 -1.3751038 0.49437717 -0.3878174 -0.09362254 -1.2290725
-2.321388 0.37415084 1.5327059 -2.0843005 -2.3530345 -2.827825 1.5170445 0.74851227
0.07590549 -1.5094041 0.56805843 0.60700274 -1.3686569 -3.1801796 0.42620647 0.94414544
2.0172663 3.1740808 -1.5049878 -1.8143942 3.0911815 -0.4835444 -0.7697683 0.071992666
-1.6725708 0.44745055 2.0002894 -2.1356854 -1.6378516 1.0265119 0.9029559 0.58709484
0.7153646 -1.2678092 -0.26687753 0.9573274 0.8721046 1.8620261 -0.95551556 3.3286066
0.50753826 1.130716 -1.9647268 1.6609637 0.3944322 1.3777469 -0.16466942 0.07023292
0.028465679 0.07704234 0.14459708 0.52546763 -1.4030919 -2.1842196 -0.6045813 -2.888609
-1.2847694 0.19881082 -0.7765912 0.70571613 1.0752327 -2.271089 0.67934877 -0.39452958
-0.35789284 -1.8514049 0.07128383 2.2704785 1.3144269 0.2710045 0.026664814 0.9045945
2.6782165 1.0357176 -0.5240495 -0.65976 2.0557413 0.24150631 -3.0033 -0.7553975
2.0418148 0.2835646 -1.2976779 1.9454762 1.2205673 0.32361516 1.885752 0.22632352
-2.6693134 3.1839128 -0.9008041 -1.0024076 -1.4637349 0.2778071 0.28902733 -1.2454604
-1.3695313 1.1893951 -0.796943 0.6197381 -0.8407878 -0.85255116 0.28206873 0.31092453
2.6770322 -0.42374083 3.1276724 0.9650684 -0.9813561 1.4407793 -0.68718773 1.7580185
-1.5558572 0.33774254 2.229253 3.140836 -1.7387003 -1.1157722 1.5273757 0.06464531
-0.43045402 -0.9776433 -0.7370219 2.0276523 0.6324348 0.19566138 1.5876844 0.18875468
0.7652747 1.6812043 -0.85713214 3.076947 3.0788624 1.5625889 -0.07115811 0.013769142
1.9771785 -1.3484639 1.2153641 -1.0419477 0.36195645 -1.8724278 -0.099377334 1.4119915
0.21254854 0.6933898 1.0945601 1.7302169 0.7455564 -0.013063341 -2.398532 1.5413927
00000000: f9d6 c53f 2a81 d23f 548b aa3f 74b1 303f
00000010: d073 ad3f 43db a6bf 62d4 d03e fc1e 12be
00000020: 25a6 08c0 28ae 8b3f 35e1 993f ea08 81bf
00000030: e5e8 17c0 8b35 1e40 9ef1 033f 90a9 053f
00000040: 388d 56be 13e8 293f 7e5d 903f 73b8 debf
00000050: 3f50 d3be c35f a1bf d22e c73d 9473 933f
00000060: c516 4340 bb8c 8b3f dab5 d13f 0bf9 12bf
00000070: 36a7 a43f 5623 843f c3ff debd cf3c 5240
00000080: 3618 f0be a60c 3540 858b 9640 13c5 c63e
00000090: c4db 41bf faf8 6fbe fe29 84be ec0d aa3f
000000a0: 10ea 58c0 c8bf 0bbf f9d1 3bbf 2758 e7bf
000000b0: f4e2 4f3f a579 95be e48c 0e3f d66f 6dc0
000000c0: 7482 173f 2056 c2c0 2593 0e3e 75c9 953f
000000d0: 1683 0940 a4a8 9cbf 2dc4 5f40 1004 4b3f
000000e0: 680c 1d40 52e9 8f3d e940 c2bf 782a b23f
000000f0: 44a7 d0bf 4bf9 e53e 1e2b 0b3d 53a1 09bd
00000100: 534c 7abc 61ec 8bc0 7af0 d33f 7537 3340
00000110: 5e2e 873b b83c 9b3e da43 0e40 3d22 683f
00000120: d9b7 d43e 555b 5ebf 35ce 3f3f 2aac 50bf
00000130: b895 3840 afb1 20c0 a022 da3f 53bc 23be
00000140: 13d4 ec3f 6a86 2240 cb30 d3be 93c2 0d3f
00000150: 7b94 a93f d86d 91bf 7b00 4340 b073 5fc0
00000160: 2dcf 3040 8e70 b03f f2c3 31be 8b28 25bf
00000170: 9143 e8bf c2d7 9ebe 98b5 66be d308 5a3f
00000180: f450 92bf 644b 7e3e cfa4 823f 6703 b0bf
00000190: 011f fd3e 0190 c6be 2dbd bfbd 3f52 9dbf
000001a0: 9f91 14c0 b390 bf3e b52f c43f 2e65 05c0
000001b0: 1e98 16c0 16fb 34c0 842e c23f 809e 3f3f
000001c0: 5674 9b3d 2734 c1bf 476c 113f 8864 1b3f
000001d0: 2630 afbf 1088 4bc0 bc37 da3e 84b3 713f
000001e0: e41a 0140 2424 4b40 71a3 c0bf 123e e8bf
000001f0: ebd5 4540 2293 f7be 890f 45bf e470 933d
00000200: cd16 d6bf 3d18 e53e be04 0040 12af 08c0
00000210: 1fa5 d1bf be64 833f 1e28 673f d94b 163f
00000220: 2222 373f 9247 a2bf 2ca4 88be 6913 753f
00000230: 3f42 5f3f df56 ee3f ab9c 74bf e407 5540
00000240: 07ee 013f 4dbb 903f 2b7c fbbf 759a d43f
00000250: 04f3 c93e 035a b03f 1a9f 28be 47d6 8f3d
00000260: db30 e93c 60c8 9d3d 4211 143e 0c85 063f
00000270: 8498 b3bf 41ca 0bc0 d7c5 1abf f8de 38c0
00000280: 5373 a4bf 1095 4b3e aece 46bf d0a9 343f
00000290: 3aa1 893f 8659 11c0 cde9 2d3f c8ff c9be
000002a0: bb3d b7be d6fa ecbf 42fd 913d 854f 1140
000002b0: 243f a83f 1ac1 8a3e 2b70 da3c 8193 673f
000002c0: e667 2b40 6592 843f 1c28 06bf 08e6 28bf
000002d0: 4491 0340 6e4d 773e 1136 40c0 bb61 41bf
000002e0: 18ad 0240 612f 913e 4f1a a6bf 5d05 f93f
000002f0: 8d3b 9c3f e3b0 a53e 5260 f13f 5ac1 673e
00000300: 08d6 2ac0 3ac5 4b40 199b 66bf e44e 80bf
00000310: aa5b bbbf bb3c 8e3e 64fb 933e 3f6b 9fbf
00000320: cd4c afbf 193e 983f 7504 4cbf 28a7 1e3f
00000330: df3d 57bf cb40 5abf 506b 903e 8031 9f3e
00000340: 7f54 2b40 8ff4 d8be c92b 4840 b90e 773f
00000350: 273a 7bbf 756b b83f 89eb 2fbf c006 e13f
00000360: 5426 c7bf 97ec ac3e 15ac 0e40 7503 4940
00000370: bb8d debf a0d1 8ebf 0c81 c33f c364 843d
00000380: 7864 dcbe d546 7abf 78ad 3cbf 0ec5 0140
00000390: 3fe7 213f 755b 483e 3e39 cb3f e848 413e
000003a0: 0be9 433f b431 d73f 036d 5bbf b3ec 4440
000003b0: 150c 4540 ea02 c83f 58bb 91bd f897 613c
000003c0: 2f14 fd3f 779a acbf 0d91 9b3f 8b5e 85bf
000003d0: 5b52 b93e b7ab efbf 5886 cbbd 23bc b43f
000003e0: 53a6 593e fe81 313f 8c1a 8c3f bf77 dd3f
000003f0: c9dc 3e3f a007 56bc 8c81 19c0 5b4c c53f

conv2.bias f4 [32]
0.0019007148 -0.9400241 8.49385 -0.04863122 -0.2005829 -0.2009981 -0.06392225 -0.7832377
-0.024652846 -0.27733213 -0.06274957 -0.07517155 0.3914971 -5.94424 -0.09382919 -7.365269
2.7346742 -0.15978692 -0.28926545 -0.7457583 -0.13068219 -0.30905443 -0.08568552 0.15659916
0.07963202 0.24717993 -0.0008996201 -0.21530762 -1.1493102 -0.13354126 1.8496741 -0.11594177
00000000: 6821 f93a 6ba5 70bf cfe6 0741 8831 47bd
00000010: 9b65 4dbe 72d2 4dbe abe9 82bd 4482 48bf
00000020: c4f4 c9bc 7afe 8dbe d982 80bd 8bf3 99bd
00000030: 4f72 c83e 3737 bec0 8529 c0bd 49b0 ebc0
00000040: e704 2f40 2f9f 23be 9a1a 94be 04ea 3ebf
00000050: 8dd1 05be 623c 9ebe e47b afbd 885b 203e
00000060: 1d16 a33d bc1c 7d3e 7cd4 6bba 9a79 5cbe
00000070: 991c 93bf 0abf 08be 1fc2 ec3f e172 edbd

conv2.lin.weight f4 [32, 64]
0.086874 0.085624285 -0.080813825 0.11446334 -0.09968847 -0.8758339 -0.28830576 -0.20183465
0.3026745 0.24811368 0.099808626 -0.11074198 -0.025690507 -2.6742346 2.5906513 -0.024280766
-0.01339171 -0.019421713 -0.93450254 -0.11752519 1.0397232 -0.08535176 1.2910517 0.29628214
0.011719866 0.1540102 0.09562115 0.60849124 0.13922209 -0.7476398 0.6243977 -0.0253267
-0.04325596 1.2051976 -0.43642417 -0.67641 -0.21527608 0.082391724 -0.080972284 -0.005553901
-0.1622678 0.11538224 2.8989115 -0.95845544 -0.094539486 0.1321686 -0.3033938 -0.7447402
0.0704156 -0.0531482 0.14509317 0.074801095 1.0677497 0.04243018 0.0115745105 0.081465326
0.0061940607 -0.03182718 0.039420415 -0.013638931 0.12452378 5.086753 -1.810968 -0.22047417
-0.2718704 0.9430614 -0.2479926 0.5242037 0.088226505 0.93979985 0.021186218 0.33985305
-0.77493227 0.00083949213 0.22629619 0.3670295 0.4187476 0.22385937 0.18666267 -0.60186356
0.2705696 -0.88111943 -1.022246 -0.42973176 -0.88585335 -1.0657064 -1.2064283 0.16393405
0.5690807 -0.090944275 0.48201305 -0.5107665 0.00988571 -0.5816724 0.208909 -0.6191928
-0.6319745 1.3114552 -0.7693329 0.7076938 0.623233 0.87647873 -0.30154967 0.8591904
1.1684837 -0.24745418 0.4088689 0.20536454 0.31927451 0.31761485 0.45108452 1.0441267
-0.38539332 -0.012427601 0.0361079 0.41212642 1.071371 -0.12192908 -0.31656215 -0.18830469
0.08059092 -1.0205042 -0.07686254 0.98843783 0.471663 0.36567837 1.3748264 0.60387623
-0.33238098 -0.008892759 -0.4641866 -0.50250334 0.06636831 -1.682558 -0.57058036 -0.12445264
-0.01893608 0.82384586 -0.45259267 -0.3412936 0.037330467 -1.1302999 0.9779754 -0.48233348
-0.030248346 -0.50924844 0.4884221 0.24497284 -0.21919483 -1.2498269 -0.6866571 -0.10040724
0.6585177 -0.17242016 -2.361676 -0.4131884 -0.7461043 0.3055985 -0.8354864 -0.4827433
0.7859631 -0.04370839 0.74999315 -0.9477865 -1.2979065 -0.3490359 -0.4127122 0.15531899
0.18626189 -1.4359224 -0.0026596272 -0.040044364 -0.62703544 -0.7205694 0.24925822 1.631233
-0.067275725 -0.59812546 -0.1958848 -1.5982959 0.22758831 -0.11929036 -0.2484855 -0.36206013
-0.40242723 -0.5353579 -0.08625709 -0.4327036 -0.15670504 -1.9410335 -0.695755 -0.883211
0.1404951 -0.042511903 -0.087362394 0.89414454 1.5539632 -1.5163162 -0.36363345 -0.015704395
0.20393348 0.0689932 0.07240969 0.031257626 -0.098570205 1.0629576 -0.3176289 0.124583155
0.052240945 -0.12113571 0.8643159 -0.121158905 -1.9152156 0.39690748 -1.3459985 0.068124615
0.46443197 0.03276044 -0.1670816 -0.13057747 -0.019559452 -0.26749146 -0.53347653 -0.88370323
-0.09649165 0.44872314 0.971311 -0.5882828 -0.081803985 0.12658463 -0.11107127 -0.44030344
-0.48599434 -0.526742 2.334562 -1.4707505 -0.085936114 0.10215152 -0.41765475 -0.97915196
0.11189053 -0.15476424 -0.023744898 -0.025645217 -2.584998 -3.468774 0.060842376 -0.14173362
0.0008303298 0.06283165 0.010677954 0.027061166 -0.009262177 2.416253 -0.55149454 0.4408836
00000000: ffea b13d c95b af3d b881 a5bd c16b ea3d
00000010: 7829 ccbd a736 60bf d09c 93be bead 4ebe
00000020: 27f8 9a3e 8311 7e3e 7768 cc3d b1cc e2bd
00000030: e674 d2bc a926 2bc0 3bcd 2540 75e8 c6bc
00000040: e768 5bbc 491a 9fbc 8f3b 6fbf 0cb1 f0bd
00000050: a615 853f e7cc aebd 2f41 a53f 4bb2 973e
00000060: ae04 403c dab4 1d3e 06d5 c33d 15c6 1b3f
00000070: 3c90 0e3e 5265 3fbf 87d8 1f3f f179 cfbc
00000080: 292d 31bd ea43 9a3f fd72 dfbe 3529 2dbf
00000090: 5571 5cbe febc a83d ccd4 a5bd 80fd b5bb
000000a0: 8829 26be 864d ec3d c487 3940 565d 75bf
000000b0: eb9d c1bd 3557 073e 6f56 9bbe 4ba7 3ebf
000000c0: 0e36 903d edb1 59bd 4e93 143e 5131 993d
000000d0: 06ac 883f 45cb 2d3d 04a3 3d3c 4bd7 a63d
000000e0: 8cf7 ca3b 385d 02bd 4d77 213d d375 5fbc
000000f0: 5306 ff3d aec6 a240 cdcd e7bf fbc3 61be
00000100: 9932 8bbe 796c 713f c6f1 7dbe 3732 063f
00000110: 19b0 b43d b996 703f b88e ad3c 3801 ae3e
00000120: f661 46bf 5d11 5c3a 30ba 673e 4aeb bb3e
00000130: 1666 d63e 643b 653e 8024 3f3e bb13 1abf
00000140: 1988 8a3e 0b91 61bf f5d8 82bf cd05 dcbe
00000150: 49c7 62bf 1169 88bf 3e6c 9abf 54de 273e
00000160: 46af 113f fe40 babd 6aca f63e 98c1 02bf
00000170: acf7 213c 7be8 14bf 3eec 553e 6b83 1ebf
00000180: 15c9 21bf c4dd a73f 00f3 44bf 6c2b 353f
00000190: 338c 1f3f e960 603f b864 9abe e7f3 5b3f
000001a0: e090 953f a164 7dbe 4457 d13e 154b 523e
000001b0: f377 a33e 6a9e a23e 8df4 e63e f2a5 853f
000001c0: 4652 c5be 239d 4bbc e1e5 133d 3c02 d33e
000001d0: af22 893f f4b5 f9bd 6f14 a2be f2d2 40be
000001e0: da0c a53d e29f 82bf 1b6a 9dbd 430a 7d3f
000001f0: d07d f13e 323a bb3e 50fa af3f a297 1a3f
00000200: d72d aabe efb2 11bc dea9 edbe 0fa4 00bf
00000210: 1cec 873d 0f5e d7bf 8e11 12bf 07e1 febd
00000220: d71f 9bbc 90e7 523f 3aba e7be 09be aebe
00000230: d5e7 183d abad 90bf 995c 7a3f 6af4 f6be
00000240: 61cb f7bc 1b5e 02bf 7612 fa3e 29da 7a3e
00000250: 9c74 60be 54fa 9fbf c2c8 2fbf 50a2 cdbd
00000260: 9e94 283f e98e 30be b325 17c0 6e8d d3be
00000270: b100 3fbf 6877 9c3e 70e2 55bf 212a f7be
00000280: e134 493f 9207 33bd 8dff 3f3f 23a2 72bf
00000290: cd21 a6bf d5b4 b2be 034f d3be f10b 1f3e
000002a0: 70bb 3e3e 4ecc b7bf 244d 2ebb 8f05 24bd
000002b0: 6585 20bf 3c77 38bf 8c3d 7f3e 3ecc d03f
000002c0: dbc7 89bd c01e 19bf 0696 48be f694 ccbf
000002d0: e90c 693e 814e f4bd fc72 7ebe f25f b9be
000002e0: f10a cebe 370d 09bf 8fa7 b0bd 548b ddbe
000002f0: 4977 20be c973 f8bf 001d 32bf 1e1a 62bf
00000300: f3dd 0f3e f620 2ebd 0eeb b2bd a8e6 643f
00000310: 44e8 c63f a616 c2bf 2a2e babe 81a6 80bc
00000320: f0d3 503e 4f4c 8d3d 884b 943d ff07 003d
00000330: 2ddf c9bd ff0e 883f 41a0 a2be 7425 ff3d
00000340: 9afa 553d 0016 f8bd cf43 5d3f 2922 f8bd
00000350: c925 f5bf 7537 cb3e ae49 acbf eb84 8b3d
00000360: 07ca ed3e d02f 063d 7017 2bbe 1ab6 05be
00000370: 253b a0bc a4f4 88be eb91 08bf 603a 62bf
00000380: 6a9d c5bd 0abf e53e d6a7 783f b499 16bf
00000390: d988 a7bd 679f 013e 5679 e3bd 746f e1be
000003a0: 40d4 f8be 90d8 06bf 7769 1540 8d41 bcbf
000003b0: 46ff afbd d134 d13d d8d6 d5be b4a9 7abf
000003c0: dd26 e53d 847a 1ebe a984 c2bc eb15 d2bc
000003d0: 9b70 25c0 6500 5ec0 db35 793d 9e22 11be
000003e0: 7daa 593a e1ad 803d 96f2 2e3c 61af dd3c
000003f0: 63c0 17bc e4a3 1a40 bf2e 0dbf 7fbb e13e

link_predictor.0.weight f4 [64, 416]
0.1226952 1.1093884 -0.16382799 0.14709452 0.051088903 -0.03986672 0.032412983 -0.29599673
-0.03022446 -0.14569649 -0.61289567 0.03432062 -0.39442948 -0.2526804 0.15718117 -0.13184662
0.16607161 -1.0252813 -0.004192773 -0.50920147 -0.02437595 -0.236268 0.07878079 -0.10600006
0.1260849 -0.12586963 0.21318303 0.5236355 -0.08777037 0.22917913 0.14871137 0.019339576
-3.748122 -1.4524819 8.621347 -6.9440274 4.088091 -18.059155 -0.996423 -10.099801
6.981734 9.5352955 6.037337 -1.9558558 7.4648256 -0.6823977 5.1415873 10.365621
0.030702215 -1.9693049 8.059411 2.499425 -11.874091 6.193913 1.874811 -10.237546
-0.5371345 -0.6237984 1.0870596 3.251441 2.8312411 4.471635 -14.531444 -14.708202
7.5549703 15.7023535 -16.69884 -15.144536 -0.07195064 -3.1449106 4.468551 -10.346879
2.97694 3.2964761 0.6872289 -5.0164924 -8.664439 20.459208 -0.40122873 12.711626
21.358727 3.542337 3.9190896 0.36009824 4.8142824 20.082048 -4.637026 15.882798
-6.885592 7.3190413 0.72576326 -3.2080758 9.161455 -4.858411 1.6543777 11.276007
-14.001479 0.58037376 10.372868 -15.610748 -9.332088 -5.422001 5.223378 8.21062
7.875938 -5.8774004 -7.715222 -3.8169327 4.388769 0.89697564 -14.03895 5.2556133
7.5895905 4.4629316 24.692936 0.23191701 7.7950363 14.657292 2.373861 9.308749
4.5296383 5.8078136 3.3746724 7.1729035 -2.8847165 -3.9584627 -1.0255022 -6.934457
-9.6049185 0.92057574 3.0421038 -9.746661 -9.232887 1.6632104 -2.0949063 6.124312
-1.2132161 -7.7848115 12.070618 7.6133227 -2.6339061 8.331838 -1.613795 -0.27711192
-1.9403774 -8.540127 -4.4287453 -3.6784148 -0.5084406 -5.3601375 -2.128564 8.767315
-8.894106 3.6182413 -1.5581628 9.692178 -13.639074 -18.96357 -8.637796 -0.021404017
11.212255 21.136057 -2.5362158 -16.86402 7.6109023 -13.13811 -4.746802 5.728587
-7.5189114 -0.10175778 -5.0725803 1.1696237 -3.576731 1.4014566 -4.8646293 7.8786607
9.983828 -12.42536 -5.738253 8.684701 -14.622365 3.7750912 -4.7261643 -6.044135
5.1936765 -11.839698 1.1488773 12.096873 0.17109029 6.6163874 -5.0236993 17.209885
8.054632 10.053374 3.0067463 -20.451109 -6.006173 -7.9244466 -0.63423014 15.432555
3.4227548 -5.3926396 -11.508576 -2.4537158 -8.002005 1.1328936 -3.2148771 5.7271624
-6.503971 -19.370207 11.29489 1.808202 10.23192 -10.452844 -3.857551 -12.757605
0.36886144 9.243281 -6.243326 -6.954431 6.8833323 -2.217835 6.134909 3.587437
10.782875 -15.707462 10.357966 2.236975 -12.710466 0.73323095 0.37103045 12.051361
-4.8974485 7.0648603 -15.458569 15.013422 0.5400826 -2.946569 -3.7623117 -2.4456468
0.81381416 6.565381 -4.250842 6.138101 -17.159834 7.17637 -10.970953 3.6188738
1.1790068 -6.0576344 -2.4206905 -8.06116 -3.9036965 -4.4628415 -4.1709375 -0.024292504
00000000: 9f47 fb3d 7000 8e3f 86c2 27be f29f 163e
00000010: 9942 513d 494b 23bd 7ac3 043d e28c 97be
00000020: 4999 f7bc 7631 15be bbe6 1cbf c793 0c3d
00000030: a9f2 c9be 535f 81be 1af4 203e cd02 07be
00000040: ad0e 2a3e 6b3c 83bf 8763 89bb 075b 02bf
00000050: 13b0 c7bc 3df0 71be d357 a13d 8f16 d9bd
00000060: 661c 013e f8e3 00be a74c 5a3e fa0c 063f
00000070: f4c0 b3bd efad 6a3e cb47 183e 086e 9e3c
00000080: 3be1 6fc0 edea b9bf 0af1 0941 7935 dec0
00000090: a4d1 8240 2679 90c1 9415 7fbf c998 21c1
000000a0: 5d6a df40 9290 1841 dd31 c140 7c59 fabf
000000b0: dadf ee40 9eb1 2ebf e287 a440 95d9 2541
000000c0: 3683 fb3c 2f12 fcbf 59f3 0041 94f6 1f40
000000d0: 47fc 3dc1 8934 c640 cff9 ef3f fdcc 23c1
000000e0: a681 09bf 40b1 1fbf c524 8b3f 9c17 5040
000000f0: 0e33 3540 a217 8f40 cb80 68c1 cc54 6bc1
00000100: 51c2 f140 d73c 7b41 3997 85c1 0550 72c1
00000110: db5a 93bd 3746 49c0 5ffe 8e40 d18c 25c1
00000120: 2f86 3e40 77f9 5240 3cee 2f3f 1b87 a0c0
00000130: 8ba1 0ac1 75ac a341 da6d cdbe d262 4b41
00000140: acde aa41 a6b5 6240 5dd2 7a40 cc5e b83e
00000150: 9a0e 9a40 09a8 a041 8462 94c0 f11f 7e41
00000160: c556 dcc0 9635 ea40 9fcb 393f 1d51 4dc0
00000170: 5295 1241 1a78 9bc0 a6c2 d33f 866a 3441
00000180: 0f06 60c1 6093 143f 44f7 2541 a0c5 79c1
00000190: 3c50 15c1 0881 adc0 ea25 a740 b35e 0341
000001a0: af07 fc40 aa13 bcc0 19e3 f6c0 a048 74c0
000001b0: cc70 8c40 32a0 653f 8a9f 60c1 fc2d a840
000001c0: eddd f240 56d0 8e40 228b c541 a77b 6d3e
000001d0: f070 f940 4584 6a41 57ed 1740 a3f0 1441
000001e0: ccf2 9040 9cd9 b940 a2fa 5740 6d88 e540
000001f0: 329f 38c0 7457 7dc0 a843 83bf 12e7 ddc0
00000200: bfad 19c1 daaa 6b3f d4b1 4240 53f2 1bc1
00000210: e8b9 13c1 14e4 d43f f212 06c0 5dfa c340
00000220: aa4a 9bbf 2d1d f9c0 4021 4141 57a0 f340
00000230: eb91 28c0 354f 0541 d690 cebf 9de1 8dbe
00000240: 495e f8bf 5ca4 08c1 48b8 8dc0 266b 6bc0
00000250: 2a29 02bf 3f86 abc0 643a 08c0 ec46 0c41
00000260: 424e 0ec1 4491 6740 e171 c7bf 2913 1b41
00000270: a639 5ac1 64b5 97c1 6a34 0ac1 7a57 afbc
00000280: 6565 3341 a516 a941 5c51 22c0 83e9 86c1
00000290: 838c f340 b335 52c1 cde5 97c0 9650 b740
000002a0: ec9a f0c0 6266 d0bd 9452 a2c0 3bb6 953f
000002b0: 29e9 64c0 ee62 b33f 0bab 9bc0 fd1d fc40
000002c0: c2bd 1f41 46ce 46c1 c59f b7c0 89f4 0a41
000002d0: 35f5 69c1 189b 7140 bd3c 97c0 8e69 c1c0
000002e0: 9932 a640 676f 3dc1 690e 933f cb8c 4141
000002f0: 4b32 2f3e 72b9 d340 25c2 a0c0 d8ad 8941
00000300: c6df 0041 9fda 2041 886e 4040 df9b a3c1
00000310: 9232 c0c0 1195 fdc0 e85c 22bf bfeb 7641
00000320: 6a0e 5b40 8190 acc0 2123 38c1 ae09 1dc0
00000330: 3608 00c1 a802 913f 8cc0 4dc0 ea44 b740
00000340: 8820 d0c0 2ff6 9ac1 dfb7 3441 2a73 e73f
00000350: f2b5 2341 d93e 27c1 1ee2 76c0 261f 4cc1
00000360: 68db bc3e 7be4 1341 54c9 c7c0 b38a dec0
00000370: 4244 dc40 02f1 0dc0 2d51 c440 9198 6540
00000380: a886 2c41 c451 7bc1 3bba 2541 992a 0f40
00000390: 125e 4bc1 06b5 3b3f b4f7 bd3e 60d2 4041
000003a0: e6b7 9cc0 5613 e240 4c56 77c1 fa36 7041
000003b0: da42 0a3f 9694 3cc0 b7c9 70c0 7a85 1cc0
000003c0: 2056 503f 9a17 d240 e606 88c0 536b c440
000003d0: 5747 89c1 d3a4 e540 0689 2fc1 a19b 6740
000003e0: b2e9 963f 24d8 c1c0 98ec 1ac0 83fa 00c1
000003f0: 2ad6 79c0 99cf 8ec0 5278 85c0 1301 c7bc

link_predictor.0.bias f4 [64]
-14.780208 -7.1399355 -12.471564 -10.554412 -10.956123 -14.1501465 -16.80992 -13.454709
-17.548702 -13.325787 -7.9176626 -0.55384356 -16.584682 -13.287255 -5.686833 -7.4119997
-11.250054 -10.705033 -18.941164 -5.3730183 -12.716133 -12.304565 -13.580039 -14.758742
-12.592079 -13.561462 -16.621222 -13.854324 -9.833799 -13.701406 -19.641876 -16.535278
-10.392021 -7.7665887 -12.369196 -12.726366 -7.7222495 -4.9486356 -14.946351 -14.285202
-6.934021 -15.310448 -10.208545 -0.9573055 -3.9778664 -8.375518 -13.322867 -15.117525
-12.508214 -0.7905382 -14.317513 -13.038862 -9.900583 -13.2380295 -5.9313836 -15.496384
-10.606407 -4.4114513 -9.99892 -13.463356 -15.990556 -16.80276 -10.559311 -13.62015
00000000: bb7b 6cc1 5a7a e4c0 878b 47c1 dfde 28c1
00000010: 484c 2fc1 0067 62c1 b77a 86c1 7d46 57c1
00000020: be63 8cc1 6c36 55c1 7e5d fdc0 b1c8 0dbf
00000030: 6ead 84c1 9998 54c1 89fa b5c0 1a2f edc0
00000040: 3900 34c1 d147 2bc1 8187 97c1 c4ef abc0
00000050: 4875 4bc1 80df 44c1 d747 59c1 cf23 6cc1
00000060: 2879 49c1 c0fb 58c1 43f8 84c1 50ab 5dc1
00000070: 3e57 1dc1 f538 5bc1 9022 9dc1 4048 84c1
00000080: b845 26c1 e587 f8c0 3ae8 45c1 329f 4bc1
00000090: ab1c f7c0 395b 9ec0 4124 6fc1 3090 64c1
000000a0: 80e3 ddc0 98f7 74c1 3356 23c1 f911 75bf
000000b0: 5d95 7ec0 1f02 06c1 772a 55c1 62e1 71c1
000000c0: a521 48c1 b660 4abf 8914 65c1 2e9f 50c1
000000d0: ca68 1ec1 f8ce 53c1 e5cd bdc0 30f1 77c1
000000e0: d8b3 29c1 9c2a 8dc0 94fb 1fc1 e869 57c1
000000f0: 51d9 7fc1 0d6c 86c1 f0f2 28c1 22ec 59c1

link_predictor.2.weight f4 [1, 64]
0.04216256 -0.09062649 -0.08264474 -0.07763736 -0.11920228 0.0854121 0.042456806 0.06857636
0.07703052 -0.087173305 -0.09578582 -0.08550608 0.095196575 0.094333015 -0.11110181 -0.089845456
0.06397358 -0.07135342 -0.10200439 -0.100144856 0.10846965 0.11828433 -0.084173284 -0.11918139
-0.12925522 -0.06793775 0.08570108 -0.09410065 0.13264821 -0.103413776 -0.12788731 0.07317997
0.078854375 -0.09339276 0.04317792 -0.16128232 -0.08543491 -0.13928232 0.06132107 -0.1294749
-0.0866785 -0.13080959 -0.111727715 -0.07625742 -0.10166658 -0.12165065 0.05670769 0.07347479
-0.114615835 0.08709539 0.11120555 0.09263578 0.11434676 0.08038877 0.082591884 -0.11771359
-0.12679222 -0.097398534 -0.09443948 0.09333037 -0.09579735 0.1553376 0.05234929 0.07649753
00000000: a6b2 2c3d 629a b9bd a541 a9bd 5600 9fbd
00000010: 5320 f4bd 8aec ae3d 30e7 2d3d c371 8c3d
00000020: 2dc2 9d3d eb87 b2bd 5b2b c4bd d01d afbd
00000030: 6cf6 c23d ab31 c13d 5989 e3bd e500 b8bd
00000040: 9504 833d be21 92bd ade7 d0bd bf18 cdbd
00000050: 5625 de3d 0e3f f23d 0b63 acbd 5f15 f4bd
00000060: 7b5b 04be f222 8bbd 0c84 af3d d7b7 c0bd
00000070: efd4 073e 9aca d3bd e4f4 02be 61df 953d
00000080: 677e a13d b444 bfbd 55db 303d 3127 25be
00000090: 80f8 aebd 06a0 0ebe cd2b 7b3d 1195 04be
000000a0: 7f84 b1bd f3f2 05be 80d1 e4bd da2c 9cbd
000000b0: 9136 d0bd fa23 f9bd 5346 683d f379 963d
000000c0: b5bb eabd 115f b23d bcbf e33d d4b7 bd3d
000000d0: a22e ea3d dea2 a43d ef25 a93d d313 f1bd
000000e0: d2d5 01be e278 c7bd 7c69 c1bd fe23 bf3d
000000f0: 6731 c4bd d210 1f3e 366c 563d bdaa 9c3d
