checkpoints/model_epoch_17.pth (torch, 217428 bytes, 7 tensors)

conv1.bias f4 [64]
00000000: fbbf 603d 4e61 453f 69c5 6f3f 2f2f 1ac0
00000010: f077 70c0 448c acc0 41de 9cc0 c44c 2cbf
00000020: a164 31c0 d7a7 33c0 d0df 8d3e 1fab b7bf
00000030: 1e59 593e 62cb 2ac1 b3fa 30c1 943a 953f
00000040: a7a8 b73b 603f 393e 26e4 3fc1 d73b 053f
00000050: c4ea 43c1 f996 98c0 591a 10c1 6abb 023f
00000060: 7c2a 95c0 a066 4b3f 7365 f6c0 828f fbbf
00000070: c5b7 153f c811 e6c0 261d 69c0 cad8 5bc0
00000080: 52d6 4ac1 0602 a7c0 44ad 6bc0 447e 4cc0
00000090: 964a 4cc0 3586 ee3d 1824 e6bf 1211 6fc0
000000a0: 01d8 8dc0 6db4 e2c0 4b0a 4ec1 50d1 38c0
000000b0: 00f1 443f fa19 343f 35e8 e6bf 51ae b8c0
000000c0: e0ee 0c40 9b10 1b3f 1203 c5bc 462d 733e
000000d0: b6b0 71c1 856e 1ac1 e3b7 1b40 05d0 383e
000000e0: 2725 30c0 e65d d5bd 9dae 813f b869 48be
000000f0: a404 b1bf 91ac 38c1 b5a1 f1c0 5273 bac0
0.054870587 0.771016 0.936606 -2.4091299 -3.7573204 -5.3921223 -4.9021306 -0.67304635
-2.771767 -2.8071191 0.27709818 -1.4349097 0.21225402 -10.674654 -11.061206 1.1658502
0.0056048217 0.18090582 -11.9932 0.52044433 -12.244816 -4.7684293 -9.006433 0.5106722
-4.661436 0.7945347 -7.699884 -1.965317 0.58483535 -7.1896706 -3.642404 -3.4351068
-12.677324 -5.218997 -3.6824503 -3.1952066 -3.1920524 0.11646692 -1.7979765 -3.735417
-4.4326177 -7.0845246 -12.877513 -2.8877754 0.76930237 0.7035214 -1.8039614 -5.771279
2.2020798 0.6057221 -0.024049316 0.23747739 -15.105642 -9.651982 2.4330986 0.18048103
-2.7522676 -0.104183 1.0131413 -0.19571579 -1.3829541 -11.54213 -7.5509896 -5.826577

conv1.lin.weight f4 [64, 384]
00000000: 45f6 d53f eac8 f63f 0c50 933f 13e9 8bbe
00000010: 32a9 8a3f 9a3a 2dbe b5ac 683f aaa7 17bf
00000020: 45af bbbf 6ac8 853f 608f b03f af11 60bf
00000030: 93b8 42c0 5d18 0140 eca2 4c3f 910f 723f
00000040: 4b0d 6f3e 6712 a83f 7018 a53f 580b 3ec0
00000050: dd70 45bf 198e afbf 6044 413e 897e bd3f
00000060: 39c8 5b40 8efe ba3f 2856 9b3f 39a6 923c
00000070: 00a4 e53f 17b5 f93f 8013 b33c 1ee9 3b40
00000080: adff 94bf eaed d13f 4dc7 b040 35ca a73e
00000090: a567 10bd 8d33 2bbf 0095 b43e 41d0 9e3f
000000a0: 1521 74c0 2cbb 3bbf d266 50bf b228 13c0
000000b0: b4d0 d73e 9cb8 60bf 18f3 753b 0712 80c0
000000c0: 2f5a bd3f 2c09 b5c0 4953 3e3f 0cd2 8e3f
000000d0: 8a34 c43f 05f7 98bf 63cb 1f40 de3b b83f
000000e0: 6224 fe3f ae1f 2b3f 6213 f2bf e837 0a40
000000f0: d05f c2bf d8f3 413f 635f 1bbf e945 543f
00000100: e839 153f 9acb 95c0 0641 1340 8201 e43f
00000110: 6323 b33e 2e81 4b3f 07d1 3840 b304 de3e
00000120: fd70 083f ccb3 573c 59c0 a93f 7a84 d4bf
00000130: 76ca 0940 6f54 06c0 550c 2440 5940 ccbe
00000140: 90d9 1040 6aac f53f 475b 87bf d6d2 ffbd
00000150: 400f 0840 5dcc 8fbf 86e5 1840 0a5e 70c0
00000160: db2a 2940 f789 bb3f 4dd1 05be c48b bcbe
00000170: 3fc4 f6bf 13f3 263e fb6a 583f 0413 c03f
00000180: 5195 c6bf b03f a5be 94a0 443f 56de debf
00000190: d94c bb3f a29e ef3e 1b34 0f3f 75dc a8bf
000001a0: 1a87 1fc0 d927 cf3e dc40 c23f 6b6a c6bf
000001b0: 5751 18c0 8ff3 43c0 5a00 2b40 2ba5 ac3f
000001c0: deea 1ebe b05e 98bf e8a9 983e b0e2 973f
000001d0: 347e b7bf 6c0f 38c0 64f9 383f 2d92 8e3f
000001e0: 1000 1640 df78 2140 a1a7 c8bf de90 b7bf
000001f0: f7e7 2640 dbf4 bb3e b11f 01bf e470 933d
00000200: e496 efbf e2af 443f 8719 d43f 5a0c e2bf
00000210: 1b0f 33bf 1cfd e63e b559 793f 67ef ce3f
00000220: cf73 bb3f 4ed4 8abf ca93 6a3e fa46 8d3f
00000230: 1691 c23f cc2e 0b40 ff1c b8bf c50d 3840
00000240: afde 813f c2b6 743f eab0 aebf 0a80 db3f
00000250: 6337 bebe 9ca9 a13f 0aa7 0d3e 326e 1c3f
00000260: 5d17 b63d 7ac6 b03e 0f42 9a3b 14d7 833f
00000270: 6bb2 a6bf 04b0 89c0 4f49 b4bf 0dee 27c0
00000280: 55de 85bf c6f5 dd3e 94ef 3fbe 3d1d 413f
00000290: 9c84 fa3f f27f c6bf 48d3 3f3f e3ec 533f
000002a0: 7f8a 2abf d0c0 25c0 d2b5 733e 1821 3940
000002b0: eccc 923f bb6c 11be 1ca1 a23e 72f7 933f
000002c0: 2af0 2340 af53 a33f abb3 2fbe d0f4 16be
000002d0: 8d71 bc3f f1e9 f73e 11ca 64c0 4166 5dbf
000002e0: 4a41 c33f 5e3c 5dbe b5c6 cdbf 356e 1a40
000002f0: 0de9 ac3f 1de2 b43e 5357 a93f 58e1 8c3f
00000300: 8876 0ec0 6e0a 2340 a0fc c43d ca6a 07bf
00000310: 2f2e d7bf 7e00 013e 97e1 773f 2acb 20c0
00000320: ffea 60bf 81d3 523f 6861 4abf 9264 4e3f
00000330: 6044 2e3e 0d4f 8ebf 746e 843f d41b 683f
00000340: 3e19 5040 5e7c a73e 3186 7940 d7ae 993f
00000350: 695c 31bf e1b5 0440 0fe6 7abe 24ef 3240
00000360: 41ff ebbf 70fd 433f 50a8 3840 b71a 5b40
00000370: 608d 9cbf abdb 2ebf d236 0140 c364 843d
00000380: 92e4 73bf c46e d7be 991c 38bf dc4b 1540
00000390: 6fc7 ec3e f674 143f 2532 1f3f ff7c 5abd
000003a0: ed0b e53f 24c9 1c40 3c16 13bf 52fe 1440
000003b0: 4acc 0240 e75f 933f ada4 0cbf 3d28 63be
000003c0: 61cb 0840 c44e cebf 081c ed3f 5d12 babf
000003d0: 331a ba3d e15c d0bf 89b8 6f3e 69aa a03f
000003e0: d3a5 893d 3485 d83f 9d00 923f 1634 2340
000003f0: 324c 683f 6fcc 653e 49a2 e4bf ddc2 fb3f
1.671578 1.9280064 1.1508803 -0.2732626 1.0832884 -0.16916886 0.9088853 -0.5924021
-1.4662863 1.0451787 1.3793755 -0.87526983 -3.0425155 2.017112 0.799361 0.94555
0.23344915 1.3130616 1.2898083 -2.9694424 -0.7712534 -1.371524 0.18873739 1.480424
3.4340956 1.4608934 1.2135668 0.017901527 1.7940674 1.9508389 0.021859884 2.9361033
-1.1640526 1.6400731 5.5243287 0.3277146 -0.035255093 -0.66875535 0.35269928 1.2407304
-3.8145192 -0.73332477 -0.8140689 -2.2993588 0.42151415 -0.8778169 0.0037528928 -4.0022006
1.4793147 -5.6573696 0.74345833 1.1157851 1.5328534 -1.1950384 2.4967887 1.439327
1.9854853 0.66845214 -1.8912165 2.1596622 -1.518549 0.757627 -0.60692424 0.82919174
0.5829148 -4.6811037 2.3008437 1.781296 0.34987935 0.7949399 2.887758 0.4336296
0.53297406 0.0131654255 1.3261825 -1.6602929 2.1529822 -2.0989034 2.5632527 -0.39892843
2.263279 1.9193242 -1.0574731 -0.12491386 2.1259308 -1.1234242 2.389009 -3.7557397
2.6432407 1.4651479 -0.13068123 -0.36825383 -1.927864 0.16303663 0.8453824 1.5005803
-1.5514318 -0.32275152 0.7680752 -1.7411602 1.4632827 0.46800715 0.5593888 -1.3192278
-2.492621 0.4046009 1.5176044 -1.5501226 -2.3799646 -3.0617406 2.6718965 1.3487905
-0.15519282 -1.1903896 0.29817128 1.1866055 -1.4335389 -2.8759413 0.7225554 1.1138359
2.3437538 2.5230024 -1.5676156 -1.4341085 2.607908 0.36710247 -0.5043898 0.071992666
-1.8717923 0.76830876 1.657029 -1.7660019 -0.69944924 0.45114982 0.9740251 1.616681
1.4644717 -1.084604 0.2290794 1.1037285 1.5200527 2.1747313 -1.4383849 2.8758404
1.0146083 0.95591366 -1.364774 1.714845 -0.37151632 1.2629886 0.13833252 0.61105645
0.08891175 0.34526426 0.004707582 1.0300012 -1.3023199 -4.3027363 -1.4084872 -2.6239045
-1.0458475 0.43351573 -0.18743736 0.7543524 1.9571719 -1.5507796 0.74931765 0.82783335
-0.6661758 -2.5898933 0.23799828 2.892645 1.1468787 -0.14201634 0.31763542 1.1559889
2.5615335 1.2759913 -0.17158382 -0.14741826 1.4722153 0.4842067 -3.5748332 -0.8648415
1.52543 -0.2160506 -1.6076266 2.4129765 1.3508621 0.3532876 1.3229774 1.100627
-2.2259846 2.5475116 0.09618497 -0.5289732 -1.6810969 0.12597844 0.968286 -2.5124002
-0.87858576 0.8235398 -0.7905488 0.8062221 0.1701827 -1.1117874 1.0346208 0.9066746
3.2515407 0.32712072 3.8988154 1.2006482 -0.6928163 2.073601 -0.24501823 2.795846
-1.8437272 0.7655859 2.885273 3.4235055 -1.2230644 -0.68303937 2.018971 0.06464531
-0.95270646 -0.42076695 -0.71918637 2.332755 0.46245906 0.5799097 0.6218589 -0.05334186
1.7894264 2.4497766 -0.574558 2.3280225 2.0437188 1.1513642 -0.54938775 -0.22183318
2.1374133 -1.6117787 1.852418 -1.4536854 0.09087028 -1.6278344 0.23410238 1.2552005
0.067210816 1.691565 1.1406437 2.550054 0.90741265 0.22441266 -1.7862025 1.9668843

conv2.bias f4 [32]
00000000: d780 893d 4d5b 94bf 10d6 2841 4b5e 98bd
00000010: de1c 80bd b54c cb3d 7eeb 28be d976 12bf
00000020: a867 2cbe c1a6 25bf 068a a33e 6d89 62bd
00000030: 6738 593f 28ef bcc0 93aa a5bd 5a85 06c1
00000040: 5c1f 3040 a3ef 9abd 0399 133f ecc1 6abf
00000050: 5900 273c 0e7d 17bf 67d8 80bd 42c2 203d
00000060: 4b89 cb3d 2b74 773d df7d ab3d 86fc 99be
00000070: 8a67 8bbf 7d30 22be bb03 e53f 5dff a8bd
0.067140274 -1.1590363 10.552261 -0.0743986 -0.06255506 0.0992674 -0.16496083 -0.572126
-0.16836417 -0.6470757 0.3194124 -0.05530684 0.8485169 -5.904194 -0.08089175 -8.407557
2.751914 -0.07565238 0.5765535 -0.9170215 0.010192954 -0.59175193 -0.062912755 0.03924776
0.09938296 0.06041352 0.083736174 -0.30075473 -1.0890973 -0.1583881 1.7891763 -0.08251832

conv2.lin.weight f4 [32, 64]
00000000: 6b26 02bd 5763 e73c 35a4 5e3d c16b ea3d
00000010: 7829 ccbd a736 60bf d09c 93be bead 4ebe
00000020: 27f8 9a3e 8311 7e3e fc70 02be 2d90 1b3e
00000030: 53ed 043d f9d5 ec3e 0745 7f40 bfcf 78be
00000040: ff02 3dbd 45ad bc3c d27a 85bf f0ae 403d
00000050: 0f36 2540 bf05 753f 2f41 a53f cd95 23bd
00000060: 63b9 a1bf 2d54 27bd f929 5b3e 15c6 1b3f
00000070: 50df 22be 5265 3fbf 87d8 1f3f f179 cfbc
00000080: aaee 903d ea43 9a3f fd72 dfbe 3529 2dbf
00000090: 559b 7c3e 6127 3abd f598 0ebe 80fd b5bb
000000a0: 8829 26be a7d3 0e3e 25de 44c0 565d 75bf
000000b0: 4224 4abd 322b 4cbc 6f56 9bbe 0fe5 1ebd
000000c0: 351f 253e d40a d1bc e32a 653d ff41 9ebd
000000d0: 2e50 8b3f 45cb 2d3d d0f0 073c 5f93 86bd
000000e0: f0d0 f7bd 506f aabd 788b 28b9 e522 8dbd
000000f0: ce6b 60be 98f1 1640 cdcd e7bf 5b7a 97bd
00000100: 8876 a5be cad3 863f 704e f5be 3732 063f
00000110: 19b0 b43d b996 703f b88e ad3c 3801 ae3e
00000120: f661 46bf 5d11 5c3a ad0c 033e aace fc3e
00000130: 1d46 0d3f 5434 c7bf 99e8 d5bf 67d0 08bf
00000140: d788 733e f477 4ebf 9704 02bf de54 bfbe
00000150: b2e6 cebe f264 babf 3e6c 9abf cd8f 953d
00000160: 5fb7 55bf 0702 7bbe 3967 2f3f 98c1 02bf
00000170: 45f2 243e 7be8 14bf 3eec 553e 6b83 1ebf
00000180: 9e28 35bf c4dd a73f 00f3 44bf 6c2b 353f
00000190: f844 283f 7b0e 453f c097 e4be e7f3 5b3f
000001a0: e090 953f 1c0d a33e 5a29 babe 154b 523e
000001b0: e2c2 c23e 9f81 383e 8df4 e63e 4963 8abd
000001c0: 0efc c6be 1d79 37bd c1b9 323e 3094 0e3f
000001d0: e75b 993f f4b5 f9bd 80a9 86be cc56 cabd
000001e0: 2fc2 0b3f 53ba 8cbf bc69 1ebe bb54 853f
000001f0: 39d7 a23e 4f21 f6bf 50fa af3f 50bc 8a3f
00000200: 9596 11bf c973 c7bd 3a97 f3be 0fa4 00bf
00000210: 1cec 873d 0f5e d7bf 8e11 12bf 07e1 febd
00000220: d71f 9bbc 90e7 523f 8c24 0dbf b454 b3be
00000230: 599f 89bd 115f d1be 4a59 2a3f ae82 1fbf
00000240: 7a3b c3bd d48f 2dbf 9151 263f ab4f 05bd
00000250: 5047 54be 4b7b f43e c2c8 2fbf 342b a5be
00000260: dd7e 813f a1d7 47bd 2c13 1ec0 6e8d d3be
00000270: 9755 53bf 6877 9c3e 70e2 55bf 212a f7be
00000280: b654 4e3f 9207 33bd 8dff 3f3f 23a2 72bf
00000290: 6e35 a9bf 1ab9 d1be b507 01bf f10b 1f3e
000002a0: 70bb 3e3e fc3f b0bf 9532 d23f 8f05 24bd
000002b0: 9f99 2dbf a796 64bf 8c3d 7f3e 5f66 03bf
000002c0: 26af 91be b20c 28bf dd50 07be 1f79 dabf
000002d0: 5065 b13e 814e f4bd 2b4c 97be 840c fbbe
000002e0: 25f7 a7be 6b7a 16bf 334a 72be 0deb e0be
000002f0: 1378 e0bd c674 08c0 001d 32bf 5621 86bf
00000300: dc78 a5ba eb58 8b3d ccc7 5fbc a8e6 643f
00000310: 44e8 c63f a616 c2bf 2a2e babe 81a6 80bc
00000320: f0d3 503e 4f4c 8d3d d4ce a1bd 82d6 843e
00000330: 3e70 65bd ab0f 0840 ff34 163f fbe0 a6bd
00000340: 6b69 8e3d fa9e 973d ea3d afbf e680 e5bb
00000350: b922 c83f 7a67 04be ae49 acbf c806 dd3d
00000360: 1abd 4040 819b cc3d c7ea 6dbe 1ab6 05be
00000370: daba a5bd a4f4 88be eb91 08bf 603a 62bf
00000380: 0650 c1bd 0abf e53e d6a7 783f b499 16bf
00000390: d8d6 cfbc b362 f63c ac7b 543e 746f e1be
000003a0: 40d4 f8be 72d9 6fbe 8858 00c0 8d41 bcbf
000003b0: a8c4 d1bd ed7c a0bc d8d6 d5be 61ac eabf
000003c0: 37ea 903c 7eb3 963d cfeb 343d 82c2 8cbd
000003d0: e33c 2abf 6500 5ec0 482b f6bc 99f9 153e
000003e0: 12cc 8f3d cc68 bbbd e2b2 ba3c fbf1 083e
000003f0: 0fa8 313d 94f6 61c0 bf2e 0dbf 313e bfbe
-0.03177492 0.028245611 0.05435582 0.11446334 -0.09968847 -0.8758339 -0.28830576 -0.20183465
0.3026745 0.24811368 -0.12738413 0.15191717 0.032452893 0.46256998 3.988588 -0.24297999
-0.046145435 0.02303184 -1.0428107 0.047041833 2.5814245 0.9571189 1.2910517 -0.039937783
-1.26347 -0.04085176 0.2140273 0.60849124 -0.159055 -0.7476398 0.6243977 -0.0253267
0.070767716 1.2051976 -0.43642417 -0.67641 0.2466863 -0.04544771 -0.13925536 -0.005553901
-0.1622678 0.13947926 -3.0760586 -0.95845544 -0.049350984 -0.01246147 -0.3033938 -0.038792666
0.16125186 -0.025517859 0.055949103 -0.077274315 1.0883844 0.04243018 0.00829716 -0.065710776
-0.121003985 -0.083220124 -0.00016073685 -0.06891421 -0.21916124 2.3584957 -1.810968 -0.07396384
-0.32316995 1.0533383 -0.47911406 0.5242037 0.088226505 0.93979985 0.021186218 0.33985305
-0.77493227 0.00083949213 0.12797804 0.49376422 0.5518511 -1.5562844 -1.6711608 -0.53442997
0.23782669 -0.80651784 -0.50788254 -0.37369436 -0.40410382 -1.4562056 -1.2064283 0.073028184
-0.8348293 -0.24512492 0.6851688 -0.5107665 0.16108043 -0.5816724 0.208909 -0.6191928
-0.707651 1.3114552 -0.7693329 0.7076938 0.6573024 0.7697522 -0.44647026 0.8591904
1.1684837 0.3184594 -0.36359674 0.20536454 0.3803931 0.18018197 0.45108452 -0.067572184
-0.38864177 -0.044793237 0.17453672 0.55694866 1.1981171 -0.12192908 -0.26301193 -0.098798364
0.54593176 -1.0994362 -0.15470022 1.0416483 0.31804827 -1.9228915 1.3748264 1.0838718
-0.56870395 -0.09738881 -0.47576314 -0.50250334 0.06636831 -1.682558 -0.57058036 -0.12445264
-0.01893608 0.82384586 -0.5513389 -0.3502556 -0.06719846 -0.40892842 0.66542494 -0.62308776
-0.09532829 -0.6779759 0.6496821 -0.03254668 -0.20730329 0.47750315 -0.6866571 -0.32259524
1.0116841 -0.048789624 -2.4699202 -0.4131884 -0.82552475 0.3055985 -0.8354864 -0.4827433
0.8059801 -0.04370839 0.74999315 -0.9477865 -1.321943 -0.40961534 -0.50402385 0.15531899
0.18626189 -1.3769526 1.6421686 -0.040044364 -0.6781253 -0.8929238 0.24925822 -0.5132808
-0.2845394 -0.6564437 -0.1321444 -1.7068213 0.34647608 -0.11929036 -0.295503 -0.49032986
-0.32805744 -0.58780545 -0.23661117 -0.4392933 -0.10960402 -2.1321273 -0.695755 -1.0478923
-0.001262452 0.06804069 -0.013658475 0.89414454 1.5539632 -1.5163162 -0.36363345 -0.015704395
0.20393348 0.0689932 -0.079007775 0.25944906 -0.056015246 2.1259563 0.58674616 -0.0814838
0.06953701 0.07403369 -1.369077 -0.0070038913 1.5635597 -0.12930098 -1.3459985 0.10792309
3.0115418 0.099905975 -0.23234092 -0.13057747 -0.0809228 -0.26749146 -0.53347653 -0.88370323
-0.094390914 0.44872314 0.971311 -0.5882828 -0.025371 0.03007636 0.20750302 -0.44030344
-0.48599434 -0.23422793 -2.0054035 -1.4707505 -0.10242587 -0.01959082 -0.41765475 -1.8333856
0.017689807 0.07358454 0.044170197 -0.06873037 -0.66499156 -3.468774 -0.030049935 0.14645995
0.07021345 -0.09150848 0.022790376 0.13373558 0.043373164 -3.530675 -0.55149454 -0.37352136

link_predictor.0.weight f4 [64, 416]
00000000: 872f c6bd 12c8 8c3f 2a19 1e3c eff4 2bbe
00000010: 406f a33e 11a9 c0bd df9f 0ebe cd80 f23d
00000020: 78b2 4dbe 9083 a4be 2d74 5abf 4989 d1bd
00000030: 5d93 0c3e cf10 08bf 130f 32bd 0eec 673e
00000040: 668e c03c 7ff0 4cbf a26c 4f3e 1b7d 32be
00000050: f8c1 20be 1250 17be 7121 69be 3e3e 96bc
00000060: 57e3 793e 7ef9 c23d 9d70 b03d dab7 353f
00000070: 994e f8bd 920f 8b3d 903e 513e 8e8f bdbb
00000080: 91cd f8be 6007 d1bf e0c7 5041 ed95 d0c0
00000090: 9ef3 8440 81f3 aec1 6b7a d1c0 cc0b 36c1
000000a0: fb43 1d41 2fd2 a140 14d4 fd40 6e4a 50c0
000000b0: 5731 fd40 bd0f 4f3e 458d 0341 8af8 3c41
000000c0: 6027 1240 9e41 e8be 5a83 ee40 856a 9a40
000000d0: eb0a 61c1 d667 d940 9128 08bf 8d30 84c1
000000e0: b5fa e9bf a0f2 44c0 5208 c13f c841 6c40
000000f0: 5bbd c940 8906 9e40 1c77 6ac1 8cbc 90c1
00000100: 6b8f 0941 04c0 7941 d203 9ac1 83b9 82c1
00000110: cc3b c8be 18d6 0fc0 8a3d b33f c2c1 dac0
00000120: eb25 1340 6470 c840 9a89 b1bf 0ac7 7cc0
00000130: 027f e7c0 f23c d241 3f15 2fbf 515b 6b41
00000140: b659 d441 c19b 9240 617c 9640 6791 ddbf
00000150: 4f40 2d41 acfc be41 0694 5fc0 c4c2 ac41
00000160: bcff 1dc1 7a3c 2241 b4a4 72bf 66b4 20bf
00000170: 3393 0041 a159 c3c0 5ad9 9b40 8d9e 9541
00000180: 0e63 8cc1 a104 e63f 3ce6 8341 7595 97c1
00000190: d7b1 4cc1 41a0 92c0 dbf7 0440 d022 2e41
000001a0: e241 1941 9d88 1dbf 09dd 8dc0 f26b dec0
000001b0: 5bd2 a9bf a83a 5540 96fe 98c1 47c2 e640
000001c0: 25c8 4241 296e 6d40 ce80 0242 85aa d73f
000001d0: 593b 1241 ec87 b941 83ad 1440 4d1c d440
000001e0: 6840 2a40 308e 9040 66a4 e540 b021 c140
000001f0: d3e8 87c0 c660 6ac0 ad2a 913f efea 1ec1
00000200: dc8e 6fc1 c442 3d3d 1e57 fa40 2458 7ec1
00000210: 92a6 03c1 bd51 4840 d198 83c0 e263 db40
00000220: 414b 56c0 c07e 41c1 2d79 5041 b5a2 1d41
00000230: 2517 f6c0 924d 4c41 482d d7bf b3dd cf3f
00000240: dbc0 cec0 ce4b 37c1 a701 37c0 4578 82c0
00000250: 4405 0f40 a5f5 8ec0 d31f 2ac0 ed4f 5c41
00000260: b0d3 2cc1 d9ed 8940 20ca 19c0 c211 4041
00000270: a258 2cc1 5db9 cbc1 a057 28c1 7a57 afbc
00000280: 0c5f 9241 0953 ca41 997e a5c0 a984 92c1
00000290: 6ea9 1141 733c 84c1 66c7 01c1 40b8 bf40
000002a0: 49be 13c1 f1ab 893f bf43 dbc0 ee78 6340
000002b0: 8eaa 05c1 9e4b 9140 9a06 40c0 ad74 5640
000002c0: 846d 6741 cb6d 85c1 fdba 78c0 23fb 2841
000002d0: 8c7c 85c1 3ae5 913d 2dcd 77c0 2627 11c1
000002e0: 50b1 cb40 d5cd 8ac1 e23b 1a40 9df0 8241
000002f0: d7d0 703f cfa3 fa40 0ca5 21c0 f898 a841
00000300: f000 2741 ff40 2541 19a1 b140 7857 bdc1
00000310: 90bd 76c0 4917 efc0 a90d 2cbf 1d7b 8641
00000320: 32d3 4840 7974 e2c0 e747 33c1 bc7c 823f
00000330: c4c3 08c1 2f77 c140 1efd 69c0 26af df40
00000340: d2da cac0 712a 8fc1 d2ce 2f41 a3c2 1d3f
00000350: 980c d140 cf79 3cc1 a73a 0940 2879 71c1
00000360: 123a a33f cd5a 6f41 0cee e4c0 0663 48c1
00000370: 56ca 0841 1620 c9c0 f1e9 bf40 7e1d 0840
00000380: ae21 7e41 0bc8 98c1 c5a5 7141 6649 3640
00000390: 130e 2cc1 ec7c 2fbf 02fa f03e 267c 2541
000003a0: 571f 8ec0 8b84 e040 6495 acc1 7074 b641
000003b0: f9df 873e 40e6 b6c0 b200 19c1 6862 10c0
000003c0: 1423 fb3e 1bcf 1241 7b81 cbc0 382c e340
000003d0: 3499 b0c1 fa3e 1941 30ca c9c0 4bbc 3d3f
000003e0: b8de d6bc 3a73 f8c0 bbb5 64c0 9cf7 d8c0
000003f0: d207 cbc0 3724 11c1 21c8 90bf 1301 c7bc
-0.09677034 1.0998557 0.009649554 -0.16792654 0.31920815 -0.09407247 -0.13928173 0.11840973
-0.20087612 -0.32131624 -0.8533352 -0.10231263 0.1372809 -0.5315065 -0.043471407 0.22648641
0.0235054 -0.8005447 0.20256284 -0.17430536 -0.15698993 -0.14776638 -0.22766663 -0.018340226
0.2440313 0.09520243 0.08615229 0.7098366 -0.12124366 0.06790079 0.20434022 -0.0057849353
-0.48594335 -1.6330376 13.048798 -6.5183015 4.1547384 -21.868898 -6.5461936 -11.37788
9.829097 5.056907 7.9321384 -3.2545428 7.912273 0.20220847 8.22199 11.8106785
2.2836533 -0.45362562 7.453534 4.825503 -14.0651655 6.7939253 -0.531869 -16.523706
-1.8279635 -3.0773087 1.5080664 3.691515 6.3043647 4.9382977 -14.654079 -18.092064
8.597514 15.609379 -19.251865 -16.340582 -0.3910812 -2.2474422 1.4003155 -6.836152
2.2991893 6.2637196 -1.3870118 -3.9496484 -7.234254 26.279758 -0.68391794 14.709794
26.543804 4.581513 4.702683 -1.7309998 10.8282 23.873375 -3.4934096 21.5951
-9.874935 10.139765 -0.9478257 -0.62775266 8.035937 -6.104691 4.870282 18.702417
-17.548367 1.7970163 16.48742 -18.947977 -12.793418 -4.5820622 2.077628 10.883499
9.578585 -0.6153658 -4.433232 -6.950677 -1.326732 3.331705 -19.12431 7.2112155
12.173863 3.7098486 32.625786 1.6848913 9.139489 23.191368 2.3230903 6.6284547
2.660181 4.517357 7.176318 6.0353622 -4.247171 -3.6621566 1.1341149 -9.932357
-14.972378 0.04620625 7.8231344 -15.896519 -8.228167 3.129989 -4.1124043 6.8559427
-3.3483431 -12.093445 13.029584 9.852223 -7.6903253 12.768938 -1.6810694 1.6239532
-6.461042 -11.456007 -2.8594759 -4.0771813 2.2346964 -4.467486 -2.6581924 13.769513
-10.8016815 4.310284 -2.4029617 12.004335 -10.771639 -25.46551 -10.521393 -0.021404017
18.29641 25.290545 -5.171704 -18.314775 9.103865 -16.529516 -8.111181 5.9912415
-9.233956 1.0755597 -6.85202 3.554256 -8.354139 4.5404806 -3.000403 3.3508713
14.464237 -16.67861 -3.8864129 10.561313 -16.685814 0.071237996 -3.871898 -9.072058
6.3653946 -17.350504 2.409905 16.367487 0.94068664 7.832496 -2.5256987 21.074692
10.437729 10.328368 5.5509152 -23.66771 -3.85532 -7.4715924 -0.67208344 16.810114
3.1378903 -7.076718 -11.205054 1.0194316 -8.547794 6.045799 -3.656074 6.9901304
-6.3392115 -17.895723 10.987993 0.6162512 6.5327873 -11.779738 2.1442049 -15.092079
1.2752097 14.959668 -7.1540585 -12.524176 8.549398 -6.2851667 5.9973073 2.1268
15.883223 -19.097677 15.102971 2.84823 -10.753436 -0.6854999 0.4706574 10.34281
-4.4413257 7.0161796 -21.572945 22.806854 0.26538065 -5.7156067 -9.56267 -2.2560062
0.490502 9.175563 -6.3595557 7.099148 -22.074806 9.577875 -6.305931 0.7411544
-0.026229247 -7.7640657 -3.573592 -6.7802258 -6.3447046 -9.0713415 -1.1311074 -0.024292504

link_predictor.0.bias f4 [64]
00000000: 4d95 8bc1 62bd f4c0 2137 75c1 4302 42c1
00000010: 814f 4ec1 e7bf 9ec1 dc78 aec1 a983 84c1
00000020: a5c2 aec1 953d 6fc1 e772 1dc1 ea39 b6bf
00000030: bc1d abc1 bfdb 88c1 5a95 d8c0 7300 17c1
00000040: e402 5ec1 8daf 3fc1 a0b3 b3c1 3ecc 03c1
00000050: df05 75c1 833c 81c1 57cc 75c1 718e 89c1
00000060: 28bc 77c1 ec23 82c1 b202 b2c1 e343 85c1
00000070: 5241 56c1 a36b 9fc1 3c59 bbc1 27f6 a1c1
00000080: d1fd 56c1 cbfb 22c1 4e0d 84c1 ed41 98c1
00000090: 387f 22c1 c0e6 cfc0 f8c8 95c1 21e5 86c1
000000a0: a5e7 e0c0 69e4 9ac1 f73f 4ec1 0337 d93d
000000b0: 9e20 91c0 1f4b 2bc1 c918 85c1 7201 9ac1
000000c0: 8904 7bc1 c0db 73c0 bd5e a1c1 8545 88c1
000000d0: 93c8 56c1 6577 97c1 8654 15c1 ebc3 88c1
000000e0: 74c7 34c1 fb9b ddc0 04b7 3dc1 498c 90c1
000000f0: e1d1 b4c1 a14a a1c1 62c3 4bc1 5733 8ac1
-17.4479 -7.648118 -15.325959 -12.125552 -12.89441 -19.843702 -21.809013 -16.564287
-21.845041 -14.952535 -9.840552 -1.4236424 -21.389519 -17.107298 -6.7682314 -9.43761
-13.875706 -11.980359 -22.462708 -8.237364 -15.313933 -16.154547 -15.362388 -17.194551
-15.483437 -16.26754 -22.251316 -16.658148 -13.390947 -19.927557 -23.418571 -20.245192
-13.436967 -10.186473 -16.506496 -19.03219 -10.156059 -6.4969177 -18.72313 -16.86188
-7.028277 -19.361528 -12.890616 0.10606196 -4.5352316 -10.70584 -16.637102 -19.250706
-15.688607 -3.8102875 -20.171259 -17.033945 -13.423968 -18.933298 -9.333136 -17.095663
-11.298695 -6.9252906 -11.857182 -18.068499 -22.60248 -20.16144 -12.735201 -17.275068

link_predictor.2.weight f4 [1, 64]
00000000: ae2c c23d 5436 9abd 9c71 e2bd c968 b9bd
00000010: dd99 ecbd c999 b23d a5b1 503d c0c4 3b3d
00000020: c8e0 2a3d 0607 fcbd ecaa abbd aba9 52bd
00000030: 83ce be3d cedb 3f3d 8290 e3bd 12c7 edbd
00000040: fc11 cf3d d549 e8bd 8dfc a0bd dafa f0bd
00000050: 3368 9c3d c2d5 da3d 97ce e3bd fbb4 01be
00000060: c6c4 02be ec48 ddbd 3a7e c83d e5bc cdbd
00000070: 21f2 9a3d dc6a c6bd 9b26 adbd 2784 c73d
00000080: e291 c73d 71ac b4bd 7a29 1c3d a373 03be
00000090: c9c8 e7bd 2895 9bbd 7273 ab3d 65fd d8bd
000000a0: 2bbd aabd 0b8e 19be d02a acbd 7a07 cbbd
000000b0: 9d3a a7bd 6cef 77bd a2bb bb3d 4357 ae3d
000000c0: 1228 e1bd 2875 a53d c841 aa3d ca12 a03d
000000d0: 411a da3d 3381 da3d 625c 923d 4138 f3bd
000000e0: 0657 a2bd c092 dbbd 5307 e3bd 81cc 2a3d
000000f0: 81cd d2bd ba44 a63d 4953 303d 412b bd3d
0.09481178 -0.075298935 -0.110568255 -0.09053189 -0.115527846 0.087207384 0.050950665 0.045841932
0.041718274 -0.12306027 -0.0838221 -0.05143134 0.09316733 0.04684048 -0.11111547 -0.11610235
0.10110852 -0.11342207 -0.0786067 -0.11766596 0.07637062 0.10685302 -0.11123388 -0.12666695
-0.12770376 -0.10804924 0.09789701 -0.100457944 0.07565714 -0.096883506 -0.08454629 0.09742003
0.09744622 -0.08821953 0.038125493 -0.1283708 -0.113175936 -0.07596809 0.08371629 -0.10595206
-0.08336862 -0.14995591 -0.08406603 -0.099135354 -0.081654765 -0.060531065 0.091666475 0.085127376
-0.10993971 0.080789864 0.08313328 0.07816084 0.10649539 0.10669174 0.07146527 -0.11875964
-0.07926755 -0.1072135 -0.11085381 0.041698936 -0.10293103 0.08118577 0.043048177 0.09236766
