checkpoints/model_epoch_3.pth (torch, 217416 bytes, 7 tensors)

conv1.bias f4 [64]
000000 11 e9 2f be 30 93 37 3f 09 45 d8 3d 2f 2f 1a c0
       -0.17178752 0.71708965 0.105600424 -2.4091299
000010 f0 77 70 c0 30 62 a2 c0 c6 b7 92 c0 c4 4c 2c bf
       -3.7573204 -5.074486 -4.5849333 -0.67304635
000020 15 90 1d c0 d7 a7 33 c0 0c 6d 17 3f dd 6c 5a bf
       -2.461919 -2.8071191 0.5915077 -0.8532236
000030 f8 4d 99 3d 1c 51 7a c0 f0 f8 a3 c0 11 37 5e 3f
       0.074855745 -3.9112005 -5.124138 0.86802775
000040 6c d4 c8 3d ee b8 be 3d 6a 86 37 c0 9f 46 10 3f
       0.09806141 0.09312616 -2.867579 0.5635776
000050 00 b3 79 c0 a8 5f 8b c0 c2 e1 b0 c0 eb 48 54 be
       -3.9015503 -4.355427 -5.5275583 -0.20730941
000060 9a 22 41 c0 80 9d 1a 3f b4 46 84 c0 82 8f fb bf
       -3.017737 0.60396576 -4.1336308 -1.965317
000070 49 61 11 3f 49 7b c7 c0 26 1d 69 c0 ca d8 5b c0
       0.5678907 -6.2337995 -3.642404 -3.4351068
000080 59 14 09 c1 06 02 a7 c0 44 ad 6b c0 44 7e 4c c0
       -8.567468 -5.218997 -3.6824503 -3.1952066
000090 cd 53 b9 bf f0 56 63 bd 38 98 0a bf 12 11 6f c0
       -1.4478699 -0.055502832 -0.5413852 -3.735417
0000a0 01 d8 8d c0 55 7b 3a c0 23 f4 92 c0 50 d1 38 c0
       -4.4326177 -2.9137776 -4.592302 -2.8877754
0000b0 52 9a 89 3e 0f 59 14 3f 35 e8 e6 bf f5 2d b0 c0
       0.2687555 0.5794839 -1.8039614 -5.50561
0000c0 5f 7c dc 3f 15 e4 fd 3e d3 9b 4a be 6c cd 95 bd
       1.7225455 0.49588075 -0.19786005 -0.07314572
0000d0 f5 84 a9 c0 aa 19 70 c0 b2 a2 cb 3f 8b 90 60 3e
       -5.29748 -3.7515664 1.5909026 0.21930139
0000e0 60 b7 b1 bf 72 09 30 be 97 df 30 3f 3f 8d 4b be
       -1.3884087 -0.17191103 0.6909117 -0.198781
0000f0 a0 7a f0 be f2 01 7d c0 f0 8c d6 c0 37 23 10 c0
       -0.46968555 -3.9532437 -6.7047043 -2.2521493

conv1.lin.weight f4 [64, 384]
000000 b5 5a ae 3f d0 ee 85 3f ee 12 a3 3f 1f 9b d4 3e
       1.3621432 1.0463505 1.2740152 0.41524598
000010 fa 85 39 be ff 77 fc bf 64 f3 da 3e 9c a3 b5 3f
       -0.18117514 -1.972412 0.42763817 1.4190555
000020 0c e5 db bf fd 34 d2 3f 9e 9c 8b 3f 4c 4f fc be
       -1.7179275 1.6422421 1.0907171 -0.4927925
000030 d4 57 0f c0 7c 36 9d 3f a1 81 e6 3f 6d f4 88 bf
       -2.2397356 1.2282252 1.800831 -1.0699593
000040 6e bf 15 3f d6 65 10 be b0 f8 05 3f 9d d9 69 bf
       0.58495224 -0.14101347 0.5233259 -0.91347677
000050 2f d5 57 bf 76 98 64 be 80 12 01 bf fd f4 0b 40
       -0.8430967 -0.22323784 -0.50418854 2.186828
000060 0b c8 12 40 b6 00 cf 3f 0f 04 b8 3f 1e d6 b6 bf
       2.2934597 1.6172092 1.4376239 -1.4284093
000070 5b c6 e6 3f ac 55 09 3f d7 d0 57 bf ff 0e 2f 40
       1.8029283 0.5364635 -0.8430304 2.7352903
000080 67 f4 83 bf 5b 32 75 3f 30 63 48 40 41 e9 82 3f
       -1.0308961 0.9577996 3.131054 1.0227433
000090 c0 de 06 bf 5a a6 09 bf 36 1d 0a bd d5 7d 48 3f
       -0.5268364 -0.5376946 -0.033719264 0.78317004
0000a0 82 07 be bf 9c 77 55 bf 4d f2 a9 be 9f 5f 36 c0
       -1.4846041 -0.83385634 -0.33192673 -2.8495862
0000b0 0f 57 88 3f c4 0d 86 be 2b 12 b6 be 52 7d 45 c0
       1.0651568 -0.26182377 -0.35560736 -3.085774
0000c0 47 ae 64 3f 67 3f 73 c0 95 86 38 be 74 f2 98 3f
       0.89328426 -3.8007448 -0.18020089 1.1948991
0000d0 cd f5 93 3f d8 95 5d bf 3a 1f 44 3f a0 d4 e9 bd
       1.1559387 -0.8655677 0.7661015 -0.11417508
0000e0 2d eb 2c 40 28 d0 39 be a3 86 d1 be 2e 39 a4 3f
       2.701854 -0.18145812 -0.40923032 1.282995
0000f0 8b 5a 9d bf 29 e7 72 3e 29 42 9d 3e 68 51 b4 bd
       -1.2293257 0.23720993 0.3071454 -0.088045895
000100 3f 23 1c 3f 0f c3 3f c0 1b 6b f6 3f d4 5e ec 3f
       0.6099128 -2.9962804 1.9251436 1.8466439
000110 e9 87 0b 3f ae d9 64 3d 12 cc 93 3f b4 e0 1a bf
       0.5450426 0.055871658 1.1546652 -0.6049912
000120 7c 63 b8 3d 58 52 33 3f 82 92 a6 3f fd 19 0f 3f
       0.0900335 0.7004752 1.3013461 0.5589903
000130 d0 b1 0b 40 6a 8f 57 bf 3c dc 90 3f eb ea 48 bf
       2.1827278 -0.8420321 1.131721 -0.78483456
000140 3f ae 8f 3f 4e 77 df 3f 9c b8 48 bf ae db 01 3f
       1.1225051 1.7458284 -0.7840669 0.5072583
000150 fa 21 66 3f 8b 77 4b bf 0d 95 0f 40 5b ee 79 c0
       0.89895594 -0.79479283 2.2434723 -3.905173
000160 20 05 fb 3f 73 d1 d9 3f 22 cc 4a bd d5 7e d5 be
       1.9610939 1.7017044 -0.049511082 -0.41698328
000170 55 c0 a4 bf 48 d4 f5 be a6 14 87 3e 4e af 33 3e
       -1.2871195 -0.4801352 0.2638294 0.17547342
000180 97 5b a4 be 9f 4b 03 be f4 e2 0f 3f 68 5f c5 bf
       -0.32101128 -0.12821816 0.5620568 -1.5419741
000190 7a a4 1d 3e 79 a8 82 3e c1 0b 94 3f 59 5b 54 bf
       0.15394774 0.2551916 1.1566087 -0.82951885
0001a0 88 e5 59 bf 2c 65 11 3f 68 2c ba 3f e7 e6 db bd
       -0.8511586 0.56795 1.4544802 -0.107374005
0001b0 9a c1 c0 bf 89 9d f4 bf b1 15 18 40 c1 d5 b6 3f
       -1.5059083 -1.9110576 2.376324 1.4283983
0001c0 94 44 5b 3f 18 fc c2 be 6e af 8f be ca f2 16 bd
       0.85651517 -0.38082957 -0.2806353 -0.036852635
0001d0 b5 27 b8 bf 8c c2 cb bf 7c e1 07 bf e0 d7 39 3f
       -1.4387118 -1.5918746 -0.53078437 0.72595024
0001e0 6a c6 bb 3e 0e b2 00 40 5a 4c 75 be 37 f2 d3 bf
       0.36674815 2.0108676 -0.23954907 -1.6558293
0001f0 10 a0 cf 3f 8a e6 02 bf 2b f4 9f bf e4 70 93 3d
       1.6220722 -0.51133025 -1.2496389 0.071992666
000200 1c a4 80 bf 1c 78 cc 3f 3a 60 b4 3e 46 bc 11 c0
       -1.0050082 1.5974154 0.35229665 -2.2771163
000210 59 92 58 bf 76 64 1d bf a9 d3 83 3f 0e a1 15 3d
       -0.8459831 -0.61481416 1.0298969 0.036530547
000220 f8 9e 93 bc f1 50 d4 bf ff f6 d7 3e 38 d1 10 3f
       -0.018020138 -1.6587201 0.4218063 0.5656924
000230 71 42 71 3f bf 6b 36 3f da 7c d7 bf d3 f0 12 40
       0.94242007 0.7125816 -1.6834977 2.2959487
000240 05 55 10 3f db 3f c8 3e cc 5c 19 c0 94 00 83 3f
       0.5637973 0.39111218 -2.3962889 1.0234551
000250 4a a1 48 3f 7e 05 f5 3e ca 00 a5 3e 8c 9f 59 3e
       0.7837111 0.47855753 0.32227165 0.21252269
000260 f2 94 cc bf 08 52 8f be de 69 d1 be 00 aa c0 3f
       -1.5982955 -0.27992272 -0.40901083 1.505188
000270 e6 ed a8 bf 18 7e f4 bf a2 58 3c 3e 37 35 01 c0
       -1.3197601 -1.9100981 0.18393186 -2.018873
000280 5a 77 40 bf 46 a3 a7 3e df b5 d8 bf c8 ed c1 3e
       -0.75182116 0.32741755 -1.6930503 0.37876725
000290 7e d7 9d 3e 74 ce 07 bf d6 80 90 3f a2 de cc be
       0.3082847 -0.530494 1.1289318 -0.40013605
0002a0 53 18 37 3f 14 f0 0e c0 ba 8e 88 bf 57 ff 29 3b
       0.7152149 -2.2334032 -1.0668557 0.0025939548
0002b0 09 17 19 bf c8 43 8f 3e 77 44 84 3f 44 e4 d8 3f
       -0.59800774 0.279814 1.0333394 1.6944661
0002c0 78 66 12 40 c1 d6 86 3f 9a 36 69 bf bb 1b 22 bf
       2.2875042 1.0534288 -0.9109894 -0.63323563
0002d0 e0 46 12 40 af dc 34 3f 4e 47 bf bf 74 a1 08 c0
       2.2855759 0.70649236 -1.4943635 -2.1348543
0002e0 de c0 87 3f 1e 19 ab 3f 9c ed 68 bf 88 21 20 3f
       1.0605733 1.336704 -0.90987563 0.62551165
0002f0 73 12 0f 3f 31 79 83 3e a9 a4 ce 3f ae 8a 28 3f
       0.55887526 0.256784 1.6144 0.6583661
000300 5e 24 c5 bf 69 17 3e 40 f2 cf b8 bf 19 fc aa bf
       -1.5401723 2.9701788 -1.443846 -1.3358184
000310 f2 af 56 bf f7 d6 18 3f a1 d2 1f bf 10 99 b2 bf
       -0.8386222 0.5970301 -0.6243077 -1.3952961
000320 f8 58 b0 bd 98 de 78 bf 82 ed e1 be 05 be 80 3c
       -0.086107194 -0.9721465 -0.44126517 0.015715608
000330 b6 ff 8d 3e ab 28 00 be 30 ee f5 be 66 df fd bd
       0.27734154 -0.12515514 -0.48033285 -0.123961255
000340 78 07 16 40 d5 ae 27 bf 72 3a ce 3f 3f 3c 9b 3e
       2.3442059 -0.6550115 1.6111586 0.30319402
000350 42 a5 4d 3e 67 ca 43 3f 22 2f 05 bf 17 ce dc 3f
       0.20082572 0.76480716 -0.52025044 1.7250394
000360 32 df bb bf 33 48 96 be 4f c8 31 3f 0a 2d 4e 3f
       -1.4677489 -0.2935196 0.6944627 0.80537474
000370 07 d6 d2 bf f0 dc 4b bf 1f 0f 9f 3f c3 64 84 3d
       -1.6471566 -0.79634 1.242649 0.06464531
000380 b0 0d 25 bb dd 69 bc bf 7c 86 40 bf a2 76 cd 3e
       -0.002518516 -1.4719807 -0.75205207 0.40129572
000390 94 6f 87 3f 19 ca dc be aa eb d6 3f e2 5e 7a bf
       1.0580926 -0.43122938 1.6790669 -0.9780103
0003a0 b5 1e a2 3f 89 2a e5 3f 65 91 c9 bd 97 26 e5 3f
       1.2665621 1.7903606 -0.09842185 1.7902402
0003b0 23 dc e0 3f 5f 33 53 3f 36 9d a3 bf 67 b9 ae 3d
       1.756718 0.8250026 -1.2782352 0.085314564
0003c0 f2 0e 10 3f 39 e2 26 bf a7 e5 91 3e a3 f3 f1 3d
       0.56272805 -0.6518894 0.28495523 0.11814048
0003d0 d0 4e 01 bf fb 05 01 c0 c2 70 ce 3d 46 27 f2 3e
       -0.50510883 -2.01599 0.100801006 0.47295588
0003e0 e8 28 3e bf 8c e2 84 bf 05 2c 68 3f d9 62 4b 3f
       -0.7428117 -1.0381637 0.9069217 0.79447705
0003f0 ce f5 19 3f 32 1b 83 3f e0 40 e8 bf d7 2a 0f 3f
       0.60140693 1.0242674 -1.8144798 0.55924743

conv2.bias f4 [32]
000000 5d dc 16 3d b9 53 85 bf 37 e3 6e 40 9c 4e f2 3d
       0.03683125 -1.0416175 3.732618 0.118314
000010 e5 2c f2 3d 01 51 e7 bd fe 65 c5 3c 7d 3f 8d be
       0.11824969 -0.11294747 0.024096485 -0.275875
000020 71 1c 20 3d 38 78 36 bf e6 4d 26 be bd ea 9d bd
       0.039089624 -0.7127719 -0.16240653 -0.077107884
000030 ad b6 96 3c 2a 7d 87 c0 ae 5f 9c 3d 60 50 96 c0
       0.018397653 -4.234029 0.07635437 -4.6973114
000040 40 a6 2b 40 cf 0e 88 3e 9c 6c ad bf 93 de ff be
       2.682022 0.26573798 -1.354877 -0.49974498
000050 6a 1c fe bd b3 7e b6 be fe 01 b1 3b 73 9e 41 3e
       -0.12407763 -0.3564354 0.005401849 0.189081
000060 e2 08 95 bd b5 a5 8c 3d e4 36 9e ba dc 7f 99 bf
       -0.07277085 0.068675436 -0.0012070802 -1.1992145
000070 6c 57 60 bf e2 ad b9 3d 59 4f 86 3f 98 d7 a1 bc
       -0.87633395 0.09066369 1.0492965 -0.019756123

conv2.lin.weight f4 [32, 64]
000000 05 d5 50 be 72 88 ec bd e5 6f a0 bd c1 6b ea 3d
       -0.2039376 -0.115494624 -0.07833842 0.11446334
000010 78 29 cc bd 90 0c 26 bf c6 97 6b 3c be ad 4e be
       -0.09968847 -0.6486292 0.014379447 -0.20183465
000020 fa 87 a5 3e 83 11 7e 3e 92 26 cd bd 3d ae d1 3d
       0.32330304 0.24811368 -0.10017122 0.102383114
000030 c1 c1 69 bd ab ef fb bf 0f 58 8b 3f a0 8d eb bd
       -0.057069544 -1.9682516 1.0886248 -0.11501622
000040 69 1f 9a 3d 94 b7 f8 bd 58 49 5d bf 5c a6 1e 3a
       0.07525522 -0.1214439 -0.8644004 0.0006052011
000050 34 d4 d4 3f bb 0e 1d be d5 7c 6b 3f c9 52 97 3c
       1.6627259 -0.1533765 0.91987354 0.018472092
000060 5f 68 bb bd f5 85 f9 bc c8 da 8c 3e 15 c6 1b 3f
       -0.091507666 -0.030459384 0.27510667 0.60849124
000070 79 db 94 3c 14 f1 64 bf 87 d8 1f 3f f1 79 cf bc
       0.018171059 -0.89430356 0.6243977 -0.0253267
000080 ad 7c 95 bd ea 43 9a 3f fd 72 df be 35 29 2d bf
       -0.07299171 1.2051976 -0.43642417 -0.67641
000090 a3 81 21 bd 29 07 20 3c 26 0b 99 3d 80 fd b5 bb
       -0.03943027 0.009767332 0.074728295 -0.005553901
0000a0 88 29 26 be cf 0b 95 3e 8a 32 23 3e 56 5d 75 bf
       -0.1622678 0.29110572 0.15937248 -0.95845544
0000b0 6c 56 16 3d ec 57 9b 3d 6f 56 9b be 9e 8e 14 bf
       0.036703512 0.07585129 -0.3033938 -0.58030117
0000c0 6d 69 37 bd 32 6e ea bd 01 93 dd 3d 64 54 a3 bd
       -0.044778276 -0.11446799 0.108190544 -0.079750806
0000d0 5c 06 dc be 32 3b 63 3e a0 a1 7c 3d 9e ed 8f bd
       -0.42973602 0.2219055 0.061677575 -0.07027744
0000e0 37 91 4c 3e f0 9e 61 3d 9f 1a db bd bc 61 90 bc
       0.1997727 0.055083215 -0.10698437 -0.017624728
0000f0 c5 66 2f 3d 52 84 be 3f 16 ef e8 bf 1a 0c a8 3e
       0.042822618 1.4884131 -1.8197963 0.32821733
000100 ca e6 1b be 77 6b 91 3f 1a 07 92 3e 37 32 06 3f
       -0.15224758 1.1360921 0.28521043 0.5242037
000110 19 b0 b4 3d 77 4d 23 3f 53 3d 97 be 38 01 ae 3e
       0.088226505 0.63790077 -0.29538974 0.33985305
000120 17 78 23 bf 5d 11 5c 3a 60 58 d6 3e 16 d6 0f 3f
       -0.6385512 0.00083949213 0.418643 0.56186044
000130 cf f1 27 3e d3 50 05 be 23 97 5f bd 5e 50 27 bf
       0.16400836 -0.13019113 -0.054587495 -0.65357006
000140 59 36 e0 3e 66 73 39 bf 2a 38 a8 bd 04 e5 68 be
       0.43791464 -0.7244171 -0.082138374 -0.22743613
000150 0f 04 94 3f ef 8c f9 be da ba 64 be 25 14 7c be
       1.1563739 -0.48740336 -0.22336903 -0.2461706
000160 0d 50 85 3f 79 9a 80 3e 7a 7b f9 3e 98 c1 02 bf
       1.0415055 0.25117853 0.48727018 -0.5107665
000170 ac 51 2b be 0e 50 3e bf 3e ec 55 3e 6b 83 1e bf
       -0.16730374 -0.74340904 0.208909 -0.6191928
000180 1c d8 be be c4 dd a7 3f 00 f3 44 bf 6c 2b 35 3f
       -0.37274253 1.3114552 -0.7693329 0.7076938
000190 ce 4f e7 3e 3f de 41 3f 44 00 26 be e7 f3 5b 3f
       0.45178074 0.75729746 -0.16211039 0.8591904
0001a0 e0 90 95 3f 4d 55 52 bf cc 0d a3 3f 15 4b 52 3e
       1.1684837 -0.8216141 1.2738585 0.20536454
0001b0 06 2c c2 3d ef fc 7f 3d 8d f4 e6 3e 6a 17 96 3f
       0.09481053 0.062497076 0.45108452 1.1725895
0001c0 81 0a 38 3e ca 0c 15 3e 88 f5 52 3d 6c 22 a1 3e
       0.17972757 0.1455566 0.051503688 0.31471574
0001d0 49 bc d5 3e b6 b2 25 3f 6b 02 86 be 3f 5d d5 be
       0.41745213 0.64725816 -0.2617372 -0.41672704
0001e0 d0 96 96 39 46 19 67 bf 65 da 82 3e 86 2b 53 3f
       0.00028722594 -0.9027294 0.25557247 0.82488286
0001f0 de 90 17 3f 69 5f ee 3e d7 33 18 3f c6 39 af 3e
       0.59205425 0.46557167 0.594541 0.34223765
000200 d8 6e 8e be 98 7d 98 bd 5e 7d 96 be 0f a4 00 bf
       -0.27818942 -0.0744583 -0.29392523 -0.50250334
000210 1c ec 87 3d 62 e8 f9 bf 43 c9 83 be 07 e1 fe bd
       0.06636831 -1.9524043 -0.25739488 -0.12445264
000220 8e 2b 7b be 90 e7 52 3f 10 2e 0f bf 05 96 8c be
       -0.24528334 0.82384586 -0.5592966 -0.27458206
000230 ae 5e e4 3c 80 23 12 3d f5 dc 86 bf 13 41 f5 be
       0.027877178 0.035678387 -1.0536181 -0.4790121
000240 45 43 40 3e 32 02 c0 be 8b 5f 77 3f fd 67 d7 3e
       0.18775661 -0.37501675 0.9663016 0.42071524
000250 3f f7 4c bf c2 1f bc bf bc 5b 2a be 8e 6b 47 be
       -0.8006477 -1.4697192 -0.16636556 -0.19474623
000260 ed 7a 0a 3f 64 5a 13 3d 17 7c dd bf 6e 8d d3 be
       0.5409382 0.035974875 -1.7303494 -0.4131884
000270 56 1e 08 bf 2d 04 93 be 70 e2 55 bf 21 2a f7 be
       -0.5317129 -0.28714123 -0.8354864 -0.4827433
000280 73 af 31 3f 92 07 33 bd 8d ff 3f 3f 23 a2 72 bf
       0.6940834 -0.04370839 0.74999315 -0.9477865
000290 d1 21 87 bf bc d7 8c be 0e 33 45 be f1 0b 1f 3e
       -1.0557195 -0.27508342 -0.19257757 0.15531899
0002a0 70 bb 3e 3e 66 21 73 bf 54 6f 6e bf 8f 05 24 bd
       0.18626189 -0.94972837 -0.93138623 -0.040044364
0002b0 06 c2 13 bf a4 7d e5 be 8c 3d 7f 3e 25 7e 3a 3f
       -0.5771793 -0.4482242 0.24925822 0.7284873
0002c0 60 2b 41 be dc d9 fe be ee f1 a9 bd 3e 88 c4 bf
       -0.18864202 -0.4977559 -0.082980976 -1.5354078
0002d0 36 79 85 3f cc df 4f 3f fa 0d e4 bd 8c c7 5a be
       1.0427616 0.8120086 -0.11135478 -0.21365184
0002e0 06 01 9a be 6a 4f ed be 22 89 9f 3d 38 26 a2 be
       -0.30078906 -0.4634965 0.07789828 -0.31669784
0002f0 97 81 7f 3e ce 8f 8c 3f 72 a2 73 bf 96 14 84 be
       0.24951778 1.0981386 -0.95169747 -0.25796956
000300 f4 1f a4 bb 4b 83 aa bc 74 45 08 be a8 e6 64 3f
       -0.005008692 -0.020814558 -0.13307744 0.89414454
000310 44 e8 c6 3f 6d e8 d7 bf f1 1e 80 bd 81 a6 80 bc
       1.5539632 -1.6867806 -0.062559016 -0.015704395
000320 3a 0f 7e 3e 4f 4c 8d 3d 0b e9 60 bc 26 55 1d 3d
       0.24810496 0.0689932 -0.013727437 0.038411282
000330 16 cd 7c 3d b6 0b 84 3f ac 45 ca bf 88 b0 6d 3d
       0.061719023 1.0316074 -1.5802512 0.05802968
000340 5b 8b 3e 3c d0 57 4d bc 8c b9 00 bf d0 fe 19 3d
       0.011629905 -0.012533143 -0.5028312 0.037596524
000350 30 ff 4a bf 14 a3 83 3e 55 7e 32 3f bd a1 a2 3d
       -0.79295635 0.25710356 0.6972402 0.079410054
000360 44 b4 19 3f 18 3c db 3a 33 48 24 be 1a b6 05 be
       0.6004069 0.0016726283 -0.16043167 -0.13057747
000370 17 e1 6b 3d 5c 5a 25 bd eb 91 08 bf 60 3a 62 bf
       0.05758771 -0.040369377 -0.53347653 -0.88370323
000380 53 19 a1 3e 0a bf e5 3e d6 a7 78 3f b4 99 16 bf
       0.31464633 0.44872314 0.971311 -0.5882828
000390 8e 66 8f be 6f 0f 22 bd c8 62 8e be 74 6f e1 be
       -0.2800793 -0.0395655 -0.2780974 -0.44030344
0003a0 40 d4 f8 be d4 66 55 be 8e 03 5c 3e 8d 41 bc bf
       -0.48599434 -0.20840007 0.21485731 -1.4707505
0003b0 a5 ff 61 bd 4a 71 2e bb d8 d6 d5 be ac 09 94 bf
       -0.055175442 -0.0026617819 -0.41765475 -1.1565452
0003c0 16 24 23 bc 02 81 b4 bd e7 1d 0f be fe 3d 9c 3c
       -0.009957334 -0.08813669 -0.1397625 0.019072529
0003d0 27 ec 8c bf 36 8b 09 bd ca 53 b2 3c 5c fa 44 bd
       -1.1009568 -0.033580028 0.02176847 -0.048090324
0003e0 f6 ce 06 3d 7c 8a dc bd d1 fe 03 be a1 8f b3 bc
       0.032912217 -0.10768601 -0.12890173 -0.021919074
0003f0 c8 c6 a3 bd bb 2d 82 3e 93 85 43 be 93 20 20 be
       -0.07996899 0.25425515 -0.19093923 -0.15637426

link_predictor.0.weight f4 [64, 416]
000000 5b 3f 21 3e 00 ec 6c 3f 8f 44 9b be b0 d1 28 3b
       0.15746824 0.9254761 -0.30325744 0.002575975
000010 4f 39 ee bc 69 ec 19 3d 72 e7 56 bb f6 9c 24 be
       -0.029080061 0.037578974 -0.003279176 -0.16075501
000020 b1 3e 3f be 46 29 b5 3d 27 b9 22 bf 16 6e 89 be
       -0.18676259 0.08845763 -0.6356377 -0.268418
000030 0d 92 09 bf bb e0 b2 be 2e ee aa 3d 1b f3 e7 be
       -0.5373848 -0.3493708 0.083462104 -0.45302662
000040 28 11 38 3e 59 92 de be 4f 57 94 3d 5f bb 83 be
       0.17975295 -0.4347103 0.07243215 -0.2572889
000050 24 3c 59 bc 9a 2c 02 be 8a ac 6f bd 18 19 ef bd
       -0.013258968 -0.12712327 -0.058514155 -0.11674708
000060 d4 df b1 be 94 73 1f 3c 50 ec 7f 3d d1 e3 2b 3e
       -0.3474108 0.009732146 0.062481225 0.16786124
000070 87 4c a6 bc 69 a7 75 bd 7d 7d 12 3f 2c db 73 be
       -0.020300163 -0.059974108 0.5722273 -0.23814076
000080 d8 2e 9b c0 5e d3 e9 be 52 55 ab 40 f0 c2 86 c0
       -4.849468 -0.45669073 5.354165 -4.211296
000090 5f 46 a5 40 8c 4b 0c c1 08 9a 32 c0 e3 42 b0 c0
       5.16484 -8.768444 -2.7906513 -5.508165
0000a0 35 f3 b0 3d fa 1f 8f 40 83 02 13 40 c5 14 d5 bf
       0.08640138 4.4726534 2.2970283 -1.6646963
0000b0 22 e8 5c 3f 71 f3 26 bf ce 8a c3 40 ce ee ac 40
       0.86291707 -0.6521521 6.110694 5.404151
0000c0 ae 70 d5 bf 8c 29 86 c0 3d 4d 33 40 2f 51 71 bf
       -1.6675012 -4.1925716 2.8015893 -0.942645
0000d0 af 65 a1 c0 d3 cf d9 3f d4 1d e8 3e 55 16 61 c0
       -5.0436625 1.7016548 0.45335257 -3.516988
0000e0 67 5e be 3f f0 f5 00 40 54 ee af bf dc a3 6f c0
       1.4872559 2.0150108 -1.3744607 -3.7443762
0000f0 5b d0 83 be 8d 20 50 bf bf d8 38 c1 6f 95 04 c1
       -0.257449 -0.8129967 -11.552917 -8.286483
000100 07 f1 20 40 61 93 43 41 04 a3 ed c0 10 34 0e c1
       2.5147111 12.223481 -7.4261494 -8.887711
000110 18 99 2b 3f 36 d6 48 c0 58 1e f0 40 62 73 e9 c0
       0.6703048 -3.1380744 7.503704 -7.295335
000120 ee d6 ec bf 37 91 1d c0 fe 92 03 40 8a 9d d4 bf
       -1.8503091 -2.4619882 2.0558467 -1.6610577
000130 37 4c a7 c0 a2 10 29 41 a8 b7 53 40 d7 69 1f 41
       -5.2280536 10.566561 3.3080845 9.96334
000140 d8 f8 71 41 9d 7c f7 3f 1e 74 3d 40 90 2b 1c 40
       15.123253 1.9334904 2.9602122 2.4401588
000150 8b 85 af 3f bd 58 f0 40 78 0d 61 c0 af e1 b4 40
       1.3712629 7.5108323 -3.516447 5.6525493
000160 b2 76 47 c0 39 cf be 40 0e 8e 08 40 68 d6 83 c0
       -3.1166196 5.9627957 2.1336703 -4.1199226
000170 2f d9 ab 40 84 2e 06 c0 59 3a 89 40 0b 58 71 40
       5.3702617 -2.096589 4.2883725 3.7709987
000180 99 a3 d1 c0 8c 2f b7 bd cb 33 01 41 ae 22 a5 c0
       -6.5512204 -0.08944616 8.075145 -5.1604834
000190 96 36 d5 bf da cd 9a c0 97 39 ab 40 9c 6a 58 40
       -1.6657283 -4.8376284 5.35078 3.381507
0001a0 35 5b 04 41 b1 f7 75 c0 06 53 49 c0 ee ce 98 3f
       8.272267 -3.843243 -3.1456923 1.193815
0001b0 50 76 a1 40 5d 39 05 3f c3 85 ac c0 32 37 a2 40
       5.0456924 0.52040654 -5.3913283 5.0692377
0001c0 56 25 61 40 2b 0c 58 40 31 70 38 41 23 e1 32 3f
       3.5179038 3.3757427 11.5273905 0.6987478
0001d0 c5 e3 a0 40 f3 59 cc 40 1c 49 5f 40 ae 4d f5 40
       5.027804 6.38598 3.4888372 7.6657324
0001e0 f8 3f 23 40 3d 8f c2 40 e9 a9 e7 3f ba 26 98 40
       2.5507793 6.079985 1.8098727 4.7547274
0001f0 7e ab 47 3f 1e 68 c2 3f 84 73 aa bf 99 a7 c2 c0
       0.7799605 1.5188024 -1.3316503 -6.0829587
000200 a6 40 54 c0 08 d6 0f c0 07 fd ae 3e 35 59 bd c0
       -3.3164458 -2.2474384 0.3417742 -5.9171395
000210 9f f5 9a c0 23 71 24 c0 f5 3a 7c 3e b4 14 1d 40
       -4.842483 -2.5694053 0.24631865 2.4543886
000220 8d df e1 3e 3b f8 f7 c0 55 3d 16 40 77 01 5a 40
       0.44115868 -7.7490516 2.3474934 3.4063394
000230 29 3b 8b be c1 d8 64 40 91 c4 28 40 4e e8 3f 40
       -0.27193573 3.5757296 2.6369975 2.9985538
000240 94 17 12 40 84 7c f3 c0 fb 09 31 c0 7f e7 b4 c0
       2.282689 -7.6089497 -2.7662342 -5.653259
000250 a1 54 a2 c0 ce 76 99 c0 50 8d 03 40 b9 a2 a9 40
       -5.0728307 -4.7957525 2.0555 5.3011136
000260 6c 5d 9a c0 ad 4c 2f 40 9c e8 61 c0 87 1f a0 3f
       -4.823904 2.739055 -3.5298223 1.2509621
000270 b0 98 eb c0 3d 70 0b c1 5b 1f 62 c0 7a 57 af bc
       -7.3623886 -8.714902 -3.5331638 -0.021404017
000280 74 84 d1 3f 8f 7b 3e 41 dc 4d 49 bf 2c b9 07 c1
       1.6368546 11.905166 -0.7863443 -8.482708
000290 92 70 ef 40 52 0b aa c0 cf f5 07 c0 53 ec b9 40
       7.4824915 -5.313882 -2.124378 5.810098
0002a0 98 fd e5 c0 db e6 74 bf 49 7d 5d c0 03 98 39 c0
       -7.1872063 -0.9566476 -3.4607718 -2.899903
0002b0 32 82 be 3e 4c 8a 05 be 19 b9 6a c0 d2 e5 43 40
       0.37208706 -0.13041037 -3.6675475 3.060902
0002c0 94 0a 19 41 85 0c 18 c1 95 52 8d c0 ae ac 6b 40
       9.565083 -9.503057 -4.416331 3.6824145
0002d0 c0 c2 00 c1 c8 80 d0 40 5c 54 4f 3f a8 e8 50 3e
       -8.047546 6.5157204 0.809881 0.20401251
0002e0 ba 15 ff 3f f1 5a c1 c0 b8 c6 ce 3f 82 08 28 41
       1.9928505 -6.0423512 1.6154394 10.502077
0002f0 fb ee 86 c0 b0 4a 7c 40 c2 a0 bc bf 16 db 23 41
       -4.2166724 3.9420586 -1.4736559 10.240988
000300 9b aa e7 40 d6 0b 88 40 ff 93 8b bf 76 64 53 c1
       7.239576 4.251445 -1.090454 -13.212027
000310 ce 55 04 c0 38 1f b5 c0 89 f3 20 40 1c 36 17 41
       -2.067737 -5.660061 2.5148642 9.45071
000320 58 f9 c2 40 e8 a0 86 3e b4 ba 9a c0 cb 3e 11 3f
       6.0929375 0.26294637 -4.835291 0.5673644
000330 e3 96 a2 c0 0a c6 11 bf 83 6c 8f 3f e0 56 16 40
       -5.080919 -0.5694281 1.120499 2.3490524
000340 e6 a4 59 c0 e4 29 5d c1 ea 06 a3 40 65 80 77 40
       -3.4006896 -13.822727 5.094594 3.8672116
000350 5f 0f de 40 a4 35 95 c0 76 0d 3d c0 06 a6 1b c1
       6.9393764 -4.662798 -2.9539466 -9.728033
000360 d5 3a e3 3e e5 bc db 40 a3 2b 37 c0 4b 47 98 c0
       0.44380823 6.8668084 -2.8620384 -4.7587028
000370 ce d0 b1 40 ee 28 fb 3f 82 d2 c0 40 2c de 82 40
       5.556739 1.9621866 6.0256968 4.0896206
000380 a4 21 75 40 03 9a 1d c1 6f d8 74 40 7b 97 19 bf
       3.8301783 -9.8501005 3.82571 -0.59996766
000390 46 e4 09 c1 6a 60 2d 3e 78 1d fe 3f 7f 89 b7 40
       -8.618231 0.1693131 1.9852743 5.735534
0003a0 d0 68 8e c0 d1 fd af 3f a2 2d 8b c0 06 e8 bd 40
       -4.4502945 1.3749334 -4.3493204 5.934573
0003b0 0b 8f 69 3e e1 48 56 c0 4a e6 e5 3f 97 8b 8f c0
       0.22808473 -3.3481982 1.7960904 -4.48579
0003c0 8b 3b 96 bf a7 0f 32 40 02 75 0e 40 fd c2 17 40
       -1.1736921 2.7822053 2.2258916 2.3712761
0003d0 85 19 fd c0 3d 27 c8 40 53 f5 e4 c0 55 34 d0 40
       -7.909365 6.25479 -7.154947 6.506388
0003e0 a9 c6 b0 3f 89 bb 8c c0 9e 02 45 40 8f 65 ff c0
       1.3810626 -4.3978925 3.0782847 -7.9811473
0003f0 9e 5c c5 bf fa 85 59 c0 68 a3 a2 bf 13 01 c7 bc
       -1.541889 -3.3988023 -1.2706118 -0.024292504

link_predictor.0.bias f4 [64]
000000 45 be df c0 a2 0b 9b c0 42 bc af c0 d1 c6 a7 c0
       -6.9919763 -4.84517 -5.4917307 -5.2430196
000010 9b 93 b3 c0 29 33 dd c0 08 d0 06 c1 b3 54 e4 c0
       -5.6117682 -6.912495 -8.425789 -7.1353393
000020 fd e2 18 c1 e7 f6 c3 c0 0c 94 a6 c0 5d fd 93 bd
       -9.555417 -6.1238894 -5.205572 -0.072260596
000030 19 2c 0d c1 7b 8c cc c0 88 5d 18 c0 15 f9 6f c0
       -8.823266 -6.3921485 -2.3807087 -3.7495778
000040 06 72 c3 c0 d4 f4 44 c1 07 74 10 c1 be 77 29 c0
       -6.107669 -12.3097725 -9.028327 -2.6479335
000050 46 0e ed c0 f7 82 91 c0 db 65 ed c0 13 a4 d0 c0
       -7.4079924 -4.547237 -7.4186835 -6.5200286
000060 2a 75 c9 c0 7b ef e8 c0 31 4c e3 c0 e7 34 0a c1
       -6.2955523 -7.2792335 -7.1030507 -8.637916
000070 2e 83 b2 bf a3 9a a8 c0 fc ef 29 c1 b6 4b 19 c1
       -1.3946283 -5.2688766 -10.62109 -9.580984
000080 8a 50 9c c0 8d e5 61 c0 28 a8 b4 c0 bb 93 7a c0
       -4.8848314 -3.5296357 -5.645527 -3.9152668
000090 ae e6 15 c0 fe 36 01 c0 b1 8f 02 c1 93 32 e8 c0
       -2.3422046 -2.0189815 -8.160081 -7.2561736
0000a0 08 ac 8a c0 33 d0 c8 c0 2f 22 ae c0 bc ba b9 3f
       -4.3335 -6.275415 -5.441673 1.4510112
0000b0 18 92 8b bf a1 2e 90 c0 38 47 d4 c0 2a 80 e6 c0
       -1.0903959 -4.505692 -6.6336937 -7.203145
0000c0 0e 37 a1 c0 c5 3c 77 40 13 29 91 c0 ae 6a c5 c0
       -5.0379705 3.863084 -4.536264 -6.1692724
0000d0 ee 96 12 bf 8d f6 ac c0 60 79 45 bf 5a 3c f4 c0
       -0.5726155 -5.4050965 -0.7713833 -7.632367
0000e0 09 43 c8 c0 22 be c2 bf 53 02 a8 c0 bd 85 d2 c0
       -6.258183 -1.5214274 -5.2502837 -6.5788255
0000f0 5c c8 fc c0 ad 01 f2 c0 78 6d c1 c0 e9 bb 00 c1
       -7.899458 -7.5627046 -6.044613 -8.0458765

link_predictor.2.weight f4 [1, 64]
000000 f1 ea 9f 3d 0d e2 ec bd e5 5e 16 be ed 6c 05 be
       0.078084834 -0.11566553 -0.14684637 -0.13029833
000010 04 3b b9 bd aa b4 8e 3d a2 73 c7 3d 10 98 89 3d
       -0.090444595 0.06968053 0.09738852 0.06718457
000020 25 9e a6 3d 12 8e f7 bd 7a 39 c7 bd a6 f7 b6 bd
       0.081356324 -0.12087645 -0.0972776 -0.08933954
000030 72 bf b8 3d 92 a7 cb 3d f1 38 f2 bd 17 31 00 be
       0.0902089 0.09944071 -0.11827267 -0.12518726
000040 cd 0c 11 3e 0f ec 92 3d 29 64 f6 bd c9 c8 d3 bd
       0.1416504 0.07173931 -0.12030823 -0.10341031
000050 fe be c1 3d f0 7d cd 3d 08 ef 11 be 26 91 12 be
       0.09460257 0.10033786 -0.1425134 -0.14313182
000060 4d ab 0f be b6 cd f7 bd 31 d6 f0 3d 06 6e e7 bd
       -0.1403019 -0.12099783 0.11759604 -0.11300282
000070 d9 29 e7 3d d7 06 87 bd a9 f5 14 be 6e 31 c2 3d
       0.11287279 -0.065931015 -0.14546837 0.09482084
000080 e3 e2 9c 3d 62 c3 ee bd ca 51 d0 3d 2f 0f 0b be
       0.07660463 -0.1165836 0.1017185 -0.13580011
000090 4d fe 06 be 38 1f 09 be e2 5a 4f 3d a5 37 9f bd
       -0.13182946 -0.13390815 0.050623782 -0.07774285
0000a0 0f 59 8a bd 7d bf 94 bd ae 4d d1 bd b5 04 02 be
       -0.06755268 -0.07263086 -0.10219894 -0.12697108
0000b0 c3 fa ed bd be 5d 00 be db 1c c7 3d 6e 9f e9 3d
       -0.116200946 -0.1253576 0.097223006 0.11407362
0000c0 2b 65 d4 bd c6 0b e2 3d 08 b6 ef 3d 8f b0 12 3e
       -0.10370859 0.11037402 0.117046416 0.14325164
0000d0 f6 1e ff 3d 5c df be 3d 4f 48 d8 3d 4e 41 f0 bd
       0.12457077 0.09319946 0.10560667 -0.11731206
0000e0 ac 97 c7 bd 7e 93 0b be 65 e7 1e be b6 00 92 3d
       -0.09745726 -0.13630483 -0.15517958 0.07129042
0000f0 22 d0 0b be 97 64 9e 3d fd 10 ef 3d 04 5d db 3d
       -0.13653615 0.0773403 0.11673162 0.10711101
